MBTI/ANN/Model/lr=0.001 3HL hd_size = 32/best_model.pth (torch, 15983 bytes, 6 tensors)

fc1.weight f4 [32, 57]
-0.035267342 -0.033369932 -0.011438979 -0.08000563 -0.017868448 -0.03164605 0.04145026 -0.07349534
-0.07942038 -0.19980638 0.018597623 0.031912997 -0.14096393 -0.14680077 0.028840518 -0.012600824
-0.01407571 -0.1320751 -0.13693564 -0.13465686 -0.09418297 -0.09259979 -0.016417135 -0.12131369
0.093454845 -0.12727916 -0.087599814 -0.0104840845 -0.001603484 -0.036377165 -0.073713094 -0.087363325
-0.041819714 0.07861997 0.07726967 0.02241595 0.0037902931 -0.14521721 -0.1887967 -0.007632879
-0.014915818 -0.046974536 -0.0180415 -0.04451068 0.0090486435 -0.023033489 0.085046545 -0.06499778
-0.011843246 -0.042899683 -0.00544257 0.12223779 0.10838103 0.15182494 0.13903002 0.004543776
0.12789096 -0.500828 -0.5663617 -0.2671731 -0.1661808 -0.33312136 -0.015264551 -0.19773033
-0.30816895 0.04020256 0.057808638 -0.2942276 0.15724532 -0.09668427 0.029702578 -0.14674462
-0.04654265 -0.1861753 0.37078887 -0.01581275 -0.13761732 -0.1691578 -0.21759708 0.029044352
0.10848733 0.09255707 0.110441126 -0.007999916 0.13237156 -0.07085693 -0.003543185 0.18912008
-0.24015117 -0.023173084 -0.08158652 -0.0043310397 0.26447344 -0.18435875 -0.49813512 0.11682687
-0.1786871 0.36904633 -0.07920319 0.24905953 0.0086129615 0.20191884 -0.03229648 -0.4380662
-0.101623625 0.25266844 0.14906895 -0.06707688 0.052985895 0.034761418 0.1609947 0.16588326
-0.035909615 0.020324009 0.19481355 -0.1609272 -0.018223483 0.26541322 -0.00254556 -0.07526144
-0.30550918 0.009518656 -0.18262663 -0.22166747 -0.15455455 -0.12070571 -0.15423673 -0.15550593
-0.019371163 -0.14277637 -0.08387723 0.0181227 -0.021812323 -0.17588565 -0.1884076 -0.14894596
-0.0739109 -0.203574 -0.06537487 -0.025393762 0.025774209 0.012562333 -0.01070606 -0.029625248
-0.027549565 0.01855636 -0.107783206 -0.11911589 0.040121544 0.04368281 -0.14601381 -0.031090626
-0.034118075 -0.031698223 -0.07721131 -0.061669987 -0.18218955 0.0015842258 0.039172225 -0.065448746
-0.038519036 -0.048692644 -0.088206865 -0.1532741 -0.085172564 -0.061520115 0.0768483 0.027414277
0.08661166 -0.034281 -0.038037315 0.023458162 0.07379636 -0.10760943 0.1255458 0.11359018
-0.34032154 -0.10489763 0.35527495 -0.31918067 0.18791346 -0.08078602 0.08511915 -0.4776226
-0.04900139 0.12408452 0.010331014 0.1510098 -0.07357832 0.16745013 0.02115041 -0.0066181957
-0.25556296 0.027958611 -0.09808181 -0.17335524 -0.15041755 -0.3012086 0.08920554 -0.106731825
-0.027524738 -0.2629657 0.03996032 -0.06295659 -0.056318425 -0.0016696847 0.15774739 -0.19003192
-0.11959935 0.077323675 0.10810973 -0.011004267 -0.07004057 -0.057620775 0.009386011 -0.28793752
-0.1339139 -0.25710043 -0.43704385 -0.15409462 -0.080649145 0.113110796 -0.017409774 0.05947675
0.10770476 -0.08105472 0.005599156 0.13180423 0.05260015 0.20640798 -0.1436115 0.014155115
-0.47668976 -0.14176632 -0.06030114 -0.23551999 -0.20794003 0.09046163 -0.13792427 -0.34825057
-0.4816982 0.024613947 0.18251318 -0.09583109 0.062388383 0.066490844 -0.08870361 0.084513925
0.040565476 0.15449803 -0.32812372 0.24252808 0.13562286 -0.2436946 -0.15320922 0.07763971
00000000: 7d74 10bd e9ae 08bd 8e6a 3bbc fed9 a3bd
00000010: da60 92bc 4a9f 01bd bfc7 293d ba84 96bd
00000020: 27a7 a2bd 0b9a 4cbe 0b5a 983c 34b7 023d
00000030: d958 10be f152 16be f342 ec3c b073 4ebc
00000040: cf9d 66bc b23e 07be db38 0cbe 7de3 09be
00000050: 00e3 c0bd f5a4 bdbd 3a7d 86bc 5073 f8bd
00000060: 4165 bf3d 7855 02be 8867 b3bd 70c5 2bbc
00000070: ff2b d2ba 3900 15bd e4f6 96bd 8beb b2bd
00000080: 264b 2bbd 8203 a13d 903f 9e3d a8a1 b73c
00000090: 9166 783b d2b3 14be ec53 41be 3b1d fabb
000000a0: 7a61 74bc 5f68 40bd c5cb 93bc d550 36bd
000000b0: c340 143c bab0 bcbc e22c ae3d 8e1d 85bd
000000c0: 2d0a 42bc 94b7 2fbd 9657 b2bb ce57 fa3d
000000d0: e0f6 dd3d ff77 1b3e e35d 0e3e f5e3 943b
000000e0: d9f5 023e 4436 00bf 15fd 10bf eaca 88be
000000f0: 4d2b 2abe e28e aabe 2b18 7abc d279 4abe
00000100: 52c8 9dbe 71ab 243d c0c8 6c3d 00a5 96be
00000110: eb04 213e 6702 c6bd d252 f33c 3944 16be
00000120: 81a3 3ebd bda4 3ebe 0ad8 bd3e be89 81bc
00000130: 8eeb 0cbe b437 2dbe c5d1 5ebe 6cee ed3c
00000140: 9b2e de3d 908e bd3d f52e e23d 1412 03bc
00000150: 698c 073e 701d 91bd c834 68bb b2a8 413e
00000160: 30ea 75be 7bd5 bdbc d516 a7bd 65eb 8dbb
00000170: 1069 873e 8ac8 3cbe 910b ffbe ed42 ef3d
00000180: c0f9 36be a4f3 bc3e 4835 a2bd 7609 7f3e
00000190: 611d 0d3c d0c3 4e3e 5049 04bd 374a e0be
000001a0: 0c20 d0bd c25d 813e 88a5 183e 9a5f 89bd
000001b0: bd07 593d fd61 0e3d cbdb 243e 4ddd 293e
000001c0: f615 13bd 897e a63c 347d 473e 1aca 24be
000001d0: 6a49 95bc 3ee4 873e 69d3 26bb ab22 9abd
000001e0: b36b 9cbe 23f4 1b3c 7a02 3bbe ccfc 62be
000001f0: 8c43 1ebe 8e34 f7bd 3cf0 1dbe f23c 1fbe
00000200: 46b0 9ebc f833 12be d3c7 abbd 0e76 943c
00000210: c2af b2bc 5e1b 34be eced 40be 4a85 18be
00000220: 995e 97bd b475 50be 43e3 85bd 9406 d0bc
00000230: 6f24 d33c 3ed2 4d3c 7868 2fbc a6b0 f2bc
00000240: a0af e1bc 8203 983c 71bd dcbd 08f3 f3bd
00000250: 7d56 243d bfec 323d a584 15be c5b1 febc
00000260: 65bf 0bbd ffd5 01bd f720 9ebd ab99 7cbd
00000270: e68f 3abe cca5 cf3a 0e73 203d fe09 86bd
00000280: 23c6 1dbd f071 47bd cda5 b4bd e3f3 1cbe
00000290: f46e aebd 84fc 7bbd a462 9d3d e893 e03c
000002a0: 7461 b13d 3c6a 0cbd 04cd 1bbd 552b c03c
000002b0: 8c22 973d 5562 dcbd 148f 003e f8a1 e83d
000002c0: a03e aebe 92d4 d6bd 99e6 b53e a66b a3be
000002d0: 636c 403e 2473 a5bd f352 ae3d f38a f4be
000002e0: aeb5 48bd 0620 fe3d 6a43 293c 50a2 1a3e
000002f0: 3bb0 96bd 0c78 2b3e a043 ad3c 73dd d8bb
00000300: 26d9 82be 7509 e53c 1edf c8bd 0984 31be
00000310: 0f07 1abe 0338 9abe 65b1 b63d 3796 dabd
00000320: 8f7b e1bc 71a3 86be 6fad 233d 62ef 80bd
00000330: 26ae 66bd 52d9 daba 8888 213e ba97 42be
00000340: 81f0 f4bd e05b 9e3d a268 dd3d 3e4b 34bc
00000350: 6e71 8fbd c303 6cbd c9c7 193c 8c6c 93be
00000360: ba20 09be aba2 83be 36c4 dfbe fbca 1dbe
00000370: 612b a5bd a2a6 e73d f19e 8ebc e59d 733d
00000380: 5094 dc3d 0400 a6bd 2079 b73b b0f7 063e
00000390: 4173 573d 9d5c 533e e50e 13be dbea 673c
000003a0: ae10 f4be 312b 11be 54fe 76bd 272c 71be
000003b0: 3bee 54be f243 b93d 053c 0dbe e64d b2be
000003c0: 25a1 f6be 30a3 c93c bce4 3a3e 1743 c4bd
000003d0: f68a 7f3d 5a2c 883d 3daa b5bd a315 ad3d
000003e0: fc27 263d bb34 1e3e d5ff a7be 4859 783e
000003f0: b8e0 0a3e 148b 79be e1e2 1cbe 9101 9f3d

fc1.bias f4 [32]
-0.30876118 0.34145463 0.007100669 0.21548288 0.1476225 -0.08072552 -0.15090084 0.13469765
-0.14354165 0.2690831 -0.12790632 -0.09592847 0.11574221 -0.035289448 0.009095197 -0.19208446
-0.20301242 -0.0013182539 -0.17711928 0.052880816 0.091560364 0.58821994 -0.1768459 0.11249758
-0.07084479 0.3488979 0.30691245 0.16880347 -0.05325197 -0.08307838 0.026930396 -0.15573354
00000000: f215 9ebe 24d3 ae3e bbac e83b 8ba7 5c3e
00000010: 5a2a 173e 6c53 a5bd c085 1abe 2eee 093e
00000020: 95fc 12be 43c5 893e e0f9 02be 2576 c4bd
00000030: 400a ed3d ab8b 10bd 0504 153c cab1 44be
00000040: 7de2 4fbe 43c9 acba c25e 35be 8e99 583d
00000050: 0084 bb3d 9595 163f 1717 35be 2265 e63d
00000060: 1317 91bd bfa2 b23e a123 9d3e d1da 2c3e
00000070: bd1e 5abd ff24 aabd 229d dc3c 9d78 1fbe

fc2.weight f4 [32, 32]
0.05689311 0.022508482 0.11894843 0.1096608 0.0018409893 -0.15722802 -0.094442435 0.064436324
-0.086644255 0.08966223 0.02439017 -0.00441113 0.12788545 0.15474041 -0.11516412 0.024747415
0.10369413 0.14299963 0.016885424 0.060331795 0.035296775 0.14039974 -0.036004376 0.078852475
0.03095485 -0.15379247 -0.22028099 0.0762708 0.05775844 -0.09101629 -0.1121995 0.044904266
-0.06191748 0.06185817 -0.0698184 -0.08385942 -0.011814742 -0.05708878 -0.21843581 0.19777614
0.00088980794 0.18246059 -0.064454205 -0.13144502 0.21150285 -0.18244453 -0.032552764 0.007924702
0.025131388 -0.026557265 0.095719546 0.14532308 0.044813268 0.23528628 0.0511204 0.11146094
-0.2010117 -0.16371043 -0.06637285 -0.116442606 0.14615136 0.06863115 -0.032207195 -0.020555003
0.048573647 -0.13208261 0.40502787 0.065120734 0.029495778 -0.22064061 -0.15902454 -0.21601503
0.12637898 0.0072936537 -0.09416487 -0.13559566 -0.14090152 -0.22710352 -0.16747083 0.17343664
0.08629502 -0.038121272 0.043286104 0.12861079 0.08160107 -0.015203905 0.122007236 -0.17353693
-0.034350194 -0.11896093 -0.14203657 0.12973134 0.068362236 -0.0503072 -0.0047820066 0.11712144
-0.1637748 -0.099636935 -0.08034163 0.007770453 -0.032651734 -0.15227005 0.09120919 -0.036478132
0.14377494 -0.10456839 0.03308561 -0.16056168 -0.0687053 -0.014036063 -0.13511705 -0.091022894
-0.099567726 0.029207548 0.11920559 0.01588017 0.11979252 -0.08007698 -0.008842453 0.2600215
0.01151739 -0.10289626 -0.010945348 -0.108749025 0.0018129834 -0.12757699 -0.15562499 -0.046444163
0.071485385 -0.080899365 0.28185925 0.02533857 0.036947798 0.08694776 0.17219156 0.19230518
0.11876275 0.0721727 -0.033200428 -0.011816467 0.21426158 -0.020274876 0.16715886 -0.010470437
0.1383728 0.020488512 0.16450208 0.015202874 0.3239236 0.19655998 -0.09443405 0.33247218
-0.14233515 0.32623625 -0.027933385 0.14972365 0.08735793 -0.07998787 -0.05586968 -0.097946696
0.09174934 -0.20488165 -0.1414693 -0.109835945 -0.11304035 -0.16060473 -0.09731759 -0.033271834
0.067530856 0.0013954871 -0.023490971 -0.044300526 -0.015691983 -0.16881436 -0.00076482585 0.14970252
0.16132678 -0.094289705 0.07432852 -0.07677634 0.14431556 -0.16618182 0.1448483 -0.16977064
-0.10720191 -0.009776503 -0.00017317975 -0.0818747 -0.17517617 -0.034580793 -0.073719405 -0.12206795
-0.13794887 -0.0797853 -0.067641415 0.005476381 0.17766556 0.14983657 -0.02140528 0.35505706
0.055275254 0.20207557 -0.0023385359 -0.03878728 0.2826103 -0.14469317 -0.10670574 0.086349264
-0.07731186 -0.07558242 -0.012815705 -0.084931016 -0.2563168 0.0863516 0.021722743 0.32026905
0.15614262 -0.11710555 0.26253396 -0.16693705 0.09912362 -0.028570637 -0.22437653 -0.11379255
-0.014491089 -0.13635084 0.09048908 0.3252492 0.038527418 0.31804946 0.11359966 -0.07694307
0.047159966 -0.07851863 0.015676728 0.15978447 0.05613656 -0.0780701 -0.056588825 0.065215796
-0.025464471 0.095369205 -0.06901898 0.12547067 -0.04522538 -0.06914712 -0.120658234 0.049741324
0.12816298 -0.09621051 -0.0421731 -0.15994939 0.13657942 -0.014509064 0.017878143 0.13834466
00000000: c008 693d b563 b83c 3c9b f33d d795 e03d
00000010: 5a4d f13a 6200 21be 096b c1bd 31f7 833d
00000020: 8b72 b1bd d5a0 b73d e5cd c73c 3e8b 90bb
00000030: 67f4 023e 4574 1e3e 2bdb ebbd 17bb ca3c
00000040: 975d d43d 7f6e 123e 4d53 8a3c 791e 773d
00000050: 5a93 103d f3c4 0f3e 5379 13bd 687d a13d
00000060: 0795 fd3c c67b 1dbe 5791 61be dd33 9c3d
00000070: 1d94 6c3d c066 babd dac8 e5bd 89ed 373d
00000080: 2f9d 7dbd fe5e 7d3d f3fc 8ebd 7dbe abbd
00000090: 9f92 41bc edd5 69bd a3ad 5fbe d485 4a3e
000000a0: 0042 693a f3d6 3a3e 9100 84bd 8699 06be
000000b0: 3494 583e bdd2 3abe 0c56 05bd 9cd6 013c
000000c0: 57e0 cd3c 9f8e d9bc 9c08 c43d 93cf 143e
000000d0: 1e8e 373d e3ee 703e a063 513d a245 e43d
000000e0: 03d6 4dbe b5a3 27be 7dee 87bd 7679 eebd
000000f0: b4a8 153e 7d8e 8c3d b1eb 03bd f762 a8bc
00000100: 29f5 463d aa40 07be d05f cf3e 055e 853d
00000110: 21a1 f13c 9def 61be 54d7 22be 0b33 5dbe
00000120: 7e69 013e 9aff ee3b 83d9 c0bd 97d9 0abe
00000130: 7d48 10be d38d 68be 797d 2bbe 6099 313e
00000140: 72bb b03d 0d25 1cbd c54c 313d 8cb2 033e
00000150: 761e a73d cd19 79bc eede f93d aab3 31be
00000160: cab2 0cbd caa1 f3bd 0972 11be 4bd8 043e
00000170: 8001 8c3d ec0e 4ebd 61b2 9cbb 5edd ef3d
00000180: 95b4 27be 730e ccbd 278a a4bd 499f fe3b
00000190: d3bd 05bd aeec 1bbe e2cb ba3d 186a 15bd
000001a0: bd39 133e f427 d6bd c784 073d 486a 24be
000001b0: 5db5 8cbd 84f7 65bc 205c 0abe 366a babd
000001c0: 2aea cbbd ab44 ef3c 0f22 f43d 2117 823c
000001d0: c855 f53d 66ff a3bd f0df 10bc 8a21 853e
000001e0: 6fb3 3c3c 46bb d2bd 1e54 33bc cfb7 debd
000001f0: a1a1 ed3a 8ba3 02be 285c 1fbe 3c3c 3ebd
00000200: ee66 923d 91ae a5bd db4f 903e d592 cf3c
00000210: 9356 173d ab11 b23d fc52 303e a6eb 443e
00000220: e239 f33d 48cf 933d 2cfd 07bd db99 41bc
00000230: 6367 5b3e 7f17 a6bc b12b 2b3e 328c 2bbc
00000240: 99b1 0d3e 86d7 a73c 3c73 283e 7a15 793c
00000250: 50d9 a53e 0547 493e a466 c1bd cb39 aa3e
00000260: 4ec0 11be 7008 a73e 8ed4 e4bc 2851 193e
00000270: b7e8 b23d aed0 a3bd 9bd7 64bd 4798 c8bd
00000280: 14e7 bb3d 7fcc 51be 54dd 10be abf1 e0bd
00000290: b381 e7bd 9175 24be 724e c7bd 0c48 08bd
000002a0: 9e4d 8a3d c7e8 b63a 2370 c0bc 7874 35bd
000002b0: 798c 80bc acdd 2cbe 987e 48ba 9e4b 193e
000002c0: d932 253e f61a c1bd 8d39 983d ea3c 9dbd
000002d0: 75c7 133e 912b 2abe 1d53 143e 5bd8 2dbe
000002e0: ad8c dbbd a02d 20bc 9697 35b9 ecad a7bd
000002f0: 6261 33be 97a4 0dbd 33fa 96bd c3fe f9bd
00000300: 7842 0dbe 7a66 a3bd 9587 8abd 3773 b33b
00000310: f6ed 353e c26e 193e 205a afbc 0aca b53e
00000320: 4e68 623d e6ec 4e3e 1f42 19bb 69df 1ebd
00000330: 4cb2 903e 722a 14be 8a88 dabd e2d7 b03d
00000340: ae55 9ebd f5ca 9abd f6f8 51bc 50f0 adbd
00000350: f53b 83be 1cd9 b03d e5f3 b13c 4efa a33e
00000360: dae3 1f3e 09d5 efbd da6a 863e 8cf1 2abe
00000370: 5301 cb3d f80c eabc f6c2 65be 120c e9bd
00000380: 086c 6dbc 8e9f 0bbe 5752 b93d 1087 a63e
00000390: edce 1d3d 61d7 a23e f0a6 e83d 5494 9dbd
000003a0: cf2a 413d 60ce a0bd 7b6c 803c 8a9e 233e
000003b0: 73ef 653d 37e3 9fbd afc9 67bd dc8f 853d
000003c0: de9a d0bc ee50 c33d d359 8dbd 627b 003e
000003d0: 403e 39bd 019d 8dbd aa1b f7bd 8fbd 4b3d
000003e0: 283d 033e 040a c5bd b3bd 2cbd c6c9 23be
000003f0: 7adb 0b3e 6db7 6dbc 2f75 923c 39aa 0d3e

fc2.bias f4 [32]
-0.56920767 0.027977718 -0.38825426 -0.17358507 -0.1482558 -0.1885142 -0.1350966 -0.24568461
-0.37444296 -0.09361683 0.07403002 -0.051871777 -0.067806356 -0.26895452 -0.5873484 0.0229191
-0.1258724 -0.23181204 -0.039639816 -0.22077432 -0.6526161 -0.6518707 -0.033615347 -0.0053128027
-0.032334417 -0.55015117 -0.32201546 -0.05211045 -0.1957044 -0.008547914 0.057689108 -0.008411875
00000000: 98b7 11bf 8731 e53c 43c9 c6be 49c0 31be
00000010: 5ed0 17be de09 41be c356 0abe bf94 7bbe
00000020: fdb6 bfbe 2eba bfbd 0d9d 973d 8077 54bd
00000030: 0fde 8abd 68b4 89be 775c 16bf d6c0 bb3c
00000040: b2e4 00be 2360 6dbe 5c5d 22bd aa12 62be
00000050: d911 27bf 00e1 26bf 3fb0 09bd 0517 aebb
00000060: 1871 04bd b5d6 0cbf 36df a4be c471 55bd
00000070: bc66 48be 8d0c 0cbc 6a4b 6c3d f6d1 09bc

fc3.weight f4 [16, 32]
-0.3905961 -0.40486392 -0.17274779 -0.41321227 -0.25609043 -0.26865596 -0.4314386 -0.4777922
-0.0674814 -0.21830446 -0.32177556 -0.15630965 -0.5248322 -0.10892233 -0.16951993 -0.1716594
-0.77297807 -0.213045 -0.19143692 -0.39370093 -0.47216016 -0.44811094 -0.39234796 -0.048781116
-0.75988156 -0.6752221 -0.1327163 -0.28081852 0.0052422173 -0.44046393 -0.14109111 -0.37533942
-0.76529896 -0.5756466 -1.0652244 -1.6369298 -0.383153 -0.06012478 -0.5176735 -0.7442577
-0.08999508 -0.345818 -0.57860166 -0.28963834 -0.59543955 -0.05493939 -1.0611283 -0.28909528
-2.100445 -0.5214714 -0.31898576 -0.49483335 -1.2605919 -0.98841316 -0.16632576 -0.11663151
-1.0540924 -0.5777174 -0.29323697 -0.4909468 -0.3028677 -0.4865127 -0.023342878 -0.377177
-0.7844283 -0.6284225 -0.66852653 -0.46208963 -0.32265633 -0.08870872 -0.5232667 -0.42755464
-0.18801385 -0.22328705 -0.31020015 -0.25408894 -0.59110695 -0.07528807 -0.9303294 -0.49323058
-0.99617565 -0.9858805 -0.32706356 -0.7345971 -0.5176263 -0.78373784 -0.44167766 -0.16315931
-0.457024 -0.7081317 -0.10957395 -0.22342798 -0.09342113 -0.42167917 -0.50601697 -0.4311636
-0.5045387 -0.39880648 -1.1579335 -1.007836 -0.2179172 -0.22948524 -0.44601712 -0.3052335
-0.14095001 -0.17062692 -0.2122111 -0.15434863 -0.3982529 -0.06794628 -1.0096147 -0.23849137
-0.6087345 -0.57175577 -0.60958064 -0.5037497 -0.7982635 -0.5596916 -0.3823337 -0.36194843
-0.42393443 -0.5941015 -0.15682217 -0.21377075 -0.1606883 -0.3484697 -0.49247342 -0.33269396
-1.6768745 -1.2487586 -0.8252186 -1.5865512 -0.7938449 -0.3349557 -0.82378995 -1.5229427
-0.18058535 -0.2756449 -0.5908856 -0.6858723 -0.7888844 -0.46793562 -0.7883661 -0.5666083
-3.2766213 -1.0095061 -1.176482 -2.2065544 -0.43392587 -1.5014586 -0.8507073 -0.1350792
-1.3231444 -0.8188689 -0.2547216 -0.87138885 -0.37202287 -0.68241173 -0.5007842 -0.21783878
-1.8274289 -1.5337732 -1.0877618 -1.5905882 -0.43886954 -0.3161086 -0.89827704 -0.6340555
-0.24929419 -0.32396355 -0.8917871 -0.38300425 -1.3758149 -0.11989617 -1.1936812 -0.84933066
-1.7874403 -1.0222797 -1.3185225 -2.8362434 -1.0708008 -2.963043 -0.66630316 -0.42224076
-1.003052 -1.9138211 -0.431885 -0.8938176 -0.2824618 -0.88184154 -0.2876037 -0.9885576
-0.7303799 -0.5491709 -0.9922668 -0.6611462 -0.33722723 0.003006212 -0.60462457 -0.4649433
-0.27292627 -0.32437158 -0.38758203 -0.27825734 -0.6243593 -0.06536618 -0.88831663 -0.5627883
-1.1450527 -0.46477675 -0.44930083 -0.67403734 -1.0740609 -0.7696675 0.030606428 0.08183732
-0.55899394 -0.93290114 -0.27764788 -0.2966268 -0.1582894 -0.5440341 0.107570045 -0.5679386
-0.98190707 -0.9892242 -0.58355254 -1.2506155 -0.11809714 -0.035448417 -0.7513844 -0.67865086
-0.21200831 -0.12479772 -0.35560772 -0.3921538 -0.7603263 -0.19737422 -0.615647 -0.7131565
-0.62475014 -0.45741212 -0.44933772 -1.2548637 -1.5082593 -1.162295 -0.26472667 -0.06341058
-0.55269367 -0.79866356 -0.09806738 -0.49569908 -0.30536807 -0.7936573 0.28335175 -0.9966091
00000000: 36fc c7be 534a cfbe cce4 30be 8f90 d3be
00000010: 491e 83be 468d 89be 85e5 dcbe 2ea1 f4be
00000020: b033 8abd 348b 5fbe c4bf a4be a30f 20be
00000030: 675b 06bf ac12 dfbd a296 2dbe 7bc7 2fbe
00000040: e4e1 45bf 7828 5abe 0a08 44be 2b93 c9be
00000050: fabe f1be cc6e e5be d5e1 c8be b5ce 47bd
00000060: 9987 42bf 5bdb 2cbf c8e6 07be 72c7 8fbe
00000070: e8c6 ab3b 7d84 e1be 307a 10be 7d2c c0be
00000080: a2ea 43bf 935d 13bf 4659 88bf ea86 d1bf
00000090: a12c c4be 6745 76bd 4086 04bf ac87 3ebf
000000a0: 574f b8bd 0f0f b1be 3d1f 14bf 7a4b 94be
000000b0: ba6e 18bf 2008 61bd 0dd3 87bf 4c04 94be
000000c0: b16d 06c0 267f 05bf 1a52 a3be cc5a fdbe
000000d0: 135b a1bf a508 7dbf 4d51 2abe 80dc eebd
000000e0: 80ec 86bf 4ae5 13bf 2823 96be 615d fbbe
000000f0: 7a11 9bbe 3118 f9be 9039 bfbc 581d c1be
00000100: 4bd0 48bf 4ce0 20bf 8e24 2bbf 0397 ecbe
00000110: 3633 a5be ebac b5bd cef4 05bf 71e8 dabe
00000120: b486 40be 5ca5 64be 8ed2 9ebe f217 82be
00000130: c952 17bf a230 9abd 112a 6ebf b888 fcbe
00000140: 5e05 7fbf aa62 7cbf e074 a7be 8e0e 3cbf
00000150: 2883 04bf 0ba3 48bf 9323 e2be 3c13 27be
00000160: 0dff e9be 1e48 35bf 4f68 e0bd 4eca 64be
00000170: 9453 bfbd 55e6 d7be 548a 01bf 7ac1 dcbe
00000180: 7329 01bf 5d30 ccbe 2a37 94bf c500 81bf
00000190: b025 5fbe 2efe 6abe 5b5c e4be 9147 9cbe
000001a0: 3355 10be d3b8 2ebe de4d 59be 910d 1ebe
000001b0: cee7 cbbe 6b27 8bbd 0e3b 81bf 1537 74be
000001c0: 06d6 1bbf 965e 12bf 7a0d 1cbf bef5 00bf
000001d0: ff5a 4cbf f347 0fbf 3ec1 c3be 4e51 b9be
000001e0: ef0d d9be 0917 18bf fe95 20be b8e6 5abe
000001f0: 798b 24be 9f6a b2be 7a25 fcbe dd56 aabe
00000200: d3a3 d6bf 52d7 9fbf 8741 53bf 1c14 cbbf
00000210: 6b39 4bbf 507f abbe e6e3 52bf c9ef c2bf
00000220: 5eeb 38be 5421 8dbe 4744 17bf 5495 2fbf
00000230: 54f4 49bf 4295 efbe 5cd2 49bf 3e0d 11bf
00000240: 2ab4 51c0 7f37 81bf f696 96bf 3038 0dc0
00000250: 882b debe cc2f c0bf f4c7 59bf 3452 0abe
00000260: cc5c a9bf 64a1 51bf df6a 82be 5713 5fbf
00000270: c879 bebe 89b2 2ebf 6533 00bf 2111 5fbe
00000280: 31e9 e9bf ae52 c4bf c73b 8bbf 6598 cbbf
00000290: 82b3 e0be fdd8 a1be 7cf5 65bf 7651 22bf
000002a0: fa46 7fbe 8dde a5be 294c 64bf 2219 c4be
000002b0: b41a b0bf 208c f5bd 8cca 98bf bc6d 59bf
000002c0: d8ca e4bf 10da 82bf 58c5 a8bf 0385 35c0
000002d0: 0010 89bf 7fa2 3dc0 d892 2abf f12f d8be
000002e0: 0264 80bf 17f8 f4bf 0820 ddbe 3bd1 64bf
000002f0: d59e 90be 5ec0 61bf cb40 93be 1c12 7dbf
00000300: 2dfa 3abf 7796 0cbf 3205 7ebf e140 29bf
00000310: 0ca9 acbe de03 453b adc8 1abf 0c0d eebe
00000320: febc 8bbe 0814 a6be 2771 c6be bf77 8ebe
00000330: 03d6 1fbf b4de 85bd b868 63bf e512 10bf
00000340: 1691 92bf 38f7 edbe c20a e6be b68d 2cbf
00000350: d47a 89bf ee08 45bf 55ba fa3c 539a a73d
00000360: 3a1a 0fbf 9cd2 6ebf dd27 8ebe 78df 97be
00000370: 9e16 22be d245 0bbf af4d dc3d 6d64 11bf
00000380: 435e 7bbf cc3d 7dbf b363 15bf 2b14 a0bf
00000390: eadc f1bd 5c32 11bd ba5a 40bf 10bc 2dbf
000003a0: b518 59be f295 ffbd 3712 b6be 62c8 c8be
000003b0: bfa4 42bf 781c 4abe 0b9b 1dbf 6d91 36bf
000003c0: a0ef 1fbf ec31 eabe 980f e6be 609f a0bf
000003d0: a40e c1bf 15c6 94bf 418a 87be 68dd 81bd
000003e0: 557d 0dbf 3775 4cbf 8dd7 c8bd 45cc fdbe
000003f0: 3459 9cbe 202d 4bbf 7b13 913e c621 7fbf

fc3.bias f4 [16]
0.5710107 -0.031232974 0.56374043 0.271635 -0.97587866 -1.0603588 0.92083186 0.015663221
-0.77063525 -0.5779796 -1.1850128 -1.1231611 -1.5430093 -1.9878865 -2.146544 -2.098808
00000000: c22d 123f 4bdc ffbc 4b51 103f be13 8b3e
00000010: 2fd3 79bf d6b9 87bf a3bb 6b3f 2850 803c
00000020: 5a48 45bf 79f6 13bf 80ae 97bf bec3 8fbf
00000030: 5481 c5bf 1173 febf fa60 09c0 df52 06c0
