MBTI/ANN/Model/1d/lr=0.0001/best_model.pth (torch, 10993 bytes, 4 tensors)

fc1.weight f4 [128, 1]
0	0xbc282b5c	-0.010264244
1	0xbef38ee4	-0.47569954
2	0x3a6b3a16	0.0008973194
3	0x3d22353a	0.039601542
4	0xbbef01a8	-0.0072938986
5	0x3a4fab49	0.0007921947
6	0x3a410f11	0.0007364611
7	0xbf28cb32	-0.6593505
8	0xbf654814	-0.8956311
9	0xbf5d43dc	-0.8643167
10	0xbed0f0cc	-0.40808713
11	0xbf5fe1e8	-0.8745408
12	0x3917a867	0.00014463217
13	0xbf08d2e2	-0.5344678
14	0xb9fe874a	-0.00048547453
15	0xbf14a474	-0.58063436
16	0xbdba2390	-0.09088814
17	0xbf40a482	-0.7525102
18	0x3d83ee5a	0.06441946
19	0xbf202454	-0.6255543
20	0xbde509b0	-0.11183488
21	0xb9b7633e	-0.0003497842
22	0xbc0478ef	-0.008085473
23	0xbad566b0	-0.0016281214
24	0xbf725b1c	-0.9467027
25	0xbf466cb6	-0.7750963
26	0x3a0c531e	0.00053529616
27	0xbe9ab2f0	-0.30214643
28	0x3982c83c	0.00024944718
29	0xbbb70ba2	-0.0055861035
30	0xbf1394d1	-0.5764895
31	0xbb2e200b	-0.0026569392
32	0x3b067b7e	0.0020520384
33	0x3dc06db4	0.09395924
34	0x3e1f2999	0.15543212
35	0xbab14ba1	-0.0013526567
36	0xbc16188b	-0.009161125
37	0xbc2d8fa1	-0.010593326
38	0xbe805b9c	-0.25069892
39	0xbde8c2fb	-0.113653146
40	0x3b8ba77e	0.00426191
41	0xba5a4b85	-0.00083272933
42	0xbf47bab4	-0.7801926
43	0x3baff6b6	0.0053699864
44	0x3db18392	0.08667673
45	0xbf14bd1a	-0.58101046
46	0xbc2c898e	-0.0105308425
47	0x3d045630	0.032308757
48	0x3d86fa31	0.06590689
49	0xbf3db1a8	-0.74099207
50	0xbf3acb78	-0.7296672
51	0x399ebc63	0.00030276467
52	0xbf706cc2	-0.9391595
53	0xbd4f09c0	-0.050546408
54	0xbc031c89	-0.008002409
55	0xbf1d503e	-0.61450565
56	0xbb274836	-0.0025525219
57	0xbe755a10	-0.23960137
58	0xbac54186	-0.0015049435
59	0xbc0ffca7	-0.008788264
60	0xbf474b00	-0.77848816
61	0xbb30eadd	-0.0026995458
62	0xbb7269b6	-0.0036989278
63	0xbae69b8d	-0.0017593965
64	0xbeac8f2c	-0.3370298
65	0xbdc5bec0	-0.09655523
66	0x3da3479f	0.07972645
67	0xbf4a7682	-0.7908708
68	0xbf5759f4	-0.8412163
69	0x3d9a8eb3	0.07546749
70	0xbe64b9f0	-0.22336555
71	0x3afacfb6	0.0019135389
72	0xbf7c3120	-0.9851246
73	0xba1656f6	-0.0005735004
74	0xbf38d04a	-0.72192824
75	0xbf3f614a	-0.74757826
76	0x3d9cd9cd	0.0765873
77	0xbf3e0eb4	-0.74241185
78	0xbf736506	-0.95076025
79	0xbbf7100f	-0.007539756
80	0x3b6b216b	0.0035878073
81	0xbf673a28	-0.90323114
82	0x3a885e43	0.0010404069
83	0xbb976164	-0.004619764
84	0xbf404d46	-0.7511791
85	0xbc2e35c0	-0.010632932
86	0x3dab0a01	0.083515175
87	0x3d546bca	0.05186061
88	0xbc027360	-0.007962078
89	0xbf7e911c	-0.9944017
90	0xbf32b678	-0.69809675
91	0xbf5a8c60	-0.85370445
92	0x3a6f18f2	0.00091208436
93	0xbe2e4548	-0.17018616
94	0xbaf89c5b	-0.0018967496
95	0xbbd17155	-0.006391684
96	0xbf30f85c	-0.69128966
97	0xbbe2aaf0	-0.00691735
98	0x3a1fac77	0.0006091068
99	0xbec9e124	-0.3942958
100	0xbe049d08	-0.12950528
101	0x3b2f4d7c	0.0026749065
102	0xbf197e00	-0.59957886
103	0x3dcc94e0	0.09989333
104	0xbf5fc48e	-0.87409294
105	0x3a1e29ea	0.00060334674
106	0xbdc2a91e	-0.09504913
107	0xbf3ec3b6	-0.7451738
108	0xbf36a42e	-0.7134427
109	0xbefb2de4	-0.4905845
110	0xbf4d9f6a	-0.8032137
111	0x3a8d3d19	0.0010775655
112	0xbf4fcae6	-0.81168973
113	0x3abe8438	0.0014535254
114	0xbbb7c593	-0.0056082695
115	0x3ab1d57f	0.0013567655
116	0xbb29604a	-0.0025844746
117	0xbf2e3e86	-0.68064153
118	0xbea43f28	-0.32079434
119	0xbb294798	-0.0025830027
120	0xbb1c7c02	-0.0023877625
121	0xbf35d8de	-0.7103404
122	0xbbe836be	-0.007086604
123	0xbea1e5a4	-0.31620514
124	0xbc00a0ef	-0.00785087
125	0xbba46ca3	-0.0050178333
126	0xbc25e483	-0.010125282
127	0x3e2d9c63	0.16954188

fc1.bias f4 [128]
0	0xb9f3b0af	-0.0004648021
1	0xba03ad4d	-0.0005023077
2	0xbd58c8ec	-0.05292599
3	0xbf135094	-0.5754483
4	0x3d7c190c	0.061547324
5	0xbc448d64	-0.011996601
6	0xbc3e6a86	-0.011622077
7	0xbed5a10c	-0.41724432
8	0xb9bac630	-0.00035624346
9	0xba12dfc8	-0.0005602804
10	0xbf189546	-0.59602773
11	0xb913dfb4	-0.00014102348
12	0xbb68f10a	-0.003554406
13	0xbe105278	-0.1409396
14	0xb9e58a5e	-0.00043781375
15	0xbf5065c4	-0.8140528
16	0xbf1d031c	-0.6133287
17	0xb815d184	-3.5719495e-05
18	0xbf7196a9	-0.94370514
19	0xb90144f2	-0.00012328083
20	0xbf3fabb4	-0.74871373
21	0xbac05eb9	-0.0014676667
22	0x3d304f65	0.043044467
23	0x3d172563	0.03690089
24	0xb9d0ad94	-0.00039802177
25	0xb9cfaaf9	-0.000396095
26	0xbd3461b8	-0.044038504
27	0xbc525a00	-0.0128388405
28	0xbd31436f	-0.0432772
29	0x3d334be3	0.043773543
30	0xb895e05d	-7.1466646e-05
31	0x3d2a2ae6	0.041544817
32	0xbd2fd757	-0.042929973
33	0xbfacc579	-1.3497764
34	0xbf901f96	-1.1259639
35	0x3d2f102d	0.042740036
36	0x3d423cd0	0.047421277
37	0xb9bf5e46	-0.00036500598
38	0xbf598dfc	-0.84982276
39	0x3ce17e54	0.027526058
40	0xbd77ec8e	-0.06052833
41	0xbd0c9164	-0.034318343
42	0xbf1245ce	-0.57137764
43	0xbda61d2d	-0.081110336
44	0xbf9cd74a	-1.2253201
45	0xbe5cb520	-0.21553469
46	0x3d4aadbc	0.049482092
47	0xbef588d6	-0.4795596
48	0xbf4ef21e	-0.8083819
49	0xbe873f28	-0.26415372
50	0xb8dc6b4a	-0.000105104016
51	0xbc68ab1a	-0.01420095
52	0xbeb8d418	-0.36099315
53	0xbe115200	-0.14191437
54	0x3d3e8ea1	0.04652274
55	0xb942f1f8	-0.00018591422
56	0x3d1db071	0.038498346
57	0xbf571836	-0.8402132
58	0xb9b3bed0	-0.00034283707
59	0xb826d35d	-3.977433e-05
60	0x3d071a0b	0.03298382
61	0xbc1a89e4	-0.00943229
62	0x3d48918f	0.04896694
63	0xbcb512b0	-0.022103637
64	0xbedac460	-0.42727947
65	0x3d88c990	0.0667907
66	0xbf9344ba	-1.1505349
67	0xbdfd7020	-0.12374902
68	0xbf6c3c3a	-0.922794
69	0xbf878dc6	-1.0590141
70	0xb907c4b5	-0.00012947882
71	0xbcfaa235	-0.030594924
72	0xba582476	-0.0008245179
73	0xbc9fbe07	-0.019499792
74	0x3d1416f6	0.03615471
75	0xb9a0f127	-0.0003069725
76	0xbf887e6a	-1.0663579
77	0xbc045400	-0.008076668
78	0xb9faa055	-0.00047803172
79	0xb8c93500	-9.594299e-05
80	0xbd74ae75	-0.059736688
81	0xbe0880f0	-0.13330436
82	0xbd54e8d7	-0.051979866
83	0xb84d9fca	-4.9024624e-05
84	0xbed79d08	-0.42111993
85	0xb9be1b49	-0.00036259953
86	0xbf91a3fd	-1.137817
87	0xbf3af414	-0.73028684
88	0xba47e7de	-0.00076257985
89	0xba367a38	-0.0006960961
90	0xbf12d722	-0.57359517
91	0xb8b97aac	-8.844337e-05
92	0xbd4d33ed	-0.05009835
93	0xbf788bee	-0.97088516
94	0xbcaa11c6	-0.020760428
95	0xba5bd7c3	-0.0008386338
96	0xbf44560e	-0.7669381
97	0x3d1e2aa5	0.038614888
98	0xbd4128db	-0.047158103
99	0xbc461c80	-0.012091756
100	0xbedcac8c	-0.43100393
101	0xbd269ece	-0.04067879
102	0xbf21865c	-0.6309564
103	0xbfa7199f	-1.3054694
104	0xb9bb0798	-0.00035673077
105	0xbc13e341	-0.0090263495
106	0x3d5cdcb9	0.053921435
107	0xbe564928	-0.20926344
108	0x3ce3d5ab	0.027811846
109	0xb917070e	-0.0001440311
110	0xb9394479	-0.00017668483
111	0xbd34bc6a	-0.044125
112	0xb8975b65	-7.217265e-05
113	0xbd4a4cbb	-0.049389582
114	0xb94cb750	-0.00019523245
115	0xbca36fa6	-0.019950699
116	0xbc2e03bb	-0.010621007
117	0xbf42cfac	-0.7609813
118	0xbe8686fc	-0.2627486
119	0xbc30976e	-0.010778291
120	0xba2ec817	-0.0006667389
121	0xbf0c4168	-0.547873
122	0xba9be38b	-0.0011893375
123	0xbebbb2e4	-0.3665992
124	0x3d3678fc	0.044548973
125	0xba60e636	-0.0008579226
126	0xba18118b	-0.0005800954
127	0xbf924ced	-1.1429726

fc2.weight f4 [16, 128]
0	0xbee3b319	-0.44472578
1	0xbb5f6670	-0.0034088157
2	0xbf2d008c	-0.6757896
3	0xbf16c927	-0.58900684
4	0xbfe3172c	-1.7741446
5	0xbe1d8f2d	-0.15386648
6	0xbdb4cce6	-0.08828144
7	0xbd98cec8	-0.074613154
8	0xbf60512a	-0.87623847
9	0xbd2fdaaa	-0.042933144
10	0xbcc65388	-0.024209753
11	0xbf23c040	-0.63965225
12	0xbde674ba	-0.112527326
13	0x3c680200	0.014160633
14	0xbf5ea664	-0.8697264
15	0x3d210572	0.039311834
16	0x3d88a89d	0.066727854
17	0xbf1e40e8	-0.6181779
18	0xbfab121b	-1.33649
19	0xbf1fc569	-0.624106
20	0xbced9a68	-0.02900429
21	0xbe142ed3	-0.14470987
22	0xbffa3493	-1.9547294
23	0xbffa1991	-1.9539052
24	0xbf2ee973	-0.68324965
25	0xbedf6fa6	-0.43639868
26	0xbf4740af	-0.77833074
27	0xbd6acf1a	-0.057326414
28	0xbf2c467f	-0.6729507
29	0xbfe40cae	-1.781637
30	0xbeea0991	-0.45710424
31	0xbffa8cbc	-1.9574199
32	0xbef60453	-0.48050174
33	0xbf3c7365	-0.7361358
34	0xc052f780	-3.2963562
35	0xc0005875	-2.005399
36	0xbff9b916	-1.9509609
37	0xbfc9714e	-1.5737703
38	0x3da35851	0.079758294
39	0xbfe4c480	-1.7872467
40	0xbedc60e4	-0.43042672
41	0xbe2533a8	-0.16132987
42	0x3cdf5788	0.027263418
43	0xbf1537b4	-0.5828812
44	0xbf84c5ae	-1.0372827
45	0xbd9519cd	-0.07280312
46	0xbfe7149f	-1.8053168
47	0xbe527227	-0.20551358
48	0xc03278e8	-2.7886295
49	0xbd56685e	-0.052345626
50	0xbc9e80d3	-0.019348538
51	0xbe5d19b9	-0.21591844
52	0xbd0bd9c4	-0.034143224
53	0xbdabdd32	-0.08391799
54	0xbfeaa993	-1.8333
55	0xbe854715	-0.26030794
56	0xbfde8fe6	-1.7387664
57	0x3b48fd60	0.0030668601
58	0xbe78f559	-0.24312343
59	0xbf654a2e	-0.89566314
60	0xbf5acdfa	-0.85470545
61	0xbe5eace7	-0.21745645
62	0xbff11f1c	-1.8837619
63	0x3d5deac8	0.054178983
64	0x3c8fc728	0.01755102
65	0xc0023735	-2.0346196
66	0xbf98f0b1	-1.1948453
67	0x3d82217f	0.06354045
68	0x3d3634fa	0.044484116
69	0xc040ee49	-3.0145438
70	0x3d520dd1	0.051282708
71	0xbde1290f	-0.109941594
72	0xbe596503	-0.21229939
73	0xbe07e8cd	-0.132724
74	0xbf723913	-0.9461834
75	0xbcaecc4d	-0.021337653
76	0xbf52461e	-0.8213824
77	0x3b713e20	0.003681071
78	0xbebba8e3	-0.36652288
79	0xbf3eb789	-0.744988
80	0xbf070d2e	-0.52754486
81	0xbc2b2108	-0.010444887
82	0xbf830008	-1.0234385
83	0xbe0914ef	-0.13386892
84	0xbc206098	-0.009788655
85	0xbfaeb3c5	-1.3648611
86	0xc01b56e0	-2.4271774
87	0xbfd13fb9	-1.6347572
88	0xbf2e8254	-0.68167615
89	0xbecc2cf7	-0.39878055
90	0xbd7738b5	-0.060356814
91	0xbedda011	-0.43286183
92	0xbefe8de9	-0.49717644
93	0xbd38d4d0	-0.04512483
94	0xbde35dbe	-0.11101864
95	0xbf105a18	-0.5638747
96	0x3cf65c08	0.03007318
97	0xbff94a22	-1.9475749
98	0xbf88bcad	-1.0682579
99	0x3d2b584a	0.041832246
100	0x3cecd428	0.028909758
101	0xbf1475a4	-0.57992005
102	0x3da43c75	0.08019344
103	0xbfe0c796	-1.7560909
104	0x3cc92ba4	0.024556942
105	0xbdbfab05	-0.09358791
106	0xbfd76c5d	-1.6829945
107	0xbd91d3b8	-0.0712046
108	0xbf7852d3	-0.9700138
109	0x3c7caf0a	0.015422592
110	0x3de958ab	0.11393865
111	0xbeef54d9	-0.4674442
112	0x3d5cb406	0.05388262
113	0xbe78affb	-0.24285881
114	0xbf43c9b9	-0.7647968
115	0xbe69ebf8	-0.22843921
116	0xbde3c781	-0.11122037
117	0xbccad580	-0.024760008
118	0xbcad6e10	-0.021170646
119	0xbe2a1ac6	-0.16611776
120	0xbf9b7554	-1.2145181
121	0x3d0b6094	0.03402765
122	0xbea54956	-0.32282513
123	0x3c27fb30	0.010252759
124	0xbfe9ddb5	-1.8270785
125	0xbdcb0479	-0.099129625
126	0xbdd6bff1	-0.10485829
127	0xc04b9d0b	-3.1814601
128	0xbee271dc	-0.44227493
129	0xbda33c1e	-0.07970451
130	0xbf8402ee	-1.0313394
131	0xbebd4d33	-0.3697296
132	0xbf73eb53	-0.9528095
133	0xbec69599	-0.3878601
134	0xbea95bc2	-0.33077818
135	0xbd1899f5	-0.0372562
136	0xc09a9f5c	-4.831953
137	0xbd7ab1b2	-0.06120462
138	0x3da66207	0.08124166
139	0xc091d674	-4.5574284
140	0xbe98f860	-0.29876995
141	0x3d0ab07e	0.033859722
142	0xbf2062d5	-0.62650806
143	0xbd894a62	-0.067036405
144	0xbd924b50	-0.07143271
145	0xbffcab5b	-1.9739794
146	0xbf9ebe0c	-1.2401748
147	0xc0c514f5	-6.158808
148	0x3ba1b9c0	0.004935473
149	0xbe6e4329	-0.23267807
150	0xbf78d68a	-0.9720236
151	0xbf8585c8	-1.0431452
152	0xc0804409	-4.008305
153	0xc036d5e4	-2.8568048
154	0xbf9b9773	-1.2155594
155	0xbd9f4e64	-0.07778624
156	0xbf85fef6	-1.0468433
157	0xbf6b8151	-0.91994196
158	0xc0297c3d	-2.648208
159	0xbf77c1c2	-0.96780026
160	0xbf4e168e	-0.80503166
161	0xbf56ac74	-0.8385689
162	0xc04671b8	-3.1006908
163	0xbf954db2	-1.1664336
164	0xbf57daf7	-0.8431849
165	0xbf3761a1	-0.71633345
166	0xbd51151c	-0.051045522
167	0xc0a505e3	-5.1569686
168	0xbf2ddcfc	-0.6791532
169	0xbebf7f14	-0.3740164
170	0x3c9cb0ac	0.019127212
171	0xbf51c368	-0.8193879
172	0xbf860606	-1.0470588
173	0x3d7b56d2	0.061362095
174	0xbf7f4fe3	-0.9973127
175	0xbe74cc70	-0.23906112
176	0xc02ccf42	-2.70015
177	0xbd464b18	-0.04841146
178	0xbe72dd78	-0.23717296
179	0xbed3a212	-0.41334587
180	0xbdb40bcf	-0.08791315
181	0xbc91a3d8	-0.017778322
182	0xbf68b375	-0.9089883
183	0xbf95e12c	-1.1709342
184	0xbf870ee5	-1.055142
185	0x3d7b8ca6	0.06141343
186	0xbeb92055	-0.3615748
187	0xbf1cdceb	-0.61274594
188	0xc0cae838	-6.340847
189	0xbf0d76fd	-0.55259687
190	0xbf81415d	-1.0098072
191	0xbcc6b5b7	-0.02425657
192	0xbc0a0ab8	-0.008425407
193	0xc0849056	-4.142619
194	0xbf925064	-1.1430783
195	0xbc7e7320	-0.015530378
196	0x3d09028a	0.033449687
197	0xc04faffc	-3.2451162
198	0xbe62136c	-0.22077721
199	0xbe95f8b0	-0.29291296
200	0xbf4437bb	-0.7664754
201	0xbecdb9e8	-0.40180898
202	0xc0d4fd53	-6.6559234
203	0xbdf727fb	-0.120681725
204	0xbf6da892	-0.9283534
205	0x3d62b74a	0.05535058
206	0xc025b7d7	-2.5893457
207	0xbee331f3	-0.44374046
208	0xbf5c649a	-0.86091006
209	0xbb32c5c0	-0.0027278513
210	0xbfc7694a	-1.5579007
211	0xbe86f288	-0.26356912
212	0x3cacfe34	0.021117307
213	0xbf37a21d	-0.7173174
214	0xc01c2ed7	-2.4403589
215	0xbfe1112f	-1.7583369
216	0xbf07d8f7	-0.5306544
217	0xc05d70ba	-3.4600053
218	0xbdac0968	-0.084002316
219	0xbfe6da43	-1.8035358
220	0xbf7a94ee	-0.978835
221	0x3d93957f	0.072062485
222	0xbeb0e03f	-0.34546086
223	0xbf046dea	-0.51730216
224	0xbd9bcfa2	-0.07607962
225	0xbf82b9ba	-1.0212929
226	0xbfbec1ef	-1.4902934
227	0x3cd06b68	0.02544184
228	0x3d76a36a	0.060214438
229	0xbf52ae02	-0.82296765
230	0xbcefb582	-0.029261354
231	0xbfe734b3	-1.8062958
232	0x3c4b1040	0.012394011
233	0xbe822f78	-0.2542684
234	0xc099bbdc	-4.804182
235	0xbd994076	-0.07482998
236	0xc0cd4295	-6.4143777
237	0xbe4f5038	-0.20245445
238	0xbe003e1b	-0.12523691
239	0xbf3705d0	-0.71493244
240	0xbe27277a	-0.16323653
241	0xbf086b4c	-0.5328872
242	0xbf0c6fdd	-0.5485819
243	0xbeee64cc	-0.46561277
244	0xbe84da98	-0.25948024
245	0xbd4aa6f7	-0.049475636
246	0xbdb210c1	-0.08694602
247	0xbed936d1	-0.42424634
248	0xbf60b201	-0.8777161
249	0xbcdbd6de	-0.026835855
250	0xbebd79fb	-0.37007126
251	0x3dae09eb	0.084979855
252	0xbf5bc9f6	-0.8585504
253	0xbe82d8aa	-0.25555927
254	0xbe3f8095	-0.18701394
255	0xc03d6740	-2.9594269

fc2.bias f4 [16]
0	0x3e05a5d2	0.13051537
1	0xbf396f0b	-0.72435063
2	0xbe4537a1	-0.19259502
3	0xbec1dfc2	-0.37866026
4	0xbfe7b194	-1.8101068
5	0xbfdffee8	-1.7499666
6	0x3f06dea2	0.5268346
7	0xbeea6c55	-0.45785776
8	0xbfb4966f	-1.4108409
9	0xbfb87d6d	-1.4413277
10	0xbff56da0	-1.917408
11	0xbfecfd5f	-1.8514823
12	0xc0204af0	-2.5045738
13	0xc03c9811	-2.9467814
14	0xc044b7cc	-3.073718
15	0xc03b6f78	-2.9286785
