MBTI/ANN/Model/pr/lr=0.0005 L2=0.01 hd=128 SVM(rbf,0.5)/best_model.pth (torch, 85743 bytes, 6 tensors)

fc1.weight f4 [128, 17]
000000 e1 8a 51 1f 10 8d 9a 1f 93 e7 1c 20 7b 3b 76 a0
       4.437235e-20 6.5454905e-20 1.3290335e-19 -2.0856691e-19
000010 4e b2 ca 9a fc 7f 55 1f a4 04 88 1e d9 72 b5 a0
       -8.383331e-23 4.521037e-20 1.440148e-20 -3.0738592e-19
000020 6a a5 1e 1e c7 8f 9f 1f 9d 07 29 99 78 2f 2d 9f
       8.398657e-21 6.757698e-20 -8.738633e-24 -3.667344e-20
000030 97 88 8d b3 6e 17 00 00 fb 09 01 80 96 78 00 00
       -6.59067e-08 8.405e-42 -9.5416e-41 4.3258e-41
000040 fc c6 20 b4 39 ef d3 3e ad fe b2 be a0 94 32 3d
       -1.4973551e-07 0.4139345 -0.34959927 0.04359877
000050 da 7f 32 be 0c d6 7a bd 2c bc 28 bc fa 34 6a 3f
       -0.17431584 -0.061239287 -0.01029877 0.91487086
000060 b1 72 6f be 68 c8 e8 bc 56 5d a0 be 22 85 92 bd
       -0.23383595 -0.028415874 -0.3132121 -0.07154299
000070 0e fb a8 bd e3 d9 96 bb b3 28 d0 16 5e be 00 80
       -0.0825101 -0.004603611 3.3629897e-25 -6.8291e-41
000080 fb 1a 01 00 61 52 de bb 10 ed 9f 90 80 d9 a4 0d
       1.01514e-40 -0.0067847227 -6.3079695e-29 1.0159642e-30
000090 2d c4 29 10 31 98 7a 0f 0d 5e 93 0e 98 51 87 8e
       3.3480502e-29 1.2355263e-29 3.6328865e-30 -3.335864e-30
0000a0 07 b7 7b 10 54 0f 87 a9 81 ba a8 8f b0 e2 f9 8f
       4.964202e-29 -5.997863e-14 -1.6637918e-29 -2.4640613e-29
0000b0 5c bc fe 0f 72 45 e6 8f 8c 77 bc 0e 8f 84 00 00
       2.5118887e-29 -2.27065e-29 4.6460698e-30 4.7553e-41
0000c0 8b df 00 80 3e 10 00 00 bb b0 a1 bb 52 9f 32 3c
       -8.0192e-41 5.827e-42 -0.004934398 0.010902243
0000d0 8f ac 15 bb 75 83 a3 b9 d0 05 ae ba 4c 30 99 ba
       -0.0022838449 -0.00031187726 -0.0013276879 -0.0011687367
0000e0 25 74 8b b9 d4 a2 c7 3b a1 5e 36 39 c3 66 21 ba
       -0.0002659868 0.0060924087 0.00017392125 -0.0006156975
0000f0 5b 00 af ba f5 7e 37 ba 2a 2d 68 bb 78 bc 4d 96
       -0.0013351546 -0.0006999814 -0.003542731 -1.6619238e-25
000100 fc 4a 98 80 01 94 00 00 b6 9a 00 00 fb 8b c9 bc
       -1.3985895e-38 5.3094e-41 5.55e-41 -0.02460288
000110 6e d1 fc ab 8e a7 8e 2c 9c eb 75 ac 96 13 d4 2c
       -1.7963805e-12 4.054485e-12 -3.4947384e-12 6.027577e-12
000120 9e 4d fc 29 84 7d b7 a4 7e e5 aa ac 73 f2 08 ad
       1.12045125e-13 -7.957623e-17 -4.8571694e-12 -7.7845395e-12
000130 0d 82 20 ab 3a b2 f2 2a 38 6c c6 a1 3e 1d e7 ab
       -5.70239e-13 4.3111505e-13 -1.3445647e-18 -1.6421654e-12
000140 e0 cb a9 b5 48 99 4d b8 d8 1d 01 80 e1 2c 01 00
       -1.2650817e-06 -4.9018563e-05 -1.02541e-40 1.07935e-40
000150 4a 84 fc b8 1d f6 5c 3a d7 a5 84 ba a0 a3 67 bb
       -0.00012040937 0.0008429008 -0.0010120225 -0.003534533
000160 99 05 8f b9 28 0e b3 b7 36 02 97 ba 67 6a 9b bb
       -0.00027279256 -2.1345055e-05 -0.0011521045 -0.0047429088
000170 99 e3 b8 39 0c 05 bd b8 7a 63 04 ba 94 ca 34 ba
       0.00035264788 -9.013162e-05 -0.00050502236 -0.00068966416
000180 c8 71 e9 ba 6d 9b 0d 16 6c 67 de 33 4b bd 00 00
       -0.0017810399 1.1438933e-25 1.0356493e-07 6.7906e-41
000190 aa 1a 00 80 c3 6d 45 bc e0 2a 01 00 44 69 00 80
       -9.565e-42 -0.012050095 1.07216e-40 -3.7762e-41
0001a0 fd 9f 00 00 77 5a 00 80 44 10 00 00 87 67 00 80
       5.7393e-41 -3.2453e-41 5.835e-42 -3.7139e-41
0001b0 a4 0a 2f 07 e3 17 00 00 57 b2 00 00 a7 37 00 00
       1.3168664e-34 8.569e-42 6.3976e-41 1.9964e-41
0001c0 8b 77 00 00 94 1b 00 80 38 b0 27 ad cc 2b 00 00
       4.2884e-41 -9.893e-42 -9.531979e-12 1.5711e-41
0001d0 e0 a5 a3 27 bd 97 00 80 c9 b0 98 b8 f3 f6 41 24
       4.542143e-15 -5.4433e-41 -7.2808536e-05 4.2059378e-17
0001e0 72 a2 eb 99 3e d6 87 a1 a8 b9 79 9a d4 41 02 1a
       -2.4364042e-23 -9.204665e-19 -5.1641965e-23 2.6936545e-23
0001f0 58 be ab 99 b0 4e f8 a4 d2 38 77 a7 d8 66 19 99
       -1.7757865e-23 -1.0768616e-16 -3.4308938e-15 -7.930684e-24
000200 13 07 b6 9b 50 7e 74 97 23 96 3a 9a 08 65 07 b6
       -3.0113946e-22 -7.900008e-25 -3.8585178e-23 -2.0175376e-06
000210 7e 04 00 80 5d 0e 00 00 05 2d 00 80 bd 62 01 b7
       -1.611e-42 5.153e-42 -1.615e-41 -7.7119885e-06
000220 e1 d7 70 a9 58 75 14 a9 31 eb c2 a8 7f 25 d7 a8
       -5.347795e-14 -3.296438e-14 -2.1640325e-14 -2.3886056e-14
000230 65 7f 8a 28 e0 72 89 21 ad ba 75 2a 94 1c 04 2a
       1.5376326e-14 9.313888e-19 2.1825137e-13 1.173387e-13
000240 b2 c0 7f a6 8b 52 ad 29 8b ac b6 29 80 81 a0 a4
       -8.873205e-16 7.697062e-14 8.112355e-14 -6.960832e-17
000250 8b af 0e 00 9e 5e 01 00 1d 4c 00 80 9c 22 00 80
       1.34867e-39 1.25778e-40 -2.7304e-41 -1.2416e-41
000260 87 43 c5 ac f2 8c 85 b4 b6 fd 0b 33 a8 37 5c 34
       -5.606574e-12 -2.4875732e-07 3.2594208e-08 2.0509344e-07
000270 17 e2 51 35 8b 12 0d 32 a5 01 ab ae 88 b8 3c b4
       7.818757e-07 8.211496e-09 -7.776472e-11 -1.7575996e-07
000280 bc 44 c5 b4 2c e3 cc b0 76 32 a0 b3 4e 3b cc 33
       -3.674412e-07 -1.490752e-09 -7.4597594e-08 9.510278e-08
000290 80 a1 69 32 b2 8c 27 31 d4 ad 56 b4 11 2b 01 00
       1.3599106e-08 2.4381674e-09 -1.9993541e-07 1.07285e-40
0002a0 f1 cd 00 00 9e f9 88 b5 7e b2 da 83 c8 0d a5 00
       7.3878e-41 -1.0205438e-06 -1.2853868e-36 1.51578e-38
0002b0 1c 58 19 93 33 b6 19 00 86 1d 4f 00 73 12 14 80
       -1.9354756e-27 2.361248e-39 7.265595e-39 -1.843328e-39
0002c0 e0 20 f2 a6 5b f6 e5 aa 29 7f 0a 80 73 58 4b 80
       -1.6801034e-15 -4.0849515e-13 -9.63971e-40 -6.919392e-39
0002d0 3c 58 3c 00 8c df 24 80 66 d5 a0 30 7e 2f 04 00
       5.541782e-39 -3.386271e-39 1.1702184e-09 3.84379e-40
0002e0 af 69 00 80 24 f2 00 80 7a 4d 98 bb e1 54 00 80
       -3.7912e-41 -8.6864e-41 -0.004647908 -3.0449e-41
0002f0 85 0f 00 80 47 d1 9c 8c 7e f8 00 80 83 09 01 00
       -5.567e-42 -2.416156e-31 -8.9142e-41 9.5248e-41
000300 d3 6c 00 80 81 aa 8e 8e 4d e5 91 90 16 76 00 00
       -3.9039e-41 -3.5169892e-30 -5.754571e-29 4.2361e-41
000310 73 68 00 80 b5 3c 01 00 e8 50 00 00 f8 37 00 00
       -3.747e-41 1.13613e-40 2.9024e-41 2.0078e-41
000320 a7 23 01 80 23 e4 00 00 a5 e9 00 80 aa d3 1e ba
       -1.04625e-40 8.184e-41 -8.3816e-41 -0.0006058762
000330 ae 2b 27 ab 45 97 87 2a b0 d7 7a aa 39 c3 bb aa
       -5.9390936e-13 2.4085782e-13 -2.2279292e-13 -3.3353336e-13
000340 c0 de b3 29 1a 1b 1d 28 79 73 8f ab 53 cc ba ab
       7.987838e-14 8.7211275e-15 -1.0192811e-12 -1.3272806e-12
000350 ad b4 70 a9 18 00 86 aa 98 d8 76 a9 92 02 da aa
       -5.3447416e-14 -2.3803247e-13 -5.4810838e-14 -3.8726363e-13
000360 50 e4 00 00 9e 34 1b 2a aa 7d 00 80 ed 0d 01 00
       8.1903e-41 1.3785021e-13 -4.508e-41 9.6831e-41
000370 38 12 b8 ab 9f 3f 3d 2b be 21 c7 2c bb 28 8d 2c
       -1.3079043e-12 6.723458e-13 5.6596663e-12 4.011983e-12
000380 a3 a2 93 aa d0 cf bb ab 02 3f cb 2a 79 76 85 ac
       -2.6225297e-13 -1.3344829e-12 3.6103764e-13 -3.7932405e-12
000390 ec 82 5c ad 23 62 01 ac da b1 92 2b 12 51 eb 2a
       -1.2534623e-11 -1.838648e-12 1.0423288e-12 4.180064e-13
0003a0 d0 52 a7 28 02 39 00 00 5b 6b 01 00 e6 7a 00 80
       1.8576639e-14 2.045e-41 1.30347e-40 -4.4088e-41
0003b0 f9 2b 00 80 62 85 85 bb 0e 0a 0e 26 69 cb 61 83
       -1.5774e-41 -0.0040747384 4.9279773e-16 -6.635506e-37
0003c0 08 f3 9c 2f a1 78 4e 1f 39 37 01 00 07 62 01 80
       2.854892e-10 4.372198e-20 1.11646e-40 -1.27001e-40
0003d0 98 a1 4b ac 17 5c f6 af ca 35 00 80 e3 4f 3c 10
       -2.8937738e-12 -4.4812573e-10 -1.9296e-41 3.7138005e-29
0003e0 27 08 01 80 9b 35 01 00 9f 5a 00 80 c8 a6 00 00
       -9.476e-41 1.11066e-40 -3.2509e-41 5.983e-41
0003f0 f4 25 00 80 42 b5 00 80 5b b1 98 bb 6e ec 4a b1
       -1.3615e-41 -6.5023e-41 -0.0046598143 -2.9529263e-09

fc1.bias f4 [128]
000000 20 6b 62 a9 e2 4d a8 3d 43 26 50 b6 09 55 7b 3c
       -5.0274997e-14 0.0821798 -3.1016687e-06 0.015340098
000010 f2 b3 90 ad ff a2 62 3c 00 88 85 b1 0c 73 cf b8
       -1.6450816e-11 0.013832807 -3.886271e-09 -9.891958e-05
000020 f7 fa 50 ab 65 1e 75 b4 6d 1e b2 b6 79 ab 66 b3
       -7.424473e-13 -2.282846e-07 -5.3083554e-06 -5.3707e-08
000030 8c 71 e1 ab d0 b4 33 b7 39 c4 10 b9 d9 23 43 32
       -1.6018727e-12 -1.071133e-05 -0.00013806009 1.1358645e-08
000040 ec 36 18 b3 73 39 c0 b3 e7 d0 9f ae 1a 99 eb b1
       -3.544021e-08 -8.951147e-08 -7.2675914e-11 -6.856806e-09
000050 26 62 24 b2 56 36 29 95 29 4a 12 bb cd d8 de b8
       -9.568373e-09 -3.4172142e-26 -0.0022322035 -0.00010626167
000060 75 af b8 9d 4e 2d 19 a4 06 38 eb 86 27 8a f2 3e
       -4.8885813e-21 -3.321496e-17 -8.8479494e-35 0.47371027
000070 f8 eb ad be ea bf 83 b7 2a a6 c7 a9 38 e5 3a 3e
       -0.33969092 -1.5705784e-05 -8.8662e-14 0.18251503
000080 e7 70 5c aa 59 5e 86 98 ab 71 c9 3d f2 cf 28 af
       -1.9579096e-13 -3.4733455e-24 0.098361336 -1.5353388e-10
000090 3a 53 e7 3c fc 0d 5d b5 ea a4 ef a6 b6 ed 6f af
       0.028237928 -8.2349266e-07 -1.6628656e-15 -2.1821375e-10
0000a0 7a ef 0a b0 f9 83 87 af 51 14 15 b3 30 40 bb a5
       -5.0544424e-10 -2.465013e-10 -3.4710244e-08 -3.2482824e-16
0000b0 be b7 e0 b7 a8 0d 5a b9 64 8f 22 3e d6 b7 f2 a8
       -2.6788442e-05 -0.00020795187 0.15875012 -2.6947123e-14
0000c0 f2 d9 68 9a f4 e8 d7 ac 3c 88 d8 ae 99 1d cb 3d
       -4.815253e-23 -6.1365305e-12 -9.846743e-11 0.09917755
0000d0 11 15 12 3e d6 66 9e 3c 32 a0 85 b7 37 06 51 9a
       0.14265849 0.019336145 -1.5929432e-05 -4.3225207e-23
0000e0 04 49 ad 3e 56 eb b8 b3 81 b7 69 8a f4 32 eb 35
       0.3384477 -8.610975e-08 -1.1253055e-32 1.7523694e-06
0000f0 7a cb 66 bb 36 4d 08 aa 73 39 b1 b5 af db 21 a8
       -0.0035216496 -1.2106014e-13 -1.3204248e-06 -8.984932e-15
000100 3a 36 ea b6 e7 cc 78 b0 21 46 00 3e b8 a1 74 36
       -6.9800562e-06 -9.051306e-10 0.12526752 3.6452966e-06
000110 17 a6 63 bc 6c 77 83 b9 0e 49 c2 bb a9 76 ce 32
       -0.013894579 -0.00025075243 -0.005929119 2.4035517e-08
000120 b8 4f 36 b2 65 7d d9 3b 61 d5 f2 bb b6 25 c6 b7
       -1.061192e-08 0.0066372626 -0.0074106907 -2.3621e-05
000130 8a f9 25 95 83 00 c1 bb a8 f4 50 3e 8c a4 16 3e
       -3.3518336e-26 -0.0058899536 0.20405829 0.14711207
000140 3e 1d db b0 23 4d ec b8 41 45 44 a2 ff 99 a0 3a
       -1.5942658e-09 -0.00011267725 -2.6599616e-18 0.0012252926
000150 fa ed a4 ba b6 36 37 bb 4d ef 0b a5 f8 d0 8f aa
       -0.001258313 -0.0027956194 -1.2137406e-16 -2.5546904e-13
000160 6e 8b 1e 3a f0 11 e0 aa 4d 42 bc b2 44 78 22 b6
       0.00060479983 -3.980284e-13 -2.191623e-08 -2.4209885e-06
000170 e2 88 45 b1 74 ad 00 9f f6 d6 d7 ad cb b9 0f af
       -2.8745082e-09 -2.724853e-20 -2.4538132e-11 -1.3071781e-10
000180 ff 30 1c bc 15 76 33 3d 21 40 2b a4 9d 52 a1 99
       -0.009533166 0.043813784 -3.7134034e-17 -1.6680377e-23
000190 ae ef ce a3 31 b7 3f 3e 23 31 ba ba d6 b8 0d b2
       -2.2436073e-17 0.18722226 -0.0014205318 -8.249307e-09
0001a0 85 f5 c0 b0 72 57 0b b1 b6 e7 bd b7 6c 4d 81 b0
       -1.403962e-09 -2.027687e-09 -2.2638455e-05 -9.40799e-10
0001b0 6b c8 30 a5 d1 91 c5 3d ba 6e 5c 3e f3 c7 fb b5
       -1.5333471e-16 0.09646953 0.21526614 -1.875915e-06
0001c0 fd 17 f2 3b d0 f2 64 ae df 01 80 bc ae d3 a2 3e
       0.0073881135 -5.205686e-11 -0.015625892 0.31802124
0001d0 0e fd 3c ae f4 fa 8b ba de 2b 81 3d d6 08 91 a7
       -4.297101e-11 -0.0010679648 0.06307195 -4.0255165e-15
0001e0 dc f3 38 aa 42 3b 01 3b ea 40 ca b6 2a a0 42 3d
       -1.6427089e-13 0.0019719158 -6.027626e-06 0.047516026
0001f0 af 40 39 be 70 fb a8 bb a5 84 ce ad 07 8d 97 b5
       -0.18091081 -0.005156927 -2.3478395e-11 -1.1291421e-06

fc2.weight f4 [128, 128]
000000 52 9d 48 9f 1a 40 8d bd 73 76 00 90 3b c3 ee 3a
       -4.248178e-20 -0.06896992 -2.53348e-29 0.0018216142
000010 70 5f 46 2c f2 61 f2 3a 05 6f 00 00 d6 3f 8b 1a
       2.819047e-12 0.0018492325 3.9826e-41 5.7592185e-23
000020 14 b5 2b 2a d7 e3 a5 b4 d7 5d 4c 80 16 75 00 00
       1.5250675e-13 -3.089942e-07 -7.013161e-39 4.2003e-41
000030 f3 5f 12 aa 3a 9f 67 ac 29 de a2 0b 71 ff 1e b2
       -1.3000694e-13 -3.2915463e-12 6.27344e-32 -9.254891e-09
000040 9e 69 01 00 01 5d 8f ae 5c bd 3b 2c 42 6c 00 80
       1.29724e-40 -6.519408e-11 2.6679414e-12 -3.8836e-41
000050 a0 fa 47 2e 98 3f 00 80 55 65 9f b3 04 69 7f 29
       4.546996e-11 -2.2813e-41 -7.422447e-08 5.671246e-14
000060 32 5a a7 06 81 4b 01 80 a4 13 25 85 ec dc 4d bd
       6.295095e-35 -1.18921e-40 -7.76187e-36 -0.050259516
000070 f7 d6 5a bd 6d 05 4e 37 be 5e ef a9 73 d2 05 3e
       -0.053427663 1.227982e-05 -1.0630167e-13 0.13068561
000080 51 08 00 00 64 db 00 00 03 29 8a 3d 56 f9 61 2f
       2.983e-42 7.8703e-41 0.067461036 2.0552213e-10
000090 2e 38 9d 3c e8 46 95 b3 5a 28 a2 25 25 0a 01 00
       0.019191828 -6.951251e-08 2.8129864e-16 9.5475e-41
0000a0 47 a2 00 80 cf ff 5d 28 3d 39 c8 b2 80 26 01 00
       -5.8214e-41 1.2323434e-14 -2.3309093e-08 1.05647e-40
0000b0 90 b4 ce a0 52 05 86 af 48 8c ef 3d 6f 97 f0 a7
       -3.5017244e-19 -2.4378238e-10 0.116966784 -6.6777566e-15
0000c0 63 54 01 00 9a 63 df 2a 8e c2 2e 2d 5a 9b 92 3d
       1.22108e-40 3.968187e-13 9.933955e-12 0.07158537
0000d0 20 68 ce 3d b0 21 9b ba fd e3 07 00 8a 4d 00 00
       0.10078454 -0.0011835601 7.24635e-40 2.7816e-41
0000e0 31 5f 0f bd a4 10 95 30 da 95 00 80 3a c0 8f b4
       -0.03500289 1.0845906e-09 -5.3757e-41 -2.677569e-07
0000f0 71 62 06 32 a5 86 01 00 2d 40 00 00 87 58 14 a9
       7.8222095e-09 1.40137e-40 2.3022e-41 -3.2939387e-14
000100 60 ef 60 21 6b b1 8d 8d 45 96 b4 3d e0 f1 0b b7
       7.621096e-19 -8.732508e-31 0.08817724 -8.3413615e-06
000110 75 5e 64 3a 03 7c b1 ac 50 7b 96 b7 74 34 92 b1
       0.0008711585 -5.0444106e-12 -1.7938815e-05 -4.2551225e-09
000120 64 79 2a 2b 13 e0 be 3a da 4f 59 b8 2d 17 03 84
       6.0564596e-13 0.0014562629 -5.18112e-05 -1.5409618e-36
000130 80 7c 01 80 f2 d3 c8 33 33 4a 9a bc 99 fc 88 3d
       -1.36498e-40 9.3517784e-08 -0.01883421 0.06688804
000140 12 dd 00 80 6f 8f 93 8e 8c 53 d5 9f 65 66 13 3a
       -7.9305e-41 -3.637642e-30 -9.0347226e-20 0.0005622863
000150 25 9a 47 39 69 a7 01 b2 38 1e 00 80 7d 45 02 29
       0.00019035542 -7.546853e-09 -1.084e-41 2.892607e-14
000160 7b 9b 4c bc e4 26 00 80 ba 9a 00 00 ad 6f 01 80
       -0.012488241 -1.3951e-41 5.5505e-41 -1.31897e-40
000170 1e 20 9e af 40 c3 00 00 b9 93 9f ac 4f eb 00 00
       -2.8762853e-10 7.0043e-41 -4.5354523e-12 8.4413e-41
000180 b8 cc 23 3c b1 3c a5 bc 7c 9a 00 80 21 b3 00 80
       0.009997539 -0.020170541 -5.5419e-41 -6.426e-41
000190 c7 4b 68 21 b2 d8 0e 3e f4 f0 f2 29 05 c0 e0 ae
       7.870495e-19 0.1394985 1.07887576e-13 -1.022045e-10
0001a0 0d 7c 00 80 20 42 01 00 ea 50 82 1b d8 0c b0 ad
       -4.4501e-41 1.15557e-40 2.1558985e-22 -2.0014587e-11
0001b0 e1 10 59 23 05 44 95 bd 5f 26 a9 bc 5e 4c 09 34
       1.1767168e-17 -0.07288364 -0.02064818 1.2786901e-07
0001c0 01 cb fe bb a2 62 6d ac 01 44 16 3b 32 69 06 bd
       -0.007775665 -3.3734478e-12 0.0022928717 -0.032815166
0001d0 ce 4d f1 ac b9 c8 5e b8 d7 c5 4f 3c 8f 99 00 80
       -6.85827e-12 -5.3115862e-05 0.012681446 -5.5086e-41
0001e0 d8 2b ed a7 84 5e a7 3c 44 c1 c5 1b 38 2c 86 bb
       -6.582825e-15 0.02043081 3.271581e-22 -0.0040946268
0001f0 f8 9b 85 bc 04 9d 9c 37 e0 69 01 a9 8e 67 80 16
       -0.016309723 1.8669765e-05 -2.8735586e-14 2.0744868e-25
000200 f0 08 83 1d 0f ca de 3c 25 65 6b 0f 5b 57 f3 3b
       3.4684652e-21 0.027195958 1.1605874e-29 0.007426185
000210 96 de 7f ab c8 85 92 3b 9b 5b 00 80 45 26 6a 9a
       -9.09031e-13 0.0044715144 -3.2862e-41 -4.842098e-23
000220 0a fa 1a 28 4a bc 19 b3 17 42 5f 00 b7 a1 00 00
       8.602936e-15 -3.5794336e-08 8.748081e-39 5.8012e-41
000230 3b 08 7b ab b7 24 96 aa 9f 96 69 a1 36 46 aa 30
       -8.9184535e-13 -2.6670829e-13 -7.9142816e-19 1.2389083e-09
000240 89 b3 00 80 d6 4b 18 28 13 82 44 2d bd a0 00 80
       -6.4405e-41 8.454139e-15 1.1170192e-11 -5.7662e-41
000250 94 32 30 ac a0 7c 00 80 1f e1 83 b1 5c 94 86 29
       -2.503918e-12 -4.4707e-41 -3.838195e-09 5.9765317e-14
000260 c4 e2 00 00 25 92 03 00 e8 64 31 05 14 6f 04 3e
       8.1348e-41 3.27933e-40 8.3410336e-36 0.12932998
000270 7c 25 99 bd b7 d2 2c 33 c1 b2 72 29 42 13 55 bb
       -0.07477853 4.0238515e-08 5.388984e-14 -0.00325127
000280 68 34 00 00 03 2b 00 00 3d 5b 2f bb 30 17 eb ac
       1.88e-41 1.543e-41 -0.0026757263 -6.681676e-12
000290 72 75 7e bb ff fa 5f b5 fa 44 3b 22 c8 fc 00 80
       -0.0038827327 -8.343922e-07 2.5379742e-18 -9.0681e-41
0002a0 7c 91 00 00 38 47 63 28 bb ab b9 33 d6 a3 00 00
       5.219e-41 1.26164744e-14 8.6459714e-08 5.8773e-41
0002b0 22 2e 00 00 45 2a eb 96 f2 1e 8f bb 7e 62 90 a9
       1.655e-41 -3.7992973e-25 -0.0043677026 -6.41197e-14
0002c0 48 2a 01 00 00 00 58 a6 64 19 89 2d 38 9c 89 bb
       1.07003e-40 -7.4940054e-16 1.5586372e-11 -0.004199531
0002d0 03 c0 41 bb 1e 96 41 3b cd 54 06 80 aa 79 00 80
       -0.002956391 0.002953894 -5.81434e-40 -4.3645e-41
0002e0 ec 97 c8 3d 00 d0 d2 9a e6 27 00 80 c1 3f c5 30
       0.09794602 -8.7190006e-23 -1.4313e-41 1.4351756e-09
0002f0 5d d1 92 32 4d e8 00 80 34 6f 00 00 cc d8 62 27
       1.7091844e-08 -8.3334e-41 3.9892e-41 3.1481326e-15
000300 0e 85 00 80 70 79 35 8d c5 b4 4a bb a0 f7 b0 ad
       -4.7731e-41 -5.5921106e-31 -0.00309305 -2.0118851e-11
000310 ef 94 67 b5 fb d5 03 11 75 fe 7c ba d0 d5 3d b1
       -8.627093e-07 1.0400016e-28 -0.0009650954 -2.7624658e-09
000320 45 00 87 31 60 01 1d 3b a3 0f 89 39 d4 1c 31 04
       3.9290478e-09 0.0023957118 0.00026142327 2.0819487e-36
000330 f4 e0 00 80 05 d2 2e 96 38 e1 84 3d fb 60 04 3c
       -8.0698e-41 -1.4121879e-25 0.064882696 0.008079763
000340 9b 00 01 00 17 77 05 96 fb 2d 67 a0 20 55 ba 39
       9.2053e-41 -1.0781233e-25 -1.9581675e-19 0.00035540108
000350 dc f0 b7 2b cc 62 9f 2d 86 61 aa 02 6e eb a5 8e
       1.3069784e-12 1.8120082e-11 2.503523e-37 -4.090235e-30
000360 03 d9 0b 3b a9 39 00 80 f8 0f 00 00 9f 4e 00 00
       0.0021339066 -2.0685e-41 5.729e-42 2.8204e-41
000370 8c 66 a6 2e 04 81 01 00 fb 5e 90 ab da 35 00 80
       7.567022e-11 1.38118e-40 -1.0258178e-12 -1.9318e-41
000380 80 81 6f 3c 65 69 45 3c 1d 30 01 80 9d 59 01 00
       0.014618278 0.012049054 -1.09095e-40 1.23983e-40
000390 20 5d c7 a2 14 0b 9e bb 3a 0c 9d aa c0 b5 15 30
       -5.403766e-18 -0.004823098 -2.7897286e-13 5.4464167e-10
0003a0 82 30 00 80 7c 48 00 00 da 07 4f 99 a5 8e 11 2a
       -1.7401e-41 2.6002e-41 -1.0703235e-23 1.2928077e-13
0003b0 a7 11 01 a3 3e e9 fa 3c 2e fa 8a 3d 60 dd f2 31
       -6.996842e-18 0.030628797 0.06785999 7.0682944e-09
0003c0 86 33 1b bb 72 e7 98 a9 de 66 e4 bb 20 29 bf 3d
       -0.0023681833 -6.7903054e-14 -0.0069702705 0.09334016
0003d0 44 05 29 ad f8 c3 50 b7 c5 53 df 3b 13 83 00 80
       -9.607707e-12 -1.2443394e-05 0.006815406 -4.702e-41
0003e0 0f 12 e0 a7 43 16 8d b8 5d 96 00 80 9e cc 1a 3c
       -6.219207e-15 -6.7275505e-05 -5.394e-41 0.009448199
0003f0 7f cc 2b bd 2e 73 c3 a5 10 c3 01 a9 5a d3 47 15
       -0.04194307 -3.3905157e-16 -2.8812944e-14 4.0354457e-26

fc2.bias f4 [128]
000000 b1 36 ff 3d 59 4b 8b 3d f2 76 65 3d c6 15 8f 3d
       0.124616034 0.06801481 0.05602164 0.06986575
000010 b2 ad 68 3c 39 5d c3 ba 68 d7 e3 3d 2c ad f1 3c
       0.014201568 -0.0014905102 0.1112507 0.02950152
000020 51 53 6e 3d 60 dd a7 3b f8 70 c7 3c 24 8c bd 3d
       0.058184925 0.0051228255 0.02434586 0.09255245
000030 37 65 06 bc 15 72 f6 bb 58 18 4e b9 5e b3 60 bc
       -0.008202842 -0.007520924 -0.0001965476 -0.0137146395
000040 1b 88 99 b6 d0 ab 09 3d 2d 4b 99 3d 5e 47 ad 3d
       -4.5756e-06 0.03361112 0.07485042 0.08460878
000050 58 48 0b 3d 3b 4c ec 3d fd 5f 6f 3d 28 1d bf 3c
       0.03400454 0.11537977 0.05844115 0.023329332
000060 89 1b 87 3b 45 fb b6 3c f9 cc 63 bb 82 8a 59 bc
       0.0041231555 0.022336612 -0.0034759624 -0.013277652
000070 01 a5 8b 3d 06 1f 03 3d 6b 5d d7 3d 5c 8c 09 3c
       0.06818581 0.032012008 0.10515865 0.008395281
000080 74 f1 95 bc 35 d1 0f bb bc a2 97 3d 8f b2 cb 3d
       -0.01830361 -0.0021944765 0.07404086 0.09946167
000090 b2 2e 56 3c ef 2f 7e 3c 0c 15 8b bb 7b 20 81 3d
       0.0130726565 0.015514358 -0.0042444523 0.06305023
0000a0 66 a5 b8 3d 85 66 ff 3d b9 37 fb 3d 78 9b fc 3c
       0.09015922 0.12470726 0.12266488 0.030835852
0000b0 e5 67 6f 3d f6 54 87 3d 98 d6 34 3c d2 21 d5 3d
       0.05844869 0.06608002 0.011037491 0.10406841
0000c0 c6 97 d7 3d 6f 13 c1 3d 33 22 1f 3d f0 19 df 3d
       0.10526995 0.09427535 0.038850974 0.10893619
0000d0 d8 12 46 3c 71 7e 95 3d fa 51 9c 3d c3 d8 c2 3d
       0.012089454 0.072995074 0.07632823 0.09514
0000e0 ef 3b 71 3b 78 dc f0 3d 4a b7 74 3d d3 be b0 bb
       0.0036809405 0.11760801 0.05974511 -0.005393842
0000f0 71 1f b5 3c 4b 32 39 3d 39 a8 a1 3d 67 50 aa 3c
       0.022109719 0.04521398 0.07893414 0.020790292
000100 a3 4d 82 3c 34 14 6a 3c 4a d0 7f 3d 3a 96 55 3d
       0.01590616 0.014287043 0.0624545 0.05214522
000110 d8 06 9c 39 44 8f 8b 3d ba b6 af 3d 07 bb 5e 3d
       0.00029759738 0.06814435 0.08579774 0.054377582
000120 33 83 94 3d 91 4b e6 3d 3d 93 04 3c c6 3c 88 3c
       0.07251587 0.11244882 0.008091745 0.016630542
000130 cf 58 53 3d 98 eb a1 3c 95 96 e8 3b 14 91 04 3b
       0.051598366 0.01976566 0.007098029 0.0020228075
000140 24 a9 e4 3d bf fe 8d 3d 65 9a e4 b4 76 5e c8 3d
       0.111650735 0.069333546 -4.2580646e-07 0.09783642
000150 7a c4 6b 3d f5 42 91 3d 54 a2 a2 3c a3 e1 21 3d
       0.05756042 0.07092849 0.019852795 0.039521825
000160 55 fa b3 3c 99 ea 63 b9 1d 9f 9b 3d 11 f8 25 3d
       0.021969954 -0.00021735801 0.07598708 0.040519778
000170 8e f2 9c 3d 2d 62 36 3e 3a 1b b7 3d f4 5d 25 3d
       0.07663451 0.17810889 0.0894074 0.040372804
000180 26 96 b6 3d 07 09 39 3d bf 4b 32 3c 0c 9d 3d bb
       0.08915357 0.045174625 0.010882317 -0.0028932719
000190 5a f7 35 3d b9 a2 88 3d 70 bb e4 3b 84 d7 1f 3e
       0.044425346 0.06671662 0.006980352 0.15609556
0001a0 e7 f6 1c 3c 1b 6d 33 3e ff e0 5b 3c f9 0f 2a 3d
       0.0095803505 0.17522089 0.0134203425 0.04151914
0001b0 1c 0e 07 bc 67 d8 26 3d 86 b9 06 3d 6d 3e c5 3c
       -0.00824311 0.04073372 0.032891773 0.024077618
0001c0 50 fd 4d 3d 5c 00 00 3d a1 91 b7 3d 6e aa 9f 3d
       0.050290406 0.031250343 0.089633234 0.07796179
0001d0 1a 31 13 3c 80 3e 80 3d 9d c6 7e 3d b7 6a b3 3d
       0.008983875 0.06261921 0.06220113 0.087605886
0001e0 aa ef ca 3d fb e8 0a 3d aa 36 59 3d a3 22 4e 3d
       0.099089935 0.033913594 0.053030647 0.050326
0001f0 e7 ec c0 3d 4e 6c a0 3d 61 45 5d 3d 6a ea d4 3d
       0.094201855 0.078331575 0.054021243 0.103962734

fc3.weight f4 [16, 128]
000000 ef 94 bf bd 96 e1 25 3e a4 5a 85 bd 13 ae a6 bc
       -0.09354579 0.16199335 -0.06511429 -0.020346677
000010 12 59 07 3e b2 72 d6 3d 01 e9 15 3e ce d6 21 3e
       0.13217571 0.10471095 0.14639665 0.15804598
000020 84 16 26 3d a8 7b 93 3c 36 7c 10 3c 7e 24 73 bc
       0.040548816 0.0180033 0.008818677 -0.014840243
000030 ac b5 fc 3c ef bc 16 3d b4 cb a8 b6 56 6d a6 3d
       0.030848347 0.036801275 -5.0305043e-06 0.08126323
000040 0a ea b2 35 57 1c 8a 3d b7 e9 a4 bd 3c 94 a4 bd
       1.3330148e-06 0.06743687 -0.0805239 -0.08036086
000050 73 23 f8 3d 9e 8f b6 bd 77 97 a0 3d 92 13 2b 3e
       0.121161364 -0.089141116 0.078413896 0.16706684
000060 bd ab 0b 3e 89 4a 45 3e a8 f5 34 3e df 18 8c 3d
       0.13639732 0.19266714 0.17671835 0.06840681
000070 4b aa 7c bd 8e 84 f2 3d 83 61 c6 bd 6e 17 91 3d
       -0.06168584 0.11841689 -0.09686568 0.07084547
000080 11 a0 e0 3d 61 90 3b 3d 91 47 3e 3e 16 ac 44 bd
       0.1096803 0.045791987 0.18581988 -0.048015676
000090 7f aa 02 3e e1 fb fd 3d 44 d3 23 3e 3f 2b 35 3e
       0.12760352 0.12401558 0.1599856 0.17692278
0000a0 30 af ef 3c 54 75 60 bc 6f 45 90 bd c7 cb 0b 3e
       0.02925834 -0.013699848 -0.070444934 0.13651954
0000b0 9e 83 52 bd 9b 76 9d bd d4 32 23 3d 06 4d 8e bd
       -0.05139505 -0.07688638 0.039843395 -0.06948285
0000c0 98 c5 d2 3d 42 d3 b2 3d bc c5 b5 bb b5 45 02 be
       0.10291594 0.087317005 -0.0055472534 -0.12721904
0000d0 8e 37 70 bc 4c 0a dd bd 74 5a b8 3d be c7 91 bd
       -0.014661683 -0.107929796 0.090016276 -0.07118176
0000e0 13 26 13 3e 01 cf 0a 3d a4 02 b4 bd 1f 5c 2d 3e
       0.14369993 0.03388882 -0.08789566 0.16929673
0000f0 13 62 22 3e db 9f c2 3a 95 a2 2b 3e 23 7f ec 3d
       0.15857725 0.0014848666 0.16761239 0.11547687
000100 ce 50 a0 3d 0b b6 43 3e cb d6 47 3e 95 56 4a 3e
       0.07827912 0.19112413 0.19515531 0.19759591
000110 4b 2d f2 3c 9f 17 92 3d 24 2b 9c 3d b3 56 d5 3d
       0.029562613 0.071334116 0.07625416 0.10416927
000120 40 f1 13 3e 9f 04 8c bc 6d 50 bf 3d 32 5b ba 3d
       0.14447498 -0.017092047 0.09341512 0.090994254
000130 12 9c 73 3d c3 b3 21 3a 71 1e da 3c c7 f2 2c 3e
       0.059475012 0.0006168449 0.026625844 0.16889487
000140 8b d1 54 3d 4b b2 86 bc c8 e3 00 34 d4 08 90 bd
       0.05195765 -0.016442439 1.2003795e-07 -0.07032934
000150 ed d7 40 bc 2a 67 07 3d d4 83 21 bc d3 c8 35 3e
       -0.011770231 0.03305737 -0.00985809 0.1775239
000160 0a 77 04 3e 68 ae 08 39 c9 bd bd bc ee eb 87 bc
       0.12936035 0.00013034942 -0.023161786 -0.016591992
000170 f0 d7 cf 3d d0 63 03 3e 73 7f cf bd 7d a9 0f 3e
       0.10148609 0.12831044 -0.10131731 0.14029498
000180 c6 10 a8 bd 00 6c a1 bc b4 e5 34 3e 96 85 05 3e
       -0.08206324 -0.019704819 0.1766575 0.1303924
000190 eb f9 ad 3d 51 e5 a9 3d 0c 8f 8d 3d c0 e5 cd 3d
       0.08494934 0.08295692 0.0691205 0.10053587
0001a0 4c e3 a4 3b a7 6e 13 3e db f3 db 3d e9 3a 9d bc
       0.0050319787 0.1439768 0.10739871 -0.01919313
0001b0 3d f7 5b 3e 15 2e 34 3e 66 2d 4a 3e ea a5 bc 3d
       0.21481033 0.17595704 0.1974388 0.09211333
0001c0 56 35 ba 3a 1c 1e 23 3e c8 42 ad bd 3f 4e 61 bd
       0.0014206569 0.15929455 -0.08460003 -0.055006262
0001d0 70 4d e7 3d c7 f4 a9 bd 78 4d a5 3d 3a b5 57 3e
       0.11294067 -0.08298641 0.080714166 0.21065226
0001e0 85 da 70 3d 80 4a 05 3e e4 52 00 3d a5 fa ea 3d
       0.058802146 0.130167 0.03132905 0.11473588
0001f0 97 50 f6 3d ce 22 e0 3d a4 f6 cd 3c 6e 2c cd bd
       0.1202709 0.109441385 0.025142021 -0.1001824
000200 66 5a 25 3e e3 b3 3d 3d a0 f6 44 bc ef eb 4e bd
       0.16147766 0.04631413 -0.012021691 -0.050517973
000210 df 49 bd bd 0c ef 17 bd 02 d2 59 bd 19 8a 92 bd
       -0.092426054 -0.037093207 -0.053178795 -0.07155246
000220 c1 3c 9f 3d 4c 44 95 3b ae 77 c0 3c fc bf 90 3d
       0.0777526 0.0045552608 0.023494568 0.07067868
000230 40 a4 82 bd 01 db a2 bd 24 50 c4 35 8c 6a 04 be
       -0.063789845 -0.07951928 1.4626462e-06 -0.1293127
000240 42 53 80 b2 5a d0 d1 bc a8 cd d9 3d 63 8c 8d 3d
       -1.4939022e-08 -0.025612045 0.10634929 0.06911542
000250 37 1f 7a bd ac cb e1 3d 9f 4f ab bd 5b 7a d3 bd
       -0.061064925 0.110251755 -0.08364796 -0.10326072
000260 ab 2d cd bd 16 39 98 bd af 6b ac bd cc 0a c3 bd
       -0.10018476 -0.07432763 -0.084189765 -0.09523544
000270 2d 26 a4 3d a5 4a a4 bd 5a 3e af 3d e4 f8 ad bd
       0.08015094 -0.0802205 0.085568145 -0.08494738
000280 2f 0c 02 be be 7e 87 bd 40 a9 43 3d 14 af 0d 3e
       -0.1269996 -0.06615971 0.04776883 0.13836318
000290 db 02 af bd a4 84 6b bd 2d 81 c2 bd df f8 11 3d
       -0.085454665 -0.057499543 -0.094972946 0.035637733
0002a0 9f 5c 8d bd 6b fa e7 3d f2 0a cd 3d cb e5 d9 bd
       -0.06902432 0.1132706 0.10011853 -0.10639533
0002b0 fc 7d 2e 3d 3d 72 89 3d 43 4b 4d 3c 9c 9f ea 3d
       0.042600617 0.06711242 0.012530151 0.11456224
0002c0 b9 01 05 3d b2 d8 db 3d 83 c7 24 bd 95 63 e8 3d
       0.032472346 0.10734691 -0.04022933 0.11347119
0002d0 aa 6a 68 bc 7c 7c 2b 3d c1 82 91 3d 15 18 b6 3d
       -0.014185587 0.041866764 0.071050175 0.08891312
0002e0 26 12 d7 bd 7f b1 47 bc 0d 85 0d bd ce 35 92 bd
       -0.105015084 -0.012188314 -0.034550715 -0.07139169
0002f0 47 cd 08 be 30 93 ff 3b a3 a9 4d 3d b2 08 c4 bd
       -0.13359557 0.0077995285 0.050210606 -0.09571971
000300 f3 9f fb bc 64 cd ae bd b6 fc 8e 3d 37 52 91 bd
       -0.030715918 -0.08535269 0.069817945 -0.07095759
000310 83 9c 97 bc 84 14 4b bd f1 ee ca 3b c0 94 b2 bc
       -0.018507248 -0.049580112 0.006193035 -0.021799445
000320 72 78 0b 3d 9c 12 f0 3d 4a 3f c7 bd 4d bb c2 3c
       0.034050412 0.117222995 -0.09728868 0.023770953
000330 c0 2a bd bd e8 f6 85 bb 73 8f 52 bd 8b 55 b6 bd
       -0.092366695 -0.0040882714 -0.051406335 -0.08903035
000340 b9 cc e4 3d 83 f4 9c 3d 3b f5 c1 b4 fc 3c f5 3d
       0.1117186 0.076638244 -3.612748e-07 0.119745225
000350 a4 c7 a7 3d 24 c0 c3 bd 30 25 5a bc 70 0e e3 bd
       0.08192375 -0.09558132 -0.01331453 -0.11086738
000360 20 f3 6d bd ab ba 16 b9 a5 00 bc 3d c7 6c 95 3d
       -0.05809319 -0.00014374654 0.091798104 0.07296138
000370 67 84 c6 bd 7d 84 ca 3d c9 06 a5 3d 9e d6 2d 3d
       -0.096932225 0.098885514 0.08057935 0.042441003
000380 b7 7b 19 3e ed 31 8b bd 3f a6 c9 bd b3 a8 de bd
       0.149886 -0.06796632 -0.09846162 -0.108720206
000390 7d 3e f9 bd 73 22 a0 bd f8 e1 f5 b9 c8 1c b5 3d
       -0.12170122 -0.07819071 -0.000468984 0.0884338
0003a0 b9 ab 33 bd fe ed 19 3e b2 fa b2 bd 7f ab d3 3c
       -0.04386494 0.15032193 -0.087392226 0.025838612
0003b0 c4 55 c3 bd bd 0e cc bd 29 94 c4 bd 69 90 c7 bd
       -0.09537843 -0.099637486 -0.09598572 -0.09744341
0003c0 f3 cc b1 3d 32 c6 5e bd 8a ba c7 3d 05 54 31 39
       0.08681669 -0.054388233 0.097523764 0.00016911335
0003d0 76 a8 85 bd dd 4d 84 3d 06 f5 0a 3d c4 0f 78 bd
       -0.06526272 0.06460164 0.03392508 -0.06056191
0003e0 14 ca 79 3d 77 d4 5a bd e4 57 7a 3d 33 e1 9c 3d
       0.060983732 -0.05342528 0.061118975 0.07660141
0003f0 17 da 8b 3d f9 63 af bd 04 25 81 bd a7 34 02 3e
       0.06828707 -0.0856399 -0.06305888 0.12715398

fc3.bias f4 [16]
000000 d7 c9 41 3e 6c bf 01 3f 7f 8f 5e bd 50 af 67 3e
       0.18924652 0.5068271 -0.054336067 0.2262547
000010 c3 43 2e bd 5f 95 c7 bd 2a 8d 05 3d 1b 2e 03 3f
       -0.04254509 -0.09745287 0.032605328 0.51242226
000020 50 e5 81 bd 7e 88 a2 3d 02 fd 11 be b8 c3 8d bd
       -0.06342566 0.0793619 -0.14256671 -0.06922096
000030 60 f5 44 be b6 c8 ba be 10 75 db be 73 6e d3 be
       -0.19234228 -0.36481255 -0.4286275 -0.41295204
