MBTI/ANN/Model/1d/best_model.pth (torch, 77551 bytes, 6 tensors)

fc1.weight f4 [128, 1]
00000000: 71d7 1fbe 48b5 35bd 68cc 14bf 9055 edbd
00000010: e0d9 59bf 1dd3 4abb a8c5 62bf 8c8d dbbd
00000020: d864 aabd 0204 1f3e 7b96 e73c 5590 5b3e
00000030: e6a0 0bbf 8c0e 9cbd d83c 06bf 91d5 d23c
00000040: 8e4d e9bd a8ed 963c c96f 49be 37d3 213a
00000050: 2a82 1bbe ac63 b03c 54c7 15bf 7a80 28be
00000060: 0a08 5dbf b4a4 893d 59a5 d2bd 226f 443c
00000070: 3001 5bbf d83a 58bf a1c5 23be 5285 57bf
00000080: f437 1e3e b6a4 3abf e658 833d d62e f63c
00000090: 242b 8abe 3701 09bf 2abb b93d 658b e23d
000000a0: 38a2 4dbf b89a 40bf 4bfe 77be a0c9 05be
000000b0: 006c 8cba bfe6 383e 6589 833c 5e44 6bbf
000000c0: c286 3fbd b04c 28bf dcca 89be 30b4 02be
000000d0: 1f8d 8c3d fec3 efbd 1b2f 9a3b f4f9 2ebf
000000e0: 3ce2 5abf dfd4 ae3d 2e3f 1b3e bdf0 653e
000000f0: 60de a6be 20bf 17bd d7ae 6abc 00e1 27bf
00000100: 36d0 54bd 09da dfbd 002e 523d afa6 0abf
00000110: 20d2 6dbe 0a01 49bf b2dd 33bf 17c9 0bbe
00000120: 18b1 633e 830b 133c ca39 6bbf 8032 25bc
00000130: a87d cabe d078 86bd d02b afbe d106 483e
00000140: d40c 3fbe f876 44bf aaae 4dbd fcd5 69bf
00000150: 3d2a aa3d b7f6 bfbd f89a 0abe 7d92 5fbe
00000160: 4c0a afbe 2ac3 2cbf 116d 8bbd 6fbd 31bf
00000170: 11e4 37b8 6077 25be 000d e4bc d755 cbbe
00000180: 9089 71bf 18ab aabe 3009 36be 0404 8ebe
00000190: c0b1 e2be cc68 f1be 0f0c 6dbe 4083 fa3b
000001a0: 5eba 94bd 34a6 74bf a600 68bf a8a9 69be
000001b0: bcb1 74bf fba6 cd3d 6fed ebbe 41f5 9f3e
000001c0: d611 3b3e 8918 f03d b8f6 75bf 9897 d9be
000001d0: 5206 7cbf 1742 13be 1412 763e 90a4 93be
000001e0: 53a7 013e 482a 563e 8620 1dbf 129f 0ebf
000001f0: c0ae f5be cbf3 1e3e 001d df3b f04a 8dbd
-0.15609528 -0.044362336 -0.581244 -0.115885854 -0.85098076 -0.0030948587 -0.8858285 -0.10720357
-0.08320016 0.15528873 0.028269997 0.21441777 -0.54542387 -0.07619962 -0.5243659 0.025736602
-0.113917455 0.01842387 -0.19671549 0.0006173136 -0.15186372 0.021531902 -0.58507276 -0.1645526
-0.8634039 0.06720868 -0.10285444 0.011989387 -0.85548687 -0.8446479 -0.15993358 -0.84187806
0.15451032 -0.7290758 0.064134404 0.03005163 -0.2698604 -0.5351748 0.09068902 0.11061744
-0.8032565 -0.7523608 -0.24218099 -0.13065195 -0.0010713339 0.18056773 0.016056726 -0.91901195
-0.046759374 -0.65742016 -0.26912582 -0.12764049 0.06862854 -0.117073044 0.0047053224 -0.6835015
-0.85501456 0.08536696 0.1516082 0.22455116 -0.32591534 -0.037047505 -0.014323912 -0.655777
-0.051956378 -0.10930259 0.0513134 -0.5416059 -0.23224688 -0.7851721 -0.70260155 -0.13650928
0.22235525 0.008974913 -0.91885054 -0.010082841 -0.39548993 -0.06566012 -0.34213114 0.1953385
-0.18657237 -0.7674403 -0.0502154 -0.9134214 0.083088376 -0.09373229 -0.13535678 -0.21833225
-0.34187543 -0.67485297 -0.06807912 -0.6942968 -4.3843003e-05 -0.16158819 -0.02783823 -0.39713928
-0.9435053 -0.3333366 -0.17776942 -0.2773744 -0.44276237 -0.47150266 -0.23149131 0.0076450408
-0.07262109 -0.95566106 -0.9062599 -0.22818625 -0.955837 0.100416146 -0.46079585 0.312418
0.18268523 0.1172343 -0.9607959 -0.4249847 -0.98447144 -0.1438068 0.24030334 -0.2883649
0.12661485 0.20914567 -0.6137775 -0.5571147 -0.47984886 0.15522687 0.006808877 -0.06899059

fc1.bias f4 [128]
00000000: 65f4 42b9 f238 b3b9 3abb 26b9 990b 11b9
00000010: 4852 bbbe 22a7 87bb 828a 4dbf b282 c1ba
00000020: 21ee 11ba ef46 bebf 88e7 d0be 928e 86bf
00000030: 3048 7dbf 924e 70b9 2094 e1be 2891 c7be
00000040: ab5e d1b8 53ac 96be 983b e7b9 d8c8 79bc
00000050: 43d8 86b9 3aa6 b2be d3ec a7b9 1b9c 13b9
00000060: f8cf e6be 6dba 70bf bf74 5cba e38f 38be
00000070: 0e59 03bf 7790 c9b9 566f 05b8 8a64 86b8
00000080: 77b2 8cbf 6ee0 433e 8ae8 49bf 3590 dabe
00000090: c28c 3abf fc8f 10ba 01ea 97bf 8e28 bbbf
000000a0: c8b9 2fbe 8016 6dbc 93be c6b9 e30d 5bba
000000b0: a0a6 ffbd edb8 94bf b1f1 6cbe d037 dcbd
000000c0: 1a99 10ba a5ed b2b8 72f5 27bf be55 52ba
000000d0: 21e8 76bf 7241 93b8 2ae0 8dbd 00f3 d4be
000000e0: c4ca fcbe 20a8 91bf 1f2a 7fbf 2875 c4bf
000000f0: f6ae 58bf f169 cdb9 4111 b0b9 1607 7cb9
00000100: fd82 7cb9 0036 da3e 4818 65bf 452a 07ba
00000110: 9641 84b9 03ec bdb9 4a75 c5b9 47fa 8fb9
00000120: b05e acbf 8030 09be 75ac 66b9 f0fc 7dbe
00000130: b0ca 2cbf fc0a 13bf 889b 44be 000f babf
00000140: 9bd0 f6b9 80b4 b0be 45b7 79b8 7193 293e
00000150: 9748 8bbf fe16 37bb 6c4c 4cbf 2c09 6eb9
00000160: 68ce 55bf 1bb6 f0b9 4249 f5b8 5b48 813d
00000170: f002 1bbb 46a1 a43e eaf6 69bf 43b7 49b9
00000180: 96bf 5ebf 5001 86be 901f fab9 5cfd aabe
00000190: ec49 6ebf 0fa7 5eba b0a9 8ab9 aba5 e5bd
000001a0: ec71 8ab9 5580 c4b9 3040 afbd c14a 83b9
000001b0: c43a cbbe 175f aabf 46a7 88ba eb99 eebf
000001c0: 1627 8fbf 657b 66bf 90cd f3bd 50db 46be
000001d0: bceb 8c3e 7bc1 09b9 77c9 b6bf dc74 3cbf
000001e0: dd20 6dbf f680 c0bf bfa3 7fba c830 07be
000001f0: 18a1 9abe 2b9b 70bf d8ee 09bf 7813 23be
-0.00018592326 -0.00034183968 -0.00015900741 -0.00013832598 -0.36586213 -0.004139797 -0.8028947 -0.0014763682
-0.0005566795 -1.4865397 -0.40801644 -1.0512259 -0.98938274 -0.00022917453 -0.44058323 -0.38977933
-9.98353e-05 -0.29428348 -0.00044104154 -0.015245639 -0.000257196 -0.34892446 -0.0003202917 -0.00014077166
-0.45080543 -0.94034463 -0.00084097305 -0.18023638 -0.5130776 -0.00038445342 -3.181336e-05 -6.408345e-05
-1.0991963 0.19128582 -0.7887045 -0.42688146 -0.7287103 -0.00055146194 -1.1868287 -1.4621751
-0.17160714 -0.014470696 -0.00037907492 -0.00083562563 -0.12482953 -1.1618935 -0.23139073 -0.10752833
-0.0005515978 -8.531966e-05 -0.65608895 -0.0008023641 -0.9644795 -7.0216964e-05 -0.069275215 -0.41591644
-0.49373448 -1.1379433 -0.99673647 -1.5348253 -0.8464197 -0.0003917958 -0.0003358219 -0.00024035232
-0.0002408139 0.42619324 -0.89490175 -0.000515614 -0.00025225867 -0.00036224732 -0.00037662155 -0.00027461557
-1.3466396 -0.13397408 -0.00021998755 -0.24803519 -0.67496777 -0.57438636 -0.19199955 -1.4535828
-0.000470762 -0.3451271 -5.953691e-05 0.1656015 -1.0881528 -0.0027937288 -0.7980411 -0.00022700866
-0.83518076 -0.00045912046 -0.00011696156 0.06312629 -0.0023652874 0.32154292 -0.91392386 -0.00019237124
-0.87011087 -0.26172876 -0.00047707232 -0.33396423 -0.93081546 -0.00084935216 -0.00026447838 -0.11213239
-0.0002640629 -0.00037479648 -0.08557165 -0.00025041963 -0.39693272 -1.3310269 -0.0010425828 -1.8640722
-1.1183803 -0.90032035 -0.11904442 -0.19419599 0.275236 -0.00013137415 -1.4280232 -0.73615813
-0.9262827 -1.5039356 -0.0009751878 -0.13202202 -0.3020103 -0.9398677 -0.5388007 -0.15925395

fc2.weight f4 [128, 128]
00000000: dfd6 a33c 2efb 433d 8ae0 073d 837d 24bd
00000010: 83d7 823d ea75 423d c724 893d ca63 3c3d
00000020: 5246 efbc d7bf 02bd 6a1c 23be b624 56be
00000030: f015 c4bb ced0 9a3c 4e6e 783d 9c3a 89be
00000040: 261b 1c3d 51af debd ca4c fdbd 3160 7ebd
00000050: 3204 a5ba cb80 03be 970b 9ebd ad6f debd
00000060: 1b75 69bd e579 dcbd 9612 b4bd 8d42 89bd
00000070: ae13 f5bc 43e0 94bb b4c7 e93c 627d 95ba
00000080: 001b 15be 76bf d0bd 6b88 853d 3af2 8dbc
00000090: 4c59 3dbd e2d3 8fbd 09a6 a7bd 1a86 c9bd
000000a0: a002 8cbb 2e6e a0bd a460 4fbd 5c9e 993c
000000b0: f9e4 823d e68d b4bd 70d7 0c3d 5025 0c3c
000000c0: 3468 903c 0278 a3bd e0ed 3e3b da89 9dbd
000000d0: ffe5 55bd 07c4 a53d e4f9 34bd 1a86 95bd
000000e0: 0dc0 873d b3ab 8fbe c2f4 d4bd d75d 19be
000000f0: cebb 783d 4068 c0ba 3865 babc a800 8d3c
00000100: dfb5 ebbc 1ea1 c63d 64fe bcbc 2bf6 31be
00000110: 69e4 7dbd b8e9 97bc b046 043d b9b1 a93d
00000120: ce5a 04be c043 df3d 204d 14bd 8865 c1bc
00000130: cb7d 803d 14e0 13bd 86bf 86bd e1e4 51bd
00000140: c642 53bd 6abf 8ebd 5d42 883d 2efa e4bd
00000150: e23d 8cbd 904d ddbb 2e2c 1d3d bef9 11bd
00000160: 4e46 773d c8de b13c 2030 833c ee9f 1bbe
00000170: bc36 15bd bf09 c9bd 7624 a9bd 5f97 0dbe
00000180: 64c4 41bd 989b f2bc d41b aebd 9fd1 14bd
00000190: d27e 08bd 80d0 f0bb e0bd 91bb fbd9 993d
000001a0: 891f 0ebc 0e0d 23be 6371 ad3d 3f1b 90bd
000001b0: 288d dc3c 6658 4ebe ccad f4bd b8f1 d2bc
000001c0: 0f2e 0bbd 7523 a43d 5065 313c 84f5 a6bc
000001d0: 5364 f9bd 9dd3 a03d 1c7d 8fbc 5050 8cbd
000001e0: 49ca 9ebd 067e 33be 9c46 16bd 94d6 0cbd
000001f0: 741b 013d c41a 73bd 3069 623c 3320 b2bd
00000200: ad00 d63d 86fd 553c 9d69 223d c4d8 76bd
00000210: 1419 f4bc 9d58 84bd e30b ab3d f2b8 bfbd
00000220: 1184 473d d169 ae3b eee0 713b ce8b 8c3d
00000230: 11a5 b13d 4130 78bd 7e02 84bd b6bc 3e3d
00000240: 4026 1d3c d8a2 3d3d 5673 b4bc 66df 753d
00000250: d65d 05bd ad47 a0bc fe86 293d da4c bcbd
00000260: feca 96bd 01fe d8be 2f63 e23c 4a0e 9fbd
00000270: 48d3 11bd 5ca9 093e c955 b63c 2b20 ac3d
00000280: c2c3 acbb 763f f0bc f481 043c 5016 15bc
00000290: 0d9d 863d 2511 163e 4336 78bd caf6 acbd
000002a0: 2261 9dbd 9cd7 87bd e62c f43a bfb1 80bc
000002b0: 1bd6 40bd 2634 2f3c 767f 983c b109 30bd
000002c0: 88eb 103d 8232 1c3c 64bb cdbc bb93 383d
000002d0: a136 8dbd cddb 8cbc 211d 3b3c 4b8d 8abd
000002e0: 6b1a 893d e24e 0bbc a859 f7bc 48f7 04be
000002f0: cbc7 9d3d 660a c4bd 5067 79bd 4139 e93d
00000300: f3ed 6d3d c647 22bf 8cdc 8fbd 056b 303c
00000310: 0103 b13d 28a0 243d eca4 f93d fcfd 813b
00000320: f6bd 26be 965c 823d fa25 e53d 47c1 75bd
00000330: 6e5a 4d3d 3f38 a73d c2c3 0d3d 3002 a63a
00000340: 8c73 6dbe 8710 a2bd 43f5 21bd 8cd5 333c
00000350: d93c 0dbe b003 533d ed6d 963d fbb3 e6bd
00000360: a806 a8bd 868a 053e c2bd 88bd 868f 6fbc
00000370: 5401 253c d448 3cbc 4646 90bd f7c3 0fbe
00000380: e0c1 5ebb 0018 85b8 dc41 963d 363c 6b3d
00000390: 6307 14bd ac0d 8ebc 34a5 9c3d c62b 65bd
000003a0: 086b 57bd 0548 c73b 103e 083d 14d2 8e3d
000003b0: 5b1c ac3d 875f 3ebf 7051 273d 0b51 92be
000003c0: 585a b8bd 5009 dfbd 8e87 a9bd b47c d5bc
000003d0: 676c 8c3d a5a9 c5bd bcf2 f6bd 4e59 533d
000003e0: 3b57 093c ae7e 3ebd 948d 0a3e 59e9 ab3d
000003f0: 4666 613d 2953 99bb d815 b3bd 02dd 95bd
0.01999992 0.047846965 0.03317312 -0.04015876 0.06388762 0.047475733 0.06696468 0.045993604
-0.029208336 -0.031921234 -0.15928808 -0.20912442 -0.0059840605 0.018898394 0.06065207 -0.26802528
0.03811183 -0.10873283 -0.12368162 -0.062103454 -0.0012589751 -0.128421 -0.07717054 -0.10861144
-0.056996446 -0.10765437 -0.087926075 -0.06702147 -0.02991661 -0.0045433356 0.028537609 -0.0011405165
-0.14561081 -0.10192768 0.0652016 -0.017327417 -0.04622774 -0.07022835 -0.081859656 -0.09840031
-0.004272774 -0.07833515 -0.050629273 0.01875227 0.06391329 -0.088161275 0.034385145 0.008553818
0.017627813 -0.07981874 0.0029133484 -0.07692309 -0.052221294 0.0809403 -0.044183627 -0.073009685
0.06628428 -0.28060684 -0.10398246 -0.14977203 0.06072598 -0.0014679506 -0.022753343 0.017212227
-0.028773246 0.096986994 -0.023070522 -0.17379062 -0.061985407 -0.018544063 0.032293975 0.08285851
-0.12925264 0.10901594 -0.036206365 -0.023607984 0.06273993 -0.03610237 -0.06579499 -0.051243667
-0.051577352 -0.06970103 0.06653283 -0.111805305 -0.06847741 -0.006753631 0.03837221 -0.035638563
0.060369782 0.021712676 0.016014159 -0.15197727 -0.036429152 -0.09816312 -0.082589075 -0.13827275
-0.047306433 -0.029615209 -0.085014015 -0.036332723 -0.03332407 -0.007349074 -0.0044476837 0.075122796
-0.008674511 -0.15922949 0.084688924 -0.07036447 0.026922777 -0.20150909 -0.119472116 -0.025750026
-0.03397947 0.080145754 0.010827377 -0.020380743 -0.121773385 0.07852862 -0.017515711 -0.06851256
-0.077534266 -0.17528543 -0.036688432 -0.034384325 0.031520322 -0.059351698 0.013819024 -0.08697548
0.10449348 0.013060933 0.039651502 -0.060265318 -0.029797114 -0.06462214 0.083518766 -0.093614474
0.048709933 0.005322673 0.003690775 0.06862603 0.08674062 -0.060592894 -0.06445788 0.046566688
0.009591639 0.046297878 -0.022027653 0.060027502 -0.032560192 -0.019565428 0.041388504 -0.09194346
-0.073629364 -0.4238129 0.027635185 -0.07766397 -0.035601884 0.13443512 0.022257702 0.08404573
-0.0052723596 -0.029327136 0.008087624 -0.009099558 0.06572924 0.14654978 -0.060598623 -0.08445509
-0.07684542 -0.06632921 0.0018629103 -0.015709756 -0.047079187 0.0106935855 0.018615466 -0.042977992
0.03538087 0.009533526 -0.025113769 0.04506276 -0.06895185 -0.017194653 0.011420519 -0.06765231
0.06694492 -0.008502694 -0.030194119 -0.12984955 0.07704123 -0.09572296 -0.060889542 0.113878734
0.058088254 -0.6339077 -0.07024488 0.010767703 0.08643151 0.0401918 0.121896595 0.003967045
-0.16283402 0.063653156 0.11188884 -0.059998777 0.05013507 0.08165025 0.034610517 0.0012665447
-0.23188609 -0.079133086 -0.03954054 0.0109762065 -0.13792743 0.05151719 0.073451854 -0.11264797
-0.082043946 0.13041124 -0.066768184 -0.014621621 0.010071117 -0.011491973 -0.070446536 -0.14039598
-0.003399007 -6.3464046e-05 0.073367804 0.05743047 -0.036139857 -0.017340504 0.076486975 -0.05594995
-0.052592307 0.0060815834 0.033262312 0.06973663 0.08403846 -0.74364513 0.04084915 -0.28577456
-0.09001607 -0.10890448 -0.08277808 -0.02606044 0.068566136 -0.09651498 -0.12058017 0.05159884
0.008382614 -0.04650753 0.1353057 0.08394117 0.055029176 -0.004679103 -0.08744401 -0.073175445

fc2.bias f4 [128]
00000000: 58df ccbc f254 f0bc 2fb3 78bd b83d c8bd
00000010: 4d1b 28bd c0c3 e9bc b273 66bc 816c a3bd
00000020: ebfd a1bc b750 dcb7 54c2 f73b 3756 2dbc
00000030: 8504 8ebc 341a dcbc 902a f0bb f888 adbc
00000040: 9bae 84bd ed99 45bc 2bac 90bd ead6 8ebd
00000050: 0b01 8cbc e0ad 94bd e9a3 81bd 32be c63c
00000060: 8232 04bd 10ad 41bd bb09 b3bb bca2 93bd
00000070: 4089 9a3c c8f1 a4bc e8c9 a4bd fb56 38bb
00000080: ef5c 9abb 1960 afbd ce56 9bbd 999f b9bc
00000090: 530b 5dbd c692 81bd ceb1 3dbd d10b 88bd
000000a0: e694 4dbd 399a c3bd 6d07 91bd 4f87 05bd
000000b0: 2796 9bbb c7b4 b6bd 8f55 bdbd a00f 06bd
000000c0: 7cc4 97bd 0d27 9bbd 4a51 e6bc 65c0 2bbd
000000d0: 9fe5 4dbb 6887 02bd 8de8 d1bb 71e1 a9bd
000000e0: 6e2f 36bd 88d8 ebbc ec2f f9bb 9891 babb
000000f0: 3c61 52bb 205e b9bd c143 34bd 6705 86bd
00000100: 6649 5abd 1c1b acbd 6d06 58bd 4f57 20bd
00000110: 0cf2 9fbc d801 13bd 336a 66bb ea64 f4bc
00000120: db89 87bd 155c fcbc 00e8 17bd fc4c d3bd
00000130: 60b4 7cbd 80cf 77bd c9a9 c9bd 418e 94bd
00000140: eebd 0cbd 47db d2ba 6df4 39bc 83ce 86bd
00000150: aff0 36bd b018 64bc 6256 dfbc eb08 a1bd
00000160: 7ffe 15bc 88b3 b9bd 83bd cebc f2e7 5abc
00000170: fb14 07bd f864 dbbc f30b 8fbc 3d48 48bd
00000180: 1a11 9ebd 6763 08ba befd aebd 42c7 70bd
00000190: c6ae f5bc 4cdc 24bd 2580 84bd c505 d93c
000001a0: 93a4 f2bc 9390 e0bc b29e 05bd 8422 18bc
000001b0: 3096 ecbd 6c59 9bbc bd20 88bc 7d94 30bd
000001c0: b5f6 f4bd 206a 90bc e384 42bd cf1e 13bb
000001d0: ba4b 90bd e874 b13c 760e 82bd a0a1 93bd
000001e0: 6586 14bd f4ac 74b9 a58c 5cbd 83be a8bd
000001f0: b63a 1cbd f0a8 99bd 0fa3 aebd 00a5 0cbd
-0.025008842 -0.02933738 -0.060717758 -0.09777397 -0.04104166 -0.028535724 -0.01406567 -0.0797968
-0.019774398 -2.626363e-05 0.0075610075 -0.010579637 -0.01733614 -0.026867963 -0.0073292926 -0.021183476
-0.06478616 -0.012060625 -0.070640884 -0.06974585 -0.017090341 -0.072597265 -0.063300915 0.024260614
-0.03227473 -0.047284186 -0.0054638064 -0.072087735 0.018864274 -0.020134822 -0.08046323 -0.0028128016
-0.0047107856 -0.08563251 -0.07584916 -0.02265911 -0.053965878 -0.06326823 -0.046312146 -0.06642879
-0.05019083 -0.095509 -0.070814945 -0.032599743 -0.004748124 -0.08921199 -0.09244835 -0.032729745
-0.07410523 -0.07575808 -0.028114934 -0.04193153 -0.0031417382 -0.031867415 -0.006405896 -0.08294953
-0.044478826 -0.028789774 -0.0076045897 -0.0056936257 -0.0032101413 -0.09051156 -0.044009928 -0.06543999
-0.053292654 -0.08403608 -0.052740503 -0.039145764 -0.019524597 -0.03589043 -0.0035158515 -0.029833276
-0.06618091 -0.030805627 -0.037086487 -0.10317418 -0.061695457 -0.06050062 -0.09846837 -0.07253695
-0.03436082 -0.0016087078 -0.01134978 -0.06582358 -0.044663128 -0.013921902 -0.02726287 -0.07863029
-0.009154915 -0.09067446 -0.02523685 -0.013360964 -0.032978993 -0.026781544 -0.017461753 -0.048897017
-0.077181056 -0.00052028004 -0.08544491 -0.058783777 -0.029990565 -0.040249154 -0.06469754 0.026492009
-0.02961949 -0.027412688 -0.032622047 -0.009285573 -0.115520835 -0.018963538 -0.016617173 -0.04311036
-0.11961118 -0.01762873 -0.047490012 -0.0022448783 -0.07045694 0.02166219 -0.063504145 -0.07208562
-0.03626098 -0.00023334083 -0.053845067 -0.08239462 -0.03814193 -0.075029254 -0.08527195 -0.034337044

fc3.weight f4 [16, 128]
00000000: 1983 a3c0 9823 debf ceea 1f3e fd39 00bd
00000010: 3634 c33e 40ba 91bf 9b9b 77bf 5b1b 96bc
00000020: 4231 89be a416 c1c0 67e5 a3c0 18cc 08c0
00000030: bb87 06bf bd8e b8bd 4b87 7ebf e830 053e
00000040: 8986 15be b5c6 20c0 3625 acbc 417a a3bf
00000050: dc83 5abd dfa8 4b3e 7e90 633e 5502 28c1
00000060: 833c a6bf eaea 29bf a77e 00c0 94ce 84bc
00000070: 13e7 a6c0 e9ba 92c0 cd93 e0bd f311 41bf
00000080: 9fb8 fabf 32a2 20bd 0151 00bd a743 77c0
00000090: 67fa 8f3d 72d2 c4bd 58be 1a3e cc1b f1bf
000000a0: 39d7 02bd f0ae 63bd cc05 a93e b959 07c0
000000b0: d567 88bf 6954 e1bf a1b7 77bd 9731 04c0
000000c0: 5dc4 04bd 3e55 bd3c 7289 9fbd e1bb 063c
000000d0: 4024 65c0 bfcc 73c0 32d4 e7be 395f 31be
000000e0: c360 afbc d0bd 49c0 a046 183b 76f1 00bc
000000f0: 3e5a c5bc 3e9f 92bf 1f06 9b3e b659 e1bc
00000100: 207d b1bd 24f5 9abd d2f3 c83c 47c3 abbc
00000110: c7f5 4dbe e76e a3bf e1b0 e9be 2658 cdbd
00000120: bb26 193d 1673 80bf 2ab6 363e 6b0b 2cbd
00000130: a15c 923c fdb7 e43d 59d2 5ebc 3303 223e
00000140: 6ffa 813e 57a3 1ac0 c42c 9ebf 7f06 513d
00000150: 8684 0bc0 4d89 86c0 00f1 a1bc 2c34 c3bd
00000160: 8b7b f6bd 9f8c d6bc 5db9 0d3e 9c79 003e
00000170: 70cf 0ac1 1b0f a1bf f27c 9a3c 5b23 523e
00000180: 03e3 0bbe bee5 9d3b 9a4d 183e fd1a 993e
00000190: 913e cabf 09ba 583f f69f 77bd 7f7d 67c0
000001a0: 584a babf a2d3 d9bc df30 ea3b 3867 433d
000001b0: 9f5c 8a3d be3e 9abd 4799 a7bd 783a 753f
000001c0: 6817 82be 96a7 6dc0 d2a0 00be 1bfe 7abd
000001d0: 7a12 08bd e614 a2be 4fed 8a3b ca88 35bf
000001e0: 8b94 6ebf 2a21 71bf 241c dabc 549e 87bd
000001f0: 1893 073f 86a8 8bbc 7e6b bbbf eb5d 0ebe
00000200: 78fa 4bbf ade3 d0c0 593b 09bf 2c66 24bd
00000210: 42ac 24c0 4c64 8ac0 763e 1fbf f7bd 3dbd
00000220: 5ac1 e0be f3f3 9dc0 8350 87bf 321f d8c0
00000230: a059 cebe 8d57 bbbd 3766 4dc0 64d5 81bf
00000240: a84a ffbd 179d 77c0 e93f a6bd e293 84bf
00000250: 214d 4c3c 9fb8 b9bf 893e 39bf 1fee 35c0
00000260: 5509 8ec0 cec5 19bf 5bb2 e4bf d01d 693a
00000270: e774 78c0 31a3 45c0 e73a d8bd bd7d 02c0
00000280: ba11 98bf 2660 6fbd af69 793d 7a8f 81be
00000290: 3106 a33d f3d5 e23c c9d2 dbbf 55d8 a0bf
000002a0: dcf5 8bbd 2f0b 95bd 51d1 3bc0 b6d2 a2bf
000002b0: a415 2fbe 8436 9dbf a0f4 04be dce3 d2bf
000002c0: 8aac e03b ae61 a1bd c1b4 e9bc 3a68 7cbe
000002d0: 408a 23c0 ef68 1bc0 b537 e5bf a36b b6bd
000002e0: c7ee e2bd 239b aabf 26b0 f3bd c655 9ebd
000002f0: aa7c 84bd 0ab9 52bf 2224 32c0 47cf f5bc
00000300: d221 8fbd 2167 22bc b8b3 613c fbe6 03be
00000310: 3b0b fdbe a9f0 60bf 501c edbf 9b2e 0f3b
00000320: 9075 7c3d 1bee 8cbf 17ed 6bbf c0b8 44be
00000330: 3f0d cebb df19 10c0 a787 103c 764b 1cbf
00000340: fa62 c8bf 7487 0cc0 77fd 01c0 2a3b 8abe
00000350: 2b4c 8dc0 b0bf 2bc0 2611 8ebf 9fd6 b1be
00000360: c32c 23be bd9d e33c 73a7 9cbf d61b 30bf
00000370: 689b b6bf 2123 52bf 1648 2dbf b2c9 9bbf
00000380: 950c 28bd 840c 70bf d860 73bf 8146 ebbf
00000390: 0a33 51bf 8220 a7c0 700d f0bd a981 b9bf
000003a0: 1ed7 b6bf 6eb3 d7bd ca35 b43c 848f 29bf
000003b0: f3aa f9be d051 7fbd d75b 82bf b18d b2c0
000003c0: 5fbe 12be 91bf 1ac0 2ea4 cebd 2831 3fbe
000003d0: ee88 a7bd 6e32 61be 6ec2 a9bd 7f79 8dbe
000003e0: dfed 2fc0 0b44 06bf 6123 cbbd 6087 96bd
000003f0: 803c 89c0 7566 533d 197c 67bf d7e1 a4be
-5.109753 -1.7354612 0.15616915 -0.031305302 0.3812577 -1.1384964 -0.9672181 -0.018323591
-0.26795393 -6.0340137 -5.121753 -2.137457 -0.5255086 -0.090116 -0.9942519 0.13006938
-0.14602102 -2.512128 -0.021013837 -1.2771684 -0.053348407 0.19888638 0.22223088 -10.500569
-1.2987217 -0.66374075 -2.0077302 -0.016211785 -5.2157073 -4.585316 -0.10965691 -0.75418013
-1.9587592 -0.03921718 -0.03132725 -3.8635042 0.07030182 -0.09610452 0.15111673 -1.8836608
-0.031943534 -0.055586755 0.33012235 -2.1148512 -1.0656687 -1.7603885 -0.060477857 -2.0655267
-0.03241383 0.023111936 -0.077898875 0.008223505 -3.5803375 -3.8093717 -0.4527908 -0.17321481
-0.021408444 -3.1522102 0.0023235455 -0.007870069 -0.024090882 -1.1454847 0.30278108 -0.027508598
-0.08666444 -0.07566288 0.024530325 -0.020967139 -0.20113288 -1.276822 -0.4564276 -0.100265786
0.037390452 -1.0035121 0.17842928 -0.042003077 0.017866435 0.111679055 -0.0135999555 0.15821533
0.25386378 -2.4162195 -1.2357411 0.051031586 -2.1799636 -4.2042603 -0.019768238 -0.09531435
-0.12035283 -0.0261901 0.13840242 0.1254639 -8.675644 -1.2582735 0.018858407 0.205213
-0.13660817 0.004818647 0.14873353 0.29903403 -1.5800344 0.8465887 -0.060455285 -3.6170347
-1.4553938 -0.026590172 0.007146939 0.04770586 0.06755947 -0.075314984 -0.08183532 0.9579234
-0.25408483 -3.7133536 -0.12561348 -0.06127749 -0.033220746 -0.3165657 0.004239715 -0.7091185
-0.9319541 -0.9419123 -0.026624747 -0.066219956 0.5295882 -0.017048132 -1.4642179 -0.13903014
-0.7967906 -6.5277925 -0.5360618 -0.0401365 -2.5730138 -4.3247433 -0.6220468 -0.046323743
-0.43897516 -4.936029 -1.0571445 -6.753808 -0.40302753 -0.09147558 -3.2093637 -1.0143247
-0.124654114 -3.868963 -0.08117659 -1.035763 0.012469561 -1.4509467 -0.72361046 -2.8426588
-4.438639 -0.6006745 -1.786693 0.0008892687 -3.8821352 -3.0880854 -0.1055811 -2.0389245
-1.188041 -0.058441304 0.060891803 -0.25304776 0.07960165 0.02768991 -1.7173702 -1.2566019
-0.06834003 -0.07277524 -2.9346507 -1.2720554 -0.17098099 -1.2282262 -0.12983942 -1.6475787
0.0068565058 -0.07879959 -0.028528573 -0.24649134 -2.555313 -2.4282796 -1.7907625 -0.08907249
-0.110806994 -1.3328594 -0.11898832 -0.07731204 -0.0646909 -0.823136 -2.7834554 -0.030006064
-0.069888726 -0.009912283 0.013775758 -0.12881081 -0.4942263 -0.8786722 -1.8524265 0.0021847847
0.061635554 -1.1010164 -0.92158645 -0.19211102 -0.0062882 -2.251579 0.008821405 -0.61052644
-1.5655205 -2.1957674 -2.0310953 -0.26998264 -4.415548 -2.6835747 -1.1098983 -0.34734055
-0.15935044 0.027785176 -1.2238601 -0.68792474 -1.4266176 -0.8208485 -0.6768812 -1.2170928
-0.041027624 -0.937691 -0.95069647 -1.8380891 -0.81718504 -5.2227182 -0.11721313 -1.4492694
-1.4284399 -0.1053227 0.021998305 -0.6623461 -0.48763236 -0.06233388 -1.0184277 -5.5797963
-0.14330433 -2.4179423 -0.100899085 -0.18671095 -0.08180414 -0.21991894 -0.08289038 -0.27631757
-2.7488935 -0.52447575 -0.09918857 -0.073500395 -4.2886353 0.051611383 -0.90423733 -0.32203552

fc3.bias f4 [16]
00000000: 2ef1 d5bf e528 20c0 9c54 f7bf 46c4 02c0
00000010: 9b0b 5dc0 76c4 63c0 ff0f c2bf 0821 1dc0
00000020: 62b7 54c0 d0ca 4ac0 9cb3 6bc0 07e9 64c0
00000030: f910 87c0 f41f 95c0 71b3 97c0 5ba2 95c0
-1.6714227 -2.502496 -1.9322696 -2.0432296 -3.4538333 -3.558866 -1.5161132 -2.455141
-3.3236928 -3.1686287 -3.6828375 -3.5767229 -4.220822 -4.6601505 -4.7406545 -4.676069
