MBTI/ANN/Model/pr/ELM/best_model.pth (torch, 85743 bytes, 6 tensors)

fc1.weight f4 [128, 17]
000000 40 33 50 36 2f 2d b5 b5 b3 fc 4d b6 64 95 a3 34
       3.1024247e-06 -1.3498701e-06 -3.069447e-06 3.0469812e-07
000010 fa cf eb 32 98 7c 00 00 02 3e 89 b5 91 e9 10 b5
       2.7452177e-08 4.4696e-41 -1.0225342e-06 -5.3984064e-07
000020 22 2b bf 32 23 71 8f 34 f0 58 f7 32 11 a8 1e 35
       2.2254941e-08 2.6718143e-07 2.8795029e-08 5.9104156e-07
000030 f7 25 00 80 13 d1 11 b3 6f 2d 00 00 e0 b0 00 80
       -1.3619e-41 -3.3950595e-08 1.6299e-41 -6.3451e-41
000040 50 a3 c3 b7 08 0d 26 b2 50 18 72 b0 0d e1 a3 31
       -2.332186e-05 -9.665435e-09 -8.807364e-10 4.7695097e-09
000050 74 11 84 30 c7 2a 6f b0 13 b6 44 2d 8b d0 7d b2
       9.609225e-10 -8.7008484e-10 1.1181739e-11 -1.4773955e-08
000060 a4 4d 23 32 4d 5b 24 b2 22 aa b6 2f 83 18 07 00
       9.505502e-09 -9.566816e-09 3.3226494e-10 6.51642e-40
000070 40 98 96 2c 1a 8b 00 00 ea 29 00 80 5c 4c 01 00
       4.2801596e-12 4.99e-41 -1.5036e-41 1.19228e-40
000080 40 42 00 80 70 4b fb b2 27 70 c5 10 ae 19 0a 10
       -2.3766e-41 -2.925455e-08 7.78756e-29 2.7235484e-29
000090 dd ed 86 90 fc f1 83 10 ac c3 00 00 80 a4 d3 04
       -5.322017e-29 5.2043225e-29 7.0194e-41 4.975693e-36
0000a0 da 53 04 90 98 0a 2d 90 c0 91 ab 82 61 55 92 8f
       -2.6097007e-29 -3.4126395e-29 -2.5209848e-37 -1.4429598e-29
0000b0 fc a2 cd 0e 68 6a 01 80 c7 09 d1 37 b2 87 01 80
       5.069335e-30 -1.30007e-40 2.4919294e-05 -1.40514e-40
0000c0 6e cd 00 00 16 52 01 80 d9 ae 48 a4 9d 5a 83 16
       7.3694e-41 -1.21282e-40 -4.351619e-17 2.1221376e-25
0000d0 70 83 00 00 02 50 d7 a1 14 1e 00 80 a7 af 00 80
       4.7151e-41 -1.4590145e-18 -1.079e-41 -6.3012e-41
0000e0 cd 8d 00 00 70 56 60 a6 0d 67 80 22 da 72 00 80
       5.0869e-41 -7.7832756e-16 3.480358e-18 -4.1201e-41
0000f0 eb 5b 00 80 88 f8 00 00 31 9c 00 00 a1 3a 00 80
       -3.2974e-41 8.9156e-41 5.6031e-41 -2.1032e-41
000100 1c 36 00 80 4a 46 00 00 74 15 00 00 1b 5a 69 ba
       -1.9411e-41 2.5215e-41 7.696e-42 -0.00089016714
000110 c7 f8 2e be 80 00 df 3c 14 e9 ed 3e 06 64 33 3e
       -0.17087089 0.027221918 0.46466887 0.17518625
000120 b5 58 24 3c fe 3c 47 bc b2 97 07 3d 0a 71 8d be
       0.010030915 -0.012160538 0.033103652 -0.27625304
000130 f1 8f 3a 3c de 9f 60 3d 84 49 e2 bb 5a eb c5 3c
       0.011386857 0.05483996 -0.0069057364 0.024160076
000140 3b 60 94 ba fa ff 0d 03 f7 ea 00 00 6e 4a 01 80
       -0.0011320183 4.1730023e-37 8.429e-41 -1.18536e-40
000150 91 14 26 bd 08 12 79 8a 9d 46 d3 0a 0f f5 82 8b
       -0.040546957 -1.1992305e-32 2.0345123e-32 -5.04429e-32
000160 86 c6 07 8a 36 7b 98 0b 8b 95 00 80 ac d7 62 0a
       -6.537352e-33 5.873366e-32 -5.3646e-41 1.09220676e-32
000170 d1 2e b3 0a 52 5f 42 0a 5b 35 44 09 42 2d 62 09
       1.7254683e-32 9.358688e-33 2.361773e-33 2.722504e-33
000180 de 91 5d 87 ab 6d 6e 2c 94 11 00 00 a9 73 4a b8
       -1.6669059e-34 3.3882712e-12 6.306e-42 -4.826827e-05
000190 b9 e9 00 80 21 d1 19 a0 bc bf d0 1b c9 72 64 9b
       -8.3844e-41 -1.3028799e-19 3.453462e-22 -1.8896807e-22
0001a0 15 8a 8b 1b db ee 8c 1a 0c 53 2c 1b a3 e7 1f 1b
       2.3084854e-22 5.8288535e-23 1.425434e-22 1.3227018e-22
0001b0 dd d4 c8 9b 97 12 04 9b 14 96 64 19 de 64 47 1b
       -3.3224784e-22 -1.0924791e-22 1.1817632e-23 1.6493486e-22
0001c0 20 41 1d 94 2c c6 08 9b b0 f2 80 b5 d8 fc 9b ac
       -7.939318e-27 -1.1313689e-22 -9.607375e-07 -4.4334363e-12
0001d0 e0 76 00 80 89 8e 00 00 7a 6e 3f b6 54 4f d8 2f
       -4.2644e-41 5.1132e-41 -2.8525524e-06 3.9346537e-10
0001e0 0c ca 46 30 e7 f2 97 31 a5 fc 08 31 50 e6 2d 34
       7.2319106e-10 4.422293e-09 1.9934216e-09 1.6195668e-07
0001f0 d0 c7 06 81 06 65 67 b0 c2 86 12 b1 9e 05 8f ad
       -2.4755271e-38 -8.4180873e-10 -2.1322397e-09 -1.6259712e-11
000200 41 25 b4 31 97 2b 0c 32 da 33 b7 b0 1b 2a 29 30
       5.2429248e-09 8.158984e-09 -1.332974e-09 6.154168e-10
000210 98 cb 7e b5 48 e9 9f ac d1 1e 01 80 fa e7 f2 b2
       -9.491864e-07 -4.5449512e-12 -1.0289e-40 -2.8277999e-08
000220 07 2a 05 b0 8f d0 10 94 51 d2 25 b0 64 c8 9f a9
       -4.844484e-10 -7.311273e-27 -6.032553e-10 -7.095781e-14
000230 36 78 00 00 9d 50 00 00 5f 41 8f b4 3c f5 d9 b4
       4.3124e-41 2.8919e-41 -2.668339e-07 -4.059783e-07
000240 4c 72 00 00 1d 3f 69 1a 2d 8a 00 00 f2 2c 00 80
       4.1002e-41 4.8234253e-23 4.9568e-41 -1.6123e-41
000250 28 34 2c b5 c4 f5 d6 2d 4a 05 8d b1 69 fb 00 80
       -6.415089e-07 2.4438125e-11 -4.1042414e-09 -9.0189e-41
000260 88 f8 47 bb a6 d9 da 35 36 d9 9a a9 2f 39 2a b7
       -0.0030513126 1.630561e-06 -6.876654e-14 -1.0146104e-05
000270 8a 31 9c 34 7a 61 01 80 48 9c 00 00 33 00 32 38
       2.909331e-07 -1.26803e-40 5.6063e-41 4.2438693e-05
000280 d4 4e 5f b7 74 76 01 00 0c be 07 31 18 0a 00 80
       -1.3310189e-05 1.34328e-40 1.9753115e-09 -3.621e-42
000290 56 31 00 80 8e 09 01 00 66 88 03 00 06 38 01 80
       -1.7698e-41 9.5263e-41 3.24437e-40 -1.11933e-40
0002a0 4c 51 01 80 b5 8e 52 bb 38 1f 01 00 82 73 01 00
       -1.21e-40 -0.0032128517 1.03035e-40 1.33272e-40
0002b0 b1 74 00 80 67 66 00 80 c0 13 67 a4 43 e9 e3 b7
       -4.1861e-41 -3.6735e-41 -5.010687e-17 -2.716913e-05
0002c0 ec 0d 00 00 67 b0 00 00 ab f7 00 00 07 b0 00 80
       4.994e-42 6.3281e-41 8.8847e-41 -6.3147e-41
0002d0 43 07 00 80 a5 0f 00 80 12 47 08 b7 f8 cf 99 b4
       -2.605e-42 -5.612e-42 -8.122779e-06 -2.8649788e-07
0002e0 64 df f8 30 b3 50 00 00 31 ac 78 b5 65 41 01 00
       1.8107866e-09 2.895e-41 -9.263777e-07 1.15295e-40
0002f0 12 bd 00 00 54 01 00 00 94 67 00 00 78 25 00 00
       6.7826e-41 4.76e-43 3.7157e-41 1.3441e-41
000300 d4 67 00 80 d3 78 00 00 97 47 00 80 2b 99 00 80
       -3.7247e-41 4.3344e-41 -2.5682e-41 -5.4946e-41
000310 0f e4 00 80 eb aa 00 00 08 02 00 80 4c cd 00 00
       -8.1812e-41 6.1314e-41 -7.29e-43 7.3647e-41
000320 74 86 00 80 cc 43 01 00 cc 27 00 80 b5 ac 3b a5
       -4.8233e-41 1.16156e-40 -1.4276e-41 -1.627818e-16
000330 77 0a 00 80 1e 26 00 00 46 09 00 00 5a 40 00 00
       -3.754e-42 1.3674e-41 3.327e-42 2.3085e-41
000340 63 80 01 80 9b 3c 01 00 b4 4f 00 80 47 47 00 80
       -1.37892e-40 1.13577e-40 -2.8592e-41 -2.557e-41
000350 36 a2 00 80 7d dd 00 00 94 9d 00 80 4d 85 00 80
       -5.819e-41 7.9455e-41 -5.6528e-41 -4.782e-41
000360 c0 54 ee 2d 69 54 00 00 af 62 00 00 a1 8a 00 00
       2.7095104e-11 3.028e-41 3.5401e-41 4.973e-41
000370 4b e2 33 b9 80 f5 64 0e 61 84 18 8d c3 dc 3a 8f
       -0.00017155071 2.8221374e-30 -4.699796e-31 -9.213025e-30
000380 4b 68 c0 8e 30 cf 6a 0e e3 01 07 0e 1f e7 5a 8f
       -4.7432085e-30 2.8942484e-30 1.6640943e-30 -1.0792742e-29
000390 f0 ea 15 8f a0 e7 60 0e 67 e6 c2 0c 3c cd ac 8d
       -7.3915145e-30 2.7721655e-30 3.00291e-31 -1.0649727e-30
0003a0 f2 34 57 0e c0 30 00 b4 1c a1 98 b3 00 48 2e 2f
       2.6526288e-30 -1.1938664e-07 -7.107357e-08 1.5850787e-10
0003b0 5b 6f 00 80 ba 98 10 a7 6f b4 81 9a 28 44 b6 99
       -3.9947e-41 -2.0066808e-15 -5.3644656e-23 -1.8845887e-23
0003c0 51 dd cb 9a 41 1d 0b 1a 1a 17 cb 19 0e 87 b0 18
       -8.431639e-23 2.8768157e-23 2.0999039e-23 4.5631304e-24
0003d0 29 01 4d 9a 3f 85 b1 9a 4a 95 3b 9a ca 34 0d 19
       -4.2393944e-23 -7.3420755e-23 -3.8791288e-23 7.30019e-24
0003e0 2e ee e7 9a 60 9c a9 17 0d 25 7d 2d e5 a5 2f b6
       -9.592416e-23 1.0960844e-24 1.4389612e-11 -2.6173595e-06
0003f0 9d bc 00 80 1f 2d 00 80 02 f8 9b ad d5 8f 00 00
       -6.7662e-41 -1.6186e-41 -1.7731597e-11 5.1597e-41

fc1.bias f4 [128]
000000 ca 76 d2 b6 28 33 92 b2 f2 f9 3c 91 c6 72 4e b6
       -6.2723166e-06 -1.70199e-08 -1.4907605e-28 -3.07632e-06
000010 fb 7e a6 3e cd af dd 8b 1c dd 86 1c 56 20 ce 31
       0.32518753 -8.539062e-32 8.924532e-22 5.9990652e-09
000020 05 2c 3f ba ed ce 2d 3a e4 09 1a 9c 5e 04 00 00
       -0.0007292631 0.00066302606 -5.096711e-22 1.567e-42
000030 45 f3 c5 af e2 e4 89 8f 82 18 3f 9b 1c 23 03 80
       -3.6006945e-10 -1.3597405e-29 -1.5807069e-22 -2.88101e-40
000040 5b 75 9f bb fe 53 91 3a e6 d1 c5 27 db a6 bc 19
       -0.004866285 0.0011087654 5.4906056e-15 1.9506137e-23
000050 96 01 0a b2 fb 1e 3c 3d eb e0 ce b8 64 57 eb 35
       -8.033018e-09 0.045927983 -9.86474e-05 1.7534298e-06
000060 1c b3 ed b7 d7 be 28 b0 24 81 11 b7 6a c8 bc be
       -2.8336006e-05 -6.1389244e-10 -8.672741e-06 -0.36871654
000070 fa 7e b9 b2 3f 81 27 bb a0 14 c8 39 22 40 18 3e
       -2.1594577e-08 -0.0025559214 0.0003816234 0.14868215
000080 a5 a1 c7 18 8d 40 64 0b 15 3a fc 3d 2a 6c 02 36
       5.1603514e-24 4.3959765e-32 0.12315766 1.943447e-06
000090 3f 64 4d b7 c7 6f 73 b9 f0 d4 a5 3e 85 c8 f8 3c
       -1.22422925e-05 -0.00023215926 0.3238902 0.030369053
0000a0 da 45 8d b6 46 00 02 b7 aa d2 3d 31 d1 bd 3d 9d
       -4.2102592e-06 -7.7486675e-06 2.7622868e-09 -2.5112075e-21
0000b0 3f d7 19 35 8d 50 4b 3e 2e cb 8e 9a c4 78 6e 2f
       5.7310166e-07 0.19854946 -5.905808e-23 2.1688878e-10
0000c0 00 fb 02 3e 14 18 ac 3a ee 2d 5e be 62 b8 e4 1b
       0.12791061 0.0013129734 -0.21697208 3.783859e-22
0000d0 ef 4d 00 00 cc 10 9d 3e 34 61 00 80 b4 dd a1 33
       2.7957e-41 0.30676877 -3.487e-41 7.537474e-08
0000e0 6f d7 a4 92 50 7d a8 2c ae bb 11 b6 fe 63 49 bb
       -1.0402964e-27 4.7887597e-12 -2.1715928e-06 -0.0030729766
0000f0 bc 3e 00 00 4d 25 b8 39 96 10 b9 a2 1d fb 5a b3
       2.2505e-41 0.00035123006 -5.016191e-18 -5.0985467e-08
000100 3e 49 e2 3d c1 74 00 00 eb 69 d2 1a 2a 4f a2 3d
       0.11049126 4.1883e-41 8.7025084e-23 0.079252556
000110 4f b4 16 b0 9a a6 99 3e 75 f1 e1 aa 90 03 80 ac
       -5.4825916e-10 0.3000992 -4.0135573e-13 -3.6383743e-12
000120 ea fd 90 ad c8 9f c7 3d 00 ba 01 33 72 b8 d9 81
       -1.6483665e-11 0.09747273 3.020432e-08 -7.9977877e-38
000130 1c 3a 00 00 1b 47 fc 3d b9 3a bb b0 30 68 a5 a7
       2.0846e-41 0.1231825 -1.3622731e-09 -4.590966e-15
000140 52 a4 7d b6 8e 25 19 33 6a d2 2f 3e 8d de 15 97
       -3.7795585e-06 3.5657244e-08 0.1717011 -4.8425395e-25
000150 e7 d8 40 bb 66 f7 0d 94 c9 58 dd 3d 98 09 7f 3d
       -0.002942616 -7.1674715e-27 0.1080795 0.06226501
000160 55 56 00 80 70 52 72 af 37 1a 00 80 8f 8c 43 3e
       -3.097e-41 -2.203906e-10 -9.404e-42 0.19096588
000170 3e db 57 b9 43 c4 91 a8 a1 b4 c7 91 34 0e a7 0c
       -0.00020585672 -1.6183349e-14 -3.1507985e-28 2.5738972e-31
000180 f2 8d 96 3e 6e 9b 9a bb d7 25 00 80 41 f0 87 b4
       0.2940517 -0.0047182357 -1.3574e-41 -2.5320517e-07
000190 04 50 00 00 9e f5 b9 3d ee 41 67 b4 df 53 bf b9
       2.8704e-41 0.09080051 -2.1537537e-07 -0.00036492848
0001a0 39 2b 79 b9 7e 50 d1 9a 03 df be b9 8e 2b 5c 35
       -0.00023762592 -8.6570416e-23 -0.0003640578 8.2019767e-07
0001b0 ad f3 eb b1 7a 79 00 80 67 5f ed 82 59 a0 1a 03
       -6.867103e-09 -4.3578e-41 -3.4878778e-37 4.5440603e-37
0001c0 88 f6 76 b8 ff c6 3d 1a 2b 22 f0 b8 34 57 bf 39
       -5.888057e-05 3.9245032e-23 -0.00011450456 0.0003649533
0001d0 dc 6b b2 3d 76 bb 67 bb 10 c9 a7 b7 e5 20 0d a8
       0.08711979 -0.0035359538 -2.0001578e-05 -7.834205e-15
0001e0 80 79 db a9 c3 cb 1a b9 64 27 d2 b2 1c 62 93 16
       -9.7466306e-14 -0.00014762492 -2.446513e-08 2.3811047e-25
0001f0 af 32 86 34 f3 52 67 ab 59 3a 00 00 48 a7 74 b4
       2.4996322e-07 -8.21828e-13 2.0931e-41 -2.2785127e-07

fc2.weight f4 [128, 128]
000000 78 47 6e b5 ea 92 35 31 67 d6 4d 91 af 67 00 80
       -8.876591e-07 2.6422478e-09 -1.6237716e-28 -3.7195e-41
000010 f4 05 f2 3d 0d 37 03 0b d6 a7 1c 9b b8 bd 32 26
       0.11817542 2.5271098e-32 -1.2958248e-22 6.201327e-16
000020 2b 41 ca 1a 70 0b da b4 d7 61 01 00 b5 52 00 00
       8.3650526e-23 -4.0613986e-07 1.26934e-40 2.967e-41
000030 35 5a 00 00 ee 81 81 0e b6 37 c3 97 91 6c 01 00
       3.236e-41 3.1926073e-30 -1.2615643e-24 1.30782e-40
000040 fe 6a d2 38 7a 35 80 39 db 1a 00 00 f0 a2 1c 97
       0.00010033509 0.00024453906 9.634e-42 -5.0611975e-25
000050 f8 b7 75 ae 67 bc 6c 3b a5 df d6 9b 70 7b 1a b3
       -5.5869948e-11 0.0036123039 -3.5547857e-22 -3.5968185e-08
000060 c6 3c 23 12 27 74 00 00 68 75 5b 9c c9 31 df bd
       5.150864e-28 4.1668e-41 -7.2612766e-22 -0.10898168
000070 24 9d 00 00 c3 a2 85 b8 51 95 bb 04 7c f2 39 3d
       5.6371e-41 -6.372251e-05 4.4100614e-36 0.045397267
000080 72 d5 a1 96 0c 10 00 00 19 d0 31 3d 29 0f 63 b1
       -2.6145656e-25 5.757e-42 0.043411348 -3.3041465e-09
000090 c4 f0 39 9d 10 e7 04 38 78 9d e9 3d da a5 72 3c
       -2.460902e-21 3.1686446e-05 0.11406988 0.01481005
0000a0 60 69 b2 b2 d0 79 c3 0a 09 27 d9 ac 7a 65 00 00
       -2.0769846e-08 1.8823638e-32 -6.1718447e-12 3.6403e-41
0000b0 7f 0f e0 34 ac ba af 3d 2b 61 01 80 80 c0 fd 2c
       4.1734526e-07 0.08580527 -1.26693e-40 7.2120643e-12
0000c0 eb 24 0b 3d 3a 8b ea b5 e7 0f 8e bd c8 24 f9 98
       0.033970755 -1.7474879e-06 -0.06936627 -6.440213e-24
0000d0 94 e3 00 00 49 15 de 3d 2b b9 00 00 62 ad d5 b3
       8.164e-41 0.108439036 6.6426e-41 -9.9501236e-08
0000e0 a4 0a 4b 06 28 08 b8 2a a0 c9 16 9f 51 97 07 35
       3.8187874e-35 3.2690625e-13 -3.1930516e-20 5.0511613e-07
0000f0 75 cc 00 00 dc a7 96 39 4b 5f 01 80 5d 85 8b b1
       7.3345e-41 0.00028735294 -1.2602e-40 -4.060594e-09
000100 dc 3b 0c 3d 6e 5f 01 80 d4 81 9f 19 e4 ae 87 3c
       0.034236774 -1.26069e-40 1.6492652e-23 0.016562887
000110 58 f2 eb af 10 4a d8 3d 57 a1 bf 95 6e 75 ae 2d
       -4.2918447e-10 0.10561001 -7.7398835e-26 1.9833659e-11
000120 8e 2d 01 80 99 91 fb 3c c0 54 29 2a d3 24 00 80
       -1.08177e-40 0.030709075 1.5039619e-13 -1.321e-41
000130 08 53 00 80 7c 6e 51 3d 8c 4a ed 10 34 fb 0d a8
       -2.9786e-41 0.051130757 9.3594875e-29 -7.881543e-15
000140 04 72 64 b8 32 66 30 32 0c 81 7a 3d 91 e2 00 00
       -5.446562e-05 1.0267785e-08 0.061158225 8.1277e-41
000150 e0 e5 20 36 8c 36 00 80 c4 e8 12 3d d7 ea b6 3c
       2.3975663e-06 -1.9568e-41 0.035866514 0.022328777
000160 2c fa 00 80 54 40 19 aa bf 8f 00 80 d4 57 a6 3d
       -8.9745e-41 -1.3611448e-13 -5.1566e-41 0.08122221
000170 73 47 4c 2d 70 52 00 80 80 bb ff 07 01 42 40 8d
       1.1611922e-11 -2.9573e-41 3.8478338e-34 -5.9244017e-31
000180 f2 21 f5 3d fc 57 71 34 af aa 00 80 44 93 00 00
       0.11969365 2.2476883e-07 -6.123e-41 5.2829e-41
000190 0c 52 00 00 4b ca 0b 3d c1 65 cc 9d 9a fb c7 95
       2.9433e-41 0.03412847 -5.410356e-21 -8.077242e-26
0001a0 59 6f ed a6 b6 7e 09 9a 44 d2 40 b8 70 ef 13 b4
       -1.6475359e-15 -2.8433292e-23 -4.5972192e-05 -1.3777549e-07
0001b0 30 8a 0d 00 87 50 00 80 ec 44 01 00 f5 1e 01 80
       1.243434e-39 -2.8888e-41 1.1656e-40 -1.02941e-40
0001c0 47 df c0 24 03 62 bb 97 d6 8e ea b7 74 20 bf 27
       8.3644973e-17 -1.2109333e-24 -2.7961487e-05 5.3048335e-15
0001d0 d9 1e 09 3d 9d 43 19 36 8d 4b f3 21 e9 31 00 80
       0.033476684 2.2838133e-06 1.6486319e-18 -1.7904e-41
0001e0 a7 86 12 ad a1 a7 0d 28 f2 9e b8 b1 8d 6d 2f 86
       -8.329038e-12 7.863421e-15 -5.373175e-09 -3.2994327e-35
0001f0 24 a0 54 b3 f3 a0 00 00 ed 02 01 00 e3 6a b6 85
       -4.9505744e-08 5.7738e-41 9.2885e-41 -1.7154462e-35
000200 67 c6 9e 36 ce 34 59 b1 f7 06 01 80 ea 6c 00 80
       4.731864e-06 -3.1607672e-09 -9.4334e-41 -3.9071e-41
000210 e2 6c 47 3d 34 f3 8e 8b 48 65 c5 99 cd eb 75 a2
       0.048687823 -5.506234e-32 -2.041023e-23 -3.3328523e-18
000220 27 19 e7 8e 5d 4f 58 b2 49 74 00 00 a0 c1 00 00
       -5.6970117e-30 -1.25909e-08 4.1715e-41 6.946e-41
000230 22 7f 01 00 31 35 00 80 2e 49 de 19 bc 31 01 80
       1.37442e-40 -1.9081e-41 2.2983819e-23 -1.09677e-40
000240 90 40 25 b9 a9 fe 0d b8 26 1f 01 80 00 ef e8 14
       -0.00015759678 -3.385419e-05 -1.0301e-40 2.3520282e-26
000250 18 1c 9f ae 65 ab 40 ba fd 04 b5 8e ae 68 06 36
       -7.235473e-11 -0.00073497585 -4.462475e-30 2.0028488e-06
000260 44 b4 a9 13 08 b5 00 80 9d 8b 02 00 28 42 8b bd
       4.2839353e-27 -6.4942e-41 2.33755e-40 -0.06799728
000270 57 81 3f 00 a3 68 c5 2f 2b 24 47 00 1f c4 63 3c
       5.832035e-39 3.590844e-10 6.533295e-39 0.013901739
000280 59 98 0f 12 c9 43 00 80 17 a3 78 3c 00 78 ef a8
       4.5310627e-28 -2.4317e-41 0.015175602 -2.6586372e-14
000290 2d 17 29 02 4d f6 d3 36 dc 0e 3f 3d 4a d8 96 bb
       1.242281e-37 6.316963e-06 0.04664503 -0.0046034204
0002a0 8c d7 85 33 3f 6f 00 00 8b 19 23 af cf 83 00 80
       6.232503e-08 3.9908e-41 -1.4833838e-10 -4.7284e-41
0002b0 6b 9c dc 33 f5 46 fd 3c 87 1f 00 00 10 ba 15 2d
       1.02730006e-07 0.030917624 1.131e-41 8.510984e-12
0002c0 26 68 1b 3c 08 59 b6 37 4b 1f 42 bd 65 f5 93 9b
       0.00948528 2.173755e-05 -0.047393125 -2.4477693e-22
0002d0 9f 05 00 80 bf 88 33 3d 49 75 00 00 07 84 08 b4
       -2.016e-42 0.043831583 4.2074e-41 -1.2714018e-07
0002e0 ad 9f 95 12 34 0d 04 ab e1 50 88 88 d6 bd c8 9d
       9.442585e-28 -4.6914144e-13 -8.204217e-34 -5.3135845e-21
0002f0 b4 d8 00 00 23 79 84 b8 34 2a 01 80 d0 39 ef 21
       7.7738e-41 -6.316814e-05 -1.06975e-40 1.6210573e-18
000300 f9 08 03 3c 62 ce 00 80 a8 db ab 99 ca 76 a4 3b
       0.007997745 -7.4036e-41 -1.7769704e-23 0.0050190436
000310 40 80 ac 2f 25 3d 2d 3d 0a 3c 6a 96 ee ef 0e a1
       3.1377745e-10 0.04229464 -1.8921314e-25 -4.8429016e-19
000320 85 27 00 80 f2 7e c1 3b 38 34 b7 27 37 b8 00 80
       -1.4177e-41 0.0059050256 5.084932e-15 -6.6084e-41
000330 e1 a8 00 00 46 74 8c 3c be 3d 78 11 3f f3 0d 29
       6.0582e-41 0.017145287 1.9582776e-28 3.151927e-14
000340 f8 f6 fa b7 36 eb d0 31 e3 26 b8 3c eb 6e 00 80
       -2.9917326e-05 6.080337e-09 0.02247948 -3.979e-41
000350 45 e2 81 b7 96 f8 00 80 69 17 01 3c e2 cf de b9
       -1.5483363e-05 -8.9176e-41 0.007879117 -0.00042498024
000360 a7 47 01 80 ec ca 58 ab b9 b6 00 80 f4 f1 ed 3c
       -1.1754e-40 -7.7020226e-13 -6.5549e-41 0.029046036
000370 9e d7 86 2c 95 58 01 80 9e b1 9f 05 22 5d 00 00
       3.8324474e-12 -1.23613e-40 1.5017534e-35 3.341e-41
000380 f8 05 44 3d 69 a3 e4 b1 1d 04 04 00 37 a1 00 80
       0.047857255 -6.654251e-09 3.68818e-40 -5.7833e-41
000390 6a e1 00 00 3e 4e 9f 3b e1 a5 90 84 97 48 bb 80
       8.0863e-41 0.004861622 -3.4006573e-36 -1.7199278e-38
0003a0 5a 9d 69 23 ac a6 57 19 4d b6 b3 37 a6 7c ac b2
       1.2664276e-17 1.11488986e-23 2.1423353e-05 -2.0080119e-08
0003b0 54 82 04 00 95 46 01 00 03 2c 00 00 c5 e5 00 00
       4.14095e-40 1.17156e-40 1.5788e-41 8.2426e-41
0003c0 14 f6 ac 92 70 68 2c 16 9a 5e da b9 b1 01 d7 22
       -1.0915389e-27 1.3927004e-25 -0.00041650684 5.8277658e-18
0003d0 61 07 8a 3b 4a 95 d5 34 44 5d 75 20 9f bc 00 00
       0.0042123054 3.9782964e-07 2.0783166e-19 6.7664e-41
0003e0 70 46 b2 a9 47 9b fc a5 45 fd 47 b0 a8 f3 48 83
       -7.917007e-14 -4.3820252e-16 -7.2755696e-10 -5.905442e-37
0003f0 ea c2 42 b2 1d 09 00 00 c5 53 00 80 29 93 35 05
       -1.13366045e-08 3.269e-42 -3.0051e-41 8.537608e-36

fc2.bias f4 [128]
000000 80 b8 12 3e e7 88 ce 3d ba 72 a1 b0 63 40 58 3d
       0.14328194 0.10084706 -1.1746899e-09 0.05279578
000010 c2 9a 10 bb 8b ad cc 3d f5 09 92 3d 65 bf 3b b1
       -0.00220649 0.09994038 0.071308054 -2.7320877e-09
000020 cc e8 bb 3d fe bb c7 3d 69 c4 8f 3d ee 58 cc 3d
       0.09175262 0.097526535 0.07019884 0.099778995
000030 9e 0c 07 3e 9d 40 af 3d 5c d7 e5 3c bc c5 ad 3d
       0.13188407 0.08557246 0.028056793 0.084849805
000040 c1 79 f2 3d 1e a9 07 3d c4 a2 fc 3c fd 27 87 3d
       0.11839629 0.033120267 0.030839331 0.06599424
000050 d4 3c ea 3d db fc d8 3c 8e 4b fe 3d 74 81 0b 3d
       0.11437383 0.026487758 0.12416755 0.034059003
000060 24 7f 44 3d c3 59 d1 3d 9d a3 00 3e 6b 3a 45 3d
       0.047972813 0.10222199 0.12562414 0.048151415
000070 05 54 f5 3d 26 7f 86 3d 48 1a 90 3d 01 f6 f8 3c
       0.11978916 0.065672204 0.07036263 0.030390741
000080 40 49 b6 3c 74 fd ac 3d 22 43 55 3d 89 47 04 3d
       0.022251725 0.0844678 0.052065976 0.032294784
000090 f9 54 6c 3d d2 27 79 bb 8d 4a f9 3c 4a 51 18 3d
       0.057698224 -0.003801812 0.030431056 0.0371869
0000a0 4d 1c c0 3d 58 58 94 b3 d3 58 0c 3e 40 46 bf 3d
       0.09380398 -6.907857e-08 0.13705759 0.09339571
0000b0 b6 25 0c 3d 30 5d 0b 3d a8 5a e7 3c 53 4d e2 3d
       0.03421565 0.034024417 0.02824147 0.11049905
0000c0 8d 0c f9 3c 77 07 b7 3a e1 81 bb 3d 0d de 8f 3d
       0.030401492 0.0013964017 0.09155632 0.07024775
0000d0 80 0b d3 3d 01 65 4f 3d 27 75 0b 3d ed 16 1b 3d
       0.10304928 0.050633434 0.034047272 0.03786366
0000e0 3a 68 65 3d b9 d2 03 3e f8 96 35 3d 06 3b cc b7
       0.0560076 0.12873353 0.04433343 -2.434618e-05
0000f0 41 57 4d 3c be d6 12 3e dc 59 c6 b6 fc 59 ec 3d
       0.01253301 0.1433973 -5.911321e-06 0.11540601
000100 68 ce 2c b7 1c 19 77 3d 69 6b 37 3d 73 e8 67 3d
       -1.0300057e-05 0.06032668 0.04478017 0.056618165
000110 b6 43 26 3d 2d cc ef 3d ff 26 86 3d fd 30 6b 3d
       0.040591918 0.11708865 0.06550407 0.057419766
000120 e0 a2 ea 3d e1 ca 74 3d 64 f0 8e 3d 31 ae 9c 3d
       0.11456847 0.059763793 0.069794446 0.07650412
000130 38 b5 95 3c 87 2e 6d 3d d0 51 10 3e bd 00 40 3d
       0.018274888 0.0579057 0.14093709 0.046875704
000140 2f 6e 34 3c 36 96 a8 3d 20 51 b1 3d f0 02 6e 3d
       0.011012598 0.082317755 0.086580515 0.05810827
000150 2f bb 52 3d e3 c5 6e 3d 34 40 3d 3d 05 a8 0b 3d
       0.051448043 0.05829419 0.046203807 0.034095783
000160 ed 52 b0 3d 07 a9 a1 3d d8 9e 33 3d f7 01 a4 b1
       0.08609567 0.078935675 0.043852657 -4.7732516e-09
000170 ab d6 ec 3d 3e 5d 72 3d 58 bb 03 3e 60 75 bb ba
       0.11564382 0.059170954 0.12864435 -0.0014301948
000180 b4 0c ab 3c 0b 72 e2 3d 03 4e 31 3d 0d 89 65 3d
       0.02088008 0.11056908 0.04328729 0.056038905
000190 15 9b 8c 3d 7f 73 32 3d 8f 59 07 3d 4f 9e a7 3d
       0.06865517 0.043567177 0.033044394 0.08184492
0001a0 ca 20 eb 3d f3 ae 11 3b a1 b2 00 3e a9 ad b5 3d
       0.114808634 0.0022229522 0.12568142 0.08871014
0001b0 cf 45 fd 3c 32 2e 80 3d b6 cc 8f 3d fd 0c 95 3d
       0.030917076 0.06258811 0.070214674 0.07277868
0001c0 19 ff 3c 3d 08 6a 45 3d d0 ff b7 3d fe 10 e7 3d
       0.046141718 0.048196822 0.08984339 0.11282538
0001d0 cd 65 10 3e f2 1f a9 3d cc 4b b6 3d 20 48 bf af
       0.14101334 0.08258046 0.08901176 -3.4793946e-10
0001e0 99 a5 d6 3d 81 43 3a 3d 28 f3 a9 3d 96 f2 06 b4
       0.10480804 0.045474533 0.082983315 -1.2567975e-07
0001f0 39 9c 51 3d 48 e0 ad 3d 4f 62 da 3d 23 2c 21 3d
       0.051174376 0.08490044 0.10663282 0.039348733

fc3.weight f4 [16, 128]
000000 cd aa d5 3d fd 34 c1 3d 0b 67 4c ab bc 6a 0d 3e
       0.10432968 0.09433935 -7.261836e-13 0.13810247
000010 2d 80 ed ba 47 ec 8b bd b6 9c 5c 3e b7 59 26 b0
       -0.0018119864 -0.06832176 0.21544155 -6.051794e-10
000020 83 db 31 bd 37 b9 a2 3d 99 ed 69 3d 2b 1d 86 3c
       -0.043422233 0.07945483 0.057111356 0.01637133
000030 9e e1 84 3c ad ff a9 bd cb 63 ae bd ec f6 af 3d
       0.016220864 -0.083007194 -0.08515128 0.085920185
000040 35 e4 07 3e b1 e1 c8 3d 5a 9a aa bc 70 47 00 3e
       0.13270648 0.09808672 -0.020825554 0.12527251
000050 7e 85 ac 3d ed bc d6 3c 14 a8 b4 3d 55 21 1a 3e
       0.08423899 0.026213134 0.08821121 0.15051778
000060 33 4b d7 3d 3b 56 bd bc 3f 0d 02 bd c9 08 1b 3e
       0.1051239 -0.023112407 -0.031750914 0.1514007
000070 00 f7 c8 3b c2 bd 9e bd 1e 2a f2 bb 94 47 32 3e
       0.0061329603 -0.07751037 -0.0073902747 0.17410117
000080 bf b9 ee 3d 65 42 0a 3e 40 35 0f 3e 9f 89 dc 3d
       0.11656522 0.1350189 0.13985157 0.10768437
000090 4f d1 18 bd 81 46 d1 3b 6d 22 a2 bc b0 fe 09 3e
       -0.037308987 0.0063865785 -0.019791806 0.13476062
0000a0 63 c5 bf bd dd df 6b b3 19 b0 f6 3c bf 5b 39 3d
       -0.093638204 -5.4918804e-08 0.030113267 0.04525351
0000b0 5e ef 1c 3e 25 be cd 3d a9 f3 89 bd e1 7a 9f 3d
       0.15325686 0.10046033 -0.067359276 0.07787109
0000c0 d8 66 e6 3d e2 3c b6 bb 52 e3 86 3c a8 67 e6 3d
       0.11250085 -0.005561457 0.016465817 0.112502396
0000d0 a7 83 03 3d f6 5b 39 3e 68 3f ca 3d 32 56 82 3d
       0.032107975 0.18101487 0.09875375 0.06364097
0000e0 a6 42 8f 3d 58 e8 05 3e 27 07 3e 3e 8b 06 76 b6
       0.06995134 0.13076913 0.18557416 -3.6660665e-06
0000f0 8a ba 92 3d 4e d0 b3 3c b2 ab a2 35 f2 21 e1 3d
       0.07164486 0.021949913 1.211991e-06 0.10992803
000100 3f 5b 0f b6 7a 01 a5 bb 9c 3f 6e 3e 9e 12 78 bd
       -2.1361773e-06 -0.0050355764 0.23266453 -0.06056463
000110 e6 b5 b4 bd 9d c3 89 bd 06 fb 49 bd 8e 54 0b 3e
       -0.08823757 -0.067267634 -0.04931166 0.13606474
000120 42 f8 8d bd 6f f1 38 3e 39 0d 60 3e 68 2f 26 3e
       -0.06932117 0.1806085 0.21880044 0.16229022
000130 6f 0f 89 bc 14 88 f4 bd ec 0b f4 3d ac f1 ff 3d
       -0.016730992 -0.11940017 0.119163364 0.12497267
000140 35 50 16 3c 3a a1 68 3e 61 12 09 3e a5 6e df bd
       0.009174396 0.22717753 0.13385917 -0.10909776
000150 46 ba cf bd 51 26 c8 3d a6 e4 1a 3e d3 93 02 3e
       -0.10142951 0.09772933 0.15126285 0.12751703
000160 66 47 93 bc e7 70 45 3d f4 ec d2 3d 73 9f e2 af
       -0.017978381 0.048203375 0.102991015 -4.1222456e-10
000170 70 bf 23 3e 2f 3e d6 3c df 48 03 3e 5d b0 1d bc
       0.15990996 0.026152698 0.12820767 -0.009624568
000180 21 18 c1 bc 84 dc 78 bd 7e 09 26 3e 5c de 5e 3e
       -0.023571076 -0.060757175 0.16214558 0.21764511
000190 4d c7 12 3e 39 fb 11 3e fe c8 2e 3c fa 44 33 bd
       0.1433384 0.1425599 0.010668037 -0.043766953
0001a0 ef 8d 37 3e 90 a4 fe 3b cc d9 31 bd 62 2d 17 be
       0.17925237 0.007771082 -0.043420598 -0.14763406
0001b0 d5 39 4d 3e 5a af 49 3e d0 29 03 3d 7c bb 14 3e
       0.20041592 0.19695798 0.032022297 0.14524645
0001c0 2a 8a b6 bd d7 ae af 3d 03 9a 71 bb 49 2c d6 3d
       -0.089130715 0.0857827 -0.003686548 0.104576655
0001d0 e9 42 15 3e 95 af 8c 3d 5d 55 9d bd f5 54 b3 ad
       0.14576305 0.06869427 -0.076822974 -2.0387672e-11
0001e0 5a 36 9e bd c8 fb 8c 3d 25 5f 7e bd 73 7c a2 33
       -0.077252105 0.06883961 -0.062102456 7.56635e-08
0001f0 dd e1 7e 3d 23 f6 c9 bc cb fe cf bd da 5a 83 3c
       0.06222712 -0.0246535 -0.1015602 0.016034532
000200 08 78 95 3d 50 00 01 3d b9 1c 64 ad 08 78 2a bd
       0.07298285 0.03149444 -1.2966677e-11 -0.041618377
000210 96 75 28 ba 31 ba f7 3d 63 05 a0 bd a8 99 74 2d
       -0.0006426213 0.1209606 -0.078135274 1.3903913e-11
000220 6c 7b ab 3d a4 34 2f 3d 1c c8 ee 3c 51 44 ea 3c
       0.0837315 0.04277481 0.029148154 0.028597029
000230 b3 73 aa 3d f3 3d 00 3e d7 55 1a bb d3 57 38 bc
       0.08322849 0.12523632 -0.00235497 -0.011251408
000240 43 4c 9c bc 35 0d 47 bd 3d 88 85 3d 69 16 96 bd
       -0.019079333 -0.04859658 0.06520126 -0.07328493
000250 d3 df 5f 3d 97 04 4e bd 89 a3 8a 3d 6b 02 7b bd
       0.054656815 -0.050297346 0.06769473 -0.061281603
000260 c0 c6 b8 bd 1a 12 9c 3d 15 b9 ae 3d 76 50 81 bd
       -0.090222836 0.0762064 0.08531395 -0.06314175
000270 85 cb 8f 3d 57 7b 1e 3e 64 e5 89 3d 5e ac 9b bd
       0.0702124 0.15476738 0.06733206 -0.07601236
000280 7c eb 70 bd 5d c8 fc bc ca bf f8 bd d6 71 eb bd
       -0.058818325 -0.03085726 -0.12145956 -0.11496322
000290 45 15 38 bb 4b 1e a1 3b d6 af ae 3c 66 25 c6 bd
       -0.002808885 0.0049169413 0.02132408 -0.09675102
0002a0 11 ba 0d 3e b8 f0 c6 32 5e e4 a5 3d 80 24 87 3d
       0.1384051 2.31597e-08 0.08100198 0.06598759
0002b0 be 92 ac bd bf 38 38 bd 7e d8 58 3d 97 0e 8f 3c
       -0.08426426 -0.044975992 0.052940838 0.017463012
0002c0 16 0e 80 bd d5 69 39 bd b6 59 93 3d 8f d0 eb bd
       -0.06252687 -0.045266945 0.071948454 -0.11514389
0002d0 85 bd 24 3d 12 83 b5 bd 9e 09 b7 bd 85 0b 45 bd
       0.040219802 -0.0886289 -0.08937381 -0.04810669
0002e0 f0 f4 71 bd c9 0d 7e 3d 78 81 74 bd 48 82 38 b7
       -0.05907148 0.062024865 -0.059693784 -1.0997588e-05
0002f0 2c 04 97 bd c1 94 da 3d 56 4f e8 34 33 8d 4a 3c
       -0.073738426 0.10672904 4.3271092e-07 0.012362766
000300 c0 cb 63 b2 45 56 3f 3d 99 f3 a1 bd f9 64 bf 3c
       -1.3259466e-08 0.046713132 -0.07907791 0.023363577
000310 ed 1b 5f 3d 85 a5 1e 3e 96 16 c5 3d 8a a4 9d bd
       0.05446999 0.15492828 0.096234486 -0.07697399
000320 d4 ac ca 3d a6 e8 dd bd e4 b0 8f bd d9 68 1d be
       0.098962456 -0.1083539 -0.07016161 -0.15372027
000330 f5 ef 2b bd e5 05 77 3d d0 0b 34 bc 23 3a 9d bd
       -0.041976888 0.060308356 -0.010989144 -0.07677104
000340 26 d2 65 bc ae 33 1a be 0b c5 8e bd 5f 4e ea 3c
       -0.014027154 -0.15058777 -0.06971177 0.028601823
000350 fa 7a 7f 3d e4 1d 86 bc d5 39 f6 bd 63 43 a4 bd
       0.06237314 -0.016371675 -0.12022749 -0.080206655
000360 80 34 75 3d 69 65 5f 3d e4 4f 14 bd 40 f1 fd 2b
       0.05986452 0.05454007 -0.036209002 1.8043692e-12
000370 0e 13 80 bd 8b 37 a0 3a 63 b6 f4 3c 94 e1 a0 bc
       -0.062536344 0.0012223584 0.029872125 -0.019638814
000380 54 c6 90 3b fb 83 c7 3d ca 06 e1 bd 04 37 ac bd
       0.004418174 0.0974197 -0.10987623 -0.08408931
000390 24 52 c7 bd b3 9b 8f bd 9b eb aa bd f3 e5 b0 3d
       -0.09732464 -0.07012119 -0.083457194 0.08637609
0003a0 8f 7c 95 bc 8b e1 7b bb 2e f3 2e 3e 4b 9d 10 3e
       -0.01824787 -0.0038433995 0.17084953 0.14122503
0003b0 18 87 e4 bd eb 45 e5 bd 72 88 89 3d 6f cb 9e bd
       -0.111585796 -0.111949764 0.06715478 -0.07753646
0003c0 2c 11 2d 3d 0e fa 9f bd a0 48 0d 3d af 71 d6 bb
       0.042252705 -0.07811366 0.03449309 -0.006544314
0003d0 49 94 0d 3d 23 0d ea 3c 14 e0 e4 3d a5 7a 0e 2d
       0.034565244 0.028570717 0.11175552 8.098998e-12
0003e0 4e 21 ff 3d 92 8e 90 bd bb 25 2d 3e 00 71 b5 b3
       0.12457524 -0.07058443 0.16908924 -8.449024e-08
0003f0 20 ae 5c bd ac 51 0e 3e bf 8e 20 3e ed 0f 18 bd
       -0.053876996 0.13898343 0.15679453 -0.037124563

fc3.bias f4 [16]
000000 34 aa 8d 3e a6 84 c9 3e ee df 9c 3c 5f 7c 64 3e
       0.27668917 0.39359015 0.019149747 0.22313069
000010 29 15 6a bd 25 11 09 be b4 09 de 3c 46 53 d6 3e
       -0.057149086 -0.13385446 0.027104236 0.41860408
000020 36 8b 47 bd 6b 66 10 3e f2 41 1d be 5f 84 23 bd
       -0.048716746 0.1410157 -0.15357187 -0.03992116
000030 bc eb 47 be 5c e3 b9 be 4b 08 d9 be 3f 4f d1 be
       -0.1952352 -0.36306274 -0.4238914 -0.40880772
