MBTI/ANN/Model/pr/lr=0.0005 L2=0.01 hd=128 SVM(linear,0.5)/best_model.pth (torch, 85743 bytes, 6 tensors)

fc1.weight f4 [128, 17]
0	0x800020e1	-1.1795e-41
1	0x80005881	-3.1749e-41
2	0x00006860	3.7443e-41
3	0x8000434f	-2.4146e-41
4	0x8000eb95	-8.4511e-41
5	0x00005bda	3.295e-41
6	0x000076ce	4.2619e-41
7	0x80001fd4	-1.1418e-41
8	0x8000c923	-7.2154e-41
9	0x00003cfe	2.188e-41
10	0x00007315	4.1284e-41
11	0x00000e3b	5.105e-42
12	0xaa00f500	-1.1453685e-13
13	0x0000dbf9	7.8911e-41
14	0x2c8471d9	3.7643053e-12
15	0x80014d85	-1.19644e-40
16	0xb995152e	-0.00028435275
17	0x00003f70	2.2757e-41
18	0x00010d46	9.6597e-41
19	0x00007922	4.3454e-41
20	0x80011503	-9.9373e-41
21	0x000126c1	1.05738e-40
22	0x80017819	-1.34918e-40
23	0x80005e06	-3.3729e-41
24	0x800104be	-9.3537e-41
25	0x00012899	1.06399e-40
26	0x80006012	-3.4464e-41
27	0x80017898	-1.35096e-40
28	0x00012d61	1.08114e-40
29	0x80003d17	-2.1915e-41
30	0x8000e457	-8.1913e-41
31	0x2a81f712	2.3086443e-13
32	0x80005828	-3.1625e-41
33	0xb483837b	-2.4496316e-07
34	0x8000c254	-6.9712e-41
35	0x000000eb	3.3e-43
36	0x80012ce3	-1.07938e-40
37	0x000058df	3.1881e-41
38	0x8003a21b	-3.33659e-40
39	0x00005a84	3.2471e-41
40	0x8000e357	-8.1554e-41
41	0x8000c03c	-6.896e-41
42	0x00016576	1.28233e-40
43	0x80009a12	-5.527e-41
44	0x00022403	1.9659e-40
45	0x800068d6	-3.7608e-41
46	0x8000702d	-4.0241e-41
47	0x35a46b46	1.2250173e-06
48	0x8000fff6	-9.1821e-41
49	0x00008460	4.7487e-41
50	0xa995687d	-6.635055e-14
51	0xbe678e54	-0.22612888
52	0x3e34db90	0.17661881
53	0x3eb23f71	0.34814027
54	0x3e3a2e10	0.18181634
55	0x3cf1eea7	0.029532744
56	0xbc2d8428	-0.010590591
57	0xbeb50f11	-0.35363057
58	0xbe1cfe0d	-0.15331288
59	0x3c1c062f	0.009522959
60	0x3dcd905d	0.10037301
61	0x3b97e82b	0.004635831
62	0x3cfda02c	0.030960165
63	0xbaaf39b3	-0.0013368636
64	0x8001009d	-9.2056e-41
65	0x00004f9d	2.856e-41
66	0x00006b77	3.8551e-41
67	0x3c202b3e	0.009775935
68	0xb7e0df6e	-2.6806923e-05
69	0x34a18904	3.008828e-07
70	0xb9ec42db	-0.0004506324
71	0xb61c93d9	-2.333187e-06
72	0x3408445d	1.2690857e-07
73	0x00005d9d	3.3582e-41
74	0xba05c709	-0.0005103206
75	0xb973c1ac	-0.00023246434
76	0x3490a62c	2.6942996e-07
77	0xb6817dae	-3.8591306e-06
78	0xb63c216a	-2.8033633e-06
79	0x347a15df	2.3291021e-07
80	0x800048f0	-2.6165e-41
81	0x800147a1	-1.17531e-40
82	0x80008fa7	-5.1533e-41
83	0x0000efe1	8.6052e-41
84	0x3af0b975	0.0018365817
85	0x3e18d6bd	0.14925666
86	0xbd5d5d4d	-0.054044057
87	0x3b1134db	0.0022156748
88	0xbad7b49d	-0.0016457025
89	0xbc25edeb	-0.010127525
90	0x3a805788	0.0009791711
91	0x3deff435	0.11716501
92	0x3d4288ef	0.04749387
93	0xbc1b8e88	-0.009494431
94	0xbcbc3b16	-0.022977393
95	0xbc074804	-0.008256916
96	0xbc7965d8	-0.015222035
97	0x393e0906	0.00018123174
98	0x80009a7c	-5.5419e-41
99	0x800176e1	-1.34481e-40
100	0x00004dea	2.795e-41
101	0xbe8e07ce	-0.2774033
102	0x94d03a88	-2.102572e-26
103	0x93070ec6	-1.704668e-27
104	0x9ce809de	-1.5355023e-21
105	0x1274311e	7.7053366e-28
106	0x1356660e	2.7060914e-27
107	0x138846f1	3.440118e-27
108	0x9e0272a9	-6.905854e-21
109	0x9b4ac326	-1.6772104e-22
110	0x14101d56	7.2759276e-27
111	0x1135acf8	1.4331682e-28
112	0x139599d6	3.776458e-27
113	0x917768d0	-1.9517162e-28
114	0x802b0218	-3.949677e-39
115	0x0000ade1	6.2376e-41
116	0x0013aa54	1.805977e-39
117	0x0000298f	1.4908e-41
118	0xb88f44da	-6.831596e-05
119	0x8000b153	-6.3612e-41
120	0x00005b58	3.2768e-41
121	0x80009ca1	-5.6188e-41
122	0x0000090f	3.25e-42
123	0x0002aed6	2.4639e-40
124	0x00001d5e	1.0535e-41
125	0x0000e417	8.1823e-41
126	0x0000cf0f	7.4279e-41
127	0x000013b4	7.068e-42
128	0x0000c49c	7.053e-41
129	0x00023826	2.03813e-40
130	0x00003583	1.9196e-41
131	0x00010f8e	9.7415e-41
132	0x352ff34c	6.5546624e-07
133	0xb3599ecb	-5.066867e-08
134	0x0000d645	7.6865e-41
135	0xaae1a3eb	-4.008177e-13
136	0x929eac79	-1.001372e-27
137	0x91494213	-1.5876465e-28
138	0x91b2df6d	-2.8221145e-28
139	0x9191376e	-2.2911127e-28
140	0x8f287940	-8.3063914e-30
141	0x801789ed	-2.161695e-39
142	0x9227ffa3	-5.3011005e-28
143	0x928bdd5f	-8.826705e-28
144	0x800141f9	-1.15502e-40
145	0x909b6277	-6.128843e-29
146	0x9104651d	-1.0444122e-28
147	0x80003b83	-2.1349e-41
148	0xb6e36f7d	-6.778106e-06
149	0x3257988d	1.2549333e-08
150	0x8000200f	-1.15e-41
151	0x80009aaf	-5.549e-41
152	0xb0a21f31	-1.1795916e-09
153	0x9a00aa91	-2.6607562e-23
154	0x9b31f44e	-1.4720036e-22
155	0x1ae6ac09	9.540371e-23
156	0x99d5fc5d	-2.2125613e-23
157	0x98625164	-2.9250907e-24
158	0x164cd05c	1.6544735e-25
159	0x1a90928b	5.979376e-23
160	0x99d7a071	-2.229528e-23
161	0x998bb872	-1.444676e-23
162	0x1b51eb7b	1.7364163e-22
163	0x1895c038	3.870969e-24
164	0x197bd22c	1.301884e-23
165	0x91bad2b7	-2.9475489e-28
166	0x0000bd52	6.7915e-41
167	0x8000c920	-7.215e-41
168	0x8000658f	-3.6432e-41
169	0xac17b419	-2.1558365e-12
170	0x00009bea	5.5931e-41
171	0x80003e04	-2.2247e-41
172	0x00008d65	5.0723e-41
173	0x0000f993	8.953e-41
174	0x8001623d	-1.27077e-40
175	0x0000dcdd	7.9231e-41
176	0x00003e33	2.2313e-41
177	0x00001843	8.703e-42
178	0x80010735	-9.4421e-41
179	0x00003c8f	2.1724e-41
180	0x8000a08d	-5.7595e-41
181	0x0000f5bc	8.8153e-41
182	0x80018191	-1.38315e-40
183	0xb265d198	-1.33772105e-08
184	0x00002770	1.4148e-41
185	0x00002c0f	1.5805e-41
186	0xb5336c21	-6.6840045e-07
187	0x00000ada	3.893e-42
188	0x80006e62	-3.9598e-41
189	0x93a06707	-4.049127e-27
190	0x000028be	1.4616e-41
191	0x80011125	-9.7986e-41
192	0x8000fbc7	-9.032e-41
193	0x800001c4	-6.33e-43
194	0x94532037	-1.0659131e-26
195	0x8000e07c	-8.053e-41
196	0x800029b5	-1.4962e-41
197	0x0001083c	9.479e-41
198	0x8000087b	-3.042e-42
199	0x0000620a	3.517e-41
200	0x8033ed77	-4.768797e-39
201	0x800090da	-5.1963e-41
202	0x8000828d	-4.6833e-41
203	0xb90e97e0	-0.00013598753
204	0x3ddcc980	0.107806206
205	0xbd09e4e3	-0.03366555
206	0xbb5d3509	-0.0033753535
207	0xbb8c6b1d	-0.00428523
208	0xbc135797	-0.008993051
209	0xb91ad73f	-0.0001476677
210	0x3da69259	0.08133382
211	0x3d567169	0.05235425
212	0xbbf9b492	-0.0076204026
213	0xbc05fdfd	-0.008178231
214	0xbb9f62c9	-0.004864071
215	0xbc497d2b	-0.012297909
216	0x3908d6be	0.00013049968
217	0x8000bcdc	-6.775e-41
218	0x80010206	-9.2561e-41
219	0x000057cb	3.1494e-41
220	0xbe1b0c2f	-0.15141366
221	0xb7db1ae2	-2.6119353e-05
222	0xb91ba9de	-0.00014845232
223	0xb93ab73b	-0.00017806601
224	0xb9abae28	-0.00032745418
225	0x3855b7e1	5.0954408e-05
226	0xb90d6bc2	-0.00013486951
227	0xb99190fd	-0.0002776458
228	0xbabb6aa3	-0.0014298748
229	0xb7c0108f	-2.2895894e-05
230	0xb918f599	-0.00014587342
231	0xb8b6e82d	-8.7216824e-05
232	0xb8ec1374	-0.0001125698
233	0x0c9ae4cb	2.3865157e-31
234	0x80005031	-2.8767e-41
235	0x00009045	5.1754e-41
236	0x00009db9	5.658e-41
237	0xbba8363e	-0.0051334193
238	0xbada02ff	-0.0016632973
239	0x3ae14ddf	0.0017189345
240	0xbb41738c	-0.0029518334
241	0x3b3d1dd6	0.0028856895
242	0x39ab44aa	0.0003266682
243	0x39b1108c	0.000337724
244	0xbb8e371e	-0.0043400666
245	0x3c39f841	0.011350692
246	0x39fc7df5	0.0004815903
247	0x3b352238	0.0027638804
248	0xbac6ade2	-0.0015158022
249	0xbaec680e	-0.0018036382
250	0x330289de	3.0393373e-08
251	0x2a4e121c	1.8302758e-13
252	0x80013fbc	-1.14699e-40
253	0x800073a1	-4.148e-41
254	0xbb0aee0c	-0.0021199016
255	0x85f31dcd	-2.2862557e-35

fc1.bias f4 [128]
0	0xab00876c	-4.566267e-13
1	0x9661aeda	-1.8230529e-25
2	0x8001499a	-1.18239e-40
3	0x3e1c1f53	0.15246324
4	0xbc478e55	-0.012179931
5	0x3e824c1a	0.25448686
6	0xaca0939c	-4.5638614e-12
7	0x8000f662	-8.8385e-41
8	0x91c1cd08	-3.0576391e-28
9	0x99cfb873	-2.1477797e-23
10	0xa5224015	-1.4072972e-16
11	0xb44a2c26	-1.8828777e-07
12	0x3e6b624c	0.22986716
13	0x3a51ed87	0.00080081116
14	0x3b3f99f7	0.0029236057
15	0x87472b9c	-1.4983912e-34
16	0x39e0a856	0.0004285003
17	0xb8f3725f	-0.00011608446
18	0x3e3040fa	0.17212287
19	0x9f7117b0	-5.105333e-20
20	0x3cffbbf7	0.031217558
21	0xb1639a8f	-3.3120704e-09
22	0xba958122	-0.0011406282
23	0xab9f6b74	-1.1327454e-12
24	0xb561dea7	-8.4143034e-07
25	0xabd6fa04	-1.5275008e-12
26	0xb511e2ba	-5.434664e-07
27	0x3d72be45	0.059263486
28	0xb8af1046	-8.3476814e-05
29	0xb2801cd4	-1.491427e-08
30	0xbe6f5eba	-0.23375979
31	0xaaf60fa5	-4.3709234e-13
32	0x3ee5a9b1	0.44856027
33	0x3dff0fcb	0.12454184
34	0x3044e3d1	7.162813e-10
35	0xa1c60fc3	-1.3421174e-18
36	0xbb48fed7	-0.0030669475
37	0xbed372fb	-0.4129866
38	0xbb8744f4	-0.004128093
39	0xa5154ef6	-1.2950443e-16
40	0x3d9d8878	0.07692045
41	0xb1c64591	-5.770467e-09
42	0x3c2bee30	0.0104938
43	0xba54d038	-0.0008118185
44	0xb181dbda	-3.7793884e-09
45	0xae323cbc	-4.0526457e-11
46	0x3e45012d	0.1923873
47	0xaaf3720b	-4.3244604e-13
48	0xb2a0003c	-1.8626558e-08
49	0xaeb29b3a	-8.1220766e-11
50	0xb329fbbc	-3.957733e-08
51	0x1d564ed2	2.8363413e-21
52	0xa90a6036	-3.0725605e-14
53	0xba790d20	-0.0009500552
54	0x85d5ec4b	-2.0117224e-35
55	0xab4eb468	-7.3436266e-13
56	0x956398ac	-4.5962722e-26
57	0x2e7cba2c	5.746352e-11
58	0xaa2675cb	-1.478463e-13
59	0xabc47625	-1.3959429e-12
60	0xb9c323ac	-0.00037219876
61	0xaa210685	-1.4301934e-13
62	0xa29e9b26	-4.2990256e-18
63	0x3be06f13	0.0068491786
64	0xae10a052	-3.2884202e-11
65	0xb5434032	-7.273658e-07
66	0xbaaa5ee1	-0.0012998247
67	0xa548d415	-1.7419091e-16
68	0x388430b3	6.3033214e-05
69	0xb89df398	-7.531716e-05
70	0x9fa7617a	-7.088851e-20
71	0x80009406	-5.3101e-41
72	0x3dda34d8	0.106546104
73	0x9f32e86d	-3.7885224e-20
74	0xb8635d4b	-5.4207903e-05
75	0xbb780afb	-0.0037848342
76	0xa7804e9f	-3.561238e-15
77	0x85149efa	-6.988126e-36
78	0x3e398579	0.18117322
79	0x3c403f75	0.011733879
80	0xa5e4e2a0	-3.9705262e-16
81	0xae58f3c0	-4.9329207e-11
82	0xb7acb01d	-2.0586007e-05
83	0xb89ab7fa	-7.3775605e-05
84	0xb1b41ba6	-5.2418327e-09
85	0xb080c22c	-9.368413e-10
86	0x3d936a1b	0.071979724
87	0x2e9de23b	7.17972e-11
88	0xb70a2bea	-8.2356655e-06
89	0xac4d9c99	-2.9219181e-12
90	0x9f2843ee	-3.5631574e-20
91	0xaa7b6d97	-2.23313e-13
92	0xb8270c64	-3.9827442e-05
93	0xa3872a88	-1.4654742e-17
94	0xa13aae75	-6.3250143e-19
95	0x1c310784	5.85741e-22
96	0xb706afa2	-8.027915e-06
97	0x3d3ac396	0.04559668
98	0x3dde4d38	0.10854572
99	0xa578318d	-2.152736e-16
100	0xae81144d	-5.869847e-11
101	0x3de50de0	0.11184287
102	0x3e1ecff8	0.15509021
103	0x8c60a78f	-1.7306755e-31
104	0x3a4d08f1	0.0007821462
105	0x3ba366e8	0.0049866326
106	0x389f59d3	7.598442e-05
107	0xba0bde30	-0.0005335538
108	0xb811744d	-3.4679008e-05
109	0xa48d6b56	-6.1330837e-17
110	0xbabb8ede	-0.0014309546
111	0xa30d4bd7	-7.659685e-18
112	0xbb9dea98	-0.0048192255
113	0xbb1c5f11	-0.0023860375
114	0xaf83163a	-2.3844554e-10
115	0xa763be1d	-3.1605639e-15
116	0xb03920f5	-6.734944e-10
117	0x3c07d2dd	0.00829002
118	0xab3c2a29	-6.6849526e-13
119	0xac98522a	-4.329222e-12
120	0xb89ae0c4	-7.385158e-05
121	0xb0f086a3	-1.7500564e-09
122	0xb70d9b09	-8.440352e-06
123	0xa2dc2d6f	-5.9679224e-18
124	0x3bba8ee5	0.005693304
125	0xa6fb6593	-1.7444155e-15
126	0xa19ee7d4	-1.0767861e-18
127	0x3ef248f5	0.47321287

fc2.weight f4 [128, 128]
0	0x80009ba2	-5.583e-41
1	0x80013743	-1.1166e-40
2	0x000160d8	1.26576e-40
3	0xbdbdc862	-0.092667356
4	0x382876c2	4.0164923e-05
5	0x3d893752	0.06700005
6	0x12f0c925	1.5195715e-27
7	0x000064da	3.6179e-41
8	0x12982872	9.602519e-28
9	0x1b174456	1.2512508e-22
10	0x800054b1	-3.0382e-41
11	0x8000b722	-6.5696e-41
12	0x3d16f740	0.03685689
13	0x383084ae	4.2085238e-05
14	0xbb8114f6	-0.0039392663
15	0x06047501	2.4912402e-35
16	0x38602379	5.34388e-05
17	0x37c300d4	2.3246197e-05
18	0x3cd33eba	0.025786746
19	0x9f386e9b	-3.9055006e-20
20	0x3d239357	0.039935436
21	0x0b2ce80d	3.330057e-32
22	0x3a925759	0.0011164948
23	0x2ac96d9c	3.578083e-13
24	0x1246e362	6.2758055e-28
25	0x0b7022a0	4.6248368e-32
26	0xa64a1e7b	-7.0124137e-16
27	0x3e01508a	0.1262838
28	0xa6edc6ec	-1.6499096e-15
29	0xb007e111	-4.943255e-10
30	0x3c7b4d7c	0.015338298
31	0x0001124a	9.8396e-41
32	0x3dae8813	0.08522048
33	0x3de42098	0.11139029
34	0x2fa01a3a	2.9122466e-10
35	0xa03e7d03	-1.6134989e-19
36	0x39c2fa99	0.00037189273
37	0x3d3186bf	0.043341395
38	0x3c539e46	0.012916153
39	0x0000caa1	7.269e-41
40	0x3e31dc17	0.17369114
41	0x80006894	-3.7516e-41
42	0x3b9278aa	0.0044699507
43	0xb64f1ea2	-3.0863234e-06
44	0xa94d1997	-4.554134e-14
45	0x000080cf	4.6208e-41
46	0xbdd42c24	-0.10359982
47	0x80003aaf	-2.1052e-41
48	0x000735dc	6.6217e-40
49	0x1e43c4ee	1.0363938e-20
50	0x86f7d296	-9.32205e-35
51	0x9e56d0e3	-1.13722624e-20
52	0x28110d98	8.052065e-15
53	0x37f6e715	2.9433091e-05
54	0x04410065	2.2687222e-36
55	0x800026c6	-1.3909e-41
56	0x000077ed	4.3021e-41
57	0xac90198d	-4.095563e-12
58	0xa8c1c256	-2.1511584e-14
59	0x80000449	-1.537e-42
60	0xb4b41f8c	-3.3550566e-07
61	0x00005ff5	3.4423e-41
62	0x04ab6890	4.0297932e-36
63	0x3cc7eade	0.024403986
64	0xabea53cb	-1.6649957e-12
65	0x9464e3da	-1.1555994e-26
66	0x3a70ac78	0.0009180973
67	0x80001bef	-1.002e-41
68	0x38573e66	5.1318108e-05
69	0xa60079cc	-4.4573987e-16
70	0xa0a97aae	-2.8710896e-19
71	0x800179af	-1.35487e-40
72	0xbd47b031	-0.048752014
73	0x00005d70	3.3519e-41
74	0x312b1654	2.4896467e-09
75	0x363626ac	2.7142623e-06
76	0x239188d9	1.5778889e-17
77	0x0341a26c	5.6904054e-37
78	0xbdaf66f1	-0.085645564
79	0xb9b34756	-0.0003419469
80	0xa3a89ccc	-1.8281003e-17
81	0x800093ea	-5.3062e-41
82	0x37f27fe5	2.8908204e-05
83	0x2b34715c	6.4106164e-13
84	0x2a8d3edd	2.5090252e-13
85	0xafc65cfd	-3.6082062e-10
86	0x3d15241a	0.036411382
87	0xaf98ad2e	-2.777169e-10
88	0x33020594	3.0273057e-08
89	0x22a563d2	4.482903e-18
90	0x8001534e	-1.2172e-40
91	0x00012458	1.04873e-40
92	0xbbdb5a9b	-0.0066941506
93	0x2236a12a	2.475092e-18
94	0xa0e65b1c	-3.9023807e-19
95	0x1cacc0da	1.1431856e-21
96	0x2885e85e	1.486674e-14
97	0x3dc03bf4	0.09386435
98	0x3dba0665	0.09083251
99	0x000055d6	3.0792e-41
100	0x1961a7f9	1.1666149e-23
101	0xbd682b73	-0.05668206
102	0xbdbd07b0	-0.09229982
103	0x8001014c	-9.2301e-41
104	0xb8edd4cf	-0.00011340679
105	0x3ad36143	0.0016127009
106	0x38c51820	9.398186e-05
107	0x3a66ced5	0.0008804624
108	0x2d801d5a	1.456495e-11
109	0x00005702	3.1213e-41
110	0xb8a9660e	-8.077557e-05
111	0x000008c6	3.147e-42
112	0x39248e4d	0.0001569327
113	0x3c52470e	0.012834324
114	0x800133e7	-1.10455e-40
115	0xa207c8a6	-1.8402134e-18
116	0x80004d7f	-2.78e-41
117	0xb9f0a747	-0.00045900999
118	0x29678073	5.1403716e-14
119	0xac285dfe	-2.3926412e-12
120	0xab871ddf	-9.600618e-13
121	0x998a6ce6	-1.431285e-23
122	0xb623d683	-2.4413755e-06
123	0x0000826c	4.6787e-41
124	0x3a765b81	0.00093977904
125	0x0000bd8a	6.7994e-41
126	0x1f07579f	2.865984e-20
127	0x3db977dc	0.090560645
128	0x80002ccb	-1.6069e-41
129	0x00011fbf	1.03224e-40
130	0x000021ac	1.2079e-41
131	0x3ac9b458	0.001538883
132	0x35ebd9a2	1.7572204e-06
133	0x3ca091b5	0.019600729
134	0x129ab35b	9.762981e-28
135	0x8000f37a	-8.7343e-41
136	0x11f23ec9	3.8219562e-28
137	0x97b19270	-1.1475323e-24
138	0x000071a9	4.0774e-41
139	0x0001667f	1.28604e-40
140	0x3c7029cb	0.014658402
141	0x392c8912	0.00016454261
142	0x3ba15c86	0.0049243597
143	0x85edfa66	-2.2379355e-35
144	0x3a32e903	0.00068248826
145	0xb398d96f	-7.1176025e-08
146	0x3c453892	0.012037413
147	0x9c4424fc	-6.489876e-22
148	0x3c87c0b9	0.01657139
149	0x000009c7	3.507e-42
150	0xb6ecff59	-7.0630745e-06
151	0xa74af4b6	-2.816579e-15
152	0x00474fd9	6.548964e-39
153	0x0abdfb80	1.8294642e-32
154	0x80000997	-3.44e-42
155	0x3d19d16d	0.03755324
156	0x976ae925	-7.590375e-25
157	0xafda2dce	-3.9686515e-10
158	0xbd367cbf	-0.04455256
159	0x0658a2ee	4.0744787e-35
160	0x3cd09368	0.025460914
161	0x3d8e58d8	0.06950539
162	0x2e49ae97	4.5857176e-11
163	0x9f3eac1b	-4.0376427e-20
164	0xb30fd5f6	-3.348938e-08
165	0xbda33fc4	-0.07971147
166	0xbab65856	-0.0013911824
167	0x80009856	-5.4648e-41
168	0x3d4434a3	0.04790176
169	0x00002766	1.4133e-41
170	0x3b36e574	0.002790776
171	0x257db928	2.2006985e-16
172	0x29d89f8e	9.620005e-14
173	0x000022e1	1.2512e-41
174	0x3ca00b1e	0.019536551
175	0x00010380	9.3091e-41
176	0x000103f0	9.3248e-41
177	0x800058af	-3.1814e-41
178	0x864e1ee2	-3.8766983e-35
179	0x1d530cf2	2.793231e-21
180	0x28265413	9.233082e-15
181	0xb845a8f9	-4.7125828e-05
182	0x84508436	-2.451099e-36
183	0x00006da1	3.9327e-41
184	0x80008561	-4.7847e-41
185	0x2ba945fa	1.2027595e-12
186	0x2a429b9f	1.7284653e-13
187	0x000005be	2.06e-42
188	0xb4d66079	-3.99308e-07
189	0x00004bd8	2.7208e-41
190	0x844df25e	-2.4208924e-36
191	0x3b742a16	0.003725653
192	0x2c6bcd80	3.3509584e-12
193	0x0000166a	8.04e-42
194	0xb68d3151	-4.2078686e-06
195	0x8000fa4b	-8.9788e-41
196	0xb5fb673f	-1.8731006e-06
197	0xa6306544	-6.1199507e-16
198	0x9f154e61	-3.161681e-20
199	0x0000ae8e	6.2618e-41
200	0x3c4a3d46	0.01234371
201	0x8216d1a6	-1.1080426e-37
202	0xa9786fea	-5.5164132e-14
203	0x3ba8ed4d	0.0051552416
204	0xa51df4e4	-1.3700551e-16
205	0x04b1aba2	4.177012e-36
206	0x3cdee2ca	0.02720775
207	0x39ff13eb	0.0004865223
208	0xa50b442d	-1.2079427e-16
209	0x0000a8c0	6.0536e-41
210	0x398c79a9	0.00026793525
211	0x1742b274	6.291002e-25
212	0xaa58a00b	-1.924018e-13
213	0xaf91368e	-2.641411e-10
214	0x3d02c657	0.031927433
215	0xad92b113	-1.6676915e-11
216	0x351dd6a9	5.879943e-07
217	0xa02f5c33	-1.4853583e-19
218	0x80002d8a	-1.6336e-41
219	0x80010ac8	-9.5703e-41
220	0x3b26f89b	0.002547777
221	0xa29ac58a	-4.1950936e-18
222	0x1fec481b	1.00069176e-19
223	0x1c3bdb04	6.215618e-22
224	0x0d904607	8.891544e-31
225	0x3ceb42df	0.02871841
226	0x3d6c432c	0.057681248
227	0x000032e3	1.8255e-41
228	0x1a2131c4	3.333422e-23
229	0x3c095659	0.008382403
230	0x3bb11639	0.0054042605
231	0x80005d10	-3.3385e-41
232	0x38cbef60	9.7243814e-05
233	0x3a108942	0.0005513617
234	0x37fe6a2f	3.0328605e-05
235	0xb79032f8	-1.7189872e-05
236	0x3047a38f	7.262821e-10
237	0x80017c63	-1.36457e-40
238	0xb786d6c2	-1.607405e-05
239	0x00013306	1.10139e-40
240	0xb91870b2	-0.00014537832
241	0x388d7914	6.7459565e-05
242	0x00005536	3.0568e-41
243	0xa6ac73c8	-1.196628e-15
244	0x9b16fa58	-1.24886e-22
245	0x3ab84224	0.0014057797
246	0x2969195c	5.175839e-14
247	0x2939ef39	4.1285744e-14
248	0x192a2459	8.796134e-24
249	0x997846f1	-1.2835626e-23
250	0x234ed65b	1.1212674e-17
251	0x8001511e	-1.20935e-40
252	0x3aa614ed	0.0012671031
253	0x000187e6	1.40587e-40
254	0xa1221ea8	-5.492831e-19
255	0x3cd891aa	0.026436646

fc2.bias f4 [128]
0	0x3bdee7a3	0.0068025156
1	0x3d6712a8	0.056414276
2	0xbcaac0df	-0.020843921
3	0x3db4ac53	0.08821931
4	0x3c089041	0.008335174
5	0x3c597736	0.013273051
6	0x3d17aac0	0.037028074
7	0xbc1651d3	-0.009174782
8	0x3d99f773	0.075179
9	0x3cb8adf4	0.022543885
10	0x3da6cf7c	0.08145043
11	0x3b467151	0.0030279944
12	0x3ba90b48	0.0051588155
13	0xb4070d52	-1.25777e-07
14	0x3ceec86f	0.029148309
15	0x3a1108bc	0.00055326126
16	0x3c85608c	0.016281389
17	0x3d1f0569	0.03882352
18	0x3c801b93	0.015638148
19	0x3d63158a	0.055440463
20	0x3ba227c4	0.004948588
21	0x3d0aedc7	0.03391817
22	0x3bc1c39c	0.005913211
23	0x3c2553db	0.0100907935
24	0x3dd82c62	0.1055534
25	0x3cf8b595	0.030360023
26	0x3df26c80	0.11837101
27	0xbce8b5f8	-0.028407082
28	0x3d9ab752	0.07554497
29	0xba0aeb27	-0.00052993227
30	0x3a0e6046	0.0005431216
31	0x3d921fc5	0.07134966
32	0x3e1972f3	0.14985256
33	0x3e041808	0.12899792
34	0x3cd3b45f	0.025842844
35	0xbb70253c	-0.0036643287
36	0xbb58ef9f	-0.003310181
37	0x3d669855	0.05629762
38	0x3cf66d95	0.03008155
39	0x3e0fead9	0.14054431
40	0x3bf37d47	0.0074307057
41	0xbc5a370b	-0.013318787
42	0x3e085ed1	0.1331742
43	0x3d912c1f	0.070884936
44	0x3dde258c	0.10847005
45	0x3cd98790	0.026553899
46	0x3c542246	0.012947625
47	0x3d4c503f	0.049881216
48	0x3d8c179a	0.06840439
49	0x3cd72adf	0.02626556
50	0x3d6d89bd	0.057992686
51	0x3b8791ce	0.0041372543
52	0x3c5594c8	0.0130359605
53	0x3b875681	0.004130185
54	0x3ce6cd38	0.028174028
55	0x3c5149a2	0.012773903
56	0x3d74db54	0.05977948
57	0x3c690891	0.014223234
58	0x3d22b254	0.03972085
59	0x3d8e029d	0.06934092
60	0x3d7aef00	0.061263084
61	0x3dc1bfef	0.094604366
62	0x3d2648d3	0.040596794
63	0x3cfb0593	0.030642306
64	0x3c1365dc	0.008996453
65	0x3dbbc554	0.09168497
66	0x3db6aabb	0.08919283
67	0x3dee54c4	0.116372615
68	0x3e1a0c25	0.15043695
69	0x3c3edc8f	0.011649265
70	0x3d8ac918	0.06776637
71	0x3dbe0046	0.09277396
72	0x3cc4fa0b	0.024045011
73	0x3d524c87	0.051342513
74	0x3dcb9874	0.099411875
75	0xbca36781	-0.019946815
76	0xbaf83f59	-0.0018939778
77	0x3d06b99b	0.03289185
78	0x3d54ccba	0.051953055
79	0xbc9da674	-0.01924441
80	0x3dae0125	0.08496312
81	0x3d310b94	0.043223932
82	0xbc38b8b5	-0.011274506
83	0x3db51c36	0.088432714
84	0x3bc75f05	0.0060843253
85	0x3d4cac90	0.049969256
86	0x3dc79646	0.09745459
87	0x3dc9e526	0.0985816
88	0x3d42df55	0.047576267
89	0x3d358e70	0.044325292
90	0x3d32363d	0.043508757
91	0x3de4c54e	0.111704454
92	0x3da9de10	0.08294308
93	0x3dbee105	0.09320263
94	0x3d1814eb	0.037129324
95	0x3d57bfe9	0.052673254
96	0x3c784e7b	0.01515543
97	0x3c9f5aae	0.01945242
98	0x3d922fb1	0.07138003
99	0x3d8b1d82	0.067927375
100	0xbc547c73	-0.012969124
101	0xbbb12551	-0.00540606
102	0x3dbfbe02	0.09362413
103	0x3dd59be8	0.104301274
104	0x3e08c026	0.13354549
105	0x3dc5af36	0.096525595
106	0x3d7cd827	0.061729576
107	0x3b75f777	0.0037531534
108	0x3d2f9249	0.042864118
109	0x3d61e186	0.055146717
110	0x3e074348	0.1320926
111	0x3dc452ab	0.0958608
112	0x3d879a6e	0.06621252
113	0xbcdcda62	-0.026959602
114	0xb8d1d3d0	-0.0001000535
115	0xbc0b99d5	-0.008520563
116	0x3d9347a4	0.07191399
117	0x3cc1a199	0.023636626
118	0x3cf3ca61	0.029759588
119	0x3c37bcec	0.011214476
120	0x3d157b2b	0.036494415
121	0x3ded7dbd	0.11596248
122	0x3b8c9f4e	0.0042914515
123	0x3d79b9ab	0.060968082
124	0x3dee69ab	0.11641248
125	0x3d5b30dc	0.053513393
126	0x3ced4ebc	0.028968208
127	0x3cf34f15	0.029700795

fc3.weight f4 [16, 128]
0	0x3e59ceac	0.21270245
1	0x3dfd567f	0.123700134
2	0xbd3eb1db	-0.046556335
3	0xbd4256e4	-0.047446147
4	0x3d656241	0.056001905
5	0x3e48e33b	0.19617932
6	0x3dd9f56b	0.10642513
7	0xbbe597f5	-0.00700664
8	0x3d3b0dd1	0.045667473
9	0xbd3b5f15	-0.045744974
10	0xbd1c3607	-0.038137462
11	0x3d9660d3	0.073426865
12	0x3e1e3572	0.15450075
13	0xb11d66ad	-2.2904871e-09
14	0x3d72d923	0.05928911
15	0x3dadb5c6	0.08481936
16	0x3d4a994c	0.0494626
17	0x3e35b37c	0.17744249
18	0x3e60af2b	0.21941821
19	0x3e3427f8	0.17593372
20	0x3df785dc	0.120860785
21	0x3e050b7c	0.12992662
22	0x3df818cb	0.12114104
23	0x3e144f14	0.14483291
24	0x3d9e6108	0.07733351
25	0x3e39afe8	0.18133509
26	0xbe000244	-0.12500864
27	0x3e21faa2	0.15818265
28	0x3dcac1bd	0.09900234
29	0x39b50b34	0.00034531357
30	0x3ddfc617	0.109264545
31	0x3daecf74	0.08535662
32	0x3c70e1a2	0.014702233
33	0xbdb89c3b	-0.090141736
34	0x3c04bee1	0.00810215
35	0x3e10f5e1	0.14156295
36	0xbd3b539c	-0.045734033
37	0x3e81e4d7	0.25369903
38	0xbd4ac40e	-0.04950338
39	0x3e1c67f4	0.1527403
40	0xbd0df4f0	-0.03465742
41	0x3cacf709	0.02111389
42	0x3c31d733	0.01085453
43	0xbdb7804a	-0.08960016
44	0x3d12ccf1	0.03583998
45	0x3d0e0920	0.03467667
46	0x3e3b2612	0.18276241
47	0x3c7dfe5e	0.01550254
48	0x3e09197c	0.13388628
49	0x3d19a63c	0.03751205
50	0x3dfe4ab2	0.12416591
51	0x3dbb808c	0.09155378
52	0xbdb19c06	-0.08672337
53	0x3de39599	0.11112518
54	0x3daac444	0.08338216
55	0x3e07dab7	0.13267027
56	0x3ddc4108	0.10754591
57	0x3e4d7c20	0.20066881
58	0xbd2db7d9	-0.04241166
59	0xbd29f358	-0.041491836
60	0xbd38736f	-0.04503196
61	0x3c9a331e	0.018823203
62	0x3cadfab9	0.021237718
63	0x3e15bc1f	0.14622544
64	0x3e13f2b9	0.1444806
65	0xbd86b3c6	-0.06577258
66	0x3bb90477	0.005646284
67	0xbd23daa6	-0.04000344
68	0xbc9138f2	-0.017727349
69	0x3d1ee0b4	0.038788512
70	0xbc3e9869	-0.011633017
71	0xbb4135b3	-0.002948147
72	0x3e378e08	0.17925274
73	0x3e3dc617	0.18532597
74	0x3dc26464	0.09491804
75	0x3e0a62e8	0.13514292
76	0x3d0909b5	0.033456523
77	0x3d94a33c	0.07257697
78	0xbc994757	-0.018710775
79	0x3de38d83	0.111109756
80	0xbd63ca05	-0.055612583
81	0x3dfe13c5	0.124061145
82	0x3e302092	0.17199925
83	0xb961b734	-0.0002152592
84	0x3e36be8f	0.1784613
85	0xbd258c79	-0.04041717
86	0xbcd1bd79	-0.025603043
87	0x3dfb3ecf	0.12267839
88	0x3dc23dcc	0.09484443
89	0x3d4fcb03	0.050730716
90	0x3e72a8b3	0.23697166
91	0xbda56a57	-0.08076923
92	0x3e307c2a	0.17234865
93	0x3ceaf904	0.028683193
94	0x3e39ef94	0.18157798
95	0xbdb01757	-0.08598202
96	0x3e08b26f	0.13349317
97	0x3e3924ea	0.18080488
98	0x3c6b292f	0.014353081
99	0xbcda0dae	-0.026617851
100	0x3d1e5413	0.0386544
101	0x3e5bde80	0.21471596
102	0x3e43db3a	0.19126597
103	0xbd88616b	-0.06659206
104	0x3d81a3b8	0.06330055
105	0xbd8ebb89	-0.06969363
106	0x3ba48526	0.0050207553
107	0x3d4c490f	0.04987436
108	0xbcc8c263	-0.024506753
109	0xbd9c5a4d	-0.07634411
110	0xbc16f19a	-0.009212876
111	0x3d982e85	0.07430748
112	0x3da6c0f3	0.08142271
113	0x3ddc54ea	0.107583836
114	0x38cc3c7a	9.738743e-05
115	0xbc2e4bbd	-0.010638175
116	0x3bc90304	0.0061343927
117	0x3dd0ee8b	0.102017485
118	0x3d861f6f	0.06548964
119	0x3d1b598c	0.037927195
120	0x3c5fc2b9	0.013657265
121	0xbd852466	-0.06501083
122	0x3e3e38d3	0.18576364
123	0xbd42e746	-0.04758384
124	0xbd9cc64f	-0.07655012
125	0xbd4f3b89	-0.050593887
126	0x3da3aa7b	0.07991501
127	0xbc8a07c1	-0.0168494
128	0xbdd8ccf5	-0.105859675
129	0x3da0c1c7	0.0784946
130	0x3c38ebe1	0.011286707
131	0x3d6fefb4	0.058578208
132	0xbd9a034c	-0.0752016
133	0xbd95d5fc	-0.07316205
134	0xbd31c6ce	-0.043402486
135	0x3b3f8923	0.0029226027
136	0x3c579f14	0.013160486
137	0xbd90281c	-0.070389
138	0x3dac2db2	0.08407153
139	0xbd4f21fb	-0.050569516
140	0xbe4144a4	-0.1887384
141	0xaedcbffe	-1.00385464e-10
142	0xbcf404be	-0.029787418
143	0xbd59eeda	-0.053206302
144	0xbcc936e2	-0.024562303
145	0xbdded8d4	-0.108812004
146	0xbdf679af	-0.12034928
147	0x3c96ea57	0.018422289
148	0xbd246186	-0.040132068
149	0xbd8c02fb	-0.06836506
150	0xbda59d89	-0.08086688
151	0xbdd41235	-0.10355035
152	0x3d532d8a	0.0515571
153	0x3b132cb6	0.002245707
154	0x3dfca9a1	0.12337042
155	0xbdc7bcbc	-0.09752795
156	0xbc3473a2	-0.011013897
157	0xbd4199b6	-0.04726573
158	0xbdd4bd50	-0.10387671
159	0xbd1545e3	-0.036443602
160	0x3e094561	0.13405372
161	0x3df1d9ff	0.118091576
162	0xbcff061a	-0.03113084
163	0xbd7b7866	-0.061394118
164	0xbd2a688e	-0.041603617
165	0xbc585d4f	-0.01320584
166	0xbbf77156	-0.0075513525
167	0x3df8bbb8	0.121451795
168	0xbd1e48cd	-0.038643647
169	0xbcb351e2	-0.02188963
170	0x3df0b7ea	0.11753829
171	0x3dd5bbb1	0.1043619
172	0x3da09b03	0.07842066
173	0x3d1cd77f	0.03829145
174	0xbd9f5608	-0.07780081
175	0x3b8dcd30	0.004327439
176	0xbda850a2	-0.082185045
177	0x3d1fcd7d	0.03901433
178	0x3cc41f77	0.023940785
179	0xbdf2d82b	-0.11857637
180	0x3b3f2fbc	0.002917274
181	0xbd93b311	-0.072118886
182	0xbcd43363	-0.02590341
183	0xbdcb175f	-0.09916567
184	0x3c6d2080	0.014473081
185	0xbda6b27a	-0.081395105
186	0xbc317bd2	-0.010832744
187	0x3cf5dc61	0.030012311
188	0x3db0b221	0.086277254
189	0x3dad2ab5	0.08455411
190	0xbd8ce522	-0.06879641
191	0xbdd04d55	-0.10171
192	0xbdc3894b	-0.09547671
193	0x3dcf22dd	0.101140715
194	0x3dad8e4d	0.08474407
195	0x3dc30d88	0.09524065
196	0x3e20c9a5	0.15701921
197	0xbd84f1d3	-0.06491437
198	0xbd7967ad	-0.06088989
199	0x3d86312b	0.06552347
200	0xbda142e3	-0.07874086
201	0xbd4a1dff	-0.049345013
202	0xbcc60a57	-0.024174852
203	0xbdabdabf	-0.08391332
204	0xbd5af562	-0.05345667
205	0x3c3180a5	0.010833894
206	0xbd1dc7ab	-0.038520496
207	0xbd9ed933	-0.07756271
208	0x3d6b8583	0.057500374
209	0xbe080f3a	-0.13287058
210	0xbdd0ddbb	-0.10198542
211	0xbd839798	-0.064253986
212	0xbdd96c0b	-0.10616311
213	0x3d6d96be	0.058005087
214	0x3dbebbb9	0.09313149
215	0x3d8bf4c4	0.06833795
216	0xbde052e0	-0.10953307
217	0xbd16dc4b	-0.03683118
218	0xbd651a87	-0.0559335
219	0x3e25ab6a	0.1617867
220	0x3ca52036	0.020156961
221	0x3dd250fb	0.10269352
222	0x3b62a946	0.0034585758
223	0x3da632ea	0.0811518
224	0x3c4e5104	0.012592558
225	0xbdc6824f	-0.09692823
226	0x3d0c2ce2	0.03422249
227	0x3d76dda8	0.06026998
228	0xbba31650	-0.004977025
229	0xbda57651	-0.08079208
230	0x3ce5137f	0.027963398
231	0x3e07e73b	0.13271801
232	0x3d686e0b	0.05674557
233	0x3dbb16ab	0.09135183
234	0xbdabd114	-0.08389488
235	0xbd1f1d4d	-0.038846303
236	0x3cd3b37d	0.025842423
237	0x3d6478e6	0.05577936
238	0x3e05ff82	0.1308575
239	0x3c8ff123	0.017571038
240	0xbd9cb614	-0.07651916
241	0xbd51931c	-0.051165685
242	0xb62bb5fc	-2.5586914e-06
243	0x3be36ca7	0.0069404426
244	0x3dab1fa1	0.08355642
245	0xbdbb08a3	-0.09132507
246	0xbda613cb	-0.08109244
247	0xbd230281	-0.03979731
248	0xbbaea485	-0.005329671
249	0x3e2d1775	0.1690348
250	0xbd3c4d94	-0.04597242
251	0x3d64f967	0.05590191
252	0x3e050db2	0.12993506
253	0x3cda55e8	0.026652291
254	0xbcca46c8	-0.024691954
255	0xb9be4b24	-0.00036295608

fc3.bias f4 [16]
0	0x3e7f0b35	0.24906619
1	0x3f08a616	0.5337843
2	0xbd364aad	-0.04450481
3	0x3e55c50d	0.2087595
4	0xbc8db002	-0.017295841
5	0xbdcec62f	-0.10096394
6	0xbd0a05d5	-0.033696968
7	0x3ee9b809	0.4564822
8	0xbdac42f2	-0.08411206
9	0x3dfe182c	0.12406954
10	0xbe141dcf	-0.14464496
11	0xbd8d5a24	-0.069019586
12	0xbe3de94f	-0.18546031
13	0xbebcad0b	-0.3685077
14	0xbedc206a	-0.4299348
15	0xbed5804b	-0.41699442
