MBTI/ANN/Model/pr/lr=0.001 L2=0.01 hd = 128/best_model.pth (torch, 85231 bytes, 6 tensors)

fc1.weight f4 [128, 16]
0	0xbca021e9	-0.01954742
1	0xbcd69b2f	-0.026197044
2	0xbc51e22f	-0.012810274
3	0xbcf30337	-0.029664619
4	0xbb72132f	-0.0036937704
5	0xbaae925a	-0.0013318763
6	0xbc2dfe73	-0.010619747
7	0xbc177b5a	-0.009245718
8	0xbbb2cdfe	-0.005456685
9	0xbc396d7a	-0.011317605
10	0xbb2a3cce	-0.0025976184
11	0xba4c5ba2	-0.0007795637
12	0x15b29c5c	7.214032e-26
13	0xb064b992	-8.320963e-10
14	0x80004585	-2.4939e-41
15	0x00005c2d	3.3066e-41
16	0xb77e81c8	-1.5169797e-05
17	0x3753d05c	1.26250925e-05
18	0xb6f941e9	-7.428451e-06
19	0xb748518b	-1.1939915e-05
20	0xb4ef585d	-4.4581512e-07
21	0xb5036632	-4.8950017e-07
22	0xb6966da0	-4.4831104e-06
23	0xb7d4d5f9	-2.5372008e-05
24	0x30063974	4.883056e-10
25	0xb63274c1	-2.6592027e-06
26	0xb471881e	-2.2494393e-07
27	0xb5292553	-6.301172e-07
28	0xb73565a1	-1.0812103e-05
29	0x2c828d10	3.7104833e-12
30	0x0000aa4b	6.109e-41
31	0x800033be	-1.8562e-41
32	0x80001266	-6.6e-42
33	0x80002039	-1.156e-41
34	0x80004675	-2.5275e-41
35	0x800045f3	-2.5093e-41
36	0x80000f5a	-5.507e-42
37	0x00007ba6	4.4357e-41
38	0x800038c5	-2.0365e-41
39	0x00004a91	2.675e-41
40	0x80001790	-8.453e-42
41	0x80003881	-2.027e-41
42	0x80001ef0	-1.1098e-41
43	0x80001702	-8.254e-42
44	0x00002f80	1.704e-41
45	0x2c299fab	2.4104978e-12
46	0x00006f33	3.9891e-41
47	0x00007ce5	4.4804e-41
48	0x351f411e	5.9326874e-07
49	0xb4246c17	-1.5313013e-07
50	0x35824f05	9.708752e-07
51	0xb48101a0	-2.4029305e-07
52	0xa1191c64	-5.187599e-19
53	0xb5b89e70	-1.375518e-06
54	0x34a39405	3.0468814e-07
55	0x349bff86	2.9056918e-07
56	0x2e010209	2.933301e-11
57	0xb580b211	-9.588567e-07
58	0xada95d14	-1.925441e-11
59	0x02a452c7	2.4145146e-37
60	0xb7e88048	-2.771629e-05
61	0xabb1d1ec	-1.2634871e-12
62	0xb911e8d8	-0.00013915019
63	0x80007a85	-4.3952e-41
64	0xb88b6186	-6.646202e-05
65	0xb69228c8	-4.3558866e-06
66	0xb76cbe56	-1.4111012e-05
67	0x375c1840	1.3118668e-05
68	0x36356358	2.7028927e-06
69	0x38272fac	3.98603e-05
70	0xb86b2a50	-5.6067773e-05
71	0xb85f8fa8	-5.3301133e-05
72	0xb0c1adb8	-1.4091972e-09
73	0xb5d31072	-1.5725511e-06
74	0x3839832c	4.42296e-05
75	0x36bc0a14	5.60401e-06
76	0x3721ada0	9.636773e-06
77	0x00005874	3.1731e-41
78	0x2d31b112	1.0100603e-11
79	0x80007c04	-4.4488e-41
80	0xacb42ca3	-5.1208634e-12
81	0xaba4d52c	-1.1712068e-12
82	0xad29562c	-9.625672e-12
83	0x2d422acc	1.1037126e-11
84	0x25a44cf4	2.850161e-16
85	0x00001626	7.945e-42
86	0xacc55566	-5.608558e-12
87	0x2dbd4e18	2.1521493e-11
88	0x9b6cfbd8	-1.9602838e-22
89	0xad43411d	-1.1098925e-11
90	0x2a95f27c	2.6635974e-13
91	0x2999ef96	6.8361264e-14
92	0x00003912	2.0473e-41
93	0x3233be48	1.0462436e-08
94	0xabff8c38	-1.8157758e-12
95	0x00008fe6	5.1621e-41
96	0x39c6d6d4	0.00037925562
97	0x38eec7ea	0.00011385961
98	0x39a2a22a	0.0003101987
99	0xba07a927	-0.0005175047
100	0xb9c02609	-0.00036649432
101	0xb8e24b9d	-0.00010790604
102	0xb92e2171	-0.00016606391
103	0xba0b2567	-0.00053080026
104	0x38b95ee4	8.839162e-05
105	0x39216a11	0.0001539367
106	0xb8ca5c1b	-9.6492666e-05
107	0xb9116d35	-0.0001386896
108	0x2c7a891d	3.560325e-12
109	0x000026f5	1.3975e-41
110	0x2b59b4e2	7.734491e-13
111	0x80005931	-3.1996e-41
112	0x000075c2	4.2244e-41
113	0x800014b0	-7.421e-42
114	0x00007d27	4.4896e-41
115	0x80002786	-1.4178e-41
116	0x00004e2a	2.804e-41
117	0x000068d8	3.7611e-41
118	0x80008fbe	-5.1565e-41
119	0x0000a111	5.778e-41
120	0x80001839	-8.69e-42
121	0x80005fef	-3.4414e-41
122	0x8000738a	-4.1448e-41
123	0x000006cd	2.44e-42
124	0x09f4448e	5.880533e-33
125	0xb72ee486	-1.0424415e-05
126	0x2d971d0c	1.7179612e-11
127	0x36c13d0c	5.758955e-06
128	0x34ca7bfe	3.7715648e-07
129	0x34146b2c	1.3822563e-07
130	0xb53eaee1	-7.1035e-07
131	0x34c1ceef	3.6099615e-07
132	0xaf9bed43	-2.836292e-10
133	0xb0737020	-8.8562224e-10
134	0xb5992daf	-1.1412684e-06
135	0xb4592886	-2.0224442e-07
136	0x331ee0cd	3.6991697e-08
137	0xb2263f65	-9.676886e-09
138	0x2cd3ab4e	6.0159993e-12
139	0x3176a02a	3.5888754e-09
140	0xb7d3b010	-2.5235146e-05
141	0x00000b8d	4.144e-42
142	0x00006a54	3.8143e-41
143	0x000011cb	6.383e-42
144	0xac5ba0b9	-3.121099e-12
145	0x2d2fa1c3	9.983517e-12
146	0x2e831cb6	5.9622904e-11
147	0x2e230676	3.7067648e-11
148	0xad001034	-7.279555e-12
149	0xaa94745b	-2.637082e-13
150	0xae1e2f5c	-3.5967104e-11
151	0x2e431dd9	4.4364377e-11
152	0xace51cec	-6.5117824e-12
153	0xad9246e4	-1.662976e-11
154	0xab6ed350	-8.484784e-13
155	0x2d09e693	7.838746e-12
156	0x0e726bd1	2.9880715e-30
157	0x800091b5	-5.227e-41
158	0x800026ea	-1.396e-41
159	0x000017eb	8.58e-42
160	0x259097c3	2.5082856e-16
161	0x1f298fd3	3.590611e-20
162	0x2699111c	1.0621145e-15
163	0x25596222	1.8854998e-16
164	0x22dbd98a	5.9590397e-18
165	0x801e3700	-2.774795e-39
166	0xa4220667	-3.5133573e-17
167	0x25faf0c7	4.3531244e-16
168	0x25565147	1.8589079e-16
169	0x25ef6e06	4.1534446e-16
170	0x256ca658	2.0526096e-16
171	0xa08ea07c	-2.4161935e-19
172	0xad97e860	-1.7269908e-11
173	0x800059b1	-3.2175e-41
174	0x80004af5	-2.689e-41
175	0x00003e0f	2.2262e-41
176	0xbe2e4564	-0.17018658
177	0x3d92b0cb	0.07162627
178	0x3f283a0a	0.6571356
179	0x3e4f65dc	0.202537
180	0x3bb40110	0.0054932907
181	0xbccc1648	-0.024912968
182	0xbc9c15a8	-0.019053295
183	0xbef15d8f	-0.47141692
184	0xba7b8a1e	-0.0009595471
185	0xbda04e28	-0.07827407
186	0xbd3b8679	-0.04578254
187	0xbb79bca1	-0.0038106816
188	0xbac2dbc8	-0.0014866525
189	0x00005df9	3.3711e-41
190	0x80002b68	-1.5571e-41
191	0x80005568	-3.0638e-41
192	0xbd569ed2	-0.052397557
193	0x3b4237b8	0.0029635262
194	0x3d4b1d36	0.049588405
195	0x3bacb013	0.005270013
196	0xbb8c78b1	-0.0042868485
197	0xbbceeddc	-0.006314976
198	0xbceed51b	-0.029154351
199	0xbc67e63e	-0.014154015
200	0xb89ab61a	-7.377211e-05
201	0xbc26f880	-0.010191083
202	0xbba9cf95	-0.0051822164
203	0x3a125714	0.00055824337
204	0x31c2f250	5.673691e-09
205	0xae0210c4	-2.957347e-11
206	0x80004983	-2.6371e-41
207	0x80009304	-5.2739e-41
208	0x3ee273aa	0.4422887
209	0xbec540b6	-0.38525933
210	0xbe92b220	-0.28651524
211	0xbe9bcb5e	-0.30428594
212	0xbd7d905b	-0.061905246
213	0xbba923fc	-0.0051617604
214	0x3f68dd96	0.90963113
215	0x3da41ff9	0.08013911
216	0xbd0fd387	-0.035113838
217	0xbe8c68a2	-0.27423579
218	0xbd5c2e3b	-0.053755026
219	0xbdc0b1e3	-0.09408929
220	0xbb49874b	-0.0030750807
221	0x000003db	1.383e-42
222	0x00000f94	5.588e-42
223	0x80009c0d	-5.598e-41
224	0x80001411	-7.198e-42
225	0x000090b4	5.191e-41
226	0x000068b1	3.7556e-41
227	0x0000162d	7.955e-42
228	0x0000ac59	6.1827e-41
229	0x000bfb79	1.100402e-39
230	0x000014d6	7.475e-42
231	0x0000a026	5.745e-41
232	0x0002df7e	2.63845e-40
233	0x800063b7	-3.5771e-41
234	0x80040e49	-3.72467e-40
235	0x800043a8	-2.427e-41
236	0x2c5bff00	3.1263325e-12
237	0x2b25cd74	5.89049e-13
238	0x0000129a	6.673e-42
239	0x00000ffb	5.733e-42
240	0x80003def	-2.2218e-41
241	0x80008719	-4.8464e-41
242	0x00008042	4.601e-41
243	0x80005623	-3.09e-41
244	0x00004c58	2.7387e-41
245	0x80007496	-4.1823e-41
246	0x80009bb0	-5.585e-41
247	0x8000506c	-2.885e-41
248	0x0000abfc	6.1696e-41
249	0x80003a8c	-2.1003e-41
250	0x80000e3b	-5.105e-42
251	0x00005464	3.0274e-41
252	0x80004d09	-2.7635e-41
253	0x00005d96	3.3572e-41
254	0x0000069d	2.372e-42
255	0x80000732	-2.581e-42

fc1.bias f4 [128]
0	0xbc8bd22a	-0.017067987
1	0xb7dbfd4a	-2.6224781e-05
2	0xa819b6f6	-8.5328795e-15
3	0xb6592cdf	-3.2361638e-06
4	0xb8f40973	-0.00011636587
5	0xacb6ebb8	-5.198921e-12
6	0xbbe1c172	-0.0068895156
7	0xaffd5213	-4.607875e-10
8	0xb5f5f9f7	-1.8326672e-06
9	0xaeba3c40	-8.469003e-11
10	0xb3d6e7bc	-1.0007304e-07
11	0x3e23d84d	0.16000481
12	0x3b0ba2ed	0.0021306828
13	0x3d35d9cf	0.04439717
14	0x9c53c988	-7.0074517e-22
15	0xa8cdc0cd	-2.2843186e-14
16	0xba3f0ee5	-0.0007288291
17	0xb8ae49fa	-8.310746e-05
18	0xacdc2cdd	-6.257757e-12
19	0xbb13cae8	-0.0022551361
20	0xa3091abe	-7.432448e-18
21	0xb74bbfa4	-1.2144363e-05
22	0xa5f1cb31	-4.1944524e-16
23	0x37975def	1.8044344e-05
24	0xb9926a66	-0.00027926563
25	0xb483d58e	-2.4556033e-07
26	0x3d9d13cd	0.07669792
27	0xb500ab6c	-4.793317e-07
28	0xba8ce3af	-0.0010749007
29	0xa551539d	-1.815619e-16
30	0xac8b37f0	-3.956828e-12
31	0xb8c789a1	-9.514695e-05
32	0xb738d0e0	-1.1015887e-05
33	0xb594b801	-1.1080411e-06
34	0xb79fe5fe	-1.9061375e-05
35	0xb1232486	-2.3740383e-09
36	0xbaeb1f3a	-0.0017938383
37	0xaf3eb6b0	-1.7345303e-10
38	0xb9ec7d9d	-0.00045107017
39	0x3c9191f6	0.017769795
40	0xb9bd82df	-0.00036146396
41	0xb0669d97	-8.389746e-10
42	0xbac777ca	-0.0015218195
43	0xa6b3dba4	-1.2480154e-15
44	0xb82ab698	-4.0701212e-05
45	0xb1934ffa	-4.2873554e-09
46	0xb5a96a46	-1.2622411e-06
47	0xb3906227	-6.723376e-08
48	0x2dd0e2bb	2.374755e-11
49	0xb9cdab8d	-0.00039228462
50	0x974c3b89	-6.59911e-25
51	0xa255dfd2	-2.8985372e-18
52	0xba935fe3	-0.0011243786
53	0xb9c220ad	-0.0003702691
54	0xb339b324	-4.3236597e-08
55	0xa7ac63dd	-4.784786e-15
56	0xbbd9488b	-0.0066309622
57	0x3d649524	0.055806294
58	0xb21c6fa3	-9.105778e-09
59	0xb7471b07	-1.1867617e-05
60	0xb9c8d4f3	-0.00038305632
61	0x3d8f28cd	0.06990204
62	0x3e216ef9	0.15764989
63	0xa088c041	-2.316652e-19
64	0xae8755a3	-6.1543014e-11
65	0xa83e5fa9	-1.0567862e-14
66	0xa893ceb3	-1.640992e-14
67	0x3aa23538	0.001237548
68	0xb7a6a615	-1.986608e-05
69	0xbb44d5a8	-0.0030034576
70	0xb8223f62	-3.868284e-05
71	0x34bda6ac	3.5325263e-07
72	0xb4a80e1c	-3.1302704e-07
73	0xbb10d88d	-0.002210173
74	0xb0078fcc	-4.931706e-10
75	0xbbc6e4d1	-0.0060697575
76	0xb6c66cb1	-5.913513e-06
77	0x9b517305	-1.732524e-22
78	0xb6e9018e	-6.944122e-06
79	0xb4a85a48	-3.1358127e-07
80	0xbcaa7bc3	-0.020810967
81	0xb5866f69	-1.0016203e-06
82	0xba2fdeac	-0.0006708901
83	0xbb4a38b7	-0.0030856559
84	0xae04ac92	-3.01666e-11
85	0xb25cae3d	-1.2845303e-08
86	0x3e8a3334	0.2699219
87	0xbc21f383	-0.009884718
88	0x3c85bc81	0.016325237
89	0xb9719030	-0.00023037265
90	0xbbc703dc	-0.006073458
91	0xaf22cd96	-1.4806853e-10
92	0xb18ea76e	-4.1517785e-09
93	0xb62dcbee	-2.5897712e-06
94	0xa9c3d363	-8.6964093e-14
95	0xae6b6328	-5.3520882e-11
96	0xb23044c1	-1.0260181e-08
97	0xb7a7b58a	-1.9992487e-05
98	0xb6d584c4	-6.3633506e-06
99	0x3c427f7b	0.011871214
100	0xbb44bf23	-0.0030021153
101	0xb8a9a44e	-8.089152e-05
102	0xb3253fa8	-3.847495e-08
103	0xb62815b5	-2.5046586e-06
104	0xb9976011	-0.0002887254
105	0xb8306117	-4.2052092e-05
106	0xb9e40559	-0.00043491533
107	0xad5bb8ff	-1.2489786e-11
108	0x3b7f2afa	0.0038935528
109	0xbbae2796	-0.0053147776
110	0xb97376ac	-0.00023218495
111	0xb00d1388	-5.1323257e-10
112	0xbb422136	-0.0029621846
113	0x3bb4b090	0.005514212
114	0xb43f8005	-1.7834834e-07
115	0x3e24691b	0.1605572
116	0xb42a1352	-1.5839512e-07
117	0xb797e291	-1.8106106e-05
118	0xb919ad44	-0.00014655764
119	0xb3f1fa9b	-1.1268022e-07
120	0xbb8bde13	-0.0042684167
121	0xb43618fd	-1.6959162e-07
122	0xb8b3e5e6	-8.578207e-05
123	0xbb829b89	-0.0039858264
124	0xb44c76ea	-1.9042241e-07
125	0xb87b8e94	-5.997585e-05
126	0xb059bf8a	-7.9216333e-10
127	0xb816f824	-3.5993886e-05

fc2.weight f4 [128, 128]
0	0x3be30853	0.0069284826
1	0xb5491003	-7.4901635e-07
2	0x8000255b	-1.34e-41
3	0xb5ccca4c	-1.525806e-06
4	0x3862ab17	5.404194e-05
5	0x2cc2bd5a	5.534834e-12
6	0xb8b5b605	-8.664656e-05
7	0x8000295c	-1.4837e-41
8	0x33ec1fe6	1.0995409e-07
9	0xac714fa4	-3.429237e-12
10	0xa143f7cc	-6.6396526e-19
11	0x3dfa0ac2	0.12209083
12	0xba2fb1b9	-0.0006702203
13	0xbdb67913	-0.08909812
14	0x8000aeab	-6.2659e-41
15	0x800026b7	-1.3888e-41
16	0xa88d3473	-1.5676891e-14
17	0x373ecf83	1.1373198e-05
18	0x00002ee4	1.6821e-41
19	0x256579a0	1.9903792e-16
20	0x06f4d855	9.210047e-35
21	0xb377f5c0	-5.7732677e-08
22	0xa522300b	-1.4067538e-16
23	0x353a5423	6.9412835e-07
24	0xb6a4e437	-4.9141486e-06
25	0x2f551c06	1.9382193e-10
26	0x3d436216	0.047700964
27	0xad6ba912	-1.3395745e-11
28	0x0ecf534a	5.1109644e-30
29	0x22f7362a	6.7006833e-18
30	0x800044e0	-2.4708e-41
31	0x8000a949	-6.0728e-41
32	0x9ebbba47	-1.9876438e-20
33	0x31adeb7f	5.0617355e-09
34	0x80000441	-1.526e-42
35	0xae7582d2	-5.5822742e-11
36	0x1dcddcca	5.449134e-21
37	0x00004883	2.6012e-41
38	0x80008273	-4.6796e-41
39	0xbd37e33c	-0.044894442
40	0x2926e493	3.705766e-14
41	0x800094c3	-5.3366e-41
42	0x068303c5	4.928226e-35
43	0x130287ee	1.6475325e-27
44	0x0ca3c933	2.523522e-31
45	0x9f5a1d9b	-4.6187785e-20
46	0x0000321f	1.798e-41
47	0xb219098f	-8.9079455e-09
48	0xaee32382	-1.0329072e-10
49	0x00002572	1.3433e-41
50	0x0000394a	2.0551e-41
51	0x00004bb0	2.7152e-41
52	0x26a09cb3	1.1144704e-15
53	0x2202285e	1.7639656e-18
54	0x3288bdfc	1.5918879e-08
55	0x80008ccc	-5.0508e-41
56	0xafc3260d	-3.549733e-10
57	0xbd3665f0	-0.04453081
58	0x30af8fcf	1.2773799e-09
59	0xb4cff4f1	-3.8734973e-07
60	0x18db6c4f	5.6719537e-24
61	0xbdec027f	-0.115239136
62	0x3dea3185	0.11435226
63	0x80003c79	-2.1694e-41
64	0x0000c3b5	7.0206e-41
65	0x0000b8c9	6.6288e-41
66	0x8000570d	-3.1228e-41
67	0x3cd7cf07	0.026343836
68	0x00007ce9	4.481e-41
69	0xa81a99c9	-8.582064e-15
70	0x05a61a80	1.56203e-35
71	0xb25c35ea	-1.2817944e-08
72	0x00004f59	2.8465e-41
73	0x258372c0	2.2802635e-16
74	0x00007fa0	4.5783e-41
75	0x91298349	-1.3372205e-28
76	0x12564f73	6.762442e-28
77	0x800020fc	-1.1833e-41
78	0x91b2d678	-2.8215625e-28
79	0xb306c4e7	-3.1378388e-08
80	0x3bac96f8	0.0052670203
81	0x8000ad1b	-6.2099e-41
82	0x34e5c410	4.2797228e-07
83	0x2906caea	2.9929977e-14
84	0x00002182	1.202e-41
85	0x80003166	-1.7721e-41
86	0x3e52507b	0.20538513
87	0x36229633	2.4227309e-06
88	0x3c81d484	0.015848406
89	0x215b9657	7.439906e-19
90	0xbd1856d2	-0.037192173
91	0x187aa94b	3.2397214e-24
92	0x80004454	-2.4512e-41
93	0x8000484f	-2.594e-41
94	0x9d7937e0	-3.2983762e-21
95	0xa8a88b12	-1.8712059e-14
96	0x2de4c2b8	2.6007071e-11
97	0xa68c6964	-9.743018e-16
98	0x00001164	6.239e-42
99	0xbce7d8f6	-0.028301697
100	0x30896263	9.996025e-10
101	0x888106ff	-7.76555e-34
102	0x2ee02e63	1.01945806e-10
103	0x00af9a2f	1.6126522e-38
104	0x8bbd681e	-7.295681e-32
105	0x360118a3	1.9236838e-06
106	0x1764cca0	7.3929046e-25
107	0x80000b9c	-4.165e-42
108	0x3a9627a0	0.0011455901
109	0xb0f1f50e	-1.7604707e-09
110	0xb6d00944	-6.1999617e-06
111	0x80000a93	-3.793e-42
112	0xb38b7e4a	-6.495664e-08
113	0x3a978e80	0.0011562854
114	0x327351b0	1.4163035e-08
115	0x3e0d84aa	0.13820139
116	0xb22ffa40	-1.0243241e-08
117	0x9eae8f41	-1.8482215e-20
118	0x28c341d0	2.167789e-14
119	0xa91af5f4	-3.44082e-14
120	0x3bd5491c	0.0065089595
121	0x2f87247b	2.4582278e-10
122	0x9d2cfc5e	-2.2894481e-21
123	0x9a8be46a	-5.7858075e-23
124	0x32616de1	1.3121707e-08
125	0xb297dbb2	-1.767862e-08
126	0xa1897386	-9.31406e-19
127	0x349e83a8	2.9525586e-07
128	0x3bd4e0ff	0.006496548
129	0x34c9efb2	3.761357e-07
130	0x0000a240	5.8204e-41
131	0xb5b2923f	-1.3304597e-06
132	0x38354b18	4.32237e-05
133	0xab56737a	-7.618833e-13
134	0xba2b6d1a	-0.000653939
135	0x000000f0	3.36e-43
136	0x30842f49	9.617703e-10
137	0x2c46ea5d	2.826759e-12
138	0xae87a53e	-6.168442e-11
139	0x3db73b1d	0.08946822
140	0xbb7b3d58	-0.0038336124
141	0xbdb09d72	-0.0862378
142	0x800086b2	-4.832e-41
143	0x00009277	5.2542e-41
144	0x268d6d4c	9.813465e-16
145	0x381c1203	3.7210073e-05
146	0x80004f44	-2.8435e-41
147	0x2a4197e6	1.7194544e-13
148	0x05752a62	1.1527629e-35
149	0xb453ef24	-1.9737905e-07
150	0x23dfba62	2.4256645e-17
151	0x34b2b355	3.3285565e-07
152	0xb85f7f90	-5.3286145e-05
153	0xab1fef58	-5.6820304e-13
154	0x3d12056d	0.035649706
155	0xb29237ca	-1.7022007e-08
156	0x8e8d1a76	-3.4784665e-30
157	0x8cfcd76a	-3.8956395e-31
158	0x00006147	3.4897e-41
159	0x0000bef2	6.8498e-41
160	0x1232b517	5.6390107e-28
161	0x335da7f0	5.160831e-08
162	0x000018d9	8.914e-42
163	0xad0b62ea	-7.9231986e-12
164	0x922a3d2a	-5.371793e-28
165	0x00000efd	5.377e-42
166	0x00002462	1.3052e-41
167	0xbd3d82a8	-0.04626718
168	0xa796df23	-4.187529e-15
169	0x80000da1	-4.889e-42
170	0x801251d9	-1.6824e-39
171	0x8000276b	-1.414e-41
172	0x8b1f0ed6	-3.0633447e-32
173	0xa69efdf6	-1.1032289e-15
174	0x800012a8	-6.693e-42
175	0xb0ce217e	-1.4997992e-09
176	0x2b5261e0	7.4742816e-13
177	0x00004767	2.5614e-41
178	0x80002b1c	-1.5465e-41
179	0x80001332	-6.886e-42
180	0x0e084295	1.6795352e-30
181	0x20656631	1.9430867e-19
182	0x2fc2b136	3.541431e-10
183	0x00008a17	4.9537e-41
184	0x30d04a44	1.5155099e-09
185	0xbd330c79	-0.043713067
186	0x3146800d	2.888558e-09
187	0x31594c9a	3.16212e-09
188	0x984dc63c	-2.6595712e-24
189	0xbde2a1c4	-0.110660106
190	0x3db4bd63	0.08825185
191	0x80000704	-2.517e-42
192	0x800044eb	-2.4723e-41
193	0x80135616	-1.775756e-39
194	0x8000238c	-1.2752e-41
195	0xbcc3ec59	-0.02391641
196	0x8000511e	-2.91e-41
197	0x271bb0e8	2.1606472e-15
198	0x8000b497	-6.4783e-41
199	0x30673bfc	8.4122553e-10
200	0x00005153	2.9174e-41
201	0x2a77ec1a	2.2019921e-13
202	0x80003a08	-2.0818e-41
203	0x1046c6a1	3.9201633e-29
204	0x00001ba0	9.91e-42
205	0x00000e63	5.161e-42
206	0x911c1674	-1.2313149e-28
207	0xb20464f9	-7.70637e-09
208	0xbaadfaf7	-0.0013273646
209	0x800032e1	-1.8252e-41
210	0x373f95ef	1.1419396e-05
211	0x28cd7f6a	2.2814829e-14
212	0x00000054	1.18e-43
213	0x8000040d	-1.453e-42
214	0x3e262ae7	0.16227303
215	0xb642c3d1	-2.9022233e-06
216	0x3c595038	0.013263755
217	0x2118c9cd	5.1766684e-19
218	0xbc7f69d0	-0.0155891925
219	0x2b75932a	8.7245716e-13
220	0x80002140	-1.1928e-41
221	0x8000061a	-2.189e-42
222	0x230fd893	7.797907e-18
223	0x28b67bf9	2.0259824e-14
224	0xae90c81e	-6.58391e-11
225	0xa604aa89	-4.602782e-16
226	0x000060de	3.475e-41
227	0xbd02b0ef	-0.03190702
228	0xb262472d	-1.3171115e-08
229	0x800072f1	-4.1233e-41
230	0xb08f41df	-1.0423341e-09
231	0x80000f98	-5.594e-42
232	0x80001b77	-9.853e-42
233	0x3670037c	3.5764815e-06
234	0x173fa501	6.1923693e-25
235	0x00002c6a	1.5933e-41
236	0xbb71a761	-0.0036873447
237	0x31fca8f7	7.3533744e-09
238	0xb83babb0	-4.474417e-05
239	0x00006bc1	3.8655e-41
240	0xa7e9430a	-6.4743175e-15
241	0xbb098122	-0.002098151
242	0xb11b1b66	-2.2571043e-09
243	0x3d9ede22	0.07757212
244	0xb457a480	-2.008328e-07
245	0x9d25e567	-2.1956166e-21
246	0xa93fcf68	-4.2590416e-14
247	0xb386bee0	-6.274581e-08
248	0x3bf24b5a	0.0073942365
249	0x333c46de	4.3836614e-08
250	0x1e1b6912	8.22736e-21
251	0x18229870	2.101497e-24
252	0xb08fa58c	-1.0451671e-09
253	0xb17029a6	-3.494827e-09
254	0xa06d4302	-2.0096852e-19
255	0xb423cfe8	-1.5256194e-07

fc2.bias f4 [128]
0	0x3cc51f57	0.024062796
1	0x3d90e2fc	0.07074544
2	0xbce72064	-0.028213687
3	0x3d40e2c4	0.04709126
4	0x3d012495	0.031529028
5	0xbc9b5330	-0.018960565
6	0xb9f1d668	-0.00046126847
7	0x3d9370e0	0.071992636
8	0xbd390f86	-0.04518082
9	0xbc47922d	-0.012180847
10	0xb980c466	-0.0002456039
11	0xb26a9428	-1.36542795e-08
12	0x3d35e9a9	0.04441229
13	0xb9e362b4	-0.00043370354
14	0xb83c14c9	-4.484205e-05
15	0x3da06a56	0.07832782
16	0xb51a7d23	-5.755157e-07
17	0xbc931a44	-0.01795686
18	0x3ba5d94b	0.0050613037
19	0x3d958ef6	0.07302658
20	0xbce53f86	-0.027984392
21	0xb7df08cd	-2.658777e-05
22	0xbcaf2f69	-0.021384912
23	0x3d6c3baf	0.057674106
24	0xbd47a581	-0.04874182
25	0x3db9886f	0.09059226
26	0x3d87ceb8	0.06631225
27	0x3d793f04	0.060851112
28	0xbd9968ae	-0.07490669
29	0xbd52d1fb	-0.051469784
30	0x3dcb070d	0.09913454
31	0xbd37b8a6	-0.04485383
32	0xbb25c8c2	-0.0025296663
33	0x3d431680	0.04762888
34	0xbc909caf	-0.017652838
35	0x3bf66cf0	0.0075203106
36	0x3d9f0592	0.07764734
37	0xbc7d89e2	-0.015474768
38	0x3cef534a	0.02921452
39	0xbbd139eb	-0.006385078
40	0xbca76d8f	-0.020437984
41	0x3c369464	0.0111437775
42	0xbd0580f3	-0.03259368
43	0xb9e861f7	-0.00044323478
44	0x3c10a63e	0.008828698
45	0x3d7ca190	0.061677516
46	0x3d723a8e	0.059137873
47	0x3d5604e3	0.052250754
48	0x3d0465f7	0.032323804
49	0x3d3fc49f	0.04681837
50	0x3d0f0b29	0.034922753
51	0xbb3483cb	-0.0027544375
52	0xb2649293	-1.3304674e-08
53	0x3dd7ada6	0.10531168
54	0x3d94116d	0.07229886
55	0x39b7eb31	0.0003507971
56	0xbc0443eb	-0.0080728335
57	0x3cd87960	0.026425064
58	0xba4ea1a1	-0.0007882361
59	0x3c6f06fc	0.014589068
60	0xbbc4be44	-0.0060041267
61	0x3de0cd1c	0.109766215
62	0x3d060349	0.032717977
63	0xbd800c08	-0.06252295
64	0xbd1daebb	-0.038496714
65	0xbb39b0ed	-0.0028334216
66	0xbdd15033	-0.10220375
67	0xb6709bc9	-3.5853466e-06
68	0x3d113e27	0.035459664
69	0x3cafc614	0.021456756
70	0x3dcd4cb3	0.10024395
71	0x3c09b6f2	0.008405434
72	0x3cbc8ab3	0.023015356
73	0x3c842f3d	0.016135806
74	0x3d34c1b4	0.044130042
75	0xb73efef2	-1.1384242e-05
76	0xbcb8f6c3	-0.022578603
77	0xbd40ce9d	-0.04707204
78	0x3be4ac2e	0.006978533
79	0x3dd52c46	0.10408835
80	0x3cbf85a9	0.023379164
81	0x3d44d144	0.048051134
82	0xbd47573b	-0.048667174
83	0xb829dd95	-4.0499104e-05
84	0x3d70994a	0.058739938
85	0x3c87be2d	0.016570175
86	0xb6882de6	-4.058459e-06
87	0xb4a3f33c	-3.0538092e-07
88	0x3d8193dc	0.0632703
89	0x3dafd783	0.085860275
90	0xb8ccde20	-9.768852e-05
91	0xbc9fb1ef	-0.019494025
92	0xb6d6e783	-6.4046485e-06
93	0xb4ce8d4d	-3.84733e-07
94	0xbccf1c8a	-0.025282163
95	0xbc28eab7	-0.010309867
96	0x3d2219d5	0.039575417
97	0xb997a7b5	-0.00028925916
98	0xb4eab0fe	-4.3714675e-07
99	0x3d459319	0.048235986
100	0x3d6c79a1	0.057733182
101	0x3dbd54b2	0.0924467
102	0xbc8c2cd8	-0.017111227
103	0x39a1d1b3	0.0003086455
104	0x3e4331b6	0.19061932
105	0xbc850c1d	-0.016241128
106	0xbbff6282	-0.0077937255
107	0x3d8adff6	0.067809984
108	0x3d5629e0	0.05228603
109	0xb7014edc	-7.70736e-06
110	0xbd0e5c1c	-0.03475581
111	0x3d81984c	0.063278764
112	0xbd0e2ca4	-0.03471054
113	0xba04a387	-0.0005059768
114	0x3db2ab67	0.08724099
115	0x3d843f65	0.06457404
116	0x3b94cf05	0.00454128
117	0x3d6129f6	0.054971658
118	0x3d0e17df	0.034690734
119	0x3d8062ea	0.06268866
120	0x3c22f7ae	0.009946747
121	0x3c9ed5f6	0.019389134
122	0xba0761e7	-0.000516443
123	0x3c84e5c3	0.01622284
124	0x3d6ec59a	0.058293916
125	0xbd7f66eb	-0.06235401
126	0xbd03b7f0	-0.03215784
127	0x3d93e6f9	0.07221789

fc3.weight f4 [16, 128]
0	0xbd2aa830	-0.041664302
1	0xbd8e1d61	-0.06939197
2	0x3de0d00e	0.10977183
3	0xbcd8da18	-0.026471183
4	0x3e38cfd0	0.18048024
5	0xbd79645c	-0.060886726
6	0xbb9d9e69	-0.0048101437
7	0x3e4839a1	0.19553234
8	0x3dbc557b	0.091959916
9	0xbd0e360d	-0.034719516
10	0xb334002d	-4.1909676e-08
11	0x273ce71b	2.6215524e-15
12	0xbd61960c	-0.055074736
13	0xbb092fb8	-0.0020932984
14	0x2ea1982a	7.348462e-11
15	0x3def2ae5	0.11678103
16	0xb3597462	-5.06301e-08
17	0x3a99d7af	0.0011737252
18	0x3d468018	0.048462003
19	0x3c56e731	0.013116644
20	0x3dcf87c9	0.10133321
21	0xb6a5b34e	-4.938257e-06
22	0x3dfc77fe	0.12327574
23	0xbd591e28	-0.053007275
24	0x3d715a69	0.058924112
25	0xbd9f8bfa	-0.0779037
26	0xba8ad657	-0.0010592443
27	0x3e1963b9	0.14979447
28	0x3de4bc33	0.11168709
29	0x3dac4b8e	0.084128484
30	0x3e5c2d27	0.21501599
31	0x3db4b756	0.08824031
32	0xbb1c6004	-0.002386094
33	0x3e66acd8	0.22526872
34	0x3e13e275	0.14441855
35	0x3bd9a292	0.0066416943
36	0xbda1f175	-0.079073824
37	0x3d1caebc	0.038252577
38	0xbd0dbe09	-0.03460506
39	0x3e490324	0.19630104
40	0x3d7a980c	0.06118016
41	0x3dd2dc3e	0.10295914
42	0x3e3ff691	0.18746401
43	0x3b45843e	0.0030138637
44	0xbc1f9181	-0.009739281
45	0x3e521370	0.20515227
46	0xbd2b8530	-0.041875064
47	0x3e0248b0	0.1272304
48	0xbd6e5dcc	-0.05819492
49	0xbd5e1d32	-0.05422706
50	0xbd67b546	-0.05656936
51	0xbdb3fc5a	-0.087883666
52	0xb086609c	-9.777241e-10
53	0xbc579ba7	-0.013159669
54	0x3e55d250	0.20881009
55	0x3cf56285	0.029954204
56	0xbd03c41b	-0.032169443
57	0x3ce4ffc9	0.027954
58	0xb6feea08	-7.5970347e-06
59	0xbb422de6	-0.0029629408
60	0x3b8d8fb7	0.0043201107
61	0x3d6d3b07	0.05791762
62	0xbc27c55f	-0.010239928
63	0x3dd65478	0.1046533
64	0x3dc709f9	0.09718699
65	0xbbecedc7	-0.0072304937
66	0x3dc1e4c1	0.094674595
67	0xb61a8d59	-2.3030063e-06
68	0x3e28ec7c	0.16496462
69	0x3bd38148	0.0064546205
70	0x3e1c122b	0.15241306
71	0x3cb8353b	0.02248632
72	0xbcd131fb	-0.025536528
73	0x3e23dfaa	0.1600329
74	0xbd05bf1a	-0.03265295
75	0xb4e4a1f7	-4.2586154e-07
76	0x3dba8352	0.091070786
77	0x3ddc20b8	0.10748428
78	0x3c37f0c7	0.011226839
79	0x3dd2e2a4	0.102971345
80	0x3dc30cba	0.09523912
81	0xbd065d02	-0.032803543
82	0x3d338e05	0.043836612
83	0xb5270bf2	-6.222973e-07
84	0x3dd9117d	0.10599039
85	0x3df1ea38	0.11812252
86	0xb3bd5495	-8.816384e-08
87	0xb3d898df	-1.0086091e-07
88	0x3d573ff1	0.052551214
89	0xbd78a0db	-0.06070028
90	0x38b65f27	8.69616e-05
91	0x3e1c25c5	0.15248783
92	0x365de711	3.3066065e-06
93	0xab4bdc19	-7.2425535e-13
94	0x3c8b27a6	0.01698668
95	0x3e005d19	0.12535514
96	0x3e361b3f	0.17783831
97	0x3a1f1523	0.0006068518
98	0xaf782b65	-2.2570885e-10
99	0x3d96a15f	0.07354998
100	0x3d7fac2d	0.06242006
101	0x3e1e10d7	0.15436111
102	0x3e064e55	0.13115819
103	0xb97fd688	-0.00024398614
104	0x3e0d3ab9	0.13791932
105	0x3ccf1b9a	0.025281716
106	0x3d68a325	0.05679621
107	0x3d9c1f13	0.076231144
108	0x3e033141	0.12811758
109	0x376791da	1.3802632e-05
110	0xbcef7d00	-0.02923441
111	0xbd732838	-0.059364527
112	0x3c902666	0.017596435
113	0xbc4522d6	-0.012032231
114	0x3e18ed5b	0.14934294
115	0x3cd0adb1	0.025473448
116	0x3de5a7ee	0.11213671
117	0x3c82f5a1	0.015986266
118	0xbd9815a8	-0.074260056
119	0xbc9f449a	-0.019441891
120	0x3dd040d3	0.10168614
121	0x3cb83010	0.022483855
122	0x3dea4130	0.11438215
123	0x3e0373c0	0.12837124
124	0x3daac404	0.08338168
125	0x3d9a45c8	0.07532841
126	0x3e130a5d	0.14359422
127	0x3e498421	0.1967931
128	0x3dda6f03	0.10665705
129	0x3e0d0056	0.1376966
130	0xbd9b4fb7	-0.07583564
131	0x3e1b19b2	0.1514652
132	0xbd7a3c01	-0.06109238
133	0x3d2d6837	0.042335715
134	0x3c06e00a	0.008232126
135	0xbdaa7aef	-0.08324229
136	0xbdd7ae03	-0.10531237
137	0xbd52000a	-0.05126957
138	0xb0e7264f	-1.681835e-09
139	0x9f0dfd4a	-3.0067427e-20
140	0x3d636a90	0.055521548
141	0xb1eee9f7	-6.9533104e-09
142	0xb071309a	-8.7744356e-10
143	0xbd1b5cb8	-0.03793022
144	0xb297e7a1	-1.7684046e-08
145	0x3c1289d4	0.008943994
146	0x3df171b0	0.11789262
147	0x3ddffc37	0.10936778
148	0xba7a4faf	-0.0009548617
149	0xb688389e	-4.059707e-06
150	0xbdd34d36	-0.10317461
151	0x3dc88797	0.09791487
152	0x3c9c4d6f	0.019079892
153	0x3e0a3106	0.13495263
154	0x3d947dba	0.07250543
155	0xbd81a657	-0.06330555
156	0xbd9dbf41	-0.077024944
157	0xbd782e43	-0.060590994
158	0xbd010bc1	-0.03150535
159	0xbd6021bc	-0.05471967
160	0xbbdbf095	-0.006712029
161	0xbd6399e8	-0.0555667
162	0xbde45d60	-0.11150622
163	0x3d3148d3	0.04328234
164	0x3d6232ae	0.055224113
165	0xbdcd0bd2	-0.1001202
166	0x3d325917	0.043541994
167	0xbda2a968	-0.07942468
168	0xbce263f7	-0.027635558
169	0xbd12c8a0	-0.035835862
170	0xbda63319	-0.08115215
171	0xba03539d	-0.0005009713
172	0x3c81821f	0.015809117
173	0xbdb99150	-0.09060919
174	0x3e058779	0.1303996
175	0xbd96a5a3	-0.073558114
176	0x3dbe227d	0.09283922
177	0x3da64242	0.081181064
178	0x3ddb4fba	0.10708566
179	0x3db9a1ab	0.09064039
180	0x31da9db4	6.362564e-09
181	0x3e4a8ff6	0.19781479
182	0xbd9e04da	-0.07715769
183	0xbcfca8fe	-0.0308423
184	0x3da15cf7	0.0787906
185	0x3d2c4ea3	0.04206718
186	0xb13446da	-2.6233722e-09
187	0x3c023420	0.007946998
188	0xbaa09dc9	-0.0012254055
189	0xbd41435e	-0.047183387
190	0x3d75d3b0	0.060016334
191	0xbd90ac0a	-0.07064064
192	0xbcd5e074	-0.026108004
193	0x3b9ed1b2	0.004846775
194	0xbd80ef80	-0.06295681
195	0xb4bc1749	-3.503467e-07
196	0xbde41b54	-0.11138025
197	0xbc557fde	-0.013030974
198	0xbd04f72c	-0.032462284
199	0x3dd162a6	0.10223894
200	0x3d9a36ad	0.0752996
201	0xbdb5b3ca	-0.08872183
202	0x3db959d3	0.09050336
203	0xb6d6d112	-6.402036e-06
204	0x3ce917e4	0.028453775
205	0xbe0456c1	-0.12923719
206	0x3c3c9054	0.01150902
207	0xbd4cfa1e	-0.050043218
208	0x3da950cc	0.08267364
209	0x3d67c22f	0.056581672
210	0x3befaae8	0.007314075
211	0xb41cdcf8	-1.460902e-07
212	0xbd599804	-0.05312349
213	0xbd807329	-0.06271965
214	0xb4528bbc	-1.9608609e-07
215	0xb457f897	-2.0113872e-07
216	0xbdb8a4a6	-0.09015779
217	0x3e1d13e9	0.15339626
218	0xb799e84a	-1.834719e-05
219	0xbd99027d	-0.07471178
220	0xb65a99ea	-3.2574121e-06
221	0xa49914f8	-6.6388695e-17
222	0xbd32e2dc	-0.04367338
223	0xbdb002b4	-0.085942656
224	0xbd8380f9	-0.06421084
225	0xb87e3550	-6.060797e-05
226	0xae58932e	-4.9243436e-11
227	0xbc97f6f0	-0.018550366
228	0xbe39c75c	-0.18142456
229	0xbdb5eb1d	-0.08882735
230	0xbd9f6aa2	-0.077840105
231	0x3ca764e0	0.020433843
232	0xbd46831e	-0.048464887
233	0x3ccd386c	0.025051318
234	0x3daf16b5	0.08549253
235	0xbe02d23e	-0.12775514
236	0xbdcf6d6e	-0.10128294
237	0x32e6d608	2.6872854e-08
238	0x3cac4de1	0.02103323
239	0x3e0e310f	0.13885902
240	0xbbfd5cea	-0.0077320235
241	0xbd7f934d	-0.062396336
242	0xbd93685c	-0.07197639
243	0xbc77b161	-0.015117974
244	0x3d97eada	0.07417841
245	0x3e09f7e4	0.13473469
246	0x3dc326c0	0.09528875
247	0x3d3420d2	0.043976612
248	0xbd8aebf1	-0.067832835
249	0xbdc49087	-0.09597879
250	0xbe11d4b8	-0.14241302
251	0xbd66bb69	-0.056331072
252	0xbd50506c	-0.050857946
253	0xbd782291	-0.06057984
254	0xbe0871d2	-0.13324669
255	0xbdf6d605	-0.1205254

fc3.bias f4 [16]
0	0x3ec89c1f	0.3918161
1	0x3f13c6f0	0.5772543
2	0xbde453e1	-0.11148811
3	0x3e649850	0.22323728
4	0xbd9f81d7	-0.07788437
5	0xbdccbe94	-0.099972874
6	0xbcf5c5f9	-0.030001627
7	0x3f33393e	0.7000922
8	0xbd19bce1	-0.037533645
9	0x3de510a5	0.11184815
10	0xbe22726a	-0.15863958
11	0xbdb23d33	-0.08703079
12	0xbe61425b	-0.21997969
13	0xbed73c77	-0.4203832
14	0xbf00bd45	-0.502888
15	0xbef4d8fc	-0.47821796
