MBTI/ANN/Model/TFJP/lr=0.001/best_model.pth (torch, 34735 bytes, 6 tensors)

fc1.weight f4 [64, 57]
-0.00016809232 3.9104947e-05 -0.00043637524 1.2012675e-06 1.42242e-05 -0.00034422104 -0.00019881071 -0.00037244815
-0.000117422234 5.9469938e-05 5.984103e-07 -0.000118618496 -0.00014912891 -0.00014616571 -0.00058685977 -0.00023201469
-0.00021011522 -0.0001555651 -0.00029766062 1.9301764e-05 -0.00056139217 -0.00037251622 -0.00036832178 -9.025043e-05
-0.00049596187 -0.00023310794 -0.00034195773 -9.7136064e-05 1.3177527e-05 -0.00012237384 -0.00015754966 4.3573345e-05
4.6686586e-05 -0.00028670448 -7.811149e-05 -9.577152e-05 -0.00038888815 5.458538e-05 -0.0002384721 -0.00013238506
2.7754042e-05 1.3475728e-05 1.4775211e-05 -1.5773601e-08 -6.954748e-06 -2.4606293e-06 -8.325566e-06 -3.391843e-05
-1.1469969e-08 -6.488057e-19 3.535925e-08 6.4287456e-12 -1.6862904e-09 -6.1715e-41 4.5544e-41 4.5544e-41
4.5544e-41 -4.994096e-25 -8.665724e-18 -2.0686573e-25 -7.017046e-18 -2.229744e-20 -6.2010096e-19 -1.4249609e-19
-1.3104077e-18 -1.7445297e-25 1.9422197e-24 -2.8168992e-21 -1.4018853e-22 -7.710636e-21 -3.506961e-19 -4.6881222e-18
-7.418934e-21 -7.118059e-21 -4.7610525e-21 -2.873751e-31 -3.761898e-21 -2.3197938e-24 -8.6323336e-36 2.2076203e-20
-5.355231e-27 -3.231675e-23 -1.3553115e-22 -1.7100436e-23 -4.2610357e-23 -1.2332627e-25 -1.3625447e-26 4.4824583e-26
-3.0340564e-26 -4.3096282e-23 -6.646286e-22 2.624417e-25 -1.2071537e-21 -1.8394152e-21 -3.0403403e-23 -2.4441975e-21
-6.072668e-21 -1.5002508e-23 3.3150976e-20 -3.4134474e-26 -3.4129e-40 1.469367e-28 -8.7258136e-26 8.544722e-25
3.7654365e-25 2.8358185e-37 -2.8001e-41 2.95e-42 1.1828e-41 1.7445e-41 -4.3842e-41 2.33e-42
3.807e-41 -1.3569e-41 -1.70478e-40 -5.7407e-41 6.994965e-24 -1.0408327e-19 3.379668e-36 -1.5710972e-38
-1.6793367e-19 -4.8010736e-20 2.0908139e-29 -8.10829e-40 -1.7339715e-21 7.60374e-39 -5.0230235e-22 1.8626593e-37
1.62745e-40 1.4083323e-35 -3.4767736e-22 1.29067e-40 -2.19687e-40 -2.3933888e-23 -3.8111465e-19 3.955417e-34
-9.4768726e-23 -9.320256e-20 1.6342e-41 5.4821302e-21 -9.462201e-20 -1.59303e-39 7.954865e-29 -2.7744704e-20
-6.699792e-20 1.1424329e-28 -2.443385e-39 -2.1898e-40 1.2109352e-28 -1.8467992e-22 -7.367205e-25 -3.116616e-25
-1.81778e-40 -2.8150523e-24 -2.59275e-40 7.27e-42 -8.0884e-41 -1.7072783e-23 -2.1929e-41 -1.5525443e-24
-7.829e-42 3.6701612e-26 6.7303625e-25 -2.361944e-25 3.61042e-40 1.806944e-39 3.61042e-40 -3.37054e-40
-9.334469e-14 -7.579957e-13 2.1179234e-07 -5.202613e-07 2.7717246e-07 3.887768e-07 -5.2939117e-06 1.0100077e-06
-9.5072085e-07 2.7097647e-08 -6.801477e-06 -7.619086e-07 1.1353715e-06 6.811915e-08 1.0018875e-06 -6.747787e-06
1.9921698e-08 8.020515e-07 1.6756518e-06 -7.7588305e-07 1.854022e-08 2.0667149e-07 -1.772479e-07 -2.3525313e-08
1.0096688e-06 -1.1098498e-06 1.612675e-07 9.790958e-07 1.3429873e-07 -1.7730116e-07 -1.9436795e-06 1.1934382e-09
1.1285124e-06 -1.1246626e-07 1.2057913e-07 -1.3344504e-08 -1.5818821e-07 7.915566e-07 -9.331109e-07 2.7239585e-07
-5.1487285e-07 -1.2186651e-08 9.049919e-07 7.952532e-07 7.9097214e-07 7.2683747e-07 -2.5709178e-06 2.2225532e-08
1.3610967e-08 -8.770503e-09 3.3383245e-08 -1.9391319e-08 5.395264e-10 -3.6233351e-12 1.1552564e-15 -2.4653996e-17
-3.976809e-17 -4.0985e-41 -4.0985e-41 1.203e-41 -0.00012007988 -0.00011523714 -0.00017314557 -0.00028379622
-0.0001631518 -1.4413296e-06 -0.00020551105 -0.00010200796 -3.8699305e-05 -0.00019698594 -0.000115215174 2.9011975e-08
-1.7541496e-06 -0.00020954103 -4.8063335e-05 -6.0937595e-07 1.5339261e-05 -3.5912974e-05 -0.000308013 -9.068319e-05
-5.7204703e-05 -7.372759e-05 -0.00013213854 -0.00010576263 -0.00029668974 -0.00010146403 -0.00012291844 -0.0001187521
00000000: f041 30b9 9e04 2438 4bc9 e4b9 3d3b a135
00000010: 79a4 6e37 9178 b4b9 d877 50b9 2545 c3b9
00000020: 9540 f6b8 5c6f 7938 71a2 2035 d2c2 f8b8
00000030: 7d5f 1cb9 0f44 19b9 7ed7 19ba f848 73b9
00000040: 6052 5cb9 301f 23b9 550f 9cb9 39ea a137
00000050: 642a 13ba 484e c3b9 501b c1b9 d544 bdb8
00000060: 7003 02ba 706e 74b9 ca48 b3b9 87b5 cbb8
00000070: 0c15 5d37 7a51 00b9 ea33 25b9 86c2 3638
00000080: 57d1 4338 d350 96b9 c9cf a3b8 f1d8 c8b8
00000090: afe3 cbb9 9bf2 6438 5e0e 7ab9 d8d0 0ab9
000000a0: 5ad1 e837 d015 6237 0ce3 7737 847e 87b2
000000b0: d55c e9b6 4a21 25b6 09ae 0bb7 a343 0eb8
000000c0: 750d 45b2 5f7e 3fa1 e8dd 1733 fe30 e22c
000000d0: 12c3 e7b0 09ac 0080 f57e 0000 f57e 0000
000000e0: f57e 0000 4e8f 1a97 b9da 1fa3 2f0b 8096
000000f0: 1071 01a3 e797 d29e 8105 37a1 cd3a 28a0
00000100: ce61 c1a1 5af6 5796 a045 1618 c1d6 549d
00000110: 407a 299b 59a6 119e b203 cfa0 10f6 aca2
00000120: c323 0c9e d274 069e 13de b39d 6184 ba8c
00000130: d81e 8e9d 407c 3398 e596 3785 fc80 d01e
00000140: 7f24 d493 3346 1c9a dcd8 239b a162 a599
00000150: 110d 4e9a a8ab 1896 9df0 8694 e9f5 5d15
00000160: 3c3d 1695 9d66 509a 26df 489c 8c71 a216
00000170: 7f6b b69c 77fb 0a9d 9705 139a a8ad 389d
00000180: 3e6b e59d 6918 9199 128d 1c1f 9606 2995
00000190: 61b7 0380 af43 3a11 6a0a d895 2239 8417
000001a0: b911 e916 edfe c002 0e4e 0080 3908 0000
000001b0: f920 0000 a130 0000 377a 0080 7f06 0000
000001c0: 206a 0000 d325 0080 39db 0180 07a0 0080
000001d0: 644d 0719 7ac2 f59f 53c1 8f04 cc13 ab80
000001e0: d642 46a0 6bb9 629f a208 d40f 43d4 0880
000001f0: e303 039d 22cc 5200 c3cf 179c 3488 7d02
00000200: abc5 0100 74c2 9505 7728 d29b c967 0100
00000210: 6664 0280 7079 e799 6bf8 e0a0 f770 0308
00000220: 0023 e59a 7e11 dc9f 8e2d 0000 e91b cf1d
00000230: 7f6b df9f b858 1180 07ae c910 4a05 039f
00000240: c231 9e9f 11d2 1011 2a9b 1a80 6d62 0280
00000250: 1881 1911 ab43 5f9b 0301 6497 c0e8 c096
00000260: b9fa 0180 dbcd 5998 c1d2 0280 4414 0000
00000270: 79e1 0080 2a1e a599 213d 0080 9e3e f097
00000280: d315 0080 d2bc 3515 6d4b 5017 7f32 9296
00000290: 70ee 0300 06ad 1300 70ee 0300 92ab 0380
000002a0: 8d31 d2a9 595b 55ab 0969 6334 16a8 0bb5
000002b0: 4bce 9434 14b9 d034 5ba2 b1b6 9a8f 8735
000002c0: 0a35 7fb5 5bc4 e832 3e38 e4b6 f685 4cb5
000002d0: 1163 9835 e648 9233 9878 8635 0d6b e2b6
000002e0: 4720 ab32 8f4c 5735 f5e6 e035 4746 50b5
000002f0: 6042 9f32 6de9 5d34 8851 3eb4 b614 cab2
00000300: f583 8735 26f6 94b5 df28 2d34 7a69 8335
00000310: c133 1034 2c60 3eb4 2970 02b6 6006 a430
00000320: 6477 9735 fb84 f1b3 8a78 0134 c041 65b2
00000330: 72da 29b4 5b7b 5435 e57a 7ab5 cd3d 9234
00000340: cb35 0ab5 755d 51b2 92ee 7235 6279 5535
00000350: 3153 5435 e41b 4335 0888 2cb6 76ea be32
00000360: aad5 6932 15ad 16b2 4461 0f33 f691 a6b2
00000370: cc4d 1430 34f8 7eac 707d a626 9a64 e3a3
00000380: e065 37a4 4072 0080 4072 0080 8921 0000
00000390: 65d3 fbb8 78ab f1b8 698e 35b9 7cca 94b9
000003a0: ba13 2bb9 b573 c1b5 747e 57b9 1bed d5b8
000003b0: 1051 22b8 038e 4eb9 ad9f f1b8 0236 f932
000003c0: 1f70 ebb5 3eb8 5bb9 9d97 49b8 ff93 23b5
000003d0: d0ac 8037 43a1 16b8 ce7c a1b9 2b2d beb8
000003e0: 15ef 6fb8 339e 9ab8 ab8e 0ab9 e1cc ddb8
000003f0: 068d 9bb9 16c9 d4b8 abe3 00b9 8c0a f9b8

fc1.bias f4 [64]
0.0001383099 6.579e-42 1.935e-41 -7.741311e-08 9.2732355e-09 -4.2418515e-37 -5.73698e-08 -0.0042430875
-7.7124885e-25 -1.03504375e-26 -0.0003318209 -5.5013705e-16 -3.9681657e-07 -2.6727364e-25 4.3359816e-31 -5.46105e-12
1.923964e-37 -2.6791e-41 -0.004813894 2.176e-41 5.2989e-41 2.8009426e-06 1.139997e-23 -8.106107e-10
3.0964417e-05 -0.026436862 -3.3784705e-05 -2.2259226e-13 -1.1265218e-09 -5.9134036e-06 -1.5622705e-05 2.8649462e-13
2.993439e-07 2.6773046e-06 -6.765992e-07 -1.283627e-13 -0.0009353585 -4.5554825e-26 -5.938489e-12 -8.892413e-07
-7.909767e-12 3.5624542e-12 -1.4336767e-06 -1.5620498e-38 -0.0017890611 6.6898e-41 -2.6312958e-30 5.7418e-41
-0.0067582866 -0.0012870348 1.559658e-37 -4.232165e-25 0.0002526482 -1.542044 4.817198e-13 -1.0531105e-09
-3.5888132e-23 4.366e-41 -1.8329872e-06 -0.0008447993 6.994053e-39 -0.008884821 -2.9453247e-09 -1.1753505e-06
00000000: 4807 1139 5712 0000 f135 0000 4f3e a6b3
00000010: 1f50 1f32 bd57 1083 c366 76b3 9909 8bbb
00000020: a1b0 6e97 f402 4d94 3ff8 adb9 f390 1ea6
00000030: 0e0a d5b4 336f a596 edb5 0c0d c424 c0ac
00000040: 2ef0 8202 af4a 0080 dfbd 9dbb a83c 0000
00000050: b693 0000 d4f7 3b36 eb81 5c19 a8d1 5eb0
00000060: cadf 0138 1e92 d8bc 0db4 0db8 da9d 7aaa
00000070: f6d3 9ab0 c06b c6b6 810d 83b7 3a48 a12a
00000080: 83b5 a034 beab 3336 8b9f 35b5 0886 10aa
00000090: d932 75ba 9a93 6195 27f1 d0ac 32b4 6eb5
000000a0: 6c26 0bad 78af 7a2c c26c c0b5 9817 aa80
000000b0: ee7e eaba 7cba 0000 e079 558e 0fa0 0000
000000c0: 9e74 ddbb b9b1 a8ba 264a 5402 aafa 0297
000000d0: de75 8439 b361 c5bf 9297 072b 08bd 90b0
000000e0: 5b8b 2d9a b579 0000 f604 f6b5 8575 5dba
000000f0: 9328 4c00 a491 11bc b366 4ab1 bcc0 9db5

fc2.weight f4 [64, 64]
2.6352318e-08 6.2480865e-07 -2.9876825e-13 -0.00082283653 -0.00058644044 -3.9702028e-32 9.7009e-41 -0.003499156
-2.2614647e-06 -7.382478e-09 0.0004366974 -4.7894e-41 -0.0025387714 -1.0490147e-08 1.1660202e-12 4.8648667e-09
-2.9122316e-11 9.038472e-31 -0.014440184 -7.162271e-11 2.5704e-41 -7.8232415e-07 5.918469e-11 -2.7101496e-05
-0.0018823078 0.023436699 -2.3323707e-07 -1.9330224e-13 -0.0006819399 0.008101435 -9.864403e-05 -8.269817e-13
2.768749e-07 0.00053548993 1.00912924e-10 -0.00024128654 -0.019663129 2.7058191e-09 -0.00033285457 0.0077489293
5.9928365e-15 -4.209848e-17 -1.3389502e-30 -7.269689e-13 0.00095369824 6.533619e-17 1.6526e-41 1.2095681e-09
0.0030507303 0.124180384 -1.7556631e-31 2.9348835e-06 -0.02011524 0.13406894 -4.106887e-13 0.00022060542
6.875883e-10 -2.438606e-11 0.00082054327 0.011220573 3.6980005e-36 0.012189048 -0.00087645085 -0.0010940703
5.908418e-08 2.0844925e-07 -5.600208e-13 1.4873415e-05 -0.0003289414 1.4523219e-28 -1.0549602e-26 6.4584547e-06
-1.1433278e-06 -1.0922951e-11 -0.0020999243 4.603317e-18 -7.539172e-05 1.4037467e-08 1.0288745e-14 -0.00014094944
1.1407906e-13 1.8447e-41 -0.020156702 -4.245047e-12 -1.4166e-41 -4.9725116e-07 -1.4741089e-11 1.6935302e-05
-0.0010788451 0.014346437 -1.0232004e-06 0.0008228721 -0.0012092909 -0.0017457186 -4.7415947e-06 2.9054153e-12
0.0040857904 7.121843e-05 6.2666136e-11 -0.000104336155 0.018110102 2.0509383e-18 -0.0006252416 0.00048402
4.3212e-41 -3.8001938e-10 -2.6026828e-07 -1.13212594e-13 0.0004552123 -3.4193202e-18 3.343279e-27 -1.4219315e-08
0.0061845724 0.07375314 2.812919e-39 1.216352e-07 0.004258075 0.12600455 4.83509e-08 2.832344e-05
-6.677529e-08 8.3967133e-10 0.00069754914 0.011856948 -3.639333e-39 -0.04037252 -0.0009029059 -1.5365476e-05
-1.2218e-41 1.6594e-41 -1.0947504e-10 3.667e-41 -3.791263e-08 -4.2388e-41 6.12834e-40 1.5759664e-11
5.7152783e-06 3.2457653e-08 -2.0569362e-11 -9.954433e-10 2.9785275e-11 7.925561e-05 -4.6031e-41 4.7054276e-05
-2.1265091e-08 5.6722e-41 -1.3714343e-07 1.7918003e-09 8.447268e-10 -2.9834352e-10 4.0873e-41 3.4913e-41
-2.117327e-11 1.2561219e-09 -5.4876696e-06 6.3087634e-12 -3.832409e-09 -1.8841868e-09 -4.4704125e-09 5.5634e-41
6.6059e-41 5.058014e-07 9.445567e-10 1.1846626e-10 -7.261629e-11 -2.14993e-40 -1.05772995e-11 1.2900074e-12
-2.53e-42 4.8383135e-06 1.1306719e-12 -2.0844221e-10 5.3736e-41 6.3660015e-13 1.127768e-39 -5.2245e-41
4.028004e-06 -5.145563e-27 -3.546311e-06 -6.197643e-05 1.095835e-39 -1.4159e-10 -5.0012e-41 -1.5533e-41
1.7225e-41 -2.5442423e-06 -3.3884415e-10 -9.416537e-13 -9.478831e-06 1.4564166e-26 1.0548e-41 -4.2984386e-05
2.0388019e-05 -6.813e-42 -4.878873e-39 -1.9880058e-08 1.10294e-05 1.0283e-41 1.1657816e-36 1.2134005e-06
-1.9239716e-36 -6.4400463e-27 1.7156419e-05 5.437e-42 -1.0505733e-10 -6.2471556e-12 -2.6441773e-32 2.8724497e-13
7.541817e-37 1.37234855e-17 0.010292871 -2.68099e-40 -3.2754e-41 -4.6515654e-09 1.8524e-41 -6.8982e-41
0.00080964627 -0.0010761444 8.995322e-09 -4.016356e-05 5.6451165e-07 -7.0335364e-19 -3.3862e-41 -2.4803814e-12
-0.0013852743 9.834536e-06 2.0626881e-10 -2.2408062e-06 0.007048067 4.6804783e-15 2.998159e-08 0.00028731863
-5.3999475e-14 1.0617366e-08 3.5441627e-07 -7.662813e-12 -0.008310186 3.901e-42 1.1213669e-27 -3.844e-42
0.0060769357 -6.936166e-05 8.067e-42 1.7373873e-24 -0.0072466745 0.04793448 -1.3552052e-12 -7.002152e-36
-2.3026918e-10 -6.577229e-07 7.371363e-08 0.00070382294 2.39153e-40 0.018256173 8.18631e-14 -1.5721714e-11
00000000: 5c5d e232 86b8 2735 0b31 a8aa a0b3 57ba
00000010: 5abb 19ba 0c25 4e8b 6c0e 0100 1952 65bb
00000020: abc3 17b6 f7a8 fdb1 88f4 e439 8285 0080
00000030: 8461 26bb 2838 34b2 4e1a a42b d227 a731
00000040: d014 00ae 58a8 920d 8696 6cbc 0080 9dae
00000050: a747 0000 e800 52b5 0526 822e 0558 e3b7
00000060: c5b7 f6ba 52fe bf3c b86f 7ab4 94a3 59aa
00000070: 36c4 32ba e2bb 043c 1cdf ceb8 50c6 68ab
00000080: 66a5 9434 1f60 0c3a ede8 dd2e dd01 7db9
00000090: 9214 a1bc 46f1 3931 fc82 aeb9 bbea fd3b
000000a0: 29ea d727 1d25 42a4 d141 d98d a19f 4cab
000000b0: 9b01 7a3a aea7 9624 112e 0000 e53d a630
000000c0: c3ee 473b 4952 fe3d eae5 638c eaf4 4436
000000d0: b7c8 a4bc 5e49 093e 7b32 e7aa 5152 6739
000000e0: ba00 3d30 8680 d6ad ba19 573a 7fd6 373c
000000f0: a94b 9d04 93b4 473c 9fc1 65ba e866 8fba
00000100: bec3 7d33 18d2 5f34 c0a1 1dab d588 7937
00000110: c475 acb9 8a1a 3811 d6f4 5094 b4b5 d836
00000120: 7274 99b5 9928 40ad e29e 09bb 1ad5 a922
00000130: 9f1b 9eb8 6f29 7132 7658 3928 d4cb 13b9
00000140: 0d71 002a 6c33 0000 ab1f a5bc fc5b 95ac
00000150: 7d27 0080 d77a 05b5 fba9 81ad 4910 8e37
00000160: 0968 8dba 510d 6b3c e654 89b5 03b6 573a
00000170: 1281 9eba 99d0 e4ba fd19 9fb6 4f73 4c2c
00000180: 18e2 853b 1a5b 9538 e6cd 892e 0ccf dab8
00000190: a35b 943c 2155 1722 41e7 23ba 11c4 fd39
000001a0: 7578 0000 f9ea d0af 00bb 8bb4 9eee fea9
000001b0: 90a9 ee39 224d 7ca2 e170 8413 3549 74b2
000001c0: f4a7 ca3b e30b 973d 46a1 1e00 d49a 0234
000001d0: 5287 8b3b 5607 013e 60aa 4f33 2098 ed37
000001e0: 1b66 8fb3 9ece 6630 bbdb 363a a543 423c
000001f0: fba0 2780 a85d 25bd fdb0 6cba 1ce5 80b7
00000200: 0f22 0080 422e 0000 f8bc f0ae 3966 0000
00000210: 61d5 22b3 2976 0080 55ac 0600 9c9f 8a2d
00000220: dec5 bf36 9167 0b33 16ee b4ad 0cd0 88b0
00000230: 3dff 022e 0836 a638 5180 0080 255c 4538
00000240: 6eaa b6b2 1e9e 0000 b341 13b4 5e43 f630
00000250: 5d32 6830 1e04 a4af f071 0000 5361 0000
00000260: f73d baad dca3 ac30 b922 b8b6 4af8 dd2c
00000270: 3aae 83b1 f77a 01b1 2a9a 99b1 169b 0000
00000280: 25b8 0000 68c6 0735 a2d1 8130 4a41 022f
00000290: 56af 9fae 5057 0280 ec13 3aad 6a8d b52b
000002a0: 0d07 0080 cc58 a236 c020 9f2b 442f 65af
000002b0: cb95 0000 e02f 332b c247 0c00 a391 0080
000002c0: 4a28 8736 35d6 cb93 29fd 6db6 58f9 81b8
000002d0: beee 0b00 0bae 1baf 6a8b 0080 4d2b 0080
000002e0: 0430 0000 c0bd 2ab6 1348 baaf a686 84ab
000002f0: 4507 1fb7 8c3c 9014 671d 0000 224a 34b8
00000300: f006 ab37 fe12 0080 5020 3580 b6c4 aab2
00000310: ea0a 3937 aa1c 0000 f358 c603 20dc a235
00000320: 64ac 2384 d41d ff93 21eb 8f37 280f 0000
00000330: 0506 e7ae 60cd dbac 254b 098b 5db4 a12a
00000340: 3f51 8003 5427 7d23 6ea3 283c 5aeb 0280
00000350: 4e5b 0080 9ad3 9fb1 a333 0000 4bc0 0080
00000360: 713e 543a 6a0d 8dba d889 1a32 4b75 28b8
00000370: f288 1735 e697 4fa1 655e 0080 948a 2eac
00000380: 1892 b5ba 03ff 2437 82cb 622f c260 16b6
00000390: 79f3 e63b cba1 a827 1bc5 0033 41a3 9639
000003a0: 2831 73a9 ab67 3632 9a46 be34 3ece 06ad
000003b0: 7227 08bc e00a 0000 0cb0 b112 b70a 0080
000003c0: 0821 c73b 4276 91b8 7d16 0000 806c 0618
000003d0: 8375 edbb f256 443d 6aba beab 57eb 1485
000003e0: 032f 7daf 608e 30b5 7f4c 9e33 c280 383a
000003f0: a99a 0200 f88d 953c dd56 b829 274a 8aad

fc2.bias f4 [64]
-0.25656217 -0.22532126 -5.8227766e-19 0.07231577 -0.27228698 0.31918842 -0.19803531 -0.16845895
2.0549426e-12 -1.1044328e-22 -4.3930075e-05 0.015655246 -0.00010914577 -2.1438741e-16 -0.05750736 1.6810992e-06
-0.012725322 -0.26050326 -0.22118223 -0.23330005 -0.22430646 -0.23551841 2.0163485e-08 -0.24109367
-0.021349179 -6.489406e-07 -0.23570347 -0.2462704 -0.26255465 3.817991e-05 -0.15973355 -0.24139294
-0.24890311 0.25116253 -7.5411286e-08 -0.0020608387 2.8155678e-10 -1.3371606e-19 -0.20405029 -0.27006495
-0.00016467544 -0.2548055 -0.00017630302 -0.0011729954 -3.952101e-05 -6.5025395e-11 -0.24366182 -0.24873626
-0.22752082 -7.406439e-10 -0.20887026 0.40937355 -0.0008619769 -0.275804 -0.0054372647 -0.28137052
-0.2637799 -2.3264368e-24 0.3372213 0.39050236 -0.18223828 0.31397098 -0.22946203 -0.22574754
00000000: 1e5c 83be 9eba 66be a8db 2ba1 4a1a 943d
00000010: 3369 8bbe aa6c a33e c5c9 4abe 8180 2cbe
00000020: 8e9a 102c 8a84 059b 8f41 38b8 6e3f 803c
00000030: 30e5 e4b8 ff2b 77a5 d68c 6bbd 21a2 e135
00000040: de7d 50bc af60 85be 987d 62be 35e6 6ebe
00000050: 98b0 65be bd2b 71be f933 ad32 42e1 76be
00000060: 79e4 aebc dc32 2eb5 405c 71be 4f2e 7cbe
00000070: 906d 86be 5e23 2038 3191 23be b62f 77be
00000080: 75e0 7ebe 6098 803e cbf1 a1b3 230f 07bb
00000090: 98c9 9a2f 33dd 1da0 8ff2 50be f445 8abe
000000a0: baac 2cb9 de75 82be fbdd 38b9 32bf 99ba
000000b0: 5dc3 25b8 0bfe 8eae 7c82 79be b8b4 7ebe
000000c0: 38fb 68be 2e96 4bb0 16e2 55be 6999 d13e
000000d0: 4af6 61ba 2f36 8dbe 152b b2bb cc0f 90be
000000e0: 290e 87be d4ff 3398 45a8 ac3e edef c73e
000000f0: ac9c 3abe cec0 a03e 18f8 6abe 5d2a 67be

fc3.weight f4 [4, 64]
-0.16035861 -0.0945405 -6.618674e-09 -0.09428281 -0.12271054 0.15520671 -0.1605256 -0.0877278
-7.717336e-06 -4.6099527e-22 -1.2083315e-05 -0.16898635 -3.5886897e-06 -1.7164334e-25 -0.09582026 6.7615338e-06
-0.00091699796 -0.24735537 -0.14112857 -0.1974203 -0.1762255 -0.1183551 -1.3273633e-09 -0.2064938
-0.004442414 -1.4849847e-08 -0.13994068 -0.1656618 -0.14077768 0.00068218913 -0.08449383 -0.16213956
-0.16241415 0.14003266 -4.343055e-12 -0.0037829601 -5.6942302e-12 2.357633e-22 -0.18220584 -0.19778606
-0.0015606291 -0.17328075 -0.0011074363 -5.3867378e-05 4.5715893e-08 -3.239807e-14 -0.17717549 -0.16284943
-0.1957136 -9.095745e-10 -0.23064297 0.19630699 0.0024957664 -0.13412775 -0.0008031364 -0.2062238
-0.15293849 2.0700028e-25 0.17462464 0.22303174 -0.12441797 0.094206244 -0.15367104 -0.15971802
-0.08566812 -0.103102565 2.3659714e-08 0.0665634 -0.13867798 0.1447657 -0.113739066 -0.12884384
-1.375371e-11 -2.200104e-19 -4.70261e-05 -0.02507871 3.7834692e-05 2.0462955e-24 -0.059665877 2.0376488e-06
-0.0036661034 -0.08066439 -0.122813545 -0.10063157 -0.11770276 -0.11119527 -2.349219e-09 -0.12418359
-0.04114775 -3.0855794e-08 -0.16364504 -0.1263468 -0.09632231 -0.00046309334 -0.07906993 -0.15647574
-0.14715376 0.07604159 1.0861165e-05 -0.00047923686 1.3691946e-10 6.6949285e-22 -0.09835034 -0.07673512
0.0004277279 -0.13623628 0.007932085 0.00015244879 1.1248829e-05 -2.4355346e-12 -0.10430144 -0.10055807
-0.15076141 -9.948771e-10 -0.055648506 0.18885584 -0.008002562 -0.12505132 -0.0017841547 -0.18075971
-0.08627227 -1.350953e-21 0.14917488 0.13908203 -0.09690317 0.17340313 -0.13469017 -0.14642791
0.09197486 0.065860674 -6.1756587e-09 -0.060925927 0.1343862 -0.1342575 0.06827871 0.07574712
-2.8476672e-06 -1.371907e-18 0.0005834339 0.012469995 -1.3309405e-05 1.4414112e-20 -0.005748463 8.6733553e-07
-0.0047719623 0.15042366 0.030365078 0.09628717 0.113050334 0.10208457 1.5060931e-09 0.08475851
-0.0086324485 -8.790877e-07 0.018069899 0.15068288 0.013200401 -0.004452928 0.056393042 0.077846214
0.12531579 -0.106452875 7.936894e-06 -0.005482649 -6.9252867e-12 1.6958167e-07 0.1324186 0.032078996
-0.001095644 0.02785881 -0.008360513 -0.0003470613 -9.292986e-06 -1.5774024e-10 0.08611875 0.05656324
0.1181214 -4.8358817e-10 0.025398705 -0.166887 -0.01432427 0.049946874 0.0033297176 0.11085096
0.058676258 9.709563e-22 -0.19673225 -0.1504153 0.066628575 -0.058175165 0.103570275 0.06061068
0.14402555 0.13116115 -6.1706538e-09 0.021085467 0.121433705 -0.18731092 0.14852381 0.11330963
9.722766e-06 1.8403527e-15 -0.00027264605 0.026515417 -1.9938909e-05 -8.599619e-24 0.10054747 2.877817e-05
-0.0008855418 0.12421183 0.19871084 0.1673289 0.14518297 0.12056706 7.890069e-10 0.18995008
0.0065359883 6.081599e-07 0.2422593 0.11235359 0.20126085 -0.0036934516 0.076696485 0.18793513
0.15286267 -0.12369258 -7.609901e-05 0.0008205608 -2.0044865e-11 -1.5452467e-09 0.105116166 0.20963788
-6.6170884e-05 0.24308613 -0.014407319 0.000830872 -2.1295004e-05 2.8584965e-10 0.16796502 0.18769844
0.17639011 2.3060909e-09 0.21457309 -0.25457394 -0.0031128125 0.18842284 -0.0018348882 0.21252422
0.16680588 -1.858886e-15 -0.15186985 -0.22888 0.13328223 -0.23604988 0.15070525 0.18945622
00000000: 0c35 24be 739e c1bd 796a e3b1 5917 c1bd
00000010: aa4f fbbd 82ee 1e3e d360 24be a2aa b3bd
00000020: b579 01b7 c853 0b9c 71b9 4ab7 c20a 2dbe
00000030: 38d5 70b6 f27b 5496 6a3d c4bd 22e1 e236
00000040: b162 70ba ba4a 7dbe 0284 10be 8c28 4abe
00000050: 7574 34be 2964 f2bd 726e b6b0 1c73 53be
00000060: ab91 91bb 511e 7fb2 9c4c 0fbe 3fa3 29be
00000070: 0628 10be f0d4 323a 1a0b adbd ea07 26be
00000080: e54f 26be b964 0f3e c3ce 98ac 8aeb 77bb
00000090: 1159 c8ac 9b82 8e1b 2b94 3abe 6e88 4abe
000000a0: 068e ccba 8270 31be 6527 91ba a8ef 61b8
000000b0: 2859 4433 6ee8 11a9 7e6d 35be 00c2 26be
000000c0: 2569 48be 9e05 7ab0 ac2d 6cbe b304 493e
000000d0: 0390 233b c958 09be 9289 52ba 552c 53be
000000e0: e89b 1cbe 8120 8016 cdd0 323e 6f62 643e
000000f0: d9ce febd 34ef c03d f15b 1dbe 1f8d 23be
00000100: c472 afbd 7027 d3bd 433c cb32 6452 883d
00000110: 9a01 0ebe 763d 143e 07f0 e8bd a4ef 03be
00000120: 34f5 71ad 08df 81a0 e43d 45b8 de71 cdbc
00000130: b1b0 1e38 0f53 1e18 3564 74bd 8abe 0836
00000140: 0243 70bb 5f33 a5bd ab85 fbbd ed17 cebd
00000150: 250e f1bd 59ba e3bd e66f 21b1 f753 febd
00000160: 8b8a 28bd 4e86 04b3 9192 27be 0e61 01be
00000170: a244 c5bd 56cb f2b9 6aef a1bd 2d3b 20be
00000180: 7aaf 16be b1bb 9b3d 5938 3637 1542 fbb9
00000190: 678b 162f 8057 4a1c e76b c9bd 4d27 9dbd
000001a0: ab40 e039 8681 0bbe 93f5 013c a9da 1f39
000001b0: 5ab9 3c37 b162 2bac fe9b d5bd 64f1 cdbd
000001c0: 3361 1abe 20bc 88b0 b0ef 63bd 6d63 413e
000001d0: 2e1d 03bc 740d 00be 4cda e9ba 1319 39be
000001e0: 84af b0bd 7626 cc9c 4dc1 183e 856b 0e3e
000001f0: 2b75 c6bd 9790 313e 38ec 09be 33f1 15be
00000200: 515d bc3d f6e1 863d ab31 d4b1 778d 79bd
00000210: 899c 093e cc7a 09be b5d5 8b3d 4e21 9b3d
00000220: 8d1a 3fb6 2e75 caa1 96f1 183a f34e 4c3c
00000230: 764b 5fb7 2f23 881e 9a5d bcbb d8d2 6835
00000240: 1f5e 9cbb a908 1a3e 2fc0 f83c 3532 c53d
00000250: ef86 e73d b711 d13d f1fe ce30 df95 ad3d
00000260: 1d6f 0dbc 72fa 6bb5 5307 943c 9d4c 1a3e
00000270: 7f46 583c dee9 91bb 64fc 663d d66d 9f3d
00000280: c852 003e f703 dabd b328 0537 cba7 b3bb
00000290: 70a9 f3ac 4116 3634 be98 073e 4465 033d
000002a0: b69b 8fba 2938 e43c 88fa 08bc c7f5 b5b9
000002b0: 12e9 1bb7 ee6f 2daf 075f b03d dbae 673d
000002c0: a2e9 f13d 7eed 04b0 f210 d03c 6de4 2abe
000002d0: 58b0 6abc 1895 4c3d 6437 5a3b d405 e33d
000002e0: 8456 703d 0dba 921c 2e74 49be 7806 1abe
000002f0: 9074 883d 1549 6ebd a71c d43d e842 783d
00000300: 6f7b 133e 1c4f 063e a505 d4b1 6ebb ac3c
00000310: 3cb2 f83d 6fce 3fbe a016 183e e10e e83d
00000320: f61e 2337 849c 0427 eff1 8eb9 dc36 d93c
00000330: 7b42 a7b7 4057 2699 d5eb cd3d a668 f137
00000340: b423 68ba c662 fe3d db7a 4b3e 4458 2b3e
00000350: d8aa 143e ddeb f63d 6de1 5830 4682 423e
00000360: d82b d63b 6e40 2335 d212 783e a419 e63d
00000370: 5317 4e3e d60d 72bb 0c13 9d3d 1172 403e
00000380: 0888 1c3e 8952 fdbd 5897 9fb8 e71a 573a
00000390: 0651 b0ad 8960 d4b0 2547 d73d 50ab 563e
000003a0: 39c5 8ab8 92eb 783e ad0c 6cbc e0ce 593a
000003b0: aca2 b2b7 c325 9d2f 06ff 2b3e 0534 403e
000003c0: 9c9f 343e 2e79 1e31 0cb9 5b3e 8457 82be
000003d0: 5400 4cbb ebf1 403e a280 f0ba f39f 593e
000003e0: 29cf 2a3e 65f2 05a7 c583 1bbe 855f 6abe
000003f0: 237b 083e 0fb7 71be 7a52 1a3e d000 423e

fc3.bias f4 [4]
0.27277908 0.6261967 -0.4185383 -0.5069982
00000000: b3a9 8b3e 6d4e 203f a74a d6be a2ca 01bf
