MBTI/ANN/Model/pr/lr=0.005 L2=0.01 hd = 128 SVM/best_model.pth (torch, 85743 bytes, 6 tensors)

fc1.weight f4 [128, 17]
-1.474011e-08 6.6285484e-09 -1.7488293e-08 -4.596482e-09 4.3667397e-10 2.6144211e-09 -8.052055e-09 -5.167168e-09
-1.1712786e-10 2.611546e-09 8.774925e-10 2.5969213e-09 -1.4551e-41 6.174e-42 -7.723e-42 -2.556e-42
-0.0001699545 1.178e-42 1.1168e-41 6.016e-42 -4.302e-42 -5.427e-42 3e-44 1.841e-42
4.046e-42 1.2989e-41 1.3602e-41 -4.567e-42 -1.2365e-41 1.1114e-41 5.08e-42 -2.0686664e-05
-2.927e-42 -5.6235763e-08 1.066e-41 -2.096e-42 -2.6262813e-22 1.331e-42 -3.67e-42 1.2536e-41
-7.837814e-21 -1.1591064e-21 7.805e-42 -1.261e-42 1.327e-42 -8.83e-43 5.17163e-40 9.88e-43
-3.6905234e-09 6.739e-42 -0.004768397 4.6246955e-26 -1.2082423e-26 4.1220676e-26 3.96899e-26 -4.537559e-27
1.3416362e-26 -1.6857808e-25 -3.9346894e-26 -6.7198685e-27 -7.078228e-26 -7.627969e-27 1.08441334e-26 -4.0635289e-16
-2.619e-42 -1.1367e-41 -9.08e-42 -0.00011388771 5.781532e-32 -1.13506146e-32 2.6695565e-32 1.4006064e-32
1.3265518e-32 5.585323e-39 9.937432e-32 1.7050168e-31 -3.8010095e-33 6.532566e-33 -4.037015e-33 2.335196e-33
-1.2439203e-05 -1.8997306e-06 -1.435e-42 -1.4241e-41 -0.0026663982 -0.0017292287 0.004675368 0.0011674582
0.0050839437 -5.9266502e-05 2.9775626e-11 -0.001061357 -0.0010723849 -0.0019353252 0.0058132014 -1.1613399e-06
0.00064059114 -3.0502774e-34 -2.1840187e-09 4.535e-42 5.024e-42 -0.0074014133 -0.43166378 0.17428996
1.142647 0.36151347 0.05738678 -0.093303025 -0.5685575 -0.6169846 0.035532027 0.09303896
-0.027123826 0.10726989 -3.345159e-05 3.889e-42 9.44e-42 3.84e-43 -0.05986059 -1.2079809e-07
3.2986326e-14 -7.841734e-05 -1.6390686e-07 3.357527e-24 -5.394722e-25 -0.00020999121 -5.367127e-06 3.3566296e-24
-4.1653365e-08 2.3058706e-24 -1.6198996e-24 -1.069432e-30 4.396e-42 2.495577e-10 6.0530025e-11 -0.012265457
0.00010385801 0.00046030036 0.00013070367 0.00014050992 -1.1783925e-09 -4.6051e-41 -7.8765755e-05 0.00012273609
-1.9974775e-06 0.000775549 0.00023200338 9.1301896e-05 -2.7796992e-12 1.2759e-41 -1.4787916e-07 2.766e-42
-0.0060717445 -1.4374439e-06 5.65399e-08 -8.051857e-07 4.9524556e-07 1.3400798e-08 -1.3949424e-06 -2.7085698e-06
-2.7039518e-06 -2.770667e-07 2.8971198e-07 -4.2484493e-07 3.0012024e-09 1.3052522e-09 1.949e-42 1.3008e-41
1.3241e-41 -1.2081796e-05 5.980449e-06 4.48859e-06 -2.5911636e-06 -4.5240986e-06 -1.4576603e-06 -3.732495e-09
-2.1356642e-05 -2.129028e-05 6.9806987e-09 1.1987507e-05 -1.0880116e-05 -8.341274e-06 9.936406e-32 1.1405e-41
6.453485e-09 8.919e-42 8.571566e-06 -4.02e-43 1.808e-42 3.146e-42 -7.577e-42 -6.913e-42
-7.386e-42 -6.051388e-34 -8.744e-42 3.16e-42 -5.21e-43 4.27e-43 -5.671e-42 1.0285925e-07
1.1837e-41 -8.86e-42 1.2295e-41 -0.0017839875 1.2408e-41 2.571e-42 5.824486e-34 -7.57e-42
-1.36e-42 -5.071e-42 -9.658012e-21 -6.2718355e-22 -1.0786e-41 6.146e-42 1.3761e-41 -4.008e-42
-9.884334e-09 1.0686e-41 -6.883e-42 -9.5499685e-12 -0.026442971 5.79e-42 -7.1e-44 -2.602e-42
8.928e-42 -1.2504e-41 -6.998e-42 5.656e-42 -3.837e-42 -4.125e-42 1.824e-42 -8.133e-42
-1.0353e-41 -1.6569276e-19 -1.1813997e-08 8.356e-42 6.7954264e-10 -5.565552e-06 -3.4703438e-11 4.8435616e-26
-5.942888e-07 1.4280484e-15 -2.5552109e-26 1.0401917e-27 -0.00014672993 -0.00017247093 5.596115e-26 -1.1727013e-12
1.6742416e-26 -1.4567253e-26 7.1213364e-28 -1.8991e-40 -5.926e-42 -1.412e-41 -0.0443045 2.568918e-31
00000000: b03b 7db2 54c1 e331 2a39 96b2 15ef 9db1
00000010: 6610 f02f 62a9 3331 5055 0ab2 e48a b1b1
00000020: 90c8 00af ce76 3331 0c34 7130 8675 3231
00000030: 9028 0080 3611 0000 8715 0080 2007 0080
00000040: d035 32b9 4903 0000 221f 0000 c510 0000
00000050: fe0b 0080 210f 0080 1500 0000 2205 0000
00000060: 470b 0000 3524 0000 eb25 0000 bb0c 0080
00000070: 7822 0080 fb1e 0000 290e 0000 4688 adb7
00000080: 2908 0080 e087 71b3 b71d 0000 d805 0080
00000090: bcbf 9e9b b603 0000 3b0a 0080 f222 0000
000000a0: 580d 149e c228 af9c c215 0000 8403 0080
000000b0: b303 0000 7602 0080 a4a1 0500 c102 0000
000000c0: 609c 7db1 c912 0000 3740 9cbb fb00 6515
000000d0: 2a51 6f94 6a1d 4c15 ed88 4415 51c0 b393
000000e0: 85de 8414 87b0 5096 1dd6 4295 c819 0594
000000f0: 9a3f af95 6616 1794 4aca 5614 1a3f eaa5
00000100: 4d07 0080 b01f 0080 5019 0080 00d7 eeb8
00000110: df18 960b 38be 6b8a 7e9c 0a0b 8172 910a
00000120: ccc1 890a 9cd1 3c00 c8fe 000c e752 5d0c
00000130: 44e3 9d89 14ad 070a e8b0 a789 2000 4209
00000140: f8b1 50b7 3ffa feb5 0004 0080 b327 0080
00000150: bdbe 2ebb 49a7 e2ba d433 993b 6605 993a
00000160: 3697 a63b ec94 78b8 60f4 022e 3b1d 8bba
00000170: 448f 8cba bdaa fdba ab7c be3b 56df 9bb5
00000180: 58ed 273a c8b9 ca87 aa15 16b1 a40c 0000
00000190: 010e 0000 8e87 f2bb 0903 ddbe 1179 323e
000001a0: 4242 923f 4b18 b93e 660e 6b3d a815 bfbd
000001b0: fc8c 11bf b4f2 1dbf 088a 113d 368b be3d
000001c0: c932 debc 51b0 db3d 5f4e 0cb8 d70a 0000
000001d0: 511a 0000 1201 0000 6130 75bd bab4 01b4
000001e0: a58e 1429 fd73 a4b8 60fe 2fb4 56e3 8118
000001f0: 64f5 2697 1631 5cb9 4517 b4b6 73da 8118
00000200: 5ce6 32b3 7968 3218 d6aa fa97 7886 ad8d
00000210: 410c 0000 2032 892f 601b 852e 0ef5 48bc
00000220: 58ce d938 7854 f139 800d 0939 d855 1339
00000230: 00f5 a1b0 5f80 0080 0b2f a5b8 b8b2 0039
00000240: 670c 06b6 364e 4b3a ef45 7339 5579 bf38
00000250: 9c9a 43ac 9123 0000 b7c8 1eb4 b607 0000
00000260: 7cf5 c6bb 32ee c0b5 47d6 7233 f123 58b5
00000270: 04f1 0435 5539 6632 db39 bbb5 e0c4 35b6
00000280: 8a75 35b6 c2bf 94b4 b689 9b34 3e16 e4b4
00000290: b63d 4e31 7b64 b330 6f05 0000 4324 0000
000002a0: e924 0000 ebb2 4ab7 aaab c836 b29c 9636
000002b0: dae3 2db6 b6cd 97b6 d4a4 c3b5 603f 80b1
000002c0: 0a27 b3b7 8798 b2b7 e0da ef31 f31d 4937
000002d0: be89 36b7 80f1 0bb7 5ffb 000c cb1f 0000
000002e0: 74bd dd31 dd18 0000 98ce 0f37 1f01 0080
000002f0: 0a05 0000 c508 0000 1f15 0080 4513 0080
00000300: 9714 0080 8417 4988 6018 0080 cf08 0000
00000310: 7401 0080 3101 0000 cf0f 0080 78e3 dc33
00000320: ff20 0000 b318 0080 4622 0000 b0d4 e9ba
00000330: 9722 0000 2b07 0000 3f8d 4108 1a15 0080
00000340: cb03 0080 230e 0080 486f 369e fa8d 3d9c
00000350: 111e 0080 2211 0000 5c26 0000 2c0b 0080
00000360: c3cf 29b2 ca1d 0000 3013 0080 3c01 28ad
00000370: ee9e d8bc 2410 0000 3300 0080 4107 0080
00000380: e318 0000 db22 0080 8213 0080 c40f 0000
00000390: b20a 0080 800b 0080 1605 0000 ac16 0080
000003a0: dc1c 0080 909d 43a0 82f6 4ab2 4b17 0000
000003b0: 90ca 3a30 babf bab6 99a0 18ae 70d7 6f15
000003c0: 3787 1fb5 b0cd cd26 4b0e fd94 30d3 a412
000003d0: 84db 19b9 50d9 34b9 988d 8a15 040b a5ab
000003e0: 11cf a514 6044 9094 25af 6112 6411 0280
000003f0: 8510 0080 5c27 0080 a378 35bd 79bb a60c

fc1.bias f4 [128]
-6.7191874e-09 -3.240312e-24 -2.1398804e-05 -8.657825e-13 -1.9192687e-15 -0.018380357 0.3077106 -0.009585363
-0.0015820874 -4.893397e-06 -5.1862302e-05 -7.660561e-09 -5.7397883e-06 -2.4692031e-19 -0.014691487 -2.9328213e-09
-3.1232916e-27 -0.0050800145 -7.165217e-06 -1.703982e-06 -2.6343888e-28 -3.484852e-06 -0.08399473 -6.43319e-05
-2.3484471e-14 -0.00020373397 -1.4402726e-06 -0.0050460775 -0.011063786 -0.0008921137 -7.035368e-12 -3.207591e-10
-9.07903e-06 -1.0928838e-13 -0.00020570806 -0.14197923 -5.3853706e-05 -0.004875867 -0.06026579 -1.125893e-10
-0.014638363 -4.6491985e-10 -0.00011497516 -0.020093396 -6.150436e-05 -0.0014723181 -3.0127145e-05 -1.518291e-06
-7.402603e-13 -3.5756537e-23 -2.2736472e-27 -4.7832793e-07 -7.291842e-26 9.933934e-06 -2.397554e-07 -4.770195e-06
-2.7611148e-11 -0.009147109 -0.43727317 -9.179136e-18 -1.1834473e-08 -0.00047583965 -5.935393e-29 -3.024463e-07
-2.4467218e-07 -6.279787e-10 -0.0011058208 -1.106351e-15 -1.1224012e-07 -0.0009944013 -0.0076796925 -5.1213352e-08
-2.7005412e-06 -2.7273161e-05 -4.968401e-05 -0.00014596593 -0.009068302 6.334782e-05 -0.010572203 -8.271951e-08
-0.015810238 -0.029371813 -0.00021300785 0.10354407 -0.040255077 -3.3441387e-20 -6.510495e-05 -0.0027561511
-3.6315677e-09 -0.0016839535 -3.2135378e-07 -0.00035384856 -0.00020054405 -1.7688108e-05 -1.7880808e-09 -1.2259129e-06
-0.00018901653 -4.2604657e-05 -2.7868783e-09 4.870449e-09 -8.133024e-06 -1.0633304e-09 -0.022335056 -2.3104118e-22
-0.00083359354 -0.0002447517 -2.3441257e-07 -6.6694333e-06 -0.007470563 -4.992609e-06 -0.0028891095 -2.072311e-09
-2.3888889e-14 -0.00019792667 -2.023548e-08 -0.019792503 -5.454948e-11 0.012647225 -3.3610117e-06 -6.72454e-26
-0.026316712 -3.286329e-05 -4.4443067e-07 0.0739045 -1.31107285e-08 -6.0987033e-09 0.68807065 -0.0017841964
00000000: 99de e6b1 feb4 7a98 9581 b3b7 34b2 73ab
00000010: 424c 0aa7 6792 96bc 3e8c 9d3e ed0b 1dbc
00000020: 0b5e cfba f631 a4b6 b986 59b8 819b 03b2
00000030: 6898 c0b6 8bc1 91a0 90b4 70bc bd8a 49b1
00000040: e173 7793 4076 a6bb bf6c f0b6 60b4 e4b5
00000050: 67f9 a691 4ddd 69b6 6e05 acbd ede9 86b8
00000060: 8187 d3a8 6ca1 55b9 644f c1b5 9159 a5bb
00000070: e244 35bc bddc 69ba f688 f7ac d556 b0af
00000080: 2352 18b7 7618 f6a9 56b3 57b9 0163 11be
00000090: fae0 61b8 bdc5 9fbb 43d9 76bd 2496 f7ae
000000a0: bfd5 6fbc a797 ffaf d21e f1b8 e89a a4bc
000000b0: e7fb 80b8 ccfa c0ba 8db9 fcb7 15c8 cbb5
000000c0: 605d 50ab 73e8 2c9a 0b23 3493 7266 00b5
000000d0: 8a89 b495 eca9 2637 bbb7 80b4 aa0f a0b6
000000e0: c7de f2ad c2dd 15bc 45e2 dfbe 3f53 29a3
000000f0: 9050 4bb2 1e7a f9b9 e77a 9690 e75f a2b4
00000100: 7d5b 83b4 139e 2cb0 30f1 90ba 2671 9fa6
00000110: a908 f1b3 9256 82ba eea5 fbbb adf5 5bb3
00000120: f23a 35b6 abc8 e4b7 cd63 50b8 6e0e 19b9
00000130: 3793 14bc 9ad9 8438 0937 2dbc 88a3 b1b3
00000140: 7984 81bc 289d f0bc dc5a 5fb9 ea0e d43d
00000150: 82e2 24bd 28ec 1d9f f488 88b8 8ba0 34bb
00000160: 378f 79b1 1ab8 dcba 8786 acb4 c084 b9b9
00000170: 2249 52b9 ec60 94b7 80c0 f5b0 0c8a a4b5
00000180: bd32 46b9 67b2 32b8 4883 3fb1 ec58 a731
00000190: 1273 08b7 9d24 92b0 02f8 b6bc e4a7 8b9b
000001a0: 8485 5aba 0452 80b9 d6b2 7bb4 ffc9 dfb6
000001b0: a0cb f4bb 2f86 a7b6 3757 3dbb 7b68 0eb1
000001c0: 072c d7a8 898a 4fb9 4bd2 adb2 e323 a2bc
000001d0: 41e9 6fae 4e36 4f3c be8d 61b6 d67d a695
000001e0: 2596 d7bc b0d6 09b8 169a eeb4 3e5b 973d
000001f0: 983d 61b2 c38c d1b1 6625 303f b2db e9ba

fc2.weight f4 [128, 128]
1.193e-41 1.244e-42 -5.0521337e-32 -1.3333e-41 1.329e-41 1.2037e-41 -4.558509e-13 2.72e-42
1.3109e-41 7.711e-42 7.3e-43 -1.002e-41 6.407e-42 -4.09e-43 1.4588e-41 1.304533e-39
5.916e-42 -2.845e-42 -2.438e-42 1.403e-41 1.351e-42 6.777e-42 -2.054e-42 5.524e-42
8.558e-42 -7.02e-41 -1.2247e-41 5.07e-43 1e-44 5.9e-43 2.566e-42 2.88e-42
7.776e-42 -1.13e-41 -3.785e-42 -9.435e-42 5.734e-42 8.575e-42 -8.86e-43 -1.2324e-41
-9.076e-42 3.981e-42 -7.969e-42 -1.4531e-41 1.21e-42 1.4363e-41 1.1968e-41 1.034e-42
-8.6e-42 8.891e-42 -3.88e-42 1.1589e-41 -1.3036e-41 -2.00959e-40 1.74e-42 -2.007e-42
-1.0731e-41 -7.374e-42 5.1736904e-05 3.313e-42 7.692959e-32 1.871e-42 -6.831e-42 -5.741e-42
-8.116e-42 5.965e-42 -1.618e-42 8.269e-42 -2.029e-42 2.396e-42 3.088e-42 -5.221e-42
-4.532e-42 -4.1372e-41 1.3922e-40 -7.819e-42 -1.1655e-41 8.433e-42 -3.649e-42 1.0224e-41
1.967e-42 3.154e-42 4.755e-42 -4.77e-42 9.39e-42 9.539e-42 -5.918e-42 -1.0748e-41
9.911e-42 -1.1077e-41 -2.81e-42 -7.805e-42 -9.597e-42 -4.706e-42 -8.1e-44 7.891e-42
-5.01e-42 -3.792e-42 -7.368e-42 1.3259e-41 -1.0726e-41 1.1507e-41 -1.466e-42 1.65e-43
-4.7e-43 4.11e-42 2.532e-42 -2.634e-42 -9.98e-42 7.34e-42 1.725e-42 -1.09542e-40
1.401e-42 1.2512e-41 7.141e-42 -7.71e-43 4.051e-42 -8.349e-42 9.826e-42 5.503e-42
-7.472e-42 -1.3088e-41 3.301e-42 -2.133e-42 -6.56e-43 1.791e-42 -9.817316e-28 -6.561e-42
-6.53e-43 5.483872e-09 1.2871e-41 -1.2413065e-11 -0.0007672278 -1.8262466e-07 -0.00013215897 2.3414303e-24
-3.51e-42 -6.580595e-08 -1.3684927e-09 -3.682183e-12 8.284641e-09 6.1181718e-06 -5.6313446e-08 2.15e-42
-9.302087e-11 -0.00026072256 -1.308e-41 3.8947474e-06 -3.01421e-40 -3.535302e-22 -1.61665e-10 4.2191846e-07
2.12e-43 1.02965e-40 -4.4442686e-08 1.151e-41 5.338e-42 1.8934334e-09 -1.1926e-41 1.6729687e-10
1.9308052e-05 -2.356281e-05 2.2385354e-11 1.4180448e-06 4.1710606e-05 -2.9925904e-08 -4.1526764e-08 2.661e-42
2.4011862e-11 -2.3887834e-11 -1.7576173e-15 3.16702e-40 -1.576071e-10 2.8243945e-09 1.3232683e-12 3.359162e-06
2.14778e-40 -4.068906e-09 0.00015570725 -1.4945911e-10 1.9561582e-10 4.379399e-05 -8.483378e-12 -3.3663682e-06
-5.535e-42 2.5730176e-10 0.00019778972 3.398e-42 7.496e-42 -4.2021531e-07 7.857503e-09 3.922e-42
7.2736706e-09 8.426209e-08 2.817e-42 -5.5700084e-12 1.5529664e-09 -1.6710634e-12 -4.1698434e-10 3.987799e-11
2.2103525e-26 -2.7178508e-09 -9.8e-05 -1.312e-42 4.4274523e-12 -6.524499e-26 -5.283814e-07 -8.509e-42
2.5416266e-27 4.026349e-06 -5.53551e-10 0.0066239387 -0.00011425046 -3.339e-42 1.2218743e-11 -1.2631225e-17
-0.0011915041 -2.821e-42 7.316e-42 1.3157e-41 5.866568e-07 8.2e-42 3.571472e-07 1.5683903e-09
0.00044876733 0.0003254909 -5.399e-42 -9.99e-43 5.942e-42 4.1588913e-11 1.2336e-41 -6.3921625e-06
3.596962e-05 1.4204e-41 -8.433e-42 -1.049e-41 6.816898e-12 2.238606e-37 -2.835362e-38 -1.5567998e-09
3.0525396e-09 -2.483e-42 7.4338757e-09 1.8171984e-38 7.006e-42 -6.2885175e-10 -4.7711612e-11 -2.427e-42
-1.0676681e-05 -2.696e-42 5.2115263e-11 0.006719213 -8.754e-42 -1.1988324e-10 4.065532e-24 -3.0668163e-34
00000000: 4221 0000 7803 0000 3029 838b 2b25 0080
00000010: 0c25 0000 8e21 0000 854f 00ab 9507 0000
00000020: 8b24 0000 7f15 0000 0902 0000 ef1b 0080
00000030: dc11 0000 2401 0080 aa28 0000 8234 0e00
00000040: 7e10 0000 ee07 0080 cc06 0080 1c27 0000
00000050: c403 0000 e412 0000 ba05 0080 660f 0000
00000060: db17 0000 b0c3 0080 2422 0080 6a01 0000
00000070: 0700 0000 a501 0000 2707 0000 0708 0000
00000080: ad15 0000 801f 0080 8d0a 0080 4d1a 0080
00000090: fc0f 0000 e717 0000 7802 0080 5b22 0080
000000a0: 4d19 0080 190b 0000 3716 0080 8228 0080
000000b0: 5f03 0000 0a28 0000 5d21 0000 e202 0000
000000c0: f917 0080 c918 0000 d10a 0080 4e20 0000
000000d0: 5724 0080 3130 0280 da04 0000 9805 0080
000000e0: ea1d 0080 8e14 0080 1400 5938 3c09 0000
000000f0: 7bb8 c70b 3705 0000 0b13 0080 0110 0080
00000100: a016 0080 a110 0000 8304 0080 0d17 0000
00000110: a805 0080 ae06 0000 9c08 0000 8e0e 0080
00000120: a20c 0080 5473 0080 1784 0100 cc15 0080
00000130: 7d20 0080 8217 0000 2c0a 0080 801c 0000
00000140: 7c05 0000 cb08 0000 410d 0000 4c0d 0080
00000150: 2d1a 0000 971a 0000 7f10 0080 f61d 0080
00000160: a11b 0000 e11e 0080 d507 0080 c215 0080
00000170: c11a 0080 1e0d 0080 3a00 0080 ff15 0000
00000180: f70d 0080 920a 0080 8a14 0080 f624 0000
00000190: e61d 0080 1420 0000 1604 0080 7600 0000
000001a0: 4f01 0080 750b 0000 0f07 0000 5807 0080
000001b0: d21b 0080 7614 0000 cf04 0000 5c31 0180
000001c0: e803 0000 e122 0000 e813 0000 2602 0080
000001d0: 4b0b 0000 4617 0080 641b 0000 570f 0000
000001e0: d414 0080 7c24 0080 3409 0000 f205 0080
000001f0: d401 0080 fe04 0000 c48f 9b92 4a12 0080
00000200: d201 0080 a66c bc31 e123 0000 7a5f 5aad
00000210: c91f 49ba 7c17 44b4 2794 0ab9 ce28 3518
00000220: c909 0080 3451 8db3 8e15 bcb0 288e 81ac
00000230: 3d54 0e32 b24a cd36 4add 71b3 fe05 0000
00000240: 188e ccae 97b1 88b9 7624 0080 a0af 8236
00000250: 3d48 0380 26b2 d59b a7c0 31af 0884 e234
00000260: 9700 0000 061f 0100 40e1 3eb3 1620 0000
00000270: e10e 0000 a21d 0231 3f21 0080 e2f1 372f
00000280: baf7 a137 c0a8 c5b7 56e7 c42d a653 be35
00000290: 6cf2 2e38 e187 00b3 295b 32b3 6b07 0000
000002a0: e835 d32d 9f1e d2ad a24c fda6 d672 0300
000002b0: 744a 2daf 4617 4231 c43b ba2b f76d 6136
000002c0: b756 0200 7ace 8bb1 5945 2339 0055 24af
000002d0: f514 572f 70af 3738 bd3d 15ad c4e9 61b6
000002e0: 6e0f 0080 0174 8d2f c665 4f39 7909 0000
000002f0: e514 0000 f499 e1b4 aafd 0632 ef0a 0000
00000300: e2eb f931 93f3 b433 da07 0000 2dfa c3ac
00000310: 2670 d530 672e ebab 543d e5af a062 2f2e
00000320: 18e7 da14 f0c4 3ab1 5985 cdb8 a803 0080
00000330: f2c6 9b2c ed89 a195 18d6 0db5 b817 0080
00000340: 505e 4913 131a 8736 b028 18b0 a00d d93b
00000350: c099 efb8 4f09 0080 54f4 562d 4601 69a3
00000360: 3e2c 9cba dd07 0080 6514 0000 ad24 0000
00000370: c07a 1d35 dc16 0000 f0bd bf34 d48e d730
00000380: 8848 eb39 a6a6 aa39 0d0f 0080 c902 0080
00000390: 9010 0000 f4e8 362e 6322 0000 427c d6b6
000003a0: 16de 1638 9827 0000 8217 0080 3e1d 0080
000003b0: 29d9 ef2c 045a 9802 2e5f 1a81 06f7 d5b0
000003c0: d8c4 5131 ec06 0080 106d ff31 19e0 c500
000003d0: 8813 0000 82db 2cb0 80d6 51ae c406 0080
000003e0: ff1f 33b7 8407 0080 9234 652e d82c dc3b
000003f0: 6718 0080 22d0 03af 1447 9d18 2dd3 cb87

fc2.bias f4 [128]
-0.00011736019 -0.00010106014 0.092680216 -2.1817563e-05 0.12340993 -2.4270392e-07 -0.0088327145 0.068503104
-6.7864734e-05 -0.005698456 -0.06438787 -1.7502525e-05 -0.018663203 -0.0013232968 -3.5194348e-06 0.047464494
-0.0009441892 -0.0005798806 0.049713403 0.022389645 -0.004119672 -0.0011445199 -1.04442115e-05 0.22332297
0.16131915 0.1818688 -4.4389785e-06 -0.00014789499 0.11449487 -0.0010869028 0.2783097 0.1539612
-2.373899e-06 0.2001344 0.22435673 0.14686117 -0.013567296 0.07306044 0.043527197 -0.042785037
-0.005678957 -0.06720627 -0.00057524163 -0.06887468 0.059325557 -0.13137415 0.14639671 -0.00015163698
-1.5831147e-07 -0.07425526 -0.00014072338 -6.1635306e-05 -1.9872214e-13 -0.00046229613 -0.0019799054 -6.098209e-06
-0.026671484 -0.021911284 -0.0056206244 0.06742207 -0.111416444 -2.395839e-05 -0.04398507 -0.0010316854
-0.0033880044 -0.000889697 0.07284455 -4.592791e-08 -0.03035295 0.04611989 -1.0828727e-05 -2.9500703e-05
-0.026491504 -0.107086025 -0.00032207882 -0.02434331 0.11289179 0.17807832 -0.06259718 0.0886157
-0.00086718285 0.009732231 -0.025613356 0.0026272652 -3.6286217e-08 -0.00022847042 0.06968365 -0.029486824
-0.0117906695 -0.0021206439 -2.7233318e-09 -4.565225e-05 -0.053601775 0.051858712 -5.2688034e-07 0.15477577
0.20388208 -0.00027705028 -0.00058480114 -0.00020992092 -7.668553e-05 -1.2342086e-05 0.14021304 -0.08143623
-0.12977174 -0.003284994 -0.0016819985 -3.412604e-05 -0.0064849895 -0.07960941 -0.0031970267 0.12705283
-0.0032347525 0.028670345 -2.6908781e-05 -0.11953147 -0.004179114 -7.1898075e-06 -0.018490337 -0.08853829
-0.00455218 -3.126568e-06 -0.0010542773 -9.696918e-06 -1.5454702e-06 0.11153336 -1.128471e-08 -7.701102e-05
00000000: 461f f6b8 40f0 d3b8 20cf bd3d dc04 b7b7
00000010: 58be fc3d f94c 82b4 17b7 10bc 5b4b 8c3d
00000020: 9a52 8eb8 1dba babb cadd 83bd 63d2 92b7
00000030: 93e3 98bc 7972 adba 6e2f 6cb6 216a 423d
00000040: 7783 77ba 2103 18ba 48a0 4b3d 7d6a b73c
00000050: 50fe 86bb b703 96ba 8c39 2fb7 c7ae 643e
00000060: d930 253e d13b 3a3e 89f2 94b6 4214 1bb9
00000070: 497c ea3d 6876 8eba 9c7e 8e3e 01a8 1d3e
00000080: 464f 1fb6 08f0 4c3e c5bd 653e c662 163e
00000090: 5d49 5ebc b6a0 953d 9349 323d 5d3f 2fbd
000000a0: 8b16 babb 71a3 89bd d0cb 16ba 2b0e 8dbd
000000b0: 5bff 723d f286 06be 05e9 153e be00 1fb9
000000c0: 53fc 29b4 2413 98bd 258f 13b9 3442 81b8
000000d0: c2bd 5faa 5660 f2b9 4dc1 01bb 379f ccb6
000000e0: 287e dabc 4b7f b3bc 372d b8bb 9514 8a3d
000000f0: 4e2e e4bd 40fa c8b7 b029 34bd 9e39 87ba
00000100: 4809 5ebb 8e3a 69ba 862f 953d 4542 45b3
00000110: c0a6 f8bc 36e8 3c3d 07ad 35b7 4778 f7b7
00000120: b604 d9bc eb4f dbbd b0dc a8b9 9f6b c7bc
00000130: d033 e73d 2a5a 363e f332 80bd 267c b53d
00000140: a853 63ba ef73 1f3c 1ad3 d1bc 322e 2c3b
00000150: 1ed9 1bb3 9091 6fb9 4db6 8e3d 5a8e f1bc
00000160: a72d 41bc 80fa 0abb 5c25 3bb1 bb7a 3fb8
00000170: 898d 5bbd cd69 543d f16e 0db5 8a7d 1e3e
00000180: 77c6 503e 0f41 91b9 574d 19ba 381e 5cb9
00000190: 3bd2 a0b8 db10 4fb7 0294 0f3e 0ac8 a6bd
000001a0: e2e2 04be 0e49 57bb 8176 dcba 8e22 0fb8
000001b0: 0980 d4bb 420a a3bd 3585 51bb 231a 023e
000001c0: 24fe 53bb 12de ea3c 2bba e1b7 eacc f4bd
000001d0: f3f0 88bb fa3f f1b6 0c79 97bc 9053 b5bd
000001e0: 742a 95bb 07d2 51b6 ad2f 8aba f2af 22b7
000001f0: f46d cfb5 9a6b e43d aede 41b2 fa80 a1b8

fc3.weight f4 [16, 128]
4.444555e-05 8.5110194e-05 0.12098465 9.452004e-08 0.055793695 7.698288e-10 7.796493e-05 0.1446557
1.8773933e-05 0.001053178 -0.008067659 2.9853696e-17 -0.002204419 2.236836e-08 -1.0135776e-12 0.06614342
-4.4775796e-05 -2.643409e-08 0.451261 0.005884455 -0.00010143888 -0.00014249797 -2.1450594e-06 -0.010833819
-0.00035945198 0.111638695 0.0001340908 1.1379134e-05 0.29451728 0.00018498136 0.13275602 -0.14464267
4.734901e-12 -0.2324407 0.10945096 0.12316561 -6.346624e-07 0.017055556 0.37340072 0.06336756
0.006139194 -0.017540686 -2.0697553e-05 0.0012373179 -0.029943328 -0.082067974 -0.23645711 -3.43869e-08
3.863795e-14 -0.029472686 -5.2572264e-05 -2.2132935e-23 -3.8152668e-13 -1.0836203e-05 -9.682442e-07 6.7656856e-07
-0.04781032 0.00014312091 -4.0740697e-06 0.18007249 -0.0071790284 -1.8929305e-12 0.046773862 -0.0024563684
-0.0006217968 -2.8948383e-05 -0.09994622 1.6524492e-08 -0.05810541 -0.027825579 -2.6962952e-15 5.0164916e-12
-0.1705022 -0.3924273 -4.7496695e-07 -0.0079375515 0.18311508 -0.12611488 -0.04649924 0.09817697
-3.107158e-14 0.19292927 0.159142 0.1250212 -6.282809e-08 -2.1285781e-05 0.076141804 0.11093894
0.0098318085 -0.0002992877 -6.689223e-17 -8.3302956e-07 0.076489836 -0.097303376 -3.7513612e-07 -0.09357008
-0.12837896 1.5298554e-06 0.0001023319 7.8152925e-06 -2.1673135e-05 -1.2543386e-09 0.18996783 -5.8108944e-06
-0.05196849 0.015843373 2.1242931e-07 -1.1481716e-07 -0.0003024638 -0.0020229698 -0.0006313116 0.17936954
-0.00013452704 0.38144848 5.361849e-05 -0.03146878 -0.00011228949 1.5119446e-07 -0.038307473 0.23595528
5.266285e-05 -7.0080444e-09 -1.7591267e-07 3.6475143e-05 -2.6703802e-07 -0.036198035 -8.801032e-10 -1.9674244e-05
-2.6629345e-11 -0.0011563345 -0.21560475 4.703e-42 0.13621418 -3.16371e-19 -1.04951155e-07 -0.0050214566
-9.5475585e-08 -1.0177358e-05 -5.6122834e-10 -1.6347545e-18 -0.027115336 -1.2430716e-09 4.1559416e-11 0.015374717
-3.114369e-11 1.763511e-23 0.037972 0.020947715 1.0648507e-05 0.0012290569 -3.5795037e-11 0.27767745
0.037836906 0.22545974 -4.6497494e-06 -2.968322e-25 -0.004500085 -9.7894684e-08 0.053379904 0.107214876
-2.712334e-12 0.1018521 0.1893898 -0.04020064 3.346908e-07 0.08871024 0.083563074 -0.011869449
-2.563726e-16 -0.0007921566 1.398854e-05 0.015610483 0.14519061 -0.09833818 0.08628494 -2.653286e-16
-2.3108782e-14 -0.018674338 -0.00020065495 9.49e-43 -8.663855e-14 -6.6872635e-06 -0.00016584904 -5.9933736e-10
0.04834261 -0.0015881823 1.8926355e-11 -0.13497195 -0.00039760492 2.705619e-11 0.014953805 -0.0027815187
-0.00013888393 -7.451094e-09 0.08057729 2.7581145e-12 -0.0078068757 0.089046925 -3.9593475e-16 3.0053602e-11
-0.17384163 -0.47113764 -1.4629167e-13 -0.000554144 -0.009080405 0.16398822 -0.04793575 0.028596912
-1.0818408e-14 0.05634868 -0.006800216 0.036377206 -1.5387852e-07 9.758402e-06 -0.096960515 0.058233377
0.0009386104 4.0622294e-06 3.2882807e-18 -2.4505111e-06 -0.012487638 -0.044154093 -2.4744105e-07 0.1946716
0.10185088 4.697553e-06 1.4538112e-13 2.2810968e-10 -1.4715366e-05 -8.047062e-21 0.07044712 -2.1231117e-06
0.036465008 -0.0017988407 6.726401e-08 -9.646781e-11 -6.727515e-05 0.00036000457 1.2618641e-08 -0.1534491
-6.807117e-06 0.12289144 -2.9144612e-16 -0.025374433 -2.5261415e-05 -3.4252954e-17 -0.011532545 -0.07060868
-2.642516e-07 -2.3561402e-16 -8.142477e-14 4.003385e-09 -9.444797e-08 0.11100518 6.165096e-12 -2.9041475e-06
00000000: 0c6b 3a38 307d b238 cdc6 f73d f1fa ca33
00000010: ee87 643d e39b 5330 1a81 a338 a020 143e
00000020: b77c 9d37 ca0a 8a3a 372e 04bc 06ad 0924
00000030: 0478 10bb 8b24 c032 fba5 8eab 3476 873d
00000040: a5cd 3bb8 2e11 e3b2 af0b e73e 63d2 c03b
00000050: 96bb d4b8 826b 15b9 d7f3 0fb6 5580 31bc
00000060: d474 bcb9 d4a2 e43d ba9a 0c39 02e9 3e37
00000070: f8ca 963e 8ef7 4139 32f1 073e 351d 14be
00000080: 3298 a62c ef04 6ebe d327 e03d 403e fc3d
00000090: ab5d 2ab5 18b8 8b3c 612e bf3e dac6 813d
000000a0: 4b2b c93b 7cb1 8fbc a89f adb7 802d a23a
000000b0: b64b f5bc 4113 a8bd d021 72be ccb0 13b3
000000c0: 8602 2e29 b470 f1bc 0a81 5cb8 7e0e d699
000000d0: cac7 d6aa 23cd 35b7 9ef4 81b5 709d 3535
000000e0: c1d4 43bd ba12 1639 feb3 88b6 ec64 383e
000000f0: 0e3e ebbb 0134 05ac f395 3f3d 06fb 20bb
00000100: 1400 23ba 2ed6 f2b7 9bb0 ccbd bef1 8d32
00000110: f0ff 6dbd 78f2 e3bc de49 42a7 8a80 b02c
00000120: 2198 2ebe 3bec c8be f6fe feb4 810c 02bc
00000130: 8582 3b3e 4224 01be fd75 3ebd 0211 c93d
00000140: 18ef 0ba9 408f 453e 1ff6 223e 8f05 003e
00000150: 1cec 86b3 de8e b2b7 3cf0 9b3d f433 e33d
00000160: 9815 213c b7e9 9cb9 343e 9aa4 5b9d 5fb5
00000170: b4a6 9c3d fe46 c7bd 5166 c9b4 aca1 bfbd
00000180: c675 03be 6e55 cd35 059b d638 6d1e 0337
00000190: b4ce b5b7 1e65 acb0 ed86 423e 34fb c2b6
000001a0: e9dc 54bd f6c9 813c 2018 6434 6791 f6b3
000001b0: 0194 9eb9 cd93 04bb 9b7e 25ba a6ac 373e
000001c0: d40f 0db9 374d c33e 6ae4 6038 68e5 00bd
000001d0: f67c ebb8 0458 2234 4ce8 1cbd 439e 713e
000001e0: 4ee2 5c38 69cb f0b1 82e2 3cb4 e3fc 1838
000001f0: 6d5d 8fb4 6444 14bd c2eb 71b0 1e0a a5b7
00000200: f43b eaad 2690 97ba 7ec7 5cbe 1c0d 0000
00000210: bb7b 0b3e a2c0 baa0 8261 e1b3 088b a4bb
00000220: 4208 cdb3 6bbf 2ab7 ef44 1ab0 473f f1a1
00000230: fb20 debc b2d8 aab0 bec7 362e 3de6 7b3c
00000240: adf8 08ae 6b8e aa19 8788 1b3d 8b9a ab3c
00000250: fda6 3237 4e18 a13a a16d 1dae bd2b 8e3e
00000260: dffa 1a3d ebde 663e 0b05 9cb6 f1ba b796
00000270: 7375 93bb 2c3a d2b3 e3a4 5a3d 7993 db3d
00000280: 11dd 3eac d597 d03d 66ef 413e 6da9 24bd
00000290: 8eaf b334 b7ad b53d 1e23 ab3d 1478 42bc
000002a0: ebc9 93a5 bba8 4fba 52b0 6a37 1cc3 7f3c
000002b0: d9ac 143e 8765 c9bd 29b6 b03d 97f3 98a5
000002c0: 3925 d0a8 edfa 98bc e766 52b9 a502 0000
000002d0: b917 c3a9 2863 e0b6 c3e7 2db9 9ebe 24b0
000002e0: e702 463d 8e2a d0ba 5d7a a62d 1636 0abe
000002f0: a175 d0b9 20fd ed2d ce00 753c 244a 36bb
00000300: 5fa1 11b9 4202 00b2 b505 a53d c615 422c
00000310: d2d0 ffbb 3c5e b63d a83d e4a5 592d 042e
00000320: 8a03 32be f438 f1be b4b5 24aa f943 11ba
00000330: fbc5 14bc 87ec 273e 4758 44bd 1244 ea3c
00000340: 1ae3 42a8 e0cd 663d 59d4 debb 4400 153d
00000350: ce39 25b4 04b8 2337 3c93 c6bd 1f86 6e3d
00000360: 140d 763a 494e 8836 dea1 7222 7673 24b6
00000370: f398 4cbc ecda 34bd 0ad8 84b4 fe57 473e
00000380: 3297 d03d ac9f 9d36 41af 232a 2bcf 7a2f
00000390: 04e2 76b7 3401 189e 9446 903d c87a 0eb6
000003a0: 555c 153d 14c7 ebba c872 9033 8d22 d4ae
000003b0: 1216 8db8 ffbe bc39 5fc9 5832 c321 1dbe
000003c0: b168 e4b6 82ae fb3d db01 a8a5 0bde cfbc
000003d0: 7ae8 d3b7 c0f6 1da4 00f3 3cbc 499b 90bd
000003e0: 77de 8db4 7ed2 87a5 2f5a b7a9 268e 8931
000003f0: 52d3 cab3 af56 e33d 40ea d82c e0e4 42b6

fc3.bias f4 [16]
0.78023034 0.37870362 0.57433045 0.5875185 -0.3358063 -0.3427841 0.9821312 0.25944695
-0.063269 -0.08680472 -0.26718786 -0.20530117 -0.38727084 -0.6018134 -0.70178396 -0.6598125
00000000: 2dbd 473f 71e5 c13e 5207 133f 9d67 163f
00000010: ceee abbe 6681 afbe f36c 7b3f 3bd6 843e
00000020: 2d93 81bd acc6 b1bd d9cc 88be 783a 52be
00000030: 5d48 c6be 7110 1abf 1da8 33bf 79e9 28bf
