MBTI/ANN/Model/pr/lr=0.0005 L2=0.01 hd = 128 SVM_1/best_model.pth (torch, 85743 bytes, 6 tensors)

fc1.weight f4 [128, 17]
00000000: f869 0000 b3dc 0000 7d6b 0000 e30d 0080
00000010: c8e3 0000 e03a 1700 f1b4 0080 2486 0180
00000020: 169d 0080 5bef 0080 b16d 0180 578e 0000
00000030: 4096 2280 6c40 cd28 16bc 0080 a6c7 62ab
00000040: 0645 06a1 b12b 0180 b426 0000 07bd 020d
00000050: 0480 0080 041c 0100 fc0e 0080 7efd 08a0
00000060: 8648 af0d 5e53 0180 f5f2 0080 181c 0100
00000070: 4940 0180 c041 cc34 8742 0100 1b45 092a
00000080: a90e 0000 6e8d 1fbb 4f51 0201 8cfd 0380
00000090: e5fd ff8f 68ea 0480 9654 0500 d5dd 0d80
000000a0: c0c8 ee83 3cf1 09a1 6f02 0000 81e3 0500
000000b0: 99a8 0100 5597 0200 6f01 252d 983f 34b0
000000c0: 9251 982f 0c46 0000 4992 47bb f0d4 36b8
000000d0: 0b35 0338 2468 0ab8 1d44 c437 e03b ce33
000000e0: 582b 11b8 030a eab8 8729 22b7 93fc c6b6
000000f0: e577 7a37 23a3 9137 8680 f937 2d97 871b
00000100: 2b80 0100 a723 0000 be68 0100 e813 023a
00000110: ae36 e2b7 8996 5c37 3f84 c1b8 fcdd 9bb6
00000120: fb42 e227 dcf7 95a9 6966 4fb9 4097 25b9
00000130: 1bc6 9daa da1b 5237 a43a ec36 5acf 6d36
00000140: bcfb af24 66c3 0080 4629 0180 9d48 0000
00000150: 9278 6f3a 51f6 e92f 40dc b219 8694 99b3
00000160: c439 aca2 1350 0800 d7ff 0280 c51f b72d
00000170: dca3 c6b5 afb9 2280 8eb1 6699 0f27 7e00
00000180: cefa 0800 ba7c 0300 3576 0080 ce03 0080
00000190: 8491 0080 f55c 90bb cc3d 3db3 3680 0332
000001a0: d86d e2b2 d4a9 2ab3 95d9 10b1 6021 9a30
000001b0: a0e0 9ab2 cb20 a1b3 9a1d 332e 396c a0b2
000001c0: 7ce8 1e2f ce05 c2af 9004 b5b6 9770 0100
000001d0: b2df 0000 e2a8 0000 a472 46b0 9ea6 9434
000001e0: b075 2433 f37a f033 24c7 25b2 74bf 46b1
000001f0: b6a0 0a31 3e11 1a34 ae63 5bb3 38ff c4b0
00000200: 9065 04b3 a570 ecb2 d986 7c33 a44e fc36
00000210: 819a 0080 321a ea2a 1e5b 0000 d865 a8ba
00000220: b738 eb0a 5b84 0c88 8310 838a 5bf3 bd09
00000230: d3ea a509 8182 0000 961d e80a cfae 8789
00000240: 554a 5208 bd15 4b09 de77 bb86 a7c0 5888
00000250: 6022 bb31 d136 0080 7ce2 0000 e030 0000
00000260: d1a0 410c 0863 98b5 8088 5c33 c11a 56b5
00000270: 7704 3234 e0f0 12ae de44 e6b5 2369 25b6
00000280: 6936 2eb6 20b2 60b5 4199 a835 50e3 9931
00000290: ca06 1bb5 9cdb a491 361b 0000 6e1f 0180
000002a0: 4909 0080 fa2b 7537 f621 76af 24a1 842d
000002b0: d752 f0ae be3a 36af ff9b 9fac f3e0 afac
000002c0: bdc7 88ae 7563 cfaf 9fa3 a4aa d91d 5dae
000002d0: 0cf9 b5ab a09f 04ae b6fc eba9 362f 792d
000002e0: 15a4 0000 f8f9 0080 cdf2 6faf cfa7 7622
000002f0: 221c 1e07 74f4 aaab b777 5823 7167 0000
00000300: 027a 0000 fb6d b52c 1dfc 46b0 e371 0100
00000310: b45a 2608 29e9 0080 5d57 0000 7a55 0c80
00000320: 4629 9bb5 058d 75ab 0d6a 0100 0c59 85bb
00000330: 5cc8 0080 865a 0080 f4bd 0000 4045 0000
00000340: fa5a 0000 d4cf 0080 501a 0000 9de6 0080
00000350: 1603 0080 e879 0080 600f 0000 cc09 0080
00000360: 9c8f 0080 4ad8 ad34 a5c3 0080 1f0e 0000
00000370: 9b84 2ab8 9d22 cfb3 ec6e 5ab1 b055 b831
00000380: 2938 a4b2 eae6 4b33 ef90 8f27 d689 4fb3
00000390: 662b 61b3 6849 832f 04df 8632 bf81 7732
000003a0: 5096 bab0 1ed3 1a00 1325 0180 febf 0f29
000003b0: 0c8c 0080 1d39 adb4 00dd 5a1a 8eb8 c51a
000003c0: 2f07 759b 3473 d71a 9852 bd15 df90 0c13
000003d0: 84fd 2799 4b4f 4b1a 8710 f616 27cc 411a
000003e0: f8e4 1515 deef 219a 8307 4cb1 9c8b 6f2c
000003f0: 6ce8 592a d609 0100 206d 57af e81d 0080
3.8014e-41 7.9172e-41 3.856e-41 -4.982e-42 8.1713e-41 2.133337e-39 -6.491e-41 -1.39956e-40
-5.6352e-41 -8.5865e-41 -1.31185e-40 5.1062e-41 -3.176306e-39 2.278751e-14 -6.7473e-41 -8.0568397e-13
-4.549232e-19 -1.07509e-40 1.3884e-41 4.0286876e-31 -4.5923e-41 1.01886e-40 -5.375e-42 -1.1603522e-19
1.0802667e-30 -1.21742e-40 -8.7157e-41 1.01914e-40 -1.14897e-40 3.80458e-07 1.15701e-40 1.219202e-13
5.259e-42 -0.0024345773 2.3935565e-38 -3.66462e-40 -2.5242738e-29 -4.51431e-40 4.89521e-40 -1.27344e-39
-1.4034473e-36 -4.6736677e-19 8.73e-43 5.4079e-40 1.52317e-40 2.37959e-40 9.3794824e-12 -6.557399e-10
2.7706598e-10 2.5128e-41 -0.0030452183 -4.3590495e-05 3.1282234e-05 -3.2998752e-05 2.3396738e-05 9.603514e-08
-3.461106e-05 -0.00011159854 -9.665621e-06 -5.9302633e-06 1.4929076e-05 1.7361313e-05 2.9742961e-05 2.2431572e-22
1.37814e-40 1.279e-41 1.2941e-40 0.00049620727 -2.6966762e-05 1.3148071e-05 -9.22759e-05 -4.6452024e-06
6.280022e-15 -6.659926e-14 -0.00019779209 -0.00015791971 -2.8026266e-13 1.252346e-05 7.0401748e-06 3.5436447e-06
7.632061e-17 -7.0096e-41 -1.06642e-40 2.6049e-41 0.0009135093 4.2557471e-10 1.8493727e-23 -7.151634e-08
-4.6681855e-18 7.63409e-40 -2.75449e-40 2.08188e-11 -1.4799839e-06 -3.189018e-39 -1.1926578e-23 1.1585284e-38
8.24656e-40 3.2025e-40 -4.2405e-41 -1.365e-42 -5.2201e-41 -0.0044056126 -4.4061196e-08 7.654355e-09
-2.6359814e-08 -3.9735667e-08 -2.107844e-09 1.121446e-09 -1.8030107e-08 -7.503112e-08 4.072618e-11 -1.8675665e-08
1.4452611e-10 -3.529252e-10 -5.3947515e-06 1.32225e-40 8.0247e-41 6.0584e-41 -7.2194895e-10 2.7688378e-07
3.829126e-08 1.1198235e-07 -9.649543e-09 -2.892162e-09 2.0172997e-09 1.434864e-07 -5.108057e-08 -1.4333414e-09
-3.0826016e-08 -2.752524e-08 5.8795965e-08 7.51934e-06 -5.5426e-41 4.1584927e-13 3.2687e-41 -0.0012847735
2.265101e-32 -4.22853e-34 -1.2621052e-32 4.5728945e-33 3.9943133e-33 4.6816e-41 2.2351916e-32 -3.2664457e-33
6.3281953e-34 2.4445457e-33 -7.051771e-35 -6.5226597e-34 5.4463243e-09 -1.9664e-41 8.1247e-41 1.7533e-41
1.4916573e-31 -1.1353704e-06 5.1346888e-08 -7.9760144e-07 1.6579166e-07 -3.3410497e-11 -1.7156378e-06 -2.4648114e-06
-2.5959691e-06 -8.370571e-07 1.2561578e-06 4.4787285e-09 -5.775188e-07 -2.6009982e-28 9.761e-42 -1.0311e-40
-3.331e-42 1.4613377e-05 -2.2385635e-10 1.5078223e-11 -1.0928652e-10 -1.6573673e-10 -4.536371e-12 -4.9987735e-12
-6.2200446e-11 -3.772375e-10 -2.9245787e-13 -5.0276092e-11 -1.2929948e-12 -3.01551e-11 -1.0479935e-13 1.4164494e-11
5.8862e-41 -8.9672e-41 -2.1823184e-10 3.3428054e-18 1.1894866e-34 -1.2147076e-12 1.1734734e-17 3.7108e-41
4.3768e-41 5.1565397e-12 -7.2390255e-10 1.3269e-40 5.006043e-34 -8.3642e-41 3.134e-41 -1.132689e-39
-1.1560412e-06 -8.723719e-13 1.2988e-40 -0.004069453 -7.1875e-41 -3.2474e-41 6.8142e-41 2.4842e-41
3.2636e-41 -7.4555e-41 9.439e-42 -8.2728e-41 -1.107e-42 -4.3732e-41 5.516e-42 -3.514e-42
-5.1517e-41 3.2381132e-07 -7.0184e-41 5.066e-42 -4.0654657e-05 -9.645485e-08 -3.1786227e-09 5.3648463e-09
-1.9117651e-08 4.7474636e-08 3.984761e-15 -4.8321304e-08 -5.2426365e-08 2.388092e-10 1.5701069e-08 1.4406793e-08
-1.3576003e-09 2.463457e-39 -1.05135e-40 3.1918905e-14 -5.024e-41 -3.2265316e-07 4.5259866e-23 8.1775455e-23
-2.0268246e-22 8.9108037e-23 7.64668e-26 1.7741911e-27 -8.684895e-24 4.204347e-23 3.9753874e-25 4.0076378e-23
3.0270935e-26 -3.3487783e-23 -2.9690177e-09 3.4041442e-12 1.9354109e-13 9.5364e-41 -1.9592905e-10 -1.0728e-41

fc1.bias f4 [128]
00000000: 3a67 0180 1125 a0b5 1bbb 4bb4 2a7e 39bb
00000010: edd5 dbbb f3df d1b9 d442 a5b3 05ba 88b5
00000020: 77a0 ffad a742 ccb8 28a2 87af b7f9 3bb8
00000030: 18c3 88ac b02b 9e32 01a5 1b9c d050 799f
00000040: ead3 a8a3 6aca 2c3e 3b7d 903b 8649 4dbb
00000050: 345b 0e8d f945 0ab4 2dde 0c3a 8280 4eb3
00000060: 5399 da3e 7897 93b4 4bf4 d3b5 b7e2 9db3
00000070: 4f2f b9b3 8b60 75ae 9076 aca2 9151 0180
00000080: b187 34a9 3a0d c8aa 3e81 1db8 07b6 ccb4
00000090: c4f2 bdb7 ec28 3b99 eb38 91b8 67c3 f63b
000000a0: a992 acac e828 7eb2 95e3 7eac 7907 51ba
000000b0: 9a96 9fb8 e6f5 533e 3f03 0d3c a2ae d3a3
000000c0: 044b 12b6 ece8 cb9a eeb7 37a9 6223 3db9
000000d0: c8e2 12a8 016b babe 567b 093f eb15 3c3d
000000e0: 1031 0db4 851a ac9a 9a95 b03d 1ec6 a292
000000f0: 212a 55ab c0d5 5eaa c63c fcb9 fdb0 5ab9
00000100: 6581 77b4 ad83 e03a 6856 b2b3 aac4 42b5
00000110: ecb3 1e22 124c f6b2 f0b7 b8b6 856b 0180
00000120: 71c7 e0b0 2de3 9385 9ae8 44ba fde7 14ad
00000130: f9b8 9890 84b7 3a3c 6876 193e a48f 8db3
00000140: aa00 9abe dde5 27b1 0631 54b6 745a 36ad
00000150: 54f7 a03d 2302 4b8c d593 1192 7ad9 87ba
00000160: b988 1ab8 daed 1bba 1f2e bcba 457f 08a0
00000170: 65a4 88bb c2a3 63b0 43b3 5eb4 53e8 30b7
00000180: 43a2 f3a3 7bcc f2b8 e8ce 4c8e af3e 04b1
00000190: 5e32 a93d 2704 393d d789 ff3d c077 373e
000001a0: 4cb0 86ba 9956 0080 515f 6dac 2fb2 1aaa
000001b0: c32c b19b bd24 013e 48d3 0bb9 a45c 61af
000001c0: a125 ada5 e834 853a f527 773e d709 02bb
000001d0: f8cd cd3a 81ea fba7 0ea9 3eb8 1722 71a3
000001e0: b26c 9d3d 2982 4e96 ebaf b19f c52d 2cab
000001f0: 70c5 0000 ca54 74ba cab7 279a 56ed 2a39
-1.28866e-40 -1.1931717e-06 -1.8973917e-07 -0.002830396 -0.0067088515 -0.00040030442 -7.695567e-08 -1.0186928e-06
-2.9061404e-11 -9.739893e-05 -2.4671576e-10 -4.481684e-05 -3.8870122e-12 1.8413488e-08 -5.149846e-22 -5.2794647e-20
-1.8304346e-17 0.1687409 0.00440946 -0.003132434 -4.386691e-31 -1.2877707e-07 0.0005373683 -4.807999e-08
0.42695102 -2.7491092e-07 -1.5791824e-06 -7.3521214e-08 -8.623339e-08 -5.5792298e-11 -4.6746226e-18 -1.21096e-40
-4.0085722e-14 -3.5536315e-13 -3.7552083e-05 -3.8130403e-07 -2.2643602e-05 -9.6759375e-24 -6.9247406e-05 0.007530618
-4.9048166e-12 -1.4794047e-08 -3.6221904e-12 -0.0007973831 -7.6097625e-05 0.20699272 0.008606731 -2.2950626e-17
-2.179936e-06 -8.433514e-23 -4.0793696e-14 -0.00018037626 -8.1538034e-15 -0.36409763 0.5370382 0.04591934
-1.3149497e-07 -7.118038e-23 0.08622284 -1.0272477e-27 -7.5731267e-13 -1.979172e-13 -0.00048110465 -0.00020856033
-2.3050741e-07 0.0017129086 -8.304488e-08 -7.2556816e-07 2.1508243e-18 -2.8672762e-08 -5.5050405e-06 -1.30406e-40
-1.635483e-09 -1.3907265e-35 -0.0007511467 -8.464338e-12 -6.0238424e-29 0.011396293 0.14986575 -6.591952e-08
-0.30078632 -2.443236e-09 -3.1618997e-06 -1.0365587e-11 0.07859674 -1.5639194e-31 -4.593615e-28 -0.0010364496
-3.6843794e-05 -0.00059482234 -0.0014357007 -1.1561758e-19 -0.004169988 -8.281483e-10 -2.0740576e-07 -1.054451e-05
-2.6414833e-17 -0.00011577547 -2.5244563e-30 -1.924416e-09 0.0826156 0.045169976 0.12477463 0.17916775
-0.0010275929 -3.1065e-41 -3.3732637e-12 -1.3739768e-13 -2.931112e-22 0.12611671 -0.00013334781 -2.0496543e-10
-3.0036214e-16 0.0010162862 0.24136336 -0.001984229 0.0015701642 -6.9920744e-15 -4.5456974e-05 -1.3071855e-17
0.076867476 -1.6681619e-25 -7.525345e-20 -6.1170193e-13 7.0827e-41 -0.0009320496 -3.4683254e-23 0.00016300878

fc2.weight f4 [128, 128]
00000000: b36a 0080 d654 f791 bfe6 0a00 e859 89b7
00000010: d0a4 d4b6 75a0 4019 4055 cf2f e781 40b3
00000020: 0068 a409 f2d8 3cb5 54f4 50ac b691 c291
00000030: b271 0000 146c 04b3 581b b810 b91e 0000
00000040: 7cef 0000 6f81 36bd 8e25 523a c2e1 4530
00000050: ca12 0080 b9c8 fe90 9faf 93bb 92e8 992b
00000060: 2ebb df3c 5e4f 4b31 4ca6 d895 3e1c 3eb2
00000070: 82ac 38b4 1d2f aaa2 212e 0080 58b3 0000
00000080: 5c7c 0000 9928 0100 df28 1200 6047 0900
00000090: dde2 0504 b74b 0080 5e0d 5710 6473 2e3c
000000a0: 1c37 302a def7 79af af2a 0000 beff 8a32
000000b0: fedc c21a 2b1e c33c bb70 be3a 73f6 1a0b
000000c0: 7ce2 45ac f055 ce16 02bd 0000 23c9 c29d
000000d0: 5142 7923 a9d1 de3d 9f51 ec3c ae34 143d
000000e0: f87b 7b33 3841 3998 cfda 503c f3a5 040f
000000f0: 9a59 9481 910c 7229 5cb7 18ac 0a0c 0380
00000100: de49 df31 7d7d 2c39 28c1 632d 960c a6b2
00000110: b45c 5a23 99b0 0798 bfb2 0096 e00b 0180
00000120: 3bda 5c97 3261 ee02 e37d 08a5 7a30 0000
00000130: cf48 0100 a8d9 2c3d 981e 6ebc 947d 892d
00000140: e3bc a43d 17db 0000 18da 45ac f04d 05ac
00000150: 7b15 383d a20f 0180 d5c4 9692 55ac 06b4
00000160: 4504 3619 090c c1b8 48b8 d934 4782 0080
00000170: e6aa d3b8 486d 0080 4a8d 0313 5af0 c882
00000180: 3935 0000 f4e2 cbb1 ab6a f48b eebe a2a7
00000190: 7f4b 923d b907 143d 66f8 923c e870 45bd
000001a0: 43c5 902a 1863 0080 4b3c b5a7 914c 0080
000001b0: 223b 8603 6b24 1bbd f2f0 42a5 0c43 0180
000001c0: afc7 d4a1 324b 9139 844b 94bd bef4 820f
000001d0: 89f8 a63b fcf0 6125 7d62 0700 c7af 34a1
000001e0: ccea 613d 9d80 0000 5c45 0100 b083 8aa8
000001f0: d805 0280 15cb c486 b3c8 0000 96bb ed33
00000200: 530f 0000 4145 0000 6f47 0880 7164 9237
00000210: f3d9 01b9 4e94 70b0 fa12 b42e e7d7 8832
00000220: 41d9 928a 4e1d 8fb6 6454 73ab bc67 5390
00000230: b58f 0080 bf26 ea2f 8e3d 8599 816b 0000
00000240: d746 0080 84f2 67bd c4fb 343a 4091 3835
00000250: c440 0100 6107 8490 43c2 22bc fff8 ecab
00000260: a142 e53b c81f 802d 7f0e f100 c819 cf32
00000270: 720d 1134 1ae5 93ab 8959 0100 cceb 0000
00000280: bb21 0080 3005 0080 bb01 14a7 9849 0d96
00000290: ad60 5106 9114 0000 785a a191 89ed bebb
000002a0: 5675 bbaa 46ab 9a2d 9f80 0000 c5a5 a933
000002b0: 2b33 181a 0178 d53b 1ea0 ab3a 8821 118b
000002c0: 3aec d5aa e3c0 9a95 09cc 0000 a8a5 5017
000002d0: 67f3 10a0 42cf 173e a019 053c 91b3 55bb
000002e0: 80ad d02e d935 0119 4f0a 3e3b 0e0d f30e
000002f0: 64f4 0000 8add 9927 b5a2 59a9 550e bc00
00000300: edb2 be2d 4e23 5639 da57 3731 f6a7 23b4
00000310: 088b bb9e a5e5 8917 f1b8 8200 b640 0000
00000320: 4db2 8496 5317 2080 79fa 32a9 2797 0000
00000330: 32c5 ba8d 6d8b 2e3c 2294 61bd aca8 4d80
00000340: daa9 fc3d be86 0000 9f10 e3b4 ff34 70ac
00000350: 98d9 cebb 648c 0080 b65f ca91 7f66 8826
00000360: f9cf 3385 d7bc 02b8 a5ec a433 ee12 0100
00000370: e008 8bb6 a242 0100 546d 0080 85ba c283
00000380: 4f3f 0000 7418 e4b1 b7a2 9407 6e98 aa2d
00000390: 5ecc 6f3c 2fb1 43bb 7d62 963b d789 6fbd
000003a0: 243a 13a9 5be5 0000 1532 d327 6e0e 0100
000003b0: b0cc b625 9d37 17bd c9fa 9b99 613f 0080
000003c0: 106f a91c fd93 83b9 5904 5bbd 75a1 49a0
000003d0: 2420 8b3b bf6d b8a1 5ba9 6295 cd3a 83a0
000003e0: 38a3 883a 9370 0180 d54f 0100 93e6 4e23
000003f0: 4da7 0080 ddbe 0000 5446 0180 7c86 ddb5
-3.8276e-41 -3.9022013e-28 1.001131e-39 -1.6373539e-05 -6.337279e-06 9.958571e-24 3.7713654e-10 -4.482163e-08
3.9579365e-33 -7.0351155e-07 -2.9694207e-12 -3.0697604e-28 4.0786e-41 -3.083194e-08 7.261733e-29 1.1021e-41
8.5911e-41 -0.04455703 0.00080164603 7.1989004e-10 -6.74e-42 -1.004946e-28 -0.0045070197 1.0935855e-12
0.027310934 2.9585503e-09 -8.7504075e-26 -1.1065877e-08 -1.7199093e-07 -4.6128475e-18 -1.6548e-41 6.4336e-41
4.4612e-41 1.06399e-40 1.667701e-39 8.52124e-40 1.5738245e-36 -2.7161e-41 4.241157e-29 0.010647628
1.565106e-13 -2.2734478e-10 1.5312e-41 1.6181612e-08 8.059355e-23 0.023818096 0.0014529446 2.984473e-32
-2.8121108e-12 3.333533e-25 6.7803e-41 -5.1559343e-21 1.351236e-17 0.10879833 0.028847514 0.03618305
5.855324e-08 -2.3943617e-24 0.0127474805 6.540063e-30 -5.4495186e-38 5.3745694e-14 -2.1702284e-12 -2.79825e-40
6.498552e-09 0.00016449946 1.2946345e-11 -1.9330667e-08 1.1837434e-17 -1.75375e-24 -1.039616e-25 -9.6095e-41
-7.136128e-25 3.5026744e-37 -1.1838772e-16 1.739e-41 1.17954e-40 0.04219976 -0.014533661 1.5630865e-11
0.0804384 7.8595e-41 -2.811645e-12 -1.89437e-12 0.04494236 -9.7443e-41 -9.514854e-28 -1.2542417e-07
9.410042e-24 -9.205199e-05 4.0553482e-07 -4.6735e-41 -0.00010093096 -3.9203e-41 1.6604185e-27 -2.9525314e-37
1.9093e-41 -5.933879e-09 -9.414588e-32 -4.517104e-15 0.07143306 0.036140177 0.017940711 -0.04820338
2.5716416e-13 -3.5548e-41 -5.030296e-15 -2.7467e-41 7.889388e-37 -0.037876528 -1.6908453e-16 -1.15887e-40
-1.4418535e-18 0.0002771258 -0.07240966 1.2913261e-29 0.0050955457 1.9597288e-16 6.7818e-40 -6.121901e-19
0.05515556 4.6138e-41 1.16717e-40 -1.5378188e-14 -1.85767e-40 -7.402541e-35 7.1997e-41 1.1070294e-07
5.497e-42 2.4844e-41 -7.6031e-40 1.7451328e-05 -0.00012383591 -8.7522245e-10 8.188823e-11 1.5930665e-08
-1.414101e-32 -4.2651436e-06 -8.644806e-13 -4.1692327e-29 -5.1552e-41 4.2591883e-10 -1.377674e-23 3.8565e-41
-2.5413e-41 -0.056627765 0.0006903971 6.875671e-07 1.15069e-40 -5.207619e-29 -0.009934011 -1.6837919e-12
0.006996468 1.4566029e-11 2.2137555e-38 2.4109696e-08 1.3509069e-07 -1.0508567e-12 1.23955e-40 8.4588e-41
-1.21e-41 -1.861e-42 -2.0540064e-15 -1.1413111e-25 3.9379557e-35 7.378e-42 -2.5457077e-28 -0.0058266562
-3.329929e-13 1.7583834e-11 4.614e-41 7.899829e-08 3.1474196e-23 0.0065145497 0.0013093983 -2.795121e-32
-3.8000316e-13 -6.2504426e-26 7.3194e-41 6.741751e-25 -1.227781e-19 0.14825156 0.008123785 -0.003260825
9.489565e-11 6.680018e-24 0.0028997844 5.9916696e-30 8.7671e-41 4.2706224e-15 -4.8324805e-14 1.7270215e-38
2.1679958e-11 0.00020421782 2.6679943e-09 -1.5241662e-07 -1.9856897e-20 8.911388e-25 1.2004959e-38 2.3214e-41
-2.1438274e-25 -2.947103e-39 -3.974119e-14 5.4223e-41 -1.1510608e-30 0.010653359 -0.05507291 -7.131841e-39
0.12337084 4.8336e-41 -4.2294138e-07 -3.413547e-12 -0.0063125603 -5.0363e-41 -3.1928967e-28 9.464677e-16
-8.454738e-36 -3.1170286e-05 7.6798905e-08 9.8626e-41 -4.143556e-06 1.15739e-40 -3.922e-41 -1.1445118e-36
2.2711e-41 -6.6384533e-09 2.23642e-34 1.9394455e-11 0.014636127 -0.0029860248 0.0045893774 -0.058481064
-3.2690986e-14 8.2277e-41 5.8618564e-15 9.7012e-41 3.171067e-16 -0.03691827 -1.6127916e-23 -2.2736e-41
1.1212191e-21 -0.00025096527 -0.053470943 -1.7078784e-19 0.004245775 -1.2497375e-18 -4.5773934e-26 -2.2231174e-19
0.001042462 -1.3222e-40 1.20474e-40 1.1216108e-17 -6.0016e-41 6.8469e-41 -1.17064e-40 -1.6504923e-06

fc2.bias f4 [128]
00000000: d205 fe3c 8303 603d d5c8 903c 0a71 803b
00000010: 6df6 a8bc bb6f 073e 5124 c53c bca2 ca3d
00000020: 494b 123e f08e 7f3d 473d 743d ef7d 093d
00000030: 2171 c83d d2de ba3c b650 83bb c7a4 d93d
00000040: e153 893d fe77 ae3b 1362 c43d 2e2f de3b
00000050: 4fb6 4d3d d9d5 6ebc c414 f13c c5b3 cb3b
00000060: e08a c53d 4efd 8b3c 37af f43b ec66 163e
00000070: f86f 943d 1692 dc3c b590 733d 28da 2f3c
00000080: 2291 013c b5bf 0a3d 29ea 2c3d c331 0f3e
00000090: 2e2b c23d 2805 0e3e 8941 303d 86dc ac3d
000000a0: 672e 4e3d 06f8 af3d 9edc 883d a4f6 ef3d
000000b0: dfc7 b7bc 5f06 073d 438e 4b3d 7ad6 de3c
000000c0: 543d 863b b3e9 263a e04c b53d a3b4 813d
000000d0: 8c69 903b fb72 ef3c a0c7 d13c 4ff9 f23c
000000e0: 90dd 463d 9c61 56bc b1fe 993c 99bf 703b
000000f0: edf0 833d 1755 b33d 3ddb 2d3d a59d 4ebc
00000100: edc7 b63d 7acc 6c3c 8ab9 c13d 7336 933d
00000110: f756 a03d 1388 903d 7885 a73d c86b 713d
00000120: f50b fdbb cf09 263d e252 5e3d 1715 5c3b
00000130: b29f 6cbb 030a d03d 6f5e 9f3d 5b13 1dbc
00000140: 2740 dd3d abe5 003e b4e7 1c3d d025 c13d
00000150: d11d 1b3b 1fa5 f03d 6420 7d3d 99e8 b43d
00000160: 860b 48bb e848 4a3d 5e11 713c 62f6 0e3d
00000170: 484a ddba 345d dc3d bada fd3c d80e aabc
00000180: 8068 9bbc fdc7 d03d 8ba3 f83c 656a 363d
00000190: bc18 2c3e 671a 5d3d 6117 953c 5457 a1bc
000001a0: 18cc 113d d282 dc3b 8810 393d da9c 873c
000001b0: 6da1 40bc f246 833d 44d9 023d 3962 8b3a
000001c0: b114 5e3c 7ec9 973c 749b d03d 89d0 b03d
000001d0: e84e 4a3d 45eb 283d b4fd e03d 0f26 a73d
000001e0: d8e1 eb3c 3639 f43d a6a4 543c 2cae 7b3d
000001f0: d1c4 103d 13e4 273d 1655 883d ca3d 833c
0.031008635 0.05469085 0.01767389 0.0039197253 -0.020625317 0.13226216 0.024065169 0.0989432
0.14286532 0.062392175 0.05962875 0.033567365 0.097872026 0.022811327 -0.004007424 0.10627132
0.06705452 0.005324363 0.09589019 0.0067805266 0.05022269 -0.014577352 0.029428847 0.0062164986
0.09645629 0.017088559 0.0074671763 0.14687699 0.07247919 0.026925128 0.059464175 0.010733165
0.0079081375 0.033874232 0.0422155 0.13983826 0.09480892 0.13869154 0.04303125 0.08440499
0.05033722 0.085922286 0.066827044 0.11716965 -0.022434173 0.03296506 0.04969622 0.02720188
0.0040966664 0.00063672214 0.08852553 0.06333282 0.0044071134 0.029229632 0.025607884 0.029659895
0.048551142 -0.013084795 0.018798204 0.0036735295 0.06442437 0.08756464 0.04244541 -0.012610828
0.089248516 0.014453048 0.09459217 0.0718812 0.07829087 0.07057204 0.08179754 0.05894068
-0.0077223727 0.040536698 0.054278262 0.0033581906 -0.0036105928 0.101581596 0.07781684 -0.009587134
0.10803252 0.12587611 0.038306907 0.0943104 0.0023668895 0.11750244 0.06179847 0.08833427
-0.0030524447 0.049385935 0.014713613 0.034902938 -0.00168831 0.107599646 0.030988086 -0.020759031
-0.018970728 0.10194395 0.03035142 0.04453506 0.1680631 0.053980257 0.018199624 -0.019694962
0.03559503 0.006729462 0.04518178 0.016554285 -0.011757237 0.06410016 0.031945482 0.0010634131
0.013554738 0.018528696 0.101859 0.08633525 0.049391657 0.041239996 0.1098589 0.08161556
0.028794214 0.119249746 0.012978708 0.0614454 0.03534395 0.040988993 0.06656854 0.016020674

fc3.weight f4 [16, 128]
00000000: 3061 933c 8970 52bd 635b 053e 4844 46bd
00000010: cf98 c53d 999f 003e ff89 283c 3a4c 6e3c
00000020: 3ffc 4b3d 5519 2f3e f856 18bd 7969 243e
00000030: f5f1 16bd 79fc 62bd d136 3b3e 68cb 92bd
00000040: c04b 01bd a340 303e c485 9dbd 94b8 853d
00000050: 2110 b43d 1433 113e 3028 2c3e 9771 533d
00000060: 1125 8bbd 8e35 17bd eaa9 c9bd 2c0b 7fbd
00000070: ea48 70bd da6a a5bd 923b 523c a472 233e
00000080: 12fc 593e b163 433e 2487 cf3d 8762 f93d
00000090: ac25 5d3e 26ce 873d da1d c93a d222 febb
000000a0: e443 653d bfc4 d1bd ee49 aebc c6a7 1dbd
000000b0: fe9b 123d e87e b13d 9470 a1bb 0dbb 453e
000000c0: 54d3 3c3e 5496 083e da6e 063d 2326 1ebc
000000d0: 407f 7d3d 059c ffbc da00 1a3c 578a 123e
000000e0: 25b2 20bd c802 513e 2a76 2fbd c3b8 703d
000000f0: 65cc a23b 8709 7fbd 85ca 96bd 92f6 2b3d
00000100: 4d36 a4bd aed0 583e 9690 fb3d c723 813d
00000110: 3844 3c3e 8290 7fbd d505 8cbd 9937 99bd
00000120: ac8b 143e 4b11 c03d 5f80 803c 63ab b0bd
00000130: cb6b a03d 7049 04bd 1479 00bc fd05 023e
00000140: 0483 62bd 24dc bdbd 84c9 123e be9a 5cbd
00000150: 1035 3c3e 61f4 8d3d 2128 083e f6c2 7a3c
00000160: fd8f c33d 6069 bdbc bfc7 f23c 057e 023e
00000170: 1261 493d 9df3 c6bd 76df 053e a086 1bbd
00000180: 6b37 983d 3cdf ecbc b2bb 113e 9506 1b3e
00000190: 3360 033d 8684 e23d 7a9d ca3d c96c b73d
000001a0: c413 51bd 6309 0a3e 3db2 923d 6c0e 523e
000001b0: e903 b23c 932e 043e a755 783e cc93 f93b
000001c0: b376 553e f988 d13d cced 7abd f8e8 b63d
000001d0: 6052 083e 8205 303e a636 0e3d 8f2a 583c
000001e0: 390c 433e 25a4 3f3e 25c6 833d e8ac 2c3d
000001f0: 6c89 723e 0791 b43d 7071 443d d89a 9639
00000200: 12e2 40bd 0835 45bd d5e0 a1bd 70d2 81bd
00000210: c034 f5bc bb65 593d 2091 bdbd f8cb c23d
00000220: 6fc1 cf3d afc7 bbbd 332f b83d 1ba2 33bd
00000230: 13a8 fd3d 69c9 d23b b325 acbd 75cf ee3d
00000240: f724 dd3d 85b8 f4bd ffcd f33d 1149 0bbd
00000250: 44aa 233d 2df6 9bbd 6ebb 72bd 1dfb 93bd
00000260: 5c1c e13d 41e2 67bd 7b4a 3ebd 40f1 273e
00000270: 6833 9c3d e0c6 7dbd efb6 4c3d cf82 f6bc
00000280: 4b6b c5bd e963 d6bc dc95 81bd 91cd d43d
00000290: c835 88bb 7b64 d03d 4a7b ca3c d050 bb3d
000002a0: 9d20 2cbd 4b9d 703d 2034 0dbd 775f c13d
000002b0: 8338 3fbd 90c7 a9bd 7684 d83d 71f7 73bd
000002c0: 6515 e5bd 1bb3 bcbd 7201 bd3d bbaf 72bd
000002d0: 9f82 22bd 7239 fc3c 6a74 17bd 34d1 91bd
000002e0: 930a 0a3d 99bc aabd 1dce c6bd afc8 18bd
000002f0: e931 a63d aaa3 bd3d 8e94 153d 626c 38bd
00000300: 4d6c e33d 2d37 b8bd 3543 9bbc ee37 1dbd
00000310: 612a 8f3d 9898 e03d b97b b63d 0656 763d
00000320: cbef 72bd a577 94bd e59b cabd 5bc9 70bd
00000330: 42e7 4bbd 474d 1c3e 8e12 463c 075b c4bd
00000340: 9095 1e3e edea 1d3e e24f 9dbd 82f5 983d
00000350: 708b ebbd c86a b73d 1cef 8c3d 46e5 edbc
00000360: cac4 12bd c67b e53b b500 2dbd dfc2 2dbd
00000370: 55d6 8cbc db5f b13d 2024 59bd ae09 06bd
00000380: 4d7c 8ebd 6afd 103e 4c80 c7bd 5f51 49bd
00000390: 26b3 093e 0887 97bd 1f19 b83c 94e4 83bd
000003a0: d8e2 a9bc 226e 8bbd d620 3b3d 1292 e2bd
000003b0: d3cb d3bc 150a 90bd bede c8bd 10b3 7abd
000003c0: e1fc c9bd c217 49bc bdce 1b3e 5d2c 11bd
000003d0: 80db 9ebd 2421 3dbd d087 113c 25a7 00be
000003e0: 6f59 88bd 22a8 af3d fa6c 76bd 0aa8 8abd
000003f0: 12fd aebd 5ae8 80bc c8cc 3cbd e325 fd3c
0.017990679 -0.051376853 0.13023143 -0.04840496 0.096482866 0.12560882 0.010286807 0.014544541
0.049801107 0.17099507 -0.037192315 0.1605586 -0.036851842 -0.055416558 0.1828263 -0.07167703
-0.03156638 0.17212157 -0.076915294 0.06529346 0.08792139 0.14179641 0.16812205 0.051622
-0.06794179 -0.036916308 -0.09846862 -0.062266514 -0.058663286 -0.08077021 0.0128315855 0.159617
0.21287563 0.19080998 0.10133198 0.12176996 0.21596402 0.066311166 0.001534398 -0.0077556157
0.05597295 -0.102426045 -0.021275487 -0.03849008 0.035793297 0.086667836 -0.0049267504 0.19309635
0.1843999 0.13338596 0.03282056 -0.009652647 0.061888933 -0.031202326 0.009399617 0.14310585
-0.039232392 0.20411217 -0.0428373 0.058769953 0.0049682134 -0.062264945 -0.07362846 0.041983195
-0.080181696 0.21173355 0.12283437 0.06305652 0.18385398 -0.062393673 -0.0683705 -0.074813075
0.14506406 0.09378298 0.015686212 -0.086264394 0.0783306 -0.032296598 -0.007841367 0.12697597
-0.055300727 -0.09270504 0.14334685 -0.05385851 0.18379617 0.06931377 0.13296558 0.015305271
0.09548948 -0.023121536 0.029636262 0.12743385 0.04916484 -0.09714434 0.13073525 -0.037970185
0.07432445 -0.02891504 0.14231756 0.1513923 0.032074165 0.11060433 0.098933175 0.08956296
-0.05104424 0.13480143 0.071629025 0.20513314 0.02173038 0.12908392 0.24251424 0.0076164957
0.20846061 0.102312036 -0.061261937 0.08931154 0.13312674 0.17189601 0.034720086 0.0131937405
0.19047631 0.1871496 0.064342774 0.042157084 0.23685235 0.08816724 0.047959745 0.00028725597
-0.047090597 -0.048146278 -0.079042114 -0.06338966 -0.02993238 0.053075533 -0.09256196 0.0951156
0.101443164 -0.09168946 0.089933775 -0.043855768 0.12385573 0.0064327014 -0.08405628 0.11660663
0.10798066 -0.11949257 0.11904525 -0.03400523 0.0399573 -0.07615314 -0.059260778 -0.072256304
0.10991737 -0.056612257 -0.04645775 0.16400623 0.076269925 -0.06195724 0.049979147 -0.030091671
-0.09639605 -0.026170688 -0.063274115 0.10390771 -0.004156802 0.10175415 0.024716992 0.09146273
-0.04202329 0.058743756 -0.03447354 0.094420366 -0.046684753 -0.08290017 0.1057214 -0.05956215
-0.11185721 -0.09213849 0.09228791 -0.05924962 -0.03967535 0.03078911 -0.036976255 -0.071199805
0.03370149 -0.083367534 -0.09707282 -0.03730076 0.08114988 0.09259732 0.036518626 -0.045025237
0.11104641 -0.08994899 -0.018952945 -0.038383417 0.06990505 0.10966605 0.08910317 0.060140632
-0.059310716 -0.07249383 -0.09893016 -0.058785778 -0.04978109 0.15263854 0.012089385 -0.095876746
0.15486741 0.15421648 -0.07681252 0.07468702 -0.11501205 0.08955914 0.06881544 -0.02903999
-0.035832204 0.0070032803 -0.042237002 -0.04242217 -0.017192045 0.08660861 -0.053012967 -0.032724075
-0.06957302 0.1415917 -0.097412676 -0.049149867 0.13447246 -0.07398802 0.022472916 -0.06440082
-0.02073805 -0.068081155 0.04568561 -0.11063017 -0.025854027 -0.07033173 -0.0980811 -0.061205924
-0.09862686 -0.012273731 0.15215583 -0.0354427 -0.0775671 -0.046174183 0.008882478 -0.1256376
-0.06657683 0.08576991 -0.060162522 -0.06770332 -0.08544363 -0.015735794 -0.046093732 0.030901855

fc3.bias f4 [16]
00000000: 6c84 873e 1303 0a3f 66e2 67bd 7c75 503e
00000010: d057 8fbc 46de c1bd 3b7e 3bbc 51a6 ef3e
00000020: b279 acbd 5b68 df3d dca3 14be 2e8a 94bd
00000030: faa2 40be 2860 b4be 5183 d8be 3eb1 d0be
0.26468217 0.5391094 -0.056612395 0.20357317 -0.017497927 -0.094662234 -0.01144367 0.46806577
-0.08421649 0.10908576 -0.14515632 -0.07252918 -0.1881217 -0.3522961 -0.42287686 -0.40760225
