MBTI/ANN/Model/TFJP/lr=0.0001/best_model.pth (torch, 34735 bytes, 6 tensors)

fc1.weight f4 [64, 57]
00000000: c719 6e3c 806c 41bc bc92 9f3c bcd5 fdbc
00000010: dea9 d6bd 4731 babd 74c8 033d ee82 243d
00000020: 0ee6 babd 3289 d0bc a08e 823d b828 c3bb
00000030: eadd 3b3d 1c87 7ebd f961 823d 17fa 053d
00000040: 680a e4bc 7c95 4f3d fdcd 64bb 3e2c acbd
00000050: 9dde d2bd a32b 753d a443 96bd 743b 103c
00000060: f50b a3bd 04d0 d23d adb1 20bd 09ad a73d
00000070: 8d0c 823c 69df b7bd a7dc b63c bf75 de3d
00000080: bbce 4cbc 37a7 813c 9c88 0bbc 120e f33b
00000090: e93b 973c 608e 0f3d 5617 34bd 5565 533d
000000a0: ec5a 3d3c f253 b43d fa00 65bb c0c7 8ebd
000000b0: 91f9 813b 65ba 27bc 8e9e 17bd d7bc 65bc
000000c0: 3521 833d 0c28 37bd 9e3c 29bb 1c5e c9bb
000000d0: dfc1 76b9 e8b2 0480 cd85 0200 ba8e 0200
000000e0: c567 0200 0c38 c83c 8ccb cdbd 6959 22bd
000000f0: 4070 9abd 7a7b 10bd b72e d93c e72d cd3b
00000100: 4a74 47bd a9c1 f83b 1177 6dbd e879 a63c
00000110: e1a0 c03c b17d 30bd 5e97 3abd ba30 27bd
00000120: f86b 5f3d 843c 1d3a 5890 923c 7bfd 2e3d
00000130: 8b19 0f3c fd81 29bb 4c0e 783d 3bdc 42bd
00000140: b60e 833d 89ef c23d 12f0 65bd d8a9 773d
00000150: 677d c03c 9df6 b13c 2356 08bd 9317 d2bd
00000160: 783a b63c 609d 84bb 65e1 043d fa1a 19bd
00000170: 4ff3 fd3c 9d6c 9cbb 523d efbc c078 1cbd
00000180: bf3c a23a 4ffb 0f3d 9603 46bd 28d0 233b
00000190: 9b47 da3c 21b3 3fbd 9aa7 f9ba efcf 483c
000001a0: ffe6 d33c 7c5d 963c 84b0 95bb 989e d2ba
000001b0: 7067 40bb f5e6 a3b7 3878 8cb7 43d8 0300
000001c0: 43d8 0300 43d8 0300 b0d3 303b 542d 34bc
000001d0: e951 003d 0366 f238 18e0 1bbd 8eac 69bd
000001e0: 09c9 28bc dd16 16bc 46af 37bd 4de7 44bd
000001f0: c187 a23c 8036 ab3d fcd8 a73b 549e b1bb
00000200: d8c7 c13c 8f9d 673d 6a83 49bc f2d1 003d
00000210: 300b f43a dbf3 77bd 2a63 bfbc 2e67 11bc
00000220: 0643 a5bd f505 453d 9db7 42bd 175f 04bd
00000230: 5df9 0fbd 3e92 c03b 2f5f cebc b517 96bc
00000240: 4d69 f2bc 715a a23d 290c 653d 5a3e c0bc
00000250: 8fc4 4fbd 982f a03d 8d15 e0bc 5944 a93d
00000260: 3f0f 9fbd 6698 553c 7f0a b63c 79ac aa3d
00000270: c04e 853c 777a aabd fc47 c93c c424 a7bc
00000280: 8284 a5bc a6ee ee3c d6f9 653b 00d7 cfbc
00000290: 5426 073a 5a03 6eb9 c384 9bba 211d 0480
000002a0: 30b0 f63a 30b0 f63a 1d5f 0000 f90a 003d
000002b0: 68cf 733c fec8 44bd 9943 873b 4033 2cbd
000002c0: 3cfa 48bc 9844 28bd 1e19 d9bd 45fe 4c3d
000002d0: a3d3 58bc b15a 933b 988d 813d 75e4 cc3d
000002e0: 4878 883c 8783 023d f155 163d 332a 11bc
000002f0: d672 a5bd 8d49 61bd 8159 b8bd 9b88 7aba
00000300: e198 e8bb 2410 083d 34c6 ccbc 2ddc 84bd
00000310: 5ab1 17bd 3ac9 cebc b291 49bd b9b7 c9bb
00000320: 8ded 313d 6baf d83d 1564 ce3c 3463 6b3d
00000330: d55e 21bc e4e2 3c3c 9863 febc 9396 d1bd
00000340: 8ac1 813c 900d c3bb 93d9 073c dd18 30bd
00000350: e082 e23d 2584 9ebc ad7c 22bc a82e 5e3d
00000360: 0668 3ebd 7dd8 a5bc 01d4 df3c 0e90 76bc
00000370: 037d debb a98a 81b9 c0d3 90bb 1308 6abb
00000380: dfc4 2cba 0e1c 0000 9ede 0000 240b 0780
00000390: 7217 053d cf98 aa3d bc0c 15bb abc2 953d
000003a0: 22e4 a53d 4509 543d 4cd6 97bc 8f5f 8b3d
000003b0: 7c07 4a3d 4d98 5b3d 5792 e83d 1e5e 6d3d
000003c0: 1b74 a03d 7851 be3d 53be bbbc 0ce5 633d
000003d0: 8bf8 a5bc 9a6e 763d 0f93 b43b 6901 e13c
000003e0: 67e4 14bc c349 953d 7d29 fb3c e2ca 1a3d
000003f0: 5588 e83c f511 cd3c b141 00bd df1f 193d
0.014532513 -0.011805654 0.019479148 -0.030985706 -0.10481618 -0.0909143 0.03217359 0.040163927
-0.09125911 -0.025456045 0.0637486 -0.005955782 0.04586593 -0.06214057 0.06366343 0.032709207
-0.027836993 0.05067967 -0.0034912818 -0.08406876 -0.10296366 0.05985607 -0.0733712 0.008803237
-0.07961265 0.10293582 -0.039231945 0.08187301 0.015875125 -0.08978159 0.022322012 0.10862302
-0.01250046 0.015826805 -0.008516457 0.007417449 0.018461185 0.03504789 -0.043967567 0.05161031
0.011557322 0.08805074 -0.003494321 -0.06971693 0.003966518 -0.010237311 -0.037016444 -0.014022074
0.06402818 -0.044715926 -0.0025823484 -0.006145252 -0.00023532611 -4.31521e-40 2.3167e-40 2.34872e-40
2.20896e-40 0.024440788 -0.10048589 -0.03963605 -0.07540941 -0.035274006 0.026511533 0.0062615755
-0.048694886 0.0075914455 -0.05797488 0.020321801 0.023514213 -0.04308862 -0.04555451 -0.040817954
0.054546326 0.0005998092 0.017891094 0.042722207 0.008734117 -0.0025864833 0.06056051 -0.04757331
0.0639929 0.09518344 -0.056137152 0.06046471 0.023497296 0.02172404 -0.03328527 -0.10258403
0.022244677 -0.004047081 0.032441515 -0.037379242 0.030999808 -0.00477369 -0.029204044 -0.038201094
0.0012377723 0.035151776 -0.048343264 0.0024995897 0.026645472 -0.04680169 -0.0019047142 0.0122566065
0.025866983 0.018355124 -0.0045681614 -0.0016068993 -0.0029358529 -1.9538662e-05 -1.6745282e-05 3.53087e-40
3.53087e-40 3.53087e-40 0.0026981644 -0.010997135 0.031328116 0.000115584604 -0.03805551 -0.057049327
-0.010301837 -0.0091607245 -0.04484489 -0.048072148 0.019840123 0.083600044 0.005122302 -0.0054204855
0.023654863 0.056546744 -0.012299398 0.03145022 0.0018619057 -0.060535293 -0.023362715 -0.008874698
-0.08069424 0.048101384 -0.04753839 -0.032317247 -0.03514992 0.0058768084 -0.025191871 -0.018321851
-0.029591227 0.079274066 0.0559198 -0.023467232 -0.050724562 0.07821578 -0.027354026 0.082649894
-0.0776658 0.013036823 0.022221802 0.08333678 0.016272902 -0.083241396 0.024570458 -0.020403273
-0.020204786 0.02916653 0.003509154 -0.025371075 0.00051555526 -0.00022698697 -0.0011865128 -3.77791e-40
0.0018820819 0.0018820819 3.412e-41 0.031260464 0.0148809925 -0.048043244 0.0041279313 -0.042041063
-0.012266692 -0.04108104 -0.10600494 0.050047178 -0.013234052 0.0044968952 0.06325835 0.10004512
0.016658917 0.031863715 0.036703054 -0.008860159 -0.08078544 -0.055001784 -0.090014465 -0.0009557099
-0.0070983027 0.033218518 -0.024996854 -0.06487308 -0.03703437 -0.025242437 -0.04921121 -0.0061559347
0.043439437 0.10580333 0.025194207 0.057467654 -0.00984927 0.011528704 -0.03105335 -0.10233798
0.015839357 -0.0059525445 0.00829162 -0.04299246 0.11060119 -0.01935012 -0.00991742 0.054243714
-0.046485923 -0.020244831 0.027322771 -0.015048994 -0.006789805 -0.00024708107 -0.004419774 -0.003571038
-0.00065906154 1.0064e-41 7.986e-41 -6.46845e-40 0.032493062 0.08329927 -0.0022743186 0.073125206
0.081001535 0.051766653 -0.018534802 0.06805336 0.049323544 0.053612042 0.11356037 0.057951085
0.07834645 0.09292883 -0.022917902 0.055638358 -0.020260116 0.06016407 0.005510695 0.027466493
-0.0090876585 0.072894596 0.030659432 0.03779114 0.02838532 0.025032977 -0.03131265 0.03738391

fc1.bias f4 [64]
00000000: 1c59 253e dea5 d03d 5f7e 9d3d 5f59 0f3e
00000010: 9782 92be ef50 bd3d 0fe8 6dbe 9220 053e
00000020: d0b3 023e 2d86 193e d71a 063e 9e81 d03d
00000030: bb07 63ba 6eee 0680 8813 203e ab2a adbe
00000040: a1f7 cc3d b945 023e bd55 873d 9f0f 3b3e
00000050: a646 c73d e25a d73d ce9a 3e3e 2ad5 b83d
00000060: c385 ff3d 9384 ba3d 9096 d63d ba6b 9c3d
00000070: 958b 2b3e 9a56 f33d 95ff 1b31 b2ef cb3d
00000080: f19b 283e 61d9 0c3e 5048 bd3d d438 f03d
00000090: 192f 73b9 dc82 af3d 5a4a 2f3e dd44 ee3d
000000a0: e733 0a3e c4cd 0bbd 26e3 399f d9a7 85be
000000b0: 734b c33d 33f2 29be 6c50 bf3d 4622 42be
000000c0: cbbd 61b0 5cf8 af3d 7c34 80b9 c790 0c3e
000000d0: 2bcd 9f3d 1739 f93d 0cde 62be 9479 a83d
000000e0: 0280 51bb cd1c 3a3e 0d23 093e 09a6 f53d
000000f0: 021d 0080 3254 fc3d b2ef 903d f4db 91bc
0.16147274 0.10187887 0.07690119 0.13998936 -0.28615257 0.092439525 -0.23233055 0.13000706
0.12763906 0.1499259 0.13096176 0.101809725 -0.0008660515 -6.36545e-40 0.1563245 -0.33821616
0.10008169 0.1272191 0.0660815 0.18267678 0.09730272 0.105153814 0.18613741 0.09025033
0.12476685 0.09107318 0.10477936 0.07637735 0.16752465 0.11881752 2.270075e-09 0.09957828
0.16465737 0.13754798 0.09242308 0.11729589 -0.00023191831 0.08569881 0.17118207 0.116342284
0.13496362 -0.03413178 -3.9363167e-20 -0.2610462 0.09535875 -0.16596298 0.09341511 -0.18958387
-8.2124235e-10 0.08592293 -0.00024453166 0.13727103 0.078028046 0.12169092 -0.22155017 0.08226314
-0.0031967168 0.18175049 0.13392277 0.11994559 -1.0406e-41 0.123207465 0.07076968 -0.017805077

fc2.weight f4 [64, 64]
00000000: 35b5 823d f087 303d c1ea 413d c724 5a3d
00000010: c87c 8dbc 4854 f53c 8b8a 92bb aa6f 2c3d
00000020: ff16 143d 076b 113d 0284 0b3d 7820 553d
00000030: b205 0b3a c05a 0580 39f7 d23c 94fe 29bd
00000040: 7203 b13c 9d1d 763d e32b 573c 594c 5c3d
00000050: 2563 0a3d bdf3 d03c dd30 313d ba24 1e3d
00000060: 57f4 fd3c d378 cb3c 64cf 103d a9dd 493d
00000070: 2f23 683d af7b f73c db6e ce33 22ea 103d
00000080: c0e9 573d fe11 753d cb75 103d dab3 443d
00000090: 9cfc 3f39 722a 933c d400 2f3d 55c0 1c3d
000000a0: 5c0a 633d de90 8bbc 3c0b 0100 027c 95bd
000000b0: 7670 e73c 2c73 2a3c 1e38 ba3c 771b 533c
000000c0: e11d d2b8 109e f53c ed9a 1b3b b7f9 303d
000000d0: 9536 0f3d 936e 393d 0c3e f2bb b9fb 163d
000000e0: c487 2cbc e401 3d3d 9e37 1f3d fa72 053d
000000f0: 0d9e eda2 eec6 333d 0a65 453d cac0 72ba
00000100: 0905 2d3d 1883 d43c 5066 f23c 365b 1b3d
00000110: 0b7f bfbc 5af8 aa3c ca8f 8ebc de74 113d
00000120: f664 183d ef5f 2d3d 5da4 013d 4f6e 183d
00000130: 39bb d6b8 b3cb 0680 612d 413d 2dc9 a6bc
00000140: 46c7 c43c 7006 443d 1f94 093c 1a37 4b3d
00000150: bf36 263d f325 ee3c b0b0 c73c bcae f03c
00000160: 8e65 913c e3dc d83c 883c e13c 721b f03c
00000170: 4fe5 543d b539 f93c a701 abb0 0dcf 0e3d
00000180: 383a e73c 93e4 213d 999a c73c 029d 093d
00000190: 9783 8c36 72c0 563c 54df 5d3c e859 ee3c
000001a0: 102e 633d 1570 efbc c1c2 dc1a 61c3 18bd
000001b0: 0e75 903c 1e2b 52bc 459a c13c 0a7f c2bc
000001c0: 8499 a5b8 92ac 043d 3eb2 1c3c 7f3c 263d
000001d0: 8dda 0e3d b589 053d 80f0 723c 40bc 0a3d
000001e0: e0cf 99bc 8fa1 1e3d 831f f73c 90ab 333d
000001f0: 6d4a 0300 a1c5 2c3d 55fc 013d 4048 1fbc
00000200: 6911 813d 7e75 053d 1a9e 463d 6e8c 7e3d
00000210: 0e8b 83bc ba9f 153d 6db2 b63c 46ef 283d
00000220: 95fd 433d 2057 6b3d f7ec bf3c c63c 283d
00000230: ac38 57b9 ed36 0400 5e5d 743d a99f 87bd
00000240: c9a7 083d 1a4c 3f3d 56f2 3a3c bf44 793d
00000250: f52f 0b3d d885 1c3d 6501 213d 97db 273d
00000260: e08e 843c 85b8 163d 52b4 b43c de2c 163d
00000270: dff8 583d 1877 123d 63e8 2534 b8f4 533d
00000280: 5f5a 3d3d e766 533d e98f 373d 418e 363d
00000290: 5847 9c3a 8ced 613c f0bc df3c 3c4a 043d
000002a0: ac95 863d 9f5a 2cbd ec60 0000 c9a1 4fbc
000002b0: 442f a13c 0fcf 56bc 35cd aa3c 2eb8 00bd
000002c0: 2fe0 07ba b140 0e3d 7fdc c13b 9492 503d
000002d0: 92bd 0a3d fc61 373d f01e bcbc f6e1 163d
000002e0: 2701 acbc a09e 2c3d 26b2 fa3c 02c8 423d
000002f0: d78f b11b 652e 483d e241 4d3d c72a 5bbc
00000300: 79f5 24bd 1932 b5bc 7da1 ebbc e82f f5bc
00000310: cfbd 3a3d 97d5 0bbd dce1 df3c cf8a 11bd
00000320: d412 f6bc 9478 17bd 8ece 83bc c68a 34bc
00000330: e20c 9739 7556 0080 b8b7 09bd 8624 293d
00000340: c575 6dbc e6f0 c9bc de9a e8bb 6e94 0bbd
00000350: 5487 6abc f6f3 cbbc a163 5bbc 679e d8bc
00000360: aef3 a7bc 0b5a d1bc bbb1 a1bc 46e6 d0bc
00000370: 328e eebc 2013 fdbc d19b 8130 6b0c 05bd
00000380: b707 2dbd 7302 e5bc 0fc5 26bd 7c4b 21bd
00000390: 2f90 743a c542 8cbc b31d 0ebd 09d4 5fbc
000003a0: 177c 13bd 1f02 1a3d 48b7 3296 bddc cd3c
000003b0: fc96 a5bc 5876 033d e525 9bbc 3be0 e23c
000003c0: 5995 8bb8 11dd dabc fb72 963b a455 dcbc
000003d0: 3208 90bc 85e7 03bd 2080 323d e46f 00bd
000003e0: 8350 af3c b485 2cbd a43b 8ebc e26c bebc
000003f0: a23f 6726 da9b 1cbd e403 f1bc 5b68 813c
0.06382219 0.04309839 0.04734302 0.05325773 -0.017271414 0.029947415 -0.004472082 0.04209868
0.036154743 0.03550246 0.03406144 0.052032918 0.0005303278 -4.91732e-40 0.02575265 -0.04150255
0.021608088 0.060086835 0.013133022 0.05378375 0.033785958 0.025506848 0.04325949 0.038609244
0.0310003 0.024837887 0.035354033 0.049283657 0.05667418 0.030210344 9.612787e-08 0.035379536
0.052713156 0.05983161 0.035268586 0.048023082 0.00018309284 0.017964575 0.0427254 0.03826936
0.0554298 -0.017036851 9.5866e-41 -0.07299043 0.028251868 0.010403436 0.022731837 0.012884966
-0.00010019146 0.029982597 0.0023743466 0.043206897 0.034964163 0.045271467 -0.0073926505 0.036861155
-0.010530416 0.04614438 0.0388714 0.032580353 -6.440632e-18 0.043890886 0.04819206 -0.0009260295
0.04224113 0.025941417 0.029589802 0.037928782 -0.023376008 0.020870376 -0.017402548 0.035511844
0.03720566 0.042327818 0.03165089 0.037214573 -0.00010239188 -6.24086e-40 0.047162417 -0.0203596
0.024020802 0.0478577 0.008397131 0.049613096 0.040579554 0.02907083 0.024376243 0.029380195
0.01774862 0.026472514 0.027494684 0.029309962 0.0519765 0.030423025 -1.2442357e-09 0.034865428
0.028226003 0.039524626 0.02436571 0.033597 4.187644e-06 0.013107406 0.013542015 0.029095605
0.05546385 -0.02922825 9.130451e-23 -0.037295703 0.017633941 -0.012827663 0.023633132 -0.023742218
-7.8964076e-05 0.03239114 0.009563981 0.040585037 0.034876395 0.03260203 0.0148278475 0.033870935
-0.01877588 0.038728293 0.030166393 0.043864787 3.02205e-40 0.04218066 0.031734783 -0.009721816
0.06302149 0.032582752 0.04849062 0.062145643 -0.016057517 0.03652928 0.022301877 0.041243814
0.047849257 0.057456136 0.023428423 0.041073583 -0.0002052511 3.87046e-40 0.059659354 -0.0662225
0.033363137 0.046703435 0.011410316 0.060856577 0.033981282 0.03821358 0.03930797 0.0409809
0.01618141 0.036797065 0.02205864 0.036663882 0.052971717 0.035758108 1.5451364e-07 0.051747054
0.046228763 0.051611807 0.044814978 0.044569258 0.0011923118 0.013789546 0.027311772 0.032297358
0.065715164 -0.04207861 3.4769e-41 -0.01267285 0.019675858 -0.01311089 0.020849803 -0.031425647
-0.0005183247 0.034729663 0.0059161778 0.050921038 0.033872195 0.04477118 -0.02296397 0.036836587
-0.020996643 0.042143464 0.030602526 0.047554024 2.9375148e-22 0.04887237 0.05011166 -0.013376898
-0.040273163 -0.022118615 -0.028763527 -0.02993007 0.04559117 -0.034139242 0.027329378 -0.03553277
-0.030038275 -0.036980227 -0.016089704 -0.011019414 0.00028810563 -3.1015e-41 -0.033622473 0.041294597
-0.0144934105 -0.024651002 -0.0070985397 -0.0340771 -0.014314491 -0.024896603 -0.013390453 -0.02644272
-0.020501938 -0.025555631 -0.019738069 -0.025500428 -0.029120538 -0.030892909 9.430271e-10 -0.032482546
-0.042243686 -0.02795527 -0.040715273 -0.039378628 0.00093293464 -0.017121682 -0.034696292 -0.013661393
-0.036007013 0.03759968 -1.4436559e-25 0.02512967 -0.020213597 0.032095283 -0.018938968 0.027694812
-6.655855e-05 -0.02671674 0.0045913435 -0.026896305 -0.017582033 -0.032203216 0.04357922 -0.031356707
0.021400696 -0.042119697 -0.017362423 -0.023245279 8.0230463e-16 -0.03823457 -0.0294208 0.01579683

fc2.bias f4 [64]
00000000: f3ed df3d e54a dd3d 3a0f 113e 7fc0 81bd
00000010: 2e10 b93d 90f2 05be 6d86 e0bd 1935 13be
00000020: b3ee cdbc 91f3 bdbd f1b3 083e f041 163e
00000030: 78ca a33d 8f76 c73d 5699 08be 7893 cbbd
00000040: 5b19 dcbd ff8a dc3d b135 00be 1deb 923c
00000050: 524d ebbd df4d 053e 9ec5 41be 4be8 0d3e
00000060: 72b1 ea3d 6b5d fb3d 37eb 09be 29ee 5ebd
00000070: 468a 7dbd b674 fe3d 9be0 ec3d 7a51 263e
00000080: 4fa3 8bbd b27a 88bc a9e3 a7bd c07d 28be
00000090: d5ec 1b3e 1111 f83d ea42 c13d cee9 efbd
000000a0: b785 283e f975 04be 3f38 223e 5191 0ebe
000000b0: c82f bb3d 381d 07be eb50 2ebe 8cbc d0bd
000000c0: a026 63bd f94f a63d 8033 cf9a 8caa d6bd
000000d0: 7219 13be f627 1dbc 9d06 1aa3 7bde 303e
000000e0: 4c1b 253e cb4a 323e b291 19be 6052 2c3e
000000f0: 1df5 0c3e e236 edbd 49a2 21bd d7e2 19be
0.10934057 0.108053006 0.14165965 -0.06335544 0.09036289 -0.13080812 -0.1096314 -0.14375724
-0.025138235 -0.09274972 0.13349892 0.1467359 0.07997602 0.0973941 -0.13339743 -0.09940237
-0.10747024 0.10768699 -0.12520482 0.017934376 -0.11489357 0.13017987 -0.18923041 0.13858144
0.11459626 0.122736774 -0.13468634 -0.054426346 -0.061899446 0.124246046 0.115662776 0.16242018
-0.06818258 -0.016660068 -0.081977196 -0.1645422 0.15227063 0.1211263 0.09436591 -0.117145166
0.16457258 -0.12935628 0.15841769 -0.13922621 0.09139973 -0.1319474 -0.17023055 -0.101922125
-0.055456758 0.08120722 -8.5696396e-23 -0.10481748 -0.14365175 -0.009592047 -8.349757e-18 0.1727237
0.16123694 0.17411344 -0.14996985 0.16828299 0.13765378 -0.11582734 -0.039461408 -0.15027939

fc3.weight f4 [4, 64]
00000000: 09f1 173e fed6 b53d 7cd8 013e 4fac eabd
00000010: fd7d e43c b852 3abe b127 44be 1239 0dbe
00000020: aa41 4abd b8c0 20be 533a 043e f112 073e
00000030: c12f ca3c d09e be3d de01 1dbe f069 39be
00000040: 9da5 00be 1fe6 c23d 046b 1ebe 53fd 34bd
00000050: 8b2b 29be 929a cf3d 2b9b 5fbe 5c74 e73d
00000060: d141 0b3e e68c f33d d383 35be 28d7 9cbd
00000070: 6f96 24be 53ce f73d 53b4 ba3d 90b1 3f3e
00000080: 92ba bfbd 49ac e0bd 0697 2fbe f109 37be
00000090: 99e2 283e 974c ed3d 2542 d33d 6e2b 43be
000000a0: 2159 173e 27d3 21be 1a09 2a3e 85e6 2fbe
000000b0: 0eb7 d13d 6e10 54be 06f6 20be a5fe 34be
000000c0: deeb 12be 56d0 a63d 7c5c 1ea1 17e6 18be
000000d0: ddec 4ebe 3e65 adbd 4b75 03b2 caf5 033e
000000e0: 2cbd 183e 04d4 1a3e 22ad 50be 46ef 193e
000000f0: 78e2 f13d a6b4 2bbe 221f 13be 0f09 3ebe
00000100: 36a2 bd3d 66da eb3d 776a 073e b417 b0bd
00000110: 50ef d03d 0409 1cbe b494 abbd f2fb 29be
00000120: d53f 02bd 7c04 b3bd ce1d ec3d 9670 ed3d
00000130: 0078 eb3d 3191 c63d 1831 30be 965c 8fbd
00000140: b1c7 14be 6dd7 f93d 2040 21be 8bcf 0a3d
00000150: 365c e0bd 82ed 053e 3b6a 4abe 6cc9 133e
00000160: 2358 0c3e 20ed 0c3e 085c 04be 609a f9bd
00000170: 0a9c 91bd cdcd f13d 3c1f 013e f25b e93d
00000180: 7652 08be c1b7 98ba cec6 95bd 7850 2dbe
00000190: 0cf0 d03d e1d9 db3d 57df af3d 3777 e2bd
000001a0: 7388 f03d 4be0 f8bd b433 fd3d 2829 17be
000001b0: c48b 863d ec78 dbbd 942b 04be e9fe 0cbe
000001c0: 71a1 cebc 82e0 8c3d 5fb8 b9a1 9702 e5bd
000001d0: 6afb 21be 6a4a adbc f516 1432 929b 1d3e
000001e0: 0e13 063e 1d33 1e3e 8719 0ebe 1acb 153e
000001f0: 0eb9 1c3e 06b0 08be 26f2 dbbc 6991 22be
00000200: be79 2fbe 7300 d9bd 0659 ccbd 6577 ec3c
00000210: 849c 80bd 4399 ed3d 95dd b83d ff80 9f3c
00000220: 223a b93c 79c6 8b3d 8442 13be 5a1b 00be
00000230: 628a c9bc 67ce c0bd 59f3 6a3d e205 aa3d
00000240: f57d fd3c a096 e4bd 857e 833d f041 1b3d
00000250: 88e4 913d 2550 e9bd d508 c83d 5fa3 17be
00000260: ebf7 01be f528 f0bd 0fd5 603d 3c3d bbbc
00000270: 886d 113c 2496 0fbe 518a 9ebd 1144 0abe
00000280: 2c6c b4bb cfef 08bc 9709 9d3d acc6 9b3d
00000290: bc06 24be 8a72 c2bd 02b7 b3bd 9efa f33d
000002a0: 141f 0ebe 048c ac3d ad0b 29be 5cf1 ee3d
000002b0: e338 a0bd f408 ed3d 442e 0b3e 7845 113e
000002c0: 1dd9 e43c 05b2 94bd 8c92 59a3 9998 873d
000002d0: e12e 783d 2b7a 313c 6794 44b3 ce4d 10be
000002e0: c04e 14be 4713 39be 2119 893d 52c2 0bbe
000002f0: f293 abbd 1f6c ba3d fb56 3e3d 4574 ad3d
00000300: 0ebb f2bd a079 02be 8202 49be 99f8 de3d
00000310: 933d fbbd fb79 273e 36a0 2b3e f044 303e
00000320: ddc1 033d 3109 123e 51f2 2ebe 29d5 35be
00000330: 9988 00be e334 01be 1f3c 363e 613b 1f3e
00000340: 4c88 223e 541f 16be 6c12 0b3e a061 2ebd
00000350: b15a 053e 8395 25be 847d 293e 3ce1 23be
00000360: 394a 26be d3c3 32be 15f4 1b3e deea 203e
00000370: 52f8 093d f720 11be 4f56 40be d29c 40be
00000380: 9e09 213e 0c95 4c3d 2850 e33d e579 443e
00000390: 7d0d 14be f117 2bbe 7ebe 1abe c242 0d3e
000003a0: 2e42 3ebe a2cc 343e 3ba5 35be 3ed8 1d3e
000003b0: 780a 0abe 0199 2e3e f974 3c3e 2773 1d3e
000003c0: c365 aa3d 3117 d0bd b45a e223 90e5 273e
000003d0: 4252 123e 3964 603d 7196 7cb4 5e0c 36be
000003e0: d893 1cbe 0a2d 22be c1a5 fc3d 3425 34be
000003f0: 7e0c 4bbe 7407 083e 00e7 7d3d 7c83 3b3e
0.14838041 0.08878897 0.12680238 -0.114586465 0.027892107 -0.18195617 -0.19155766 -0.13791302
-0.04937903 -0.15698516 0.12912874 0.1319082 0.024680974 0.09307635 -0.15332744 -0.18106818
-0.12563176 0.09516548 -0.1547051 -0.0441869 -0.16520517 0.10136904 -0.21836536 0.11301491
0.13599326 0.118921086 -0.17726068 -0.07658225 -0.16073011 0.120999 0.09116425 0.18720078
-0.09361757 -0.10970361 -0.17147455 -0.17874886 0.1649269 0.11586874 0.103153504 -0.19059536
0.14780094 -0.15803204 0.16605034 -0.1717778 0.10239993 -0.20709392 -0.1571885 -0.17675264
-0.14347789 0.08145206 -5.3654884e-19 -0.14931522 -0.20207544 -0.08466576 -7.651873e-09 0.1288673
0.14915913 0.1511994 -0.20378545 0.15032682 0.118107736 -0.1676813 -0.14367345 -0.18558143
0.09259455 0.115162656 0.13224207 -0.08598271 0.10201895 -0.15237814 -0.08377972 -0.16600016
-0.031799156 -0.0874109 0.11529122 0.1159374 0.114974976 0.09695662 -0.17206228 -0.07000081
-0.14529301 0.12199292 -0.15747118 0.033889335 -0.10955088 0.13078883 -0.19767086 0.14432305
0.13705496 0.13762331 -0.12925732 -0.12187648 -0.0710984 0.118068315 0.12609571 0.1139449
-0.13312706 -0.0011651443 -0.073133096 -0.16925228 0.10202035 0.107349165 0.085875206 -0.11057895
0.117447756 -0.121521555 0.12363377 -0.14761794 0.06569627 -0.107164234 -0.12907249 -0.13769116
-0.025223466 0.06878759 -1.258489e-18 -0.111821346 -0.15818563 -0.021153647 8.619954e-09 0.15391377
0.13093206 0.15449186 -0.13876925 0.14628258 0.15304968 -0.13348398 -0.026848864 -0.15875782
-0.17136285 -0.10595789 -0.099779174 0.028865525 -0.06279853 0.11601498 0.090266384 0.01947069
0.022610728 0.06824965 -0.14380842 -0.12510434 -0.024602119 -0.09414368 0.05736098 0.08301903
0.03094385 -0.11161542 0.06420616 0.03790468 0.07123667 -0.113922395 0.097673096 -0.14808415
-0.1269223 -0.11726562 0.05489069 -0.022856347 0.008876212 -0.14022118 -0.077412255 -0.13502528
-0.005506059 -0.008357956 0.07667845 0.07606253 -0.16018194 -0.09494503 -0.0877514 0.11913036
-0.13879043 0.08425143 -0.1650836 0.116671294 -0.0782335 0.11573973 0.13591868 0.14186656
0.027935559 -0.07260517 -1.1794626e-17 0.066209026 0.060591582 0.01083235 -4.5769777e-08 -0.1409218
-0.14483166 -0.1807376 0.06694246 -0.13648346 -0.08377828 0.09102654 0.04646967 0.08469442
-0.11852084 -0.12741709 -0.19629863 0.1088726 -0.12267604 0.16355126 0.16760334 0.17213798
0.032167304 0.14261319 -0.17084624 -0.17757095 -0.12552108 -0.12617831 0.17796372 0.15549995
0.15872306 -0.14660388 0.13581246 -0.04257357 0.13022877 -0.16170315 0.16551787 -0.16003889
-0.16239251 -0.17457514 0.15229829 0.15714595 0.033684082 -0.14172731 -0.18782924 -0.18809822
0.15726325 0.04994683 0.11099273 0.19187124 -0.1445827 -0.16708352 -0.1511173 0.13794997
-0.18579933 0.17656186 -0.17738812 0.15414521 -0.13480556 0.17050554 0.18403997 0.15375958
0.08320191 -0.101606734 2.4541383e-17 0.16396165 0.14289191 0.05478308 -2.3524059e-07 -0.17778155
-0.15290773 -0.15837494 0.123363025 -0.17592317 -0.19828984 0.13284093 0.061987877 0.18311876

fc3.bias f4 [4]
00000000: ff3d 653d 908b 913e 34b8 07be 1c8d 3bbe
0.055967327 0.2842679 -0.13253862 -0.18315548
