MBTI/CNN/Model/cnn_model.pth (torch, 113129 bytes, 5 tensors)

embedding.weight f4 [16, 64]
-0.012338267 0.08481649 -0.37046796 -0.533381 0.35626015 -0.901306 -0.33788705 0.8330415
-0.19200999 -0.18940775 -0.36229366 -1.572417 -0.19357309 -0.013958222 0.798455 1.7755162
-0.08303625 0.07156609 0.31635603 0.19005746 -0.24671802 0.0925932 0.033851247 0.05701217
-0.032131657 0.049711727 0.22104701 -0.25647745 0.21544307 0.3620645 -0.009447661 0.059081644
0.5098623 0.5195052 0.208797 0.70756984 -0.02656519 -0.16713722 -0.280412 0.4022997
0.6375107 0.008789035 -0.9948225 -0.073347025 -1.0195149 -0.34779128 -0.21585561 -0.029104419
-0.0036162068 0.28204975 0.28522462 -0.12910618 0.34211078 0.015174353 -0.51940155 -0.26471817
-0.050590727 -0.18814726 -0.044494472 -1.8722945 -0.13249283 0.06710404 0.12305583 0.33872247
-0.20168854 0.14120589 -0.17773154 -1.1549178 0.300482 0.3657538 0.6372516 0.13425328
-0.6764838 0.13671304 -0.8234067 0.16363072 -0.005873554 0.389894 1.21432 0.25892225
0.55337137 0.028092127 -0.13287073 -0.6171284 -1.500375 0.0037432453 0.015096236 0.47388074
-0.329263 -0.4947332 0.23853174 0.050911415 -0.98077214 -0.11093258 0.023685502 0.2580511
-0.12978904 -0.0970053 -0.49574408 -0.8328062 1.0260007 -0.12685241 -0.273335 -0.48149112
-0.3395399 -0.058390036 0.11298751 -0.92278826 -0.40851003 -0.09104174 0.4824353 -0.18543588
0.25407222 0.89461935 0.55865014 0.48044646 -0.87230396 -0.11029197 -0.20136201 -0.15157746
-0.16967689 1.0412498 -0.76377755 -0.5818582 0.06576416 1.807206 0.057030898 0.5500042
0.040084694 -0.7044292 0.089689575 -0.9672294 -0.36367548 -0.067023076 -0.3594922 -0.15955299
0.4049552 -0.0037540013 -0.18899882 0.13561523 0.034877945 -0.012266297 -0.17762934 -0.1502522
0.6039265 0.047640093 -0.1505325 0.43815735 -0.37842208 -0.35700503 -0.004436028 0.1212169
0.76895696 0.16196759 -0.014459308 0.0054316116 0.13365342 -0.034210756 0.014015561 -0.09523966
0.028652608 -2.3678844 0.041457336 0.036375057 -0.3037042 -0.0070512025 0.2982424 0.19729492
0.046072267 -0.14100054 0.14468831 -0.25274527 0.011224245 -0.21830077 0.24936213 -0.3985451
0.31496584 -0.1967017 -0.27330175 0.05818128 0.026303029 0.035842832 0.1379642 0.06261116
-0.081653565 0.36508006 0.26871434 -2.5036526 0.10662978 0.15847127 -1.1884047 0.77071214
-0.89772785 0.1967518 0.19609895 -0.27462202 -0.099456064 -0.06834274 -0.91394794 -1.5469627
0.14751436 -0.234645 -0.250676 -1.4432118 0.374086 0.06818861 -0.4290818 0.44128385
0.21532495 -0.22461416 -0.115499854 0.24698529 -0.9664931 0.87943023 -0.003250985 0.11803564
0.060662054 -0.41250208 -0.14905383 -0.016928287 0.37117088 -0.14626892 -0.016809033 -0.13522148
0.16603768 0.008830583 0.087035015 0.10054006 -0.13164549 0.28252092 -0.010263474 0.8004319
-0.169577 -0.024983829 -0.88022864 0.8764516 -0.21072312 -0.20188677 0.29086235 0.13460027
-0.11550268 -0.5605846 -0.22894818 0.07755201 -0.09697839 -0.38136345 0.6412134 0.064457886
-1.0218534 0.57155526 -1.7049893 -0.003826262 1.8033707 0.6939181 -0.052355547 -0.023052773
00000000: 7126 4abc 45b4 ad3d faad bdbe a88b 08bf
00000010: bb67 b63e fdbb 66bf 88ff acbe 3542 553f
00000020: 449e 44be 1bf4 41be 8e7e b9be f644 c9bf
00000030: 0638 46be 07b1 64bc 8c67 4c3f 1d44 e33f
00000040: e90e aabd 3e91 923d 6bf9 a13e 6c9e 423e
00000050: a6a3 7cbe 81a1 bd3d 9ba7 0a3d 9885 693d
00000060: 7c9c 03bd 869e 4b3d 265a 623e 0351 83be
00000070: 1c9d 5c3e 8560 b93e 5dca 1abc 98ff 713d
00000080: 5686 023f 4bfe 043f e1ce 553e 4c23 353f
00000090: 3e9f d9bc 0526 2bbe 2992 8fbe 3afa cd3e
000000a0: e733 233f e2ff 0f3c b0ac 7ebf f736 96bd
000000b0: 777f 82bf b311 b2be 4109 5dbe 646c eebc
000000c0: e2fd 6cbb d368 903e f608 923e 6934 04be
000000d0: 2529 af3e d99d 783c 80f7 04bf 2489 87be
000000e0: 3938 4fbd ada9 40be d63f 36bd 59a7 efbf
000000f0: 33ac 07be d86d 893d b204 fc3d 086d ad3e
00000100: 7187 4ebe 4798 103e 42ff 35be 59d4 93bf
00000110: c7d8 993e 1544 bb3e ec22 233f b179 093e
00000120: 0b2e 2dbf 81fe 0b3e c8ca 52bf d08e 273e
00000130: f176 c0bb 30a0 c73e d66e 9b3f 7591 843e
00000140: bfa9 0d3f 7621 e63c 440f 08be 20fc 1dbf
00000150: 4a0c c0bf 3c51 753b 3456 773c 7fa0 f23e
00000160: 2995 a8be ac4d fdbe aa41 743e 7d88 503d
00000170: e213 7bbf 9f30 e3bd 1908 c23c 461f 843e
00000180: 6be7 04be b7aa c6bd 2bd2 fdbe ca32 55bf
00000190: fe53 833f 99e5 01be 91f2 8bbe 0186 f6be
000001a0: 2cd8 adbe 642a 6fbd ff65 e73d da3b 6cbf
000001b0: 3a28 d1be 1774 babd c201 f73e e7e2 3dbe
000001c0: c115 823e c605 653f b203 0f3f 14fd f53e
000001d0: 504f 5fbf c2e0 e1bd d831 4ebe 1f37 1bbe
000001e0: c7bf 2dbe ac47 853f ed86 43bf a9f4 14bf
000001f0: 5caf 863d 8752 e73f 3b99 693d 13cd 0c3f
00000200: d92f 243d 7955 34bf 2baf b73d 599c 77bf
00000210: ac33 babe 6543 89bd 5d0f b8be dc61 23be
00000220: 4a56 cf3e b105 76bb e888 41be b8de 0a3e
00000230: 2ddc 0e3d 94f8 48bc 77e4 35be b6db 19be
00000240: ed9a 1a3f 4222 433d 3125 1abe 2956 e03e
00000250: 8ac0 c1be 5dc9 b6be 1a5c 91bb 9140 f83d
00000260: 5dda 443f d5da 253e bce6 6cbc a9fb b13b
00000270: 71dc 083e 9420 0cbd 86a1 653c 030d c3bd
00000280: e0b8 ea3c 6b8b 17c0 2bcf 293d 03fe 143d
00000290: 1e7f 9bbe c60d e7bb 3ab3 983e ae07 4a3e
000002a0: 46b6 3c3d 7262 10be 2c29 143e d467 81be
000002b0: e5e5 373c 3d8a 5fbe c958 7f3e 1a0e ccbe
000002c0: 3443 a13e 2c6c 49be 35ee 8bbe 7e4f 6e3d
000002d0: 7379 d73c efcf 123d 7d46 0d3e 483a 803d
000002e0: fc39 a7bd c6eb ba3e ed94 893e d83b 20c0
000002f0: b760 da3d 4b46 223e a51d 98bf 644d 453f
00000300: 7ed1 65bf 4e79 493e 2ace 483e 429b 8cbe
00000310: 9faf cbbd 47f7 8bbd 7ef8 69bf e002 c6bf
00000320: 010e 173e c746 70be 9b58 80be 2abb b8bf
00000330: 3388 bf3e 78a6 8b3d 9cb0 dbbe f5ef e13e
00000340: 257e 5c3e 4101 66be 308b ecbd b6e9 7c3e
00000350: 186c 77bf 5722 613f 7a0e 55bb abbc f13d
00000360: c678 783d 7933 d3be 91a1 18be 31ad 8abc
00000370: 1c0a be3e 85c7 15be 19b3 89bc 8077 0abe
00000380: c805 2a3e 26ae 103c 6a3f b23d f2e7 cd3d
00000390: 13ce 06be 95a6 903e 2128 28bc 1be9 4c3f
000003a0: 98a5 2dbe e3aa ccbc aa56 61bf 225f 603f
000003b0: cdc7 57be 68bb 4ebe e9eb 943e a7d4 093e
000003c0: ab8c ecbd 7982 0fbf 6471 6abe 97d3 9e3d
000003d0: 9b9c c6bd 1242 c3be 9026 243f 7f02 843d
000003e0: 18cc 82bf 7251 123f 173d dabf 06c2 7abb
000003f0: dad4 e63f 9ea4 313f c572 56bd 2bd9 bcbc

conv1.weight f4 [128, 64, 3]
0.18144542 0.008609415 0.3252017 -0.17854394 0.047931835 -0.24827136 -0.13302794 -0.29943106
-0.014553616 0.03206885 -0.012304469 -0.16829768 -0.103365615 0.24414687 -0.18779442 -0.091088
-0.17608102 0.29133293 0.055861045 0.5891895 0.15168454 0.24817403 -0.03709761 0.2506615
0.08628081 -0.15643364 0.070980474 0.065782055 -0.13666861 0.03681218 -0.13440754 0.4348764
-0.09724653 -0.075779215 -0.052229226 1.1701075 0.25641638 -0.33233306 0.34082255 -0.44037533
-0.022704504 -0.10002148 0.17136031 0.028478544 -0.25648826 0.04658691 0.0840614 -0.6136154
-0.14787622 -0.29426906 0.08466539 -0.25369322 0.1590565 -0.049989186 0.15560892 -0.03968918
-0.40780437 -0.06713451 -0.18503517 -0.13090737 0.06646521 0.038795203 -0.1855532 -0.38257226
-0.04218847 -0.35246056 0.3058951 0.03479804 0.15562426 0.15104954 0.13572542 0.29617634
-0.0033208902 -0.15453382 0.15457985 -0.03564392 -0.039109927 0.05020486 -0.10597145 0.43791336
-0.3018399 -0.043689024 0.013820874 0.41453177 0.09976928 -0.18558101 -0.28056762 0.56896734
-0.15112399 0.2864332 0.1300183 -0.091236636 0.39986014 0.26120278 0.067248106 0.13146773
0.13989113 0.18584318 -0.29325992 0.2687856 0.316021 -0.08493051 0.03070561 0.15031494
-0.16459242 0.15308002 -0.1308685 -0.18150371 0.7340058 -0.037931915 0.2018905 -0.41504958
0.17904831 -0.2938167 -0.07381944 0.06833876 0.00019035116 0.046049852 -0.17353801 0.046826534
-0.088199526 0.12527242 -0.35296023 -0.10360636 0.103887 -0.1238522 0.064565875 -0.07814207
0.33817628 -0.20491245 0.299195 -0.2244613 -0.060151964 -0.15200023 0.028014015 -0.4582011
0.17914344 -0.10613318 0.085325904 -0.013424103 0.3385867 -0.27911875 0.10416386 -0.10416352
-0.07121516 0.12362378 0.15880023 0.4364268 0.12755062 -0.07681369 -0.00090059196 -0.028545411
-0.23063466 -0.014960235 -0.19188365 0.16223873 0.018454855 0.16629168 -0.16300854 -0.09766526
0.060182802 0.065564804 -0.15962385 -0.0029332584 0.16540375 -0.077461995 0.09862251 0.17593576
-0.18376297 0.30907267 0.12708305 -0.3391688 0.05402861 0.04271651 0.11950773 0.032095388
0.18417148 0.016902085 0.036417175 -0.09006484 -0.5835748 0.057842717 -0.37088934 0.05233613
0.119560525 0.21014902 0.15241379 0.30656648 -0.13483378 -0.1107863 0.15876625 0.22769782
-0.08695781 -0.044742174 -0.23453198 0.261237 0.21971497 0.1769818 0.15540023 0.19104117
-0.17644633 0.12091824 0.43122858 0.17465079 0.14912027 -0.0005737239 -0.16491689 -0.10282355
0.14846146 -0.18606505 -0.051175024 -0.0683072 0.3094431 -0.27704296 -0.18270352 0.16108596
0.038904432 -0.043096785 0.24220398 -0.15059915 -0.026225295 0.11843313 0.2576501 0.2002505
0.17710264 -0.07387006 -0.0009435937 -0.104513116 0.23565212 0.24044749 -0.21694161 -0.31286874
-0.30315542 -0.31991348 -0.5412173 -0.49819946 0.076338775 -0.13835321 -0.35606143 -0.14017022
-0.40891072 -0.43750182 -0.115265764 -0.3265449 -0.394366 0.1484804 0.047793172 -0.07417464
0.03204847 0.19012529 -0.094132416 -0.20679207 0.09505544 0.11169888 0.15858868 -0.10619272
00000000: d4cc 393e 810e 0d3c d680 a63e 39d4 36be
00000010: 2c54 443d d93a 7ebe 7a38 08be 074f 99be
00000020: 4a72 6ebc a05a 033d af98 49bc 3a56 2cbe
00000030: 5ab1 d3bd a301 7a3e 2e4d 40be 588c babd
00000040: 954e 34be 9729 953e 8dce 643d 20d5 163f
00000050: 3153 1b3e 5521 7e3e aaf3 17bd b456 803e
00000060: feb3 b03d 2430 20be 365e 913d beb8 863d
00000070: dbf2 0bbe 5ec8 163d 21a2 09be 1fa8 de3e
00000080: 3029 c7bd 2232 9bbd 50ee 55bd 15c6 953f
00000090: 0249 833e 8f27 aabe 4b80 ae3e e078 e1be
000000a0: ccfe b9bc 10d8 ccbd 1479 2f3e d64b e93c
000000b0: 6e52 83be ead1 3e3d 6228 ac3d e615 1dbf
000000c0: dd6c 17be 6faa 96be 0c65 ad3d 14e4 81be
000000d0: b5df 223e 76c1 4cbd f257 1f3e 1f91 22bd
000000e0: bccb d0be d17d 89bd dc79 3dbe 950c 06be
000000f0: e91e 883d b8e7 1e3d a801 3ebe 83e0 c3be
00000100: d1cd 2cbd b675 b4be 489e 9c3e 6488 0e3d
00000110: f75b 1f3e bbac 1a3e 9bfb 0a3e 6da4 973e
00000120: 4ba3 59bb 1d3e 1ebe 2e4a 1e3e 5cff 11bd
00000130: bb31 20bd 9ca3 4d3d 8f07 d9bd 2e36 e03e
00000140: c28a 9abe 43f3 32bd f270 623c 823d d43e
00000150: d653 cc3d f308 3ebe 8fa6 8fbe d8a7 113f
00000160: 3fc0 1abe 5fa7 923e 8423 053e 46da babd
00000170: 78ba cc3e 5fbc 853e 60b9 893d 7a9f 063e
00000180: 9f3f 0f3e ad4d 3e3e 2a26 96be 449e 893e
00000190: 81cd a13e 0cf0 adbd 558a fb3c 29ec 193e
000001a0: ea8a 28be 02c1 1c3e 6402 06be 1cdc 39be
000001b0: cee7 3b3f 7f5e 1bbd 62bc 4e3e 6181 d4be
000001c0: 7158 373e 246f 96be a62e 97bd 31f5 8b3d
000001d0: 0099 4739 c59e 3c3d f3b3 31be 2ecd 3f3d
000001e0: f4a1 b4bd 6a47 003e 34b7 b4be 922f d4bd
000001f0: b5c2 d43d 39a6 fdbd 1d3b 843d f308 a0bd
00000200: 7125 ad3e 92d4 51be 1630 993e 2fd9 65be
00000210: e861 76bd f3a5 1bbe a67d e53c 5699 eabe
00000220: 6171 373e 5a5c d9bd 59bf ae3d c5f0 5bbc
00000230: 3c5b ad3e a7e8 8ebe dd53 d53d af53 d5bd
00000240: 41d9 91bd 772e fd3d 879c 223e 5573 df3e
00000250: a19c 023e 7f50 9dbd b415 6cba 11d8 e9bc
00000260: 7e2b 6cbe c61b 75bc 267d 44be e921 263e
00000270: a32e 973c 5e48 2a3e b6eb 26be b904 c8bd
00000280: 3e82 763d d746 863d 6f74 23be e93b 40bb
00000290: 9a5f 293e 65a4 9ebd 99fa c93d 8128 343e
000002a0: 5c2c 3cbe c63e 9e3e 0f22 023e 88a7 adbe
000002b0: 1b4d 5d3d 82f7 2e3d 78c0 f43d 7476 033d
000002c0: 7397 3c3e 3e76 8a3c 2d2a 153d ea73 b8bd
000002d0: 2865 15bf 7cec 6c3d 35e5 bdbe 695e 563d
000002e0: 26dc f43d 4e31 573e 5c12 1c3e 48f6 9c3e
000002f0: de11 0abe ede3 e2bd 9f93 223e 9e29 693e
00000300: f016 b2bd 9243 37bd 2729 70be dbc0 853e
00000310: f6fc 603e b83a 353e 3d21 1f3e 4ca0 433e
00000320: 59ae 34be fba3 f73d fec9 dc3e a8d7 323e
00000330: fcb2 183e f665 16ba f9df 28be 2795 d2bd
00000340: 4806 183e d687 3ebe e79c 51bd a5e4 8bbd
00000350: 536f 9e3e 93d8 8dbe a216 3bbe b8f3 243e
00000360: 415a 1f3d 4186 30bd 5204 783e aa36 1abe
00000370: 6ed6 d6bc 128d f23d b7ea 833e 780e 4d3e
00000380: 655a 353e 3049 97bd 805b 77ba f90a d6bd
00000390: ca4e 713e de37 763e f125 5ebe 5530 a0be
000003a0: 3037 9bbe b3cb a3be 388d 0abf 0014 ffbe
000003b0: 8157 9c3d 77ac 0dbe af4d b6be c888 0fbe
000003c0: bf5c d1be 3d00 e0be 7510 ecbd e530 a7be
000003d0: 57ea c9be 3f0b 183e c6c2 433d e0e8 97bd
000003e0: 4245 033d 34b0 423e 7fc8 c0bd 4dc1 53be
000003f0: 6dac c23d 62c2 e43d 1265 223e 927b d9bd

conv1.bias f4 [128]
0.00465511 -0.2431992 -0.08791893 -0.011095232 -0.16311893 -0.21726874 -0.031842347 -0.16562016
-0.13462049 -0.18795018 -0.24724452 -0.10212596 -0.21656254 -0.17090897 -0.18836391 -0.31446108
-0.07824679 -0.15721406 -0.17732193 0.03455302 -0.13360831 -0.30170032 -0.11653314 -0.22982411
-0.17659676 -0.2037078 -0.11936283 -0.31811246 -0.26273826 -0.116220154 -0.17721662 -0.26495424
-0.2496167 -0.21783671 -0.12702915 -0.1052465 -0.28650784 -0.08073781 -0.23865564 -0.09004195
-0.093952164 -0.20249633 -0.12815036 0.041586287 -0.2548374 -0.12874165 -0.3269979 -0.18172042
-0.26420188 -0.25801903 -0.15442385 -0.22974207 0.0009448591 -0.19478439 -0.27617007 -0.15989356
-0.03099382 -0.30117077 -0.06286579 -0.41977575 -0.184923 -0.20304668 -0.07734694 -0.01914767
-0.35337803 -0.2017779 -0.15314987 -0.18952727 -0.14486596 -0.24579836 -0.3722952 -0.14195509
-0.14345005 -0.14746045 -0.14240576 -0.16635461 -0.18255661 -0.024227686 -0.10591387 -0.175599
-0.18379939 -0.13203946 -0.13757181 -0.14245397 -0.12431792 -0.25143784 -0.1502974 -0.31927946
-0.1512751 -0.12948102 -0.21955436 -0.16490892 -0.10852391 -0.09231858 -0.30096644 -0.20623334
-0.21724077 -0.36793172 -0.11402441 -0.2313902 -0.18323068 -0.1622453 -0.20748056 -0.32168075
-0.35437065 -0.103230834 -0.2035571 -0.13925843 -0.14140467 -0.17683636 -0.31696665 -0.27726808
-0.057055354 -0.16382349 -0.14714123 -0.11771874 -0.06810475 -0.18380666 -0.21099444 -0.2027937
-0.26976132 -0.2714322 -0.20187461 -0.1739085 -0.27671784 -0.042413805 -0.042535465 -0.2280005
00000000: e589 983b 3609 79be d70e b4bd c7c8 35bc
00000010: a608 27be b27b 5ebe 1f6d 02bd 5598 29be
00000020: f4d9 09be 0376 40be ab2d 7dbe 6a27 d1bd
00000030: 92c2 5dbe c302 2fbe 78e2 40be 0b01 a1be
00000040: da3f a0bd b9fc 20be e193 35be 7887 0d3d
00000050: 9ed0 08be 7778 9abe eda8 eebd 0357 6bbe
00000060: c8d5 34be c798 50be 8074 f4bd a3df a2be
00000070: a185 86be d504 eebd 4678 35be 15a8 87be
00000080: 859b 7fbe 9610 5fbe ee13 02be 7a8b d7bd
00000090: 28b1 92be dd59 a5bd 2562 74be ea67 b8bd
000000a0: fe69 c0bd 335b 4fbe d939 03be 6256 2a3d
000000b0: 0c7a 82be dad4 03be 456c a7be eb14 3abe
000000c0: 7845 87be 121b 84be 4921 1ebe 8141 6bbe
000000d0: 6cb0 773a 8f75 47be 2a66 8dbe 23bb 23be
000000e0: c0e6 fdbc 0e33 9abe c8bf 80bd d9ec d6be
000000f0: 745c 3dbe 78eb 4fbe 1368 9ebd 93db 9cbc
00000100: f7ed b4be de9e 4ebe 52d3 1cbe 7013 42be
00000110: be57 14be 91b2 7bbe 7a9d bebe ad5c 11be
00000120: 92e4 12be dfff 16be d1d2 11be dd58 2abe
00000130: 1ff0 3abe 2479 c6bc 5fe9 d8bd 39d0 33be
00000140: e835 3cbe 5a35 07be a0df 0cbe 74df 11be
00000150: 659a febd 76bc 80be 90e7 19be 9978 a3be
00000160: dce7 1abe ac96 04be dcd2 60be e2dd 28be
00000170: c941 debd 8611 bdbd 4618 9abe d52e 53be
00000180: 5d74 5ebe 8c61 bcbe a185 e9bd 8df1 6cbe
00000190: d3a0 3bbe a223 26be c975 54be 57b3 a4be
000001a0: 1270 b5be b06a d3bd 4671 50be c399 0ebe
000001b0: 63cc 10be 9714 35be 7449 a2be 15f6 8dbe
000001c0: e0b2 69bd 58c1 27be 31ac 16be 8616 f1bd
000001d0: 817a 8bbd d037 3cbe ed0e 58be 27a9 4fbe
000001e0: 281e 8abe 29f9 8abe 38b8 4ebe 1215 32be
000001f0: f6ad 8dbe 19ba 2dbd ab39 2ebd f778 69be

fc.weight f4 [16, 128]
0.24530637 -0.079638034 -0.07999158 0.2797185 -0.04155737 -0.1578269 0.19010958 -0.12026821
-0.028826155 -0.011328395 0.091108985 0.16204669 -0.20231397 -0.03997674 -0.15577121 0.16728617
0.034673277 -0.0776047 0.25989878 -0.013378994 -0.04936877 -0.30017444 -0.17199835 -0.029603317
0.104549035 0.10394675 0.0534606 -0.07656801 0.20787624 0.009815352 -0.026199127 -0.07419066
0.10837427 -0.17586863 0.032452177 -0.024477936 -0.285765 -0.0034426134 0.12906244 0.18018721
-0.049948983 0.05019101 0.09410899 0.1302233 -0.054868504 -0.32979 0.16802748 0.13259596
-0.009368021 -0.03226395 0.098313704 -0.09889407 -0.13807832 0.12779185 -0.04583425 0.045804437
0.115559176 -0.17131118 -0.10831766 -0.061103676 -0.005886253 0.083444856 -0.24987885 0.20697266
0.19778997 -0.04797636 0.06370977 0.030381534 -0.07888365 0.25476626 -0.23989944 -0.21499121
0.053884674 0.011025685 0.0386178 -0.23351079 0.14341955 0.012661446 0.044833686 -0.08614564
-0.21186203 -0.15399721 -0.14126295 -0.2590908 0.066926844 0.066646524 0.1694711 0.023736214
-0.012165408 -0.25779504 0.09485304 0.014170549 -0.025104057 0.01798201 -0.12432109 0.12790433
0.0029934482 0.004243264 -0.06645563 0.27688998 -0.072175644 -0.24208145 0.074981414 0.03909404
0.008310924 0.1111282 0.062690355 0.045547634 0.07754107 -0.17576985 -0.12552248 -0.119185746
-0.04558884 0.13017696 -0.08892122 0.06709946 -0.23100452 -0.02941704 -0.08596004 0.027519906
0.02145855 -0.1039542 0.09543856 -0.10815898 0.033333495 0.08543499 -0.056284405 0.12622109
0.08421771 0.020741004 0.21584167 -0.15449479 -0.11538056 0.03736902 -0.19844367 0.15663242
0.08842591 -0.17319556 0.0115572475 -0.3792718 0.12952237 0.08023388 -0.088733174 -0.13100596
0.021346424 0.022515679 -0.040636644 -0.24654794 -0.08612808 0.07500738 -0.17930126 0.12024493
-0.06880255 0.11478895 -0.2752433 0.24538952 -0.1363426 -0.02045077 -0.02797264 0.03103701
-0.017556174 -0.0074327695 0.15050963 0.052648567 -0.25372365 0.078089535 -0.07598673 -0.014139923
0.11384264 -0.06569949 0.1441743 -0.07103049 0.028813021 -0.100663565 -0.23434664 -0.090553686
0.118098624 -0.2039997 -0.0050868727 0.09850087 0.09371084 -0.036380682 -0.011924218 0.16941632
-0.020864807 0.025942467 0.2636291 0.029609714 0.15483566 -0.08194152 -0.012870711 -0.008100111
0.07095363 -0.21102911 -0.09829169 -0.02618999 0.003444353 0.094345 0.045721114 -0.009155703
-0.094794944 0.21283454 0.15506263 -0.14282651 0.15375033 -0.057134 -0.09440659 0.013424003
-0.09134723 0.0040642438 -0.020873873 -0.188851 -0.001672914 0.0914067 0.053211883 0.2165812
-0.21819703 0.16077445 0.10845725 0.12582952 0.016255485 0.23341568 0.27676588 0.02656894
0.09335361 -0.096678466 0.035765316 -0.10301949 0.16987516 0.00698843 -0.015543314 -0.018193692
-0.04009351 -0.006551243 0.04354571 0.3086598 -0.29704994 -0.09662775 0.076170094 0.1412122
-0.11121535 -0.07228142 0.24203946 0.16703603 -0.02330144 0.12563115 -0.115157224 0.13920806
-0.09535827 0.14902547 0.119520046 0.08868046 0.033918995 -0.36118853 0.059216857 -0.38398963
00000000: 9831 7b3e 4419 a3bd a0d2 a3bd 4337 8f3e
00000010: 1038 2abd 609d 21be 16ac 423e 2e4f f6bd
00000020: d424 ecbc bc9a 39bc 5997 ba3d 91ef 253e
00000030: 652b 4fbe a6be 23bd 7d82 1fbe 114d 2b3e
00000040: 9105 0e3d 37ef 9ebd 7411 853e 9133 5bbc
00000050: e836 4abd 77b0 99be 5620 30be a882 f2bc
00000060: ce1d d63d 09e2 d43d 81f9 5a3d b0cf 9cbd
00000070: 82dd 543e 92d0 203c 8d9f d6bc 46f1 97bd
00000080: 54f3 dd3d e816 34be 93ec 043d f485 c8bc
00000090: ca4f 92be 789d 61bb f228 043e ff82 383e
000000a0: 4e97 4cbd 1795 4d3d 37bc c03d 4259 053e
000000b0: ccbd 60bd 3cda a8be 650f 2c3e 3cc7 073e
000000c0: 547c 19bc 3427 04bd b258 c93d f988 cabd
000000d0: 6764 0dbe dedb 023e b2bc 3bbd 6f9d 3b3d
000000e0: 4aaa ec3d 336c 2fbe a6d5 ddbd d947 7abd
000000f0: 78e1 c0bb 23e5 aa3d 3ee0 7fbe a4f0 533e
00000100: 7489 4a3e dc82 44bd 457a 823d b2e2 f83c
00000110: c08d a1bd b970 823e 33a8 75be a826 5cbe
00000120: 2db6 5c3d 13a5 343c b32d 1e3d 741d 6fbe
00000130: 93dc 123e f471 4f3c 87a3 373d 206d b0bd
00000140: 5cf2 58be 72b1 1dbe 3ca7 10be 8da7 84be
00000150: f110 893d f97d 883d d589 2d3e 7372 c23c
00000160: 6b51 47bc b6fd 83be 5042 c23d 972b 683c
00000170: 06a7 cdbc 024f 933c 0e9c febd 5af9 023e
00000180: ba2d 443b 140b 8b3b e419 88bd 86c4 8d3e
00000190: d3d0 93bd 33e4 77be db8f 993d 1221 203d
000001a0: 8b2a 083c 2f97 e33d cd63 803d 2890 3a3d
000001b0: dacd 9e3d 03fd 33be f788 00be a817 f4bd
000001c0: 5dbb 3abd 1c4d 053e 541c b6bd 716b 893d
000001d0: 738c 6cbe 01fc f0bc d10b b0bd 6d71 e13c
000001e0: d7c9 af3c f1e5 d4bd 4b75 c33d 7582 ddbd
000001f0: b488 083d 8af8 ae3d 7a8a 66bd 1a40 013e
00000200: 567a ac3d 0ae9 a93c 9905 5d3e e233 1ebe
00000210: a54c ecbd 4210 193d d134 4bbe 4064 203e
00000220: a518 b53d 2d5a 31be 9c5a 3d3c ea2f c2be
00000230: 83a1 043e a951 a43d bdb9 b5bd 6d26 06be
00000240: b2de ae3c cd72 b83c 9c72 26bd 1077 7cbe
00000250: eb63 b0bd 789d 993d c09a 37be f942 f63d
00000260: 5ae8 8cbd 7816 eb3d b1ec 8cbe 6447 7b3e
00000270: 659d 0bbe 6088 a7bc e126 e5bc 5441 fe3c
00000280: f7d1 8fbc 978e f3bb 321f 1a3e 06a6 573d
00000290: 11e8 81be 68ed 9f3d ee9e 9bbd 23ab 67bc
000002a0: 5426 e93d 748d 86bd 6da2 133e 6f78 91bd
000002b0: 4909 ec3c b328 cebd 91f8 6fbe 3674 b9bd
000002c0: b1dd f13d 4ce5 50be c8af a6bb d3ba c93d
000002d0: 78eb bf3d e903 15bd cc5d 43bc 797b 2d3e
000002e0: acec aabc 4c85 d43c 65fa 863e 1290 f23c
000002f0: 3d8d 1e3e f5d0 a7bd addf 52bc 54b6 04bc
00000300: 2350 913d 0418 58be 274d c9bd 648c d6bc
00000310: a7ba 613b f437 c13d 1046 3b3d cd01 16bc
00000320: da23 c2bd 4cf1 593e bdc8 1e3e 1d41 12be
00000330: ba70 1d3e 5705 6abd 3e58 c1bd 59f0 5b3c
00000340: 4214 bbbd 592d 853b afff aabc 2862 41be
00000350: ae45 dbba 7033 bb3d b4f4 593d 76c7 5d3e
00000360: 0b6f 5fbe 0fa2 243e d61e de3d 74d9 003e
00000370: 392a 853c 8504 6f3e 42b4 8d3e 1ba7 d93c
00000380: 2d30 bf3d 5cff c5bd a77e 123d e2fb d2bd
00000390: c1f3 2d3e 33ff e43b 62a9 7ebc f00a 95bc
000003a0: 1839 24bd cfab d6bb fd5c 323d a808 9e3e
000003b0: ee16 98be c5e4 c5bd 11ff 9b3d ee99 103e
000003c0: e0c4 e3bd 4808 94bd 31d9 773e 7e0b 2b3e
000003d0: a9e2 bebc 74a5 003e 8dd7 ebbd 8f8c 0e3e
000003e0: 324b c3bd 229a 183e edc6 f43d 1a9e b53d
000003f0: a5ee 0a3d b4ed b8be 608d 723d 4a9a c4be

fc.bias f4 [16]
-0.08463451 -0.3796411 0.18025726 0.45096752 -0.35342097 -0.42495057 0.44630158 0.33590904
0.33534327 -0.045879252 -0.49461225 -0.087160654 -0.7719406 -0.39865813 -0.88156337 -1.3395586
00000000: dc54 adbd 5160 c2be 5c95 383e 37e5 e63e
00000010: 98f3 b4be 1f93 d9be a481 e43e 45fc ab3e
00000020: 1db2 ab3e e2eb 3bbd d13d fdbe 4981 b2bd
00000030: e69d 45bf eb1c ccbe 23ae 61bf a876 abbf
