MBTI/ANN/Model/lr=0.0005 3HL hd_size=64 l2=0.01/best_model.pth (torch, 27375 bytes, 6 tensors)

fc1.weight f4 [64, 16]
00000000: a996 0080 9d26 0100 b94b 0180 cd48 0000
00000010: 7ad3 0000 d266 0080 a861 0180 543b 0180
00000020: 8033 0000 118e 0000 7b01 0080 7fc4 0000
00000030: 9f33 0000 7300 0080 d088 0000 7abb 0000
00000040: 529a 74a5 f469 0000 f252 d92c 3e4a 8b99
00000050: afbb 0080 2376 0000 f1e0 6030 2cf3 5baf
00000060: 7403 0000 11fd 1292 6734 0100 122e 0080
00000070: 4261 0080 a395 0080 0e3c 0180 759b 0080
00000080: ff1d 0180 ba7e 0080 b12c 0180 6b27 0080
00000090: 6d57 0100 0274 0f80 9ddc 0080 0f71 0180
000000a0: 76dd 0180 db12 0000 269e 0000 2a80 0000
000000b0: c2b7 0480 761e 0080 4e61 1d34 9f31 0080
000000c0: 53f8 0d3e 1e7f fdbd c383 93bd 9e2a c7bd
000000d0: eadb b8bc 610a 2d3b f3d7 a73e 36bc 47bc
000000e0: 90db 57bc cfbd c5bd 781b bbbc de50 15bd
000000f0: 0f13 8fb9 4726 0000 2192 0000 c479 0000
00000100: 1069 0180 9a22 0180 1161 0180 9e4a 0080
00000110: 08f4 0080 796b 0080 ec11 0080 f271 0080
00000120: 15b3 0000 d86d 0000 a6d4 0000 823a 0180
00000130: 513e 0180 b245 0080 0d22 0100 8233 0000
00000140: 1c5e a12b 40cb 172c b05c 42ab bcca 1f2c
00000150: d05f 23a9 00af 7aa6 e638 d2aa f680 01ac
00000160: e02b 8d23 2a3e e42b c13e 82a8 6dbf 05a9
00000170: e5b6 0080 d0fd 12af 909a 92b4 f821 0180
00000180: 75a6 cda8 0e75 6da9 1fad 08a9 3b12 a829
00000190: a097 da26 f396 1f24 8a30 022a ce54 e129
000001a0: 5a14 bc25 a320 af29 84e5 0129 6a5e 5ea8
000001b0: 9ce5 b3af 30ae cdb3 3671 0080 aa06 0000
000001c0: 5826 cf3d 96e7 b8bd ca07 43bd c266 86bd
000001d0: bb16 8abc ce04 f23a da79 7d3e 626d acbc
000001e0: f2a6 3cbc 69d2 90bd 9961 a0bc 04ac ecbc
000001f0: a896 51b8 6201 0100 3923 0100 5a0c 0180
00000200: 664c eabd 49eb 843d a609 c83e 8859 0d3e
00000210: e3cd 3b3c 93d2 64bc ce0d 93bd f111 8abe
00000220: 4aba 8ebb 6d22 88bc 9813 a3bc bac5 123c
00000230: a8b1 7bba ffbe 0080 264e 0080 e60d 0080
00000240: 0cfd 0080 5b95 0080 c021 0180 db55 0080
00000250: 64fe 0680 6a67 0000 d850 0080 28ed 0080
00000260: fe63 0180 582d 0180 0b2e 0680 49b0 0780
00000270: f999 5e80 932b 0000 5b90 0080 fe15 0100
00000280: 921b 8db4 b637 1e34 80ab d533 bb35 3134
00000290: 5c1e 0235 38e9 4ab4 a8b8 b834 a022 ebb4
000002a0: b06f 3fb3 4f9b 2fb4 18e3 c532 4683 dab2
000002b0: d6f9 c8a8 49ec 0080 c308 e335 8410 0080
000002c0: 6d70 3f3e 593f 39be 9ad0 8aba d43d dcbd
000002d0: ca6a 09bd 33ca 6fbb 121c fb3e f650 f7bd
000002e0: 0a41 97bc 4856 19be d031 1dbd cacc 53bd
000002f0: 9493 84ba 1f7a 0000 80ba 0000 f8fc 0000
00000300: b0f6 31a6 5209 2028 9f98 81a7 4b68 dc27
00000310: a204 09a8 6868 e322 6034 cea7 bff1 17a9
00000320: 7a30 d7a7 460b cd25 1c97 dda3 e6b9 9528
00000330: 3291 01a1 f561 0b2a 00ab c82f 6715 0100
00000340: 4f7e 0080 1445 0000 0451 0000 05ec 0080
00000350: 3687 0100 e685 0000 6d98 0080 6034 0180
00000360: 1158 0180 918e 0000 4209 0000 3839 0080
00000370: 2d19 0080 b06b 0080 81ca 0000 0572 0180
00000380: 971c 3ebe f4c2 df3d 8159 253f 660e 723e
00000390: f721 9f3c 84f3 b3bc 186f 01be 1533 e7be
000003a0: a40e a6bb 74d3 5dbc d0db 08bd 6c4f 5c3c
000003b0: 663d fdba 5e60 0100 a0b8 0080 fdde 0080
000003c0: 8bd3 d83d 79c0 37be 6a8a 2e3f 5f1f b23d
000003d0: 8f47 f0bc 2e97 e9bc b687 1b3f 0e2d 2cbf
000003e0: 6e22 d3bc f9a2 7cbe a24f b3bd 4eb0 7bbd
000003f0: be67 d2bb e83f 0100 b57b 0080 fb45 0080
-5.4047e-41 1.05687e-40 -1.19e-40 2.6116e-41 7.5863e-41 -3.6885e-41 -1.26868e-40 -1.13118e-40
1.8475e-41 5.0964e-41 -5.31e-43 7.049e-41 1.8518e-41 -1.61e-43 4.9079e-41 6.7254e-41
-2.1215912e-16 3.8009e-41 6.1767197e-12 -1.440225e-23 -6.7328e-41 4.238e-41 8.1810386e-10 -2.0004326e-10
1.239e-42 -4.6381405e-28 1.10634e-40 -1.6527e-41 -3.489e-41 -5.368e-41 -1.13379e-40 -5.5767e-41
-1.02596e-40 -4.5461e-41 -1.07868e-40 -1.414e-41 1.23198e-40 -1.419148e-39 -7.9141e-41 -1.32393e-40
-1.71281e-40 6.764e-42 5.6733e-41 4.5977e-41 -4.33262e-40 -1.0927e-41 1.4657164e-07 -1.78e-41
0.1386426 -0.12377761 -0.07202866 -0.097249255 -0.0225658 0.0026403891 0.32781944 -0.012190869
-0.013174906 -0.09655344 -0.022840247 -0.036454074 -0.00027289285 1.3731e-41 5.2421e-41 4.3681e-41
-1.29525e-40 -1.04248e-40 -1.26656e-40 -2.6768e-41 -8.7542e-41 -3.8554e-41 -6.429e-42 -4.0876e-41
6.4243e-41 3.9405e-41 7.6284e-41 -1.12824e-40 -1.1419e-40 -2.5002e-41 1.0405e-40 1.8478e-41
1.1465859e-12 2.1571217e-12 -6.9051275e-13 2.27078e-12 -3.6276375e-14 -8.6973343e-16 -3.7342975e-13 -1.840359e-12
1.5305832e-17 1.6217628e-12 -1.4460114e-14 -2.9697968e-14 -6.561e-41 -1.3368795e-10 -2.7307078e-07 -1.04021e-40
-2.2831761e-14 -5.27261e-14 -3.0348225e-14 7.463861e-14 1.5167887e-15 3.4605488e-17 1.156316e-13 1.00067185e-13
3.2626592e-16 7.777223e-14 2.8842827e-14 -1.2343948e-14 -3.2723058e-10 -9.577741e-08 -4.0612e-41 2.39e-42
0.10114735 -0.090285465 -0.04761485 -0.06562568 -0.016856542 0.0018464567 0.24753514 -0.021048252
-0.011514412 -0.070713826 -0.019577788 -0.028890617 -4.9969793e-05 9.2332e-41 1.04471e-40 -9.6266e-41
-0.11440353 0.064901896 0.3906986 0.13803685 0.011462661 -0.01396622 -0.071803674 -0.26966813
-0.0043557035 -0.016617978 -0.019906804 0.0089582745 -0.0009601363 -6.8516e-41 -2.8034e-41 -4.986e-42
-9.0776e-41 -5.3579e-41 -1.03943e-40 -3.0799e-41 -6.42271e-40 3.7098e-41 -2.9001e-41 -8.5076e-41
-1.27706e-40 -1.08102e-40 -5.6753e-40 -7.06088e-40 -8.687772e-39 1.5631e-41 -5.1785e-41 9.9725e-41
-2.6283357e-07 1.4735164e-07 9.949781e-08 1.6503957e-07 4.847295e-07 -1.889756e-07 3.4407026e-07 -4.3797354e-07
-4.4572232e-08 -1.6354646e-07 2.3037089e-08 -2.5438236e-08 -2.231281e-14 -8.4763e-41 1.6915368e-06 -5.925e-42
0.18695231 -0.18090571 -0.0010590733 -0.1075398 -0.033549108 -0.0036589026 0.49044853 -0.12075989
-0.01846363 -0.1497432 -0.038377583 -0.051708974 -0.0010114782 4.3809e-41 6.6904e-41 9.0748e-41
-6.1743535e-16 8.883805e-15 -3.5970165e-15 6.117534e-15 -7.606032e-15 6.1639018e-18 -5.723327e-15 -3.3738417e-14
-5.9727046e-15 3.556947e-16 -2.4024865e-17 1.6622944e-14 -4.3899064e-19 1.2379666e-13 3.650129e-10 9.9513e-41
-4.5311e-41 2.478e-41 2.9063e-41 -8.4668e-41 1.4034e-40 4.8034e-41 -5.468e-41 -1.10624e-40
-1.23428e-40 5.1143e-41 3.321e-42 -2.0526e-41 -9.031e-42 -3.8631e-41 7.2645e-41 -1.32738e-40
-0.18565594 0.10925856 0.645897 0.23638305 0.019425375 -0.021966703 -0.12640035 -0.4515616
-0.0050676633 -0.013539184 -0.033412755 0.01344667 -0.0019320666 1.26406e-40 -6.6231e-41 -7.9993e-41
0.105872236 -0.17944516 0.68179953 0.0869739 -0.029330997 -0.02851447 0.60753953 -0.6725625
-0.025773253 -0.24671544 -0.08755423 -0.061447434 -0.0064210584 1.14761e-40 -4.4378e-41 -2.5104e-41

fc1.bias f4 [64]
00000000: e628 0180 47fa 5bb8 5279 0180 4ea4 ef3b
00000010: eb49 0180 2db0 d4ac 331c a2aa 5dba 473b
00000020: 32e7 e13d a930 0180 204d 7fb5 d407 b23c
00000030: 6b88 a9a9 339c 0080 c54d 3f3e f600 2d3e
00000040: 9c7b 543c 8127 0180 ffd6 0080 190d 7d9c
00000050: 7ae1 6bac 30e8 46bb 18ca 0080 bf0f 0180
00000060: d6fe 9daf 3cec afb9 9901 c9ba c13c 38a9
00000070: 6f61 713c 0d11 163d 28c5 6bb9 d84d 443e
00000080: 0a60 7688 0450 dfab 9b2d 1080 1506 1cb9
00000090: 5578 0080 7619 1f3e 94ad 313e c0b1 0080
000000a0: f6fa fc1b e1e1 43b7 c590 d8b4 75e1 6fb1
000000b0: b527 283d 241b 4d3d 734c e99c a1e3 bc3d
000000c0: b58e d5b4 881d 373d 6489 81b4 ac05 bc3a
000000d0: 7e4e a43b 2174 27a9 bc94 163c faaf 4094
000000e0: 83af b73c cdde d4b9 f81a 95a3 9304 30bc
000000f0: 0166 af3c 7681 40b0 bdc6 0c3e e03d 9c3c
-1.06507e-40 -5.2446758e-05 -1.35357e-40 0.007313288 -1.18352e-40 -6.044962e-12 -2.8796548e-13 0.0030476071
0.11030425 -1.09291e-40 -9.5107134e-07 0.021732248 -7.5287724e-14 -5.6034e-41 0.1868201 0.16894898
0.012968924 -1.06007e-40 -7.7126e-41 -8.3727606e-22 -3.3520673e-12 -0.0030350797 -7.2498e-41 -9.7484e-41
-2.8739205e-10 -0.0003355461 -0.0015335559 -4.0908903e-14 0.014732703 0.036637355 -0.00022484793 0.1917032
-7.4140826e-34 -1.5867312e-12 -1.485728e-39 -0.00014879585 -4.3167e-41 0.15537056 0.17351371 -6.3765e-41
4.1852083e-22 -1.1675497e-05 -4.033847e-07 -3.4907235e-09 0.041053493 0.05007471 -1.5438408e-21 0.09223104
-3.9778175e-07 0.044705898 -2.4128087e-07 0.0014344952 0.00501424 -3.7182175e-14 0.0091907345 -9.728228e-27
0.022422558 -0.0004060179 -1.6166034e-17 -0.010743278 0.021410944 -7.003317e-10 0.13747688 0.019072473

fc2.weight f4 [64, 64]
00000000: 1301 0180 1001 0b0a 9beb 0080 f8ee 683d
00000010: 0b8d 03ad 411c caa7 2c09 5128 ee0c 1a3d
00000020: b175 2cbd 2c2b 0080 ac2e 382f 1465 b63d
00000030: 1a16 96a5 aca5 0000 bd7b 84bd 4fba be3d
00000040: 951e b4bb c68b 9f2a 6871 0080 0f4e 1e1e
00000050: df1b 0100 4c38 05b8 c542 0080 19ab 0000
00000060: a8d5 15ad aae2 2d36 8eea abae c08b a727
00000070: 9804 a739 71b7 113e 0570 acba 6203 4bbd
00000080: c0f0 f401 cbee 0000 82e4 0700 596a a022
00000090: 70d3 0080 8752 58bd 8e66 66bd 9071 0080
000000a0: 34ec 641c a0e9 899d e55f 0080 c339 0080
000000b0: 0984 0e3e 3a0d 173e adb6 0000 3444 533c
000000c0: a375 0100 ced5 0a3e 52c5 1932 2c23 00ba
000000d0: bafc 913a 7559 0000 7c7f 7f3d 1aac 0391
000000e0: eb3d c93d 2d19 06b7 e8fa 81a0 6650 063c
000000f0: 8b2d a13d ccf5 e2ad 50e0 30bd 25f3 be3d
00000100: 9777 0000 3b0f b502 5cba 0000 123a 6a3d
00000110: d40b 0080 9630 412a 3a0d 8028 bdd8 213d
00000120: 59a7 09bd 8746 0080 0e00 3e35 f6ec af3d
00000130: eebe 3428 b9b5 0080 68a9 7abd 1d6c 8e3d
00000140: f5a8 203c 8d20 0000 297e 0000 ee11 619d
00000150: 4650 0080 9869 88b6 4f8b 0080 2680 0000
00000160: 113f e2ae b119 da38 6bf3 45ae 6555 4328
00000170: cc80 21bc 1595 0d3e e7d5 9b39 2ba5 4bbd
00000180: 9d69 2187 5306 0000 0fde 0200 1ef5 00a2
00000190: a509 0000 560a 43bd 397a 57bd 0a68 0000
000001a0: af0e 551b 52ad c899 235f 0100 758a 0000
000001b0: 189b 0b3e d7e7 143e 4749 0080 423b 583c
000001c0: d64a 0100 5e00 093e 70d8 aa30 0642 993b
000001d0: 479a 2d3a 3f89 0080 1d57 7f3d 680c bf92
000001e0: e4d3 c53d 6bde ca34 0c05 afa0 f0a5 5e3b
000001f0: 6a53 9c3d 5016 202e 69f1 1abd 2d52 bb3d
00000200: 8467 9334 5618 0000 c079 0080 57a6 f6bc
00000210: a83e ecaf de3b c0a9 b6ef eb27 c15f aebc
00000220: 44b0 c73d 40b3 0000 5ce2 60b5 9d4c 8dbc
00000230: 9a59 e826 0fe3 0080 c913 203e f195 fd3d
00000240: 95f3 93bb 0cdc 0000 698d 0000 900b 011b
00000250: 6971 0080 eb88 98b8 23de 0000 3e16 0180
00000260: 9ea6 152e 7673 4eb9 a7b6 bb2f 4a5a d3a5
00000270: fe22 043b ce3b 9cbd 6765 023a 53a3 223e
00000280: bc2a ab05 717f 0080 6caf 1800 8184 a623
00000290: 7f7b 0100 6926 073e e4c6 143e 7081 0080
000002a0: 645b ed9c 984d 870e 551b 0080 9b70 0100
000002b0: a896 a3bd f548 b7bd 9220 0000 1301 a73d
000002c0: 539e 0080 b792 a9bd e61a 3233 fce4 10ba
000002d0: c925 bcbb 385b 0180 4553 0cbd 5465 4913
000002e0: f5c0 68bd 2cab 2d36 d5eb 3fa2 6844 c2ba
000002f0: fa4f 95bb 3e80 da2c ff58 f33d e1c7 48bd
00000300: caf5 0080 1b95 b782 d62f 0000 0070 cabc
00000310: 5f12 0000 395d 4229 ce79 6729 8c4a 80bc
00000320: 4ef0 a53d ed21 0000 2807 0bb3 2be7 d2bc
00000330: 6d51 5aa7 6b06 0080 3c08 143e 2184 ca3d
00000340: 2d1b ae3b 1c3f 0100 6e1e 0100 1e7a 999d
00000350: 2552 0080 fe30 3b39 2c59 0180 76fc 0000
00000360: 4c9d c8af 1c3f f0b6 01d2 44b0 80bf 06a7
00000370: 4304 0d3c 999d a0bd 0ba4 8e39 2c06 163e
00000380: def6 5786 155f 0080 db29 0380 9ca7 eea0
00000390: 5b08 0000 c39e f13d 1999 073e 4a70 0000
000003a0: cc63 109b c51d 1f9b 082e 0080 71b0 0000
000003b0: 120a a4bd f548 b8bd c58f 0000 9177 803d
000003c0: 280b 0000 debb a6bd f4c5 0632 b72e 8039
000003d0: 3864 233b 2a97 0000 883e e6bc fcde ec11
000003e0: 3563 54bd ec04 18b5 4d44 e820 3a92 0e3b
000003f0: 25ec 80bc 7063 0c2e fce1 d33d 776a 3bbd
-9.2221e-41 6.6928064e-33 -8.452e-41 0.056868523 -7.477806e-12 -5.6096896e-15 1.16038194e-14 0.037609987
-0.042104427 -1.5487e-41 1.6751284e-10 0.08905998 -2.603583e-16 5.9432e-41 -0.06468914 0.09312879
-0.0054968097 2.834106e-13 -4.0682e-41 8.3805925e-21 1.01834e-40 -3.17621e-05 -2.3952e-41 6.1378e-41
-8.517111e-12 2.5910945e-06 -7.817845e-11 4.650333e-15 0.00031856145 0.14230134 -0.0013155943 -0.049563773
8.9976904e-38 8.5663e-41 7.24822e-40 4.3480687e-18 -7.585e-41 -0.05281308 -0.056250148 -4.0739e-41
7.5744157e-22 -3.650516e-21 -3.44e-41 -2.0721e-41 0.13917555 0.1475114 6.5532e-41 0.012894679
1.34036e-40 0.13558123 8.950638e-09 -0.00048880535 0.001113794 3.2091e-41 0.062377438 -1.0387111e-28
0.09826263 -7.992884e-06 -2.2019486e-19 0.008197879 0.07870015 -2.5802381e-11 -0.04318267 0.0932372
4.2901e-41 2.6604302e-37 6.6853e-41 0.057184286 -4.243e-42 1.71587e-13 1.421659e-14 0.03951334
-0.03360686 -2.53e-41 7.0780595e-07 0.085901186 1.00334085e-14 -6.519e-41 -0.061196715 0.06954215
0.0098059075 1.1677e-41 4.5258e-41 -2.9787771e-21 -2.8797e-41 -4.0654086e-06 -4.9975e-41 4.5971e-41
-1.0288493e-10 0.000103998354 -4.5008813e-11 1.08431915e-14 -0.009857368 0.13826402 0.00029723273 -0.049718063
-1.2143331e-34 2.269e-42 2.6333e-40 -1.7476999e-18 3.46e-42 -0.04761728 -0.052606795 3.7322e-41
1.7623692e-22 -2.0749519e-23 1.25964e-40 4.9669e-41 0.13633382 0.14541565 -2.6287e-41 0.013197722
1.18682e-40 0.13379046 1.2430643e-09 0.00467706 0.00066224154 -4.9235e-41 0.062338937 -1.2056853e-27
0.096595556 3.7787262e-07 -2.9649493e-19 0.0033973418 0.076330975 3.6399606e-11 -0.037827883 0.09146533
2.74562e-07 8.73e-42 -4.3676e-41 -0.030108614 -4.297267e-10 -8.536898e-14 6.5485498e-15 -0.021285893
0.09750417 6.4303e-41 -8.37759e-07 -0.017248446 1.612252e-15 -8.1453e-41 0.15632547 0.12382115
-0.004515121 7.8938e-41 5.0728e-41 1.0674366e-22 -4.0684e-41 -7.273428e-05 7.9688e-41 -9.9814e-41
3.4026663e-11 -0.00019688703 3.4144884e-10 -3.6663848e-16 0.0020162459 -0.07628594 0.00049742166 0.15882616
1.6096461e-35 -4.5717e-41 2.266981e-39 1.8053874e-17 1.36138e-40 0.13198246 0.14528996 -4.6433e-41
-1.5706968e-21 3.335479e-30 -9.805e-42 1.32231e-40 -0.0798772 -0.08949462 1.1684e-41 0.08154502
-5.6796e-41 -0.08279937 4.146832e-08 -0.00055272854 -0.005741809 -1.24559e-40 -0.0342591 2.5419725e-27
-0.056824643 2.5878644e-06 -2.6010175e-18 -0.0014821412 -0.004556653 6.2101704e-12 0.11882209 -0.049018744
-8.8173e-41 -2.6975016e-37 1.716e-41 -0.024711609 6.59e-42 4.315751e-14 5.1397952e-14 -0.015660547
0.08102475 1.217e-41 -3.2369968e-08 -0.025744995 -3.0297718e-15 -2.302e-42 0.14456266 0.09888483
0.005313298 1.14475e-40 1.02752e-40 -4.062503e-21 -2.9468e-41 0.00017851961 -1.23824e-40 9.0566e-41
-3.6491554e-10 -7.1599043e-06 -7.160282e-10 -1.8700048e-15 0.008606973 -0.07842559 0.00027206572 0.14650792
-4.0618375e-35 -3.4109e-41 -2.90521e-40 -4.0429683e-19 2.997e-42 0.117978595 0.13241996 4.0282e-41
-1.1943647e-22 -1.3161791e-22 -1.6513e-41 6.3295e-41 -0.08009733 -0.089982904 5.1575e-41 0.062728055
4.002e-42 -0.081413016 7.844836e-09 0.00024448868 0.0024931561 5.4227e-41 -0.02810599 3.737166e-28
-0.051852424 -5.6631575e-07 3.9347526e-19 0.0021754638 -0.015737602 3.1920633e-11 0.103458375 -0.04575583

fc2.bias f4 [64]
00000000: 62fa 52bc ebdf 263d 0a63 9c3d 5d20 c23d
00000010: d711 9fbb 60ff 563d 883c 103d 8244 283d
00000020: ae6a 393d d335 c33d 2572 d93d 2fa7 66bd
00000030: 436b ae3d f55c 3bbc 279b 57bd bdd2 24bd
00000040: 1853 843c ec19 af3d 9c19 c7bd 1d2d 913b
00000050: 6e0b 4f3d 74b7 7f3d 9c90 f0b9 b7e6 1c3d
00000060: 244e 87bd 8ede 68bd 6111 9a3c 92f4 44bd
00000070: 8ba4 a83b ce6a d6bc 2587 fe3d 8d7c 5e3d
00000080: 651d a5bd a236 dabc 97ac 053d 02df 043d
00000090: 8cab 033e 1155 473c 8e28 d93c 25f9 1bbd
000000a0: fde0 c1bc fea0 1d3d d1ef 023d 060d 903d
000000b0: 29c5 833d 4753 ef3d c51b a53d 5a93 773d
000000c0: a1e8 e53c bb40 cd3d c9bf f63c 7185 4c3d
000000d0: e8c5 ed3b dc8f adbd 18b3 713d bdd1 cc3d
000000e0: 4ff3 f73c 7190 943d fd29 46bd df45 873c
000000f0: 7f95 733d b010 ab3a 2284 7aba 1874 80bc
-0.012877079 0.04074089 0.07636078 0.09478829 -0.0048544216 0.05248964 0.035213977 0.04108096
0.045267753 0.095317505 0.106174745 -0.056311782 0.08516552 -0.011435737 -0.0526382 -0.04024004
0.016152903 0.08549866 -0.097216815 0.0044304268 0.05054801 0.062430814 -0.0004588411 0.038305964
-0.06606701 -0.05685287 0.018807115 -0.048084803 0.005146568 -0.026173975 0.124281205 0.054318
-0.08062247 -0.02663738 0.032635298 0.03243924 0.12858409 0.0121662775 0.026508596 -0.0380794
-0.023666853 0.038483612 0.031966988 0.07033734 0.0643409 0.11685806 0.08061937 0.06044326
0.028065028 0.10022112 0.030120747 0.049931947 0.0072562583 -0.084747046 0.059008688 0.10000942
0.030267386 0.072541125 -0.048379887 0.01651281 0.059468742 0.0013051238 -0.00095564325 -0.015680358

fc3.weight f4 [16, 64]
00000000: 6453 0b3e 822a d03d 8764 81bd 0936 8cbd
00000010: 203c 3b3e 9be7 e9bb de2b 2c3e e0da ecbc
00000020: 81eb 9f3c d24d 403e 8304 43bb a55f 443e
00000030: e404 2f3e 7165 2b3d a616 013e 1e45 5b3d
00000040: a858 a1bc 7048 f7bc 428a f33d d51e a73c
00000050: 646f 3d3e feac fe3d 0c40 7d3d 16c4 343e
00000060: b70f 413e 71cc 843d 20b2 483d 250a 6e3d
00000070: ac65 3a3e 01c0 893d ad25 383e 846e 88bc
00000080: 9ccc 123e 9f3d 0b3e 855c 0c3e c277 363e
00000090: 64c1 343e 82e1 233e 9853 543e 90c3 c53d
000000a0: b2b1 af3d 7d44 883c a032 303e b660 163e
000000b0: 0fd0 8dbd 8cec 9d3c d5d6 373e 06dc 86bc
000000c0: 8d45 103c 7084 693e 9038 173e fa95 7bbd
000000d0: e97a 8a3d 1ae2 da3d e554 cabd bff1 2f3e
000000e0: c7f1 263e 1a6e f1bc 7fb7 a33d cb80 843b
000000f0: 502a 4e3e e7f1 90bb b350 6d3d 61ef c03d
00000100: f2fe d9bd 860c cbbd 2ad8 8d3d c1cf 2c3e
00000110: 34f0 edbd c222 1f3e 56fd e3bd 5f45 a23d
00000120: 882f ce3d 17c3 d4bd e06d 123e d298 f5bd
00000130: 4b25 d9bd 9243 373d 7d05 09bb 23e7 253d
00000140: fcfc a43d 89fa 063e 620d 85bd 49b2 c23d
00000150: 2433 dabd bf17 6fbd ef6f 483d 90e0 e0bd
00000160: 65b7 ebbd 01a4 cdbc aeb4 b23d 2072 04bc
00000170: 36b5 d0bd 8a5e 073c fe18 bbbd 7e13 d23d
00000180: 30d9 dbbd 6943 d1bd 94fa 9dbd a7bb 13be
00000190: 5f37 75bd e538 dcbd 0c6b b3bd 0193 9abd
000001a0: f313 883c a744 8a3d 8958 11be 0582 03be
000001b0: ef66 e03d 02e9 293e c4d7 0abe b06f f03d
000001c0: c26c ea3d 7c3a c0bd e2de aebd 12bb 043e
000001d0: cf05 c33d a244 02be 2b9a 113e 3a12 1cbe
000001e0: 51f7 10be e8ba f83d d657 ab3c 52d3 343d
000001f0: 2836 bebd 30ef f03c 6136 253d 57d5 f8bd
00000200: 416e f2bc e0be 33bd f6f3 613e d285 443e
00000210: 7700 983c f1f4 503e 34c7 e7bd 132c 7d3e
00000220: ce21 593e 349e efbd c327 083e 42da f13d
00000230: e10f eabd 990a 3e3e d339 863e 9aba 5a3e
00000240: f9dd 4f3e 5af2 5e3e e15a 333e f7d6 413e
00000250: 9c29 c6bd 2bbe 86bd a102 283e 7034 ebbd
00000260: f2e6 7b3d 3ff5 623e 43e5 413e 9824 473e
00000270: 1dc2 33bc 5125 823e 7c58 0ebe b48a 563e
00000280: 073a 1e3d 1ee4 9bbd 5cc2 babd 5fdf 81bd
00000290: 6825 3dbe b1a6 d8bb 0e3c 89bd 72b6 ebbc
000002a0: b0b6 7a3e 56c0 803e b396 b0bd 6c70 6abd
000002b0: 7398 623e 7ef5 483e 73c5 c1bd aba6 4c3e
000002c0: 9ef5 393e 96ec d6bd 98bd 84bd 22f1 6a3e
000002d0: 9507 713e a301 293e 61ba 3f3e 444a 1dbe
000002e0: f9ce a3bd ccac 5a3e 0118 4a3e 96e4 873e
000002f0: 4b19 acbd d25a 333e 5582 443e 475d 42bb
00000300: 8919 bcbd 9772 96bd 1780 3a3e 070d 3c3e
00000310: 5c68 cbbd b1d2 0c3e 76f8 a9bd eec4 123e
00000320: c0ab 263e 014f 09be 4731 113e 2d01 933c
00000330: a887 82bd ec74 0f3e d55b 013e 33b2 173e
00000340: ebd0 403e 48c3 443e cb2b eb3d 445e 193e
00000350: 1438 dabd 678b b0bd dd91 f63d 3034 5dbd
00000360: 048e cbbc 345f 433e 6f66 253e 67e4 cf3d
00000370: d4a4 90bd 4a65 e03d 7006 d4bd 0c64 2a3e
00000380: b5dc 523c 2aa3 a8bc 9ed9 93bd c15a debd
00000390: 96cc 05be 5f7c b8bd 0b82 c1bd adb3 4abd
000003a0: 7fc7 dd3d aeb0 293e c5bf a6bd 6480 ccbc
000003b0: e3ad 213e 26b0 4c3e 5d26 b6bd faf1 3e3e
000003c0: 8024 2c3e 8488 26be b610 c9bc 8dee f63d
000003d0: 5eb1 023e 0351 483d f1f5 143e c720 d4bd
000003e0: 494c a8bd e751 453e 5ac7 033e dd40 313e
000003f0: 4a19 a9bd 04b2 3c3e 07db 383e ec25 aabd
0.1360603 0.10164358 -0.06318002 -0.06846244 0.18284655 -0.007138205 0.16813609 -0.028912961
0.019521477 0.18779686 -0.0029757328 0.1917711 0.1709171 0.04184479 0.12606296 0.053532712
-0.019695595 -0.030185908 0.11891605 0.020400444 0.18499523 0.124353394 0.061828658 0.17652926
0.18853651 0.064843066 0.048998 0.058115143 0.18202847 0.06726075 0.17983122 -0.01665426
0.14335865 0.13597725 0.13707168 0.17819121 0.17651898 0.16003993 0.20735013 0.09656441
0.085788146 0.01663422 0.17206812 0.1468533 -0.0692445 0.019277833 0.17953046 -0.016462337
0.008805645 0.22804427 0.1476767 -0.061422326 0.067617245 0.10687657 -0.098794736 0.17182063
0.16303168 -0.029471446 0.079939835 0.0040436736 0.20133328 -0.0044233683 0.05793829 0.09420658
-0.1064433 -0.09914498 0.06925996 0.16876127 -0.11618081 0.15540603 -0.11132304 0.07923388
0.100676596 -0.10388773 0.14299726 -0.11992039 -0.10602816 0.044742174 -0.0020907812 0.040503632
0.080560654 0.13181509 -0.06496693 0.095066614 -0.106542856 -0.058372255 0.048934873 -0.10980332
-0.11509589 -0.025102617 0.08725868 -0.00808385 -0.10190813 0.008262286 -0.09135626 0.10257624
-0.107347846 -0.102179356 -0.077138096 -0.14427052 -0.05986726 -0.10753039 -0.08760652 -0.0754757
0.016611075 0.06751376 -0.1419393 -0.12842567 0.10957133 0.16592792 -0.1355887 0.11740053
0.11446525 -0.09386155 -0.08538605 0.12961987 0.09522592 -0.12721494 0.14218967 -0.15241328
-0.14156844 0.121450245 0.020915907 0.044146843 -0.09287673 0.029410928 0.040335063 -0.12150066
-0.029593589 -0.043883204 0.2206572 0.19191673 0.01855491 0.20405938 -0.11317292 0.24723844
0.21204302 -0.11700097 0.13296418 0.118092075 -0.1142881 0.1855873 0.2621599 0.21360245
0.2029952 0.21772137 0.17515136 0.18929659 -0.09675905 -0.065792404 0.16407253 -0.11484611
0.061499543 0.22163866 0.18935113 0.19447553 -0.010971573 0.25419095 -0.13900942 0.20951349
0.038629558 -0.07611869 -0.09119102 -0.06341433 -0.184713 -0.006611668 -0.06700908 -0.02877352
0.24483752 0.2514674 -0.086224936 -0.05723612 0.22128467 0.19624898 -0.094614886 0.19985454
0.18160102 -0.10494344 -0.06481475 0.22943547 0.23538049 0.1650453 0.18723442 -0.15360361
-0.07998461 0.2135498 0.1973572 0.26541585 -0.08403262 0.17515114 0.19190343 -0.0029657648
-0.09184558 -0.07346075 0.18212925 0.18364345 -0.09932014 0.13752247 -0.08299343 0.14332935
0.16276455 -0.13409044 0.14178954 0.017944897 -0.063735306 0.14009446 0.12632687 0.14814071
0.18829696 0.19215119 0.11482962 0.14977366 -0.10655227 -0.08620339 0.1203954 -0.054004848
-0.024847992 0.19079286 0.16152357 0.10150986 -0.070626885 0.10956819 -0.1035279 0.16639727
0.0128700035 -0.020585615 -0.072192416 -0.10857154 -0.13066325 -0.09008097 -0.09448632 -0.04948776
0.108290665 0.16571304 -0.08142046 -0.024963565 0.15788989 0.1998907 -0.08894036 0.18646994
0.16810799 -0.16263014 -0.024544101 0.12057219 0.12762973 0.048905384 0.14546944 -0.10357814
-0.08217675 0.19269525 0.12869015 0.173099 -0.08256777 0.18427283 0.18052302 -0.08308014

fc3.bias f4 [16]
00000000: 5d89 bd3e 95f3 103f 99db d0bd 6237 653e
00000010: c457 95bd 5957 e7bd 55c0 21bd 20c3 333f
00000020: a3b3 90bd 2fea d43d b305 3abe 7425 c8bd
00000030: 3d98 6dbe 68cf d8be 19a1 00bf f804 f5be
0.37018862 0.56621677 -0.10198135 0.22384408 -0.072921306 -0.11295957 -0.039490063 0.7021961
-0.07065513 0.103962295 -0.18166237 -0.097727686 -0.23202606 -0.42345738 -0.50245816 -0.47855353
