MBTI/ANN/Model/lr=0.001 3HL hd_size = 64 l2=0.001/best_model.pth (torch, 37871 bytes, 6 tensors)

fc1.weight f4 [64, 57]
0	0xbe2f7499	-0.17134322
1	0x3d5191a5	0.051164288
2	0x3e3bdd6a	0.18346182
3	0xbd506627	-0.05087867
4	0xbe298e4d	-0.1655819
5	0xbe9dde9c	-0.308339
6	0xbed5c39c	-0.417508
7	0xbe93dad4	-0.2887789
8	0xbe4f0740	-0.2021761
9	0xbe133713	-0.14376478
10	0x3c79352d	0.015210432
11	0xbdcb4505	-0.09925274
12	0x3e6ead00	0.23308182
13	0x3ebbf214	0.36708128
14	0x3d47d959	0.048791263
15	0x3d06177e	0.032737248
16	0x3e5718e2	0.21005586
17	0xbd063f00	-0.032774925
18	0x3e528bef	0.20561193
19	0xbe57286e	-0.21011516
20	0x3e09ebc5	0.13468845
21	0x3e0fe3ab	0.14051692
22	0xbe7c8ab4	-0.24662286
23	0x3e32e3e4	0.17469746
24	0xbdd3e3ca	-0.10346182
25	0xbbc70c80	-0.006074488
26	0xbe50d483	-0.20393567
27	0x3eab36e1	0.33440307
28	0xbe865685	-0.26237884
29	0xbd8c90f8	-0.06863588
30	0x3e280b8a	0.16410652
31	0x3dbd5c8c	0.092461675
32	0xbec7b43d	-0.39004698
33	0x3da6dbd0	0.08147395
34	0xbec93ba3	-0.39303312
35	0x3e530d82	0.20610622
36	0xbe98a65a	-0.29814416
37	0xbd337e20	-0.043821454
38	0x3e508835	0.20364459
39	0xbdc81316	-0.09769265
40	0xbe1ef108	-0.15521634
41	0xbeabf158	-0.33582568
42	0xbd15853e	-0.036504023
43	0xbd717300	-0.058947563
44	0x3e5f71e2	0.21820787
45	0xbdfe2a85	-0.12410454
46	0x3d3c976c	0.046042845
47	0x3e0e0de4	0.13872486
48	0x3e0fb837	0.14035116
49	0x3d29647d	0.0413556
50	0xbc98a224	-0.018632002
51	0xbd047a68	-0.0323433
52	0xb191c3ba	-4.242307e-09
53	0xb945ab43	-0.00018851184
54	0xa4f27ccd	-1.0516219e-16
55	0xba8a8f73	-0.0010571316
56	0xa4f27ccd	-1.0516219e-16
57	0xbd1f76a6	-0.03893151
58	0xbd4df9b7	-0.050286975
59	0x3c8ec1df	0.01742643
60	0xbc4b8a64	-0.012423132
61	0xbd6b9ac3	-0.05752064
62	0xbc233d00	-0.009963274
63	0xbc3e7383	-0.01162422
64	0xbcecf1bc	-0.028923862
65	0xbc29d65c	-0.010366049
66	0xbd50824d	-0.050905515
67	0xbc8f41ba	-0.017487396
68	0xbc05c1be	-0.0081638675
69	0xbc9f108c	-0.01941707
70	0xbd003fe3	-0.031310927
71	0xbcf60bb2	-0.030034874
72	0xbd003f79	-0.031310532
73	0xbce93078	-0.028465495
74	0xbc72f360	-0.014828533
75	0xbcd82f94	-0.026389875
76	0xbcd73e78	-0.026274905
77	0x39c8d326	0.0003830429
78	0x3b8895b4	0.0041682366
79	0x3c052824	0.008127246
80	0x3c97efaa	0.018546898
81	0x396b0961	0.0002241484
82	0xbccc6044	-0.024948247
83	0xbceeffbe	-0.029174682
84	0x3aba5af1	0.0014217776
85	0xbca98cb2	-0.020696972
86	0xbd1b0cf6	-0.037854157
87	0x3c82f6e4	0.015986867
88	0xbcfff485	-0.031244526
89	0xbd18c7c6	-0.037299894
90	0xbb8c8572	-0.004288369
91	0x3bab1d44	0.0052219946
92	0x3b8e1d76	0.004337008
93	0xbbd862c0	-0.006603569
94	0xbb8ee42d	-0.0043606968
95	0x3bc2bddf	0.0059430446
96	0x3c59e1ee	0.013298495
97	0xbd0b37ab	-0.033988636
98	0xbd12e6c2	-0.0358646
99	0xbc3fd815	-0.011709233
100	0xbcb8133a	-0.022470105
101	0xbd29c169	-0.041444216
102	0xbcdfe3ac	-0.027330242
103	0xbbcec54a	-0.00631014
104	0x3af8fa2a	0.0018995453
105	0x3ba6af6b	0.0050868294
106	0x3c28fd4c	0.010314297
107	0xac9befcc	-4.4319878e-12
108	0x2d198fce	8.728974e-12
109	0x36c36680	5.8233854e-06
110	0x2ffcf73a	4.6014198e-10
111	0x3773e80e	1.4537958e-05
112	0x3773e80e	1.4537958e-05
113	0x0002c2d5	2.53564e-40
114	0x3e3273f5	0.17427047
115	0x3e248393	0.16065817
116	0xbe754208	-0.2395097
117	0xbe0b60f7	-0.13611208
118	0xbddf0ae7	-0.10890751
119	0xbedd4b6a	-0.432216
120	0xbe0f0a97	-0.13968883
121	0xbe1c51a6	-0.15265521
122	0xbe25d162	-0.16193154
123	0xbe75441e	-0.23951766
124	0xbde55647	-0.11198097
125	0xbe4cdad0	-0.20005345
126	0x3c8c6568	0.017138198
127	0xbcf11000	-0.029426575
128	0xbe1ec978	-0.15506542
129	0xbea294a0	-0.31754017
130	0xbe469bbc	-0.19395345
131	0xbe53d07e	-0.20685002
132	0x3f00ce0d	0.5031441
133	0x3e146f16	0.14495501
134	0x3dc32219	0.09527988
135	0x3e05aa9b	0.13053362
136	0x3e0ae242	0.13562873
137	0x3ab24d4b	0.0013603357
138	0x3eb3f655	0.35148874
139	0x3b36d827	0.0027899833
140	0x3e353e34	0.1769951
141	0x3baf0a3f	0.0053417976
142	0x3d9e76e2	0.07737519
143	0xbe029bb4	-0.12754709
144	0x3c9403a8	0.01806815
145	0x3ad296a4	0.0016066623
146	0xbc9a5fbb	-0.018844476
147	0x3e164408	0.1467439
148	0xbec1fa9d	-0.37886515
149	0x3e330a9a	0.17484513
150	0xbea03588	-0.3129084
151	0xbcbc68a2	-0.022999112
152	0x3ece650e	0.40311474
153	0xbe8cce7a	-0.2750128
154	0xbcd83b4d	-0.026395464
155	0x3d0c8044	0.03430201
156	0x3d1182f6	0.035525285
157	0x3dbf1aec	0.09331307
158	0x3c633882	0.013868453
159	0xbd957e3a	-0.072994664
160	0xbe6f640c	-0.23378009
161	0xbe1cd4c1	-0.15315534
162	0xbe091cb5	-0.13389857
163	0x3df9b70f	0.12193119
164	0x8002b0ce	-2.47097e-40
165	0x80023a09	-2.0449e-40
166	0x8001eb55	-1.76257e-40
167	0x80021035	-1.89485e-40
168	0x8001d782	-1.69145e-40
169	0x80022189	-1.95701e-40
170	0x8001d782	-1.69145e-40
171	0xbbed308e	-0.007238454
172	0xbc1bd48f	-0.009511127
173	0xbc76488b	-0.015031944
174	0xbbee3a2d	-0.0072701187
175	0x3c34db44	0.011038605
176	0xbd3d2f73	-0.04618783
177	0xbd04c07e	-0.032410137
178	0x3b691d3b	0.0035570401
179	0xbd5078a9	-0.05089632
180	0xbcf0c35b	-0.029390028
181	0xbb957125	-0.004560607
182	0xbbd4254c	-0.0064741727
183	0xba458aad	-0.0007535618
184	0x3b1e7d13	0.0024183437
185	0xbd032522	-0.032017834
186	0xbc6d06f7	-0.014466993
187	0x3c4853e3	0.012227031
188	0xbbeefe0f	-0.0072934697
189	0xbccb8787	-0.024844898
190	0xbcc14523	-0.023592537
191	0xbc97345e	-0.018457588
192	0xbcddd33f	-0.027078269
193	0xbbbd890b	-0.005784159
194	0xbc38c922	-0.011278423
195	0xbcf2eae9	-0.02965303
196	0xbd123c01	-0.035701755
197	0xbd0e385f	-0.03472173
198	0xbcef9bd3	-0.029249107
199	0xbcc3b0a8	-0.023887947
200	0x3bb5e155	0.0055505433
201	0xbc9e1669	-0.019297795
202	0xbcaf4628	-0.021395758
203	0xbc39c609	-0.011338719
204	0xbc32952b	-0.010899822
205	0xbc884a5d	-0.016637022
206	0xbcade6cd	-0.021228218
207	0xbcb135f4	-0.021632172
208	0xbd2ce71c	-0.04221259
209	0xbd1a4c1b	-0.037670236
210	0xbc91f210	-0.01781562
211	0xbc417e5a	-0.01180991
212	0x3cd4e869	0.025989728
213	0x3d06dadf	0.032923575
214	0xbc905431	-0.01761827
215	0x3c191599	0.009343528
216	0x3c87887a	0.01654457
217	0xbca3a5d9	-0.019976543
218	0x3ba8628a	0.0051387
219	0xbb940c74	-0.004518086
220	0xbc421d1c	-0.0118477605
221	0x800165e0	-1.28381e-40
222	0x800165e0	-1.28381e-40
223	0x80007b79	-4.4294e-41
224	0x8000499f	-2.641e-41
225	0x8002cacf	-2.56425e-40
226	0x80037e00	-3.20707e-40
227	0x80025f54	-2.17868e-40
228	0xb48e5bb1	-2.6516275e-07
229	0xb7e013ab	-2.671204e-05
230	0xb7b760d9	-2.1860398e-05
231	0xb648a2da	-2.9897114e-06
232	0xb277a065	-1.4413762e-08
233	0xb393018e	-6.845504e-08
234	0xb89d7cb2	-7.50957e-05
235	0xb565199a	-8.5346403e-07
236	0xb907e333	-0.00012959242
237	0xb54bb1aa	-7.588193e-07
238	0xb7bae4b5	-2.2279428e-05
239	0xb825970c	-3.947974e-05
240	0xb7d36ed6	-2.5204772e-05
241	0x2f6f6e81	2.1776182e-10
242	0xba083113	-0.0005195301
243	0xb83d7dfc	-4.5178444e-05
244	0xb8c294aa	-9.278332e-05
245	0xb8c7b6d1	-9.523112e-05
246	0xb07979dd	-9.075885e-10
247	0xb0875c42	-9.848764e-10
248	0xb96da870	-0.00022664829
249	0x8c805896	-1.9774838e-31
250	0x2ed6a4fd	9.760901e-11
251	0xb15fc86b	-3.2564695e-09
252	0xb7a1ce19	-1.9288667e-05
253	0x2f18d6c8	1.3900625e-10
254	0xa7f33a5d	-6.7509326e-15
255	0xb7e5a3df	-2.7375236e-05

fc1.bias f4 [64]
0	0x3e9022a8	0.2815144
1	0xbc4d8ac8	-0.012545295
2	0x3e848352	0.2588144
3	0xbbef234a	-0.007297908
4	0x9d9db726	-4.1746925e-21
5	0xb9189a6b	-0.00014553375
6	0xae58a5e9	-4.926007e-11
7	0xb6f80a17	-7.3921506e-06
8	0xb59641f5	-1.1195067e-06
9	0x9cb875e9	-1.2206578e-21
10	0xb0caf459	-1.4766882e-09
11	0xb7cf2455	-2.4693241e-05
12	0x00009c2d	5.6025e-41
13	0xb8ff21ab	-0.00012165619
14	0x0003d4f8	3.51905e-40
15	0x8001b4e0	-1.56721e-40
16	0x8f690804	-1.1489331e-29
17	0x3c01fa2b	0.00793318
18	0x3a2712a8	0.00063733244
19	0x3eb179e3	0.34663305
20	0x80035569	-3.06146e-40
21	0x8005f387	-5.46539e-40
22	0xbc84d938	-0.01621686
23	0x28b69f74	2.027521e-14
24	0x36bf4a20	5.700873e-06
25	0x8bac94b3	-6.647573e-32
26	0x3e325106	0.1741372
27	0x9a17fe4a	-3.143148e-23
28	0xa6b02e14	-1.2224943e-15
29	0xaa159126	-1.3284217e-13
30	0x0000c4c2	7.0583e-41
31	0xaf64bff3	-2.0804673e-10
32	0x800200e9	-1.83997e-40
33	0xa53ee1f1	-1.6556425e-16
34	0x8000ef23	-8.5786e-41
35	0x3ec34db3	0.38145217
36	0x80015969	-1.2391e-40
37	0xbb54ddc5	-0.0032480818
38	0xba041657	-0.0005038729
39	0xb57b437a	-9.360298e-07
40	0x0003b849	3.41616e-40
41	0x80015e81	-1.25737e-40
42	0x000441e6	3.90982e-40
43	0xb46b9385	-2.1939748e-07
44	0x0001a560	1.51161e-40
45	0x80038789	-3.24127e-40
46	0x00017371	1.33248e-40
47	0xa6534202	-7.329479e-16
48	0x20506ed3	1.7654954e-19
49	0x3ea5005a	0.3222683
50	0xbb4f665f	-0.0031646711
51	0x8000af07	-6.2788e-41
52	0x80043358	-3.8576e-40
53	0xbce246f8	-0.027621731
54	0xbc69d0b0	-0.014270946
55	0xb4b6752c	-3.3985395e-07
56	0xbba66afc	-0.0050786715
57	0xb73306a4	-1.0670778e-05
58	0xb27ca8de	-1.47067265e-08
59	0x93205f48	-2.0241816e-27
60	0xacb6c019	-5.1940782e-12
61	0xbcd705be	-0.026247855
62	0x80074f55	-6.71307e-40
63	0x80019048	-1.43594e-40

fc2.weight f4 [64, 64]
0	0x00008f8c	5.1495e-41
1	0x8001fe45	-1.8305e-40
2	0xba610065	-0.00085831276
3	0x80072258	-6.55169e-40
4	0x80052f9c	-4.76257e-40
5	0x8000ed1a	-8.5056e-41
6	0x0001dc37	1.70834e-40
7	0x800689f5	-6.00503e-40
8	0x34388ab8	1.7186801e-07
9	0x30c10d7c	1.4046431e-09
10	0x80012454	-1.04868e-40
11	0x00059c15	5.15169e-40
12	0x0002e8e2	2.67214e-40
13	0x0001dde9	1.71442e-40
14	0x8003794b	-3.19018e-40
15	0x00000ceb	4.634e-42
16	0x000745c6	6.67878e-40
17	0x800174e4	-1.33768e-40
18	0x8001854c	-1.39653e-40
19	0xb5c6a02b	-1.4798765e-06
20	0x8001932f	-1.44635e-40
21	0x80027943	-2.27172e-40
22	0x0001c803	1.63586e-40
23	0x80013063	-1.09193e-40
24	0x80005ecd	-3.4008e-41
25	0x31ce26dd	5.9998073e-09
26	0x8c11ab7f	-1.1222001e-31
27	0x30ca7273	1.4729963e-09
28	0x2d6a1e14	1.3308039e-11
29	0x80023e35	-2.05987e-40
30	0x0005993f	5.14152e-40
31	0x00058a54	5.088e-40
32	0x80056d62	-4.98417e-40
33	0x8005e8cc	-5.42689e-40
34	0x1f0fb532	3.043131e-20
35	0xb3198f36	-3.5753338e-08
36	0x00023f4e	2.0638e-40
37	0x00011919	1.00839e-40
38	0x800085d1	-4.8004e-41
39	0x8001cd9e	-1.65597e-40
40	0x800115ba	-9.963e-41
41	0x0001980d	1.46381e-40
42	0x8000d082	-7.4799e-41
43	0x8000f017	-8.6128e-41
44	0x8001d95c	-1.6981e-40
45	0x00028983	2.33001e-40
46	0x0000fb1a	9.0078e-41
47	0x00036d16	3.14639e-40
48	0x8001f42f	-1.79432e-40
49	0x2a8cfc3b	2.5044016e-13
50	0x8006ad08	-6.13085e-40
51	0x0001bb92	1.59123e-40
52	0x800171fe	-1.32728e-40
53	0xa8b208ae	-1.9765734e-14
54	0x8002bad0	-2.50687e-40
55	0x000054a8	3.0369e-41
56	0xad3f9f17	-1.0892418e-11
57	0x000175fe	1.34163e-40
58	0x80017dcb	-1.36962e-40
59	0x0001c634	1.62937e-40
60	0x80037313	-3.16787e-40
61	0x8001fb14	-1.81905e-40
62	0x80018961	-1.41118e-40
63	0xb68be344	-4.16898e-06
64	0x8d2e180e	-5.3646844e-31
65	0x80030352	-2.76698e-40
66	0x8001a547	-1.51126e-40
67	0x80018bec	-1.4203e-40
68	0x0002431a	2.07742e-40
69	0x8002225c	-1.95997e-40
70	0x800281b0	-2.30194e-40
71	0x80023bc4	-2.05111e-40
72	0x80000329	-1.134e-42
73	0x0005ccf6	5.32704e-40
74	0x8006e4cc	-6.3309e-40
75	0x8000e98f	-8.3785e-41
76	0xab4723de	-7.074878e-13
77	0x80021bb4	-1.93609e-40
78	0x80002d44	-1.6238e-41
79	0x80019bef	-1.47774e-40
80	0x800104b1	-9.3518e-41
81	0x8001a30a	-1.50323e-40
82	0x80022494	-1.96793e-40
83	0x8001150c	-9.9386e-41
84	0x0002aefc	2.46444e-40
85	0x800222fd	-1.96222e-40
86	0x0a82928e	1.2573672e-32
87	0x80018118	-1.38146e-40
88	0x80020872	-1.867e-40
89	0x8000ef7e	-8.5914e-41
90	0x800119cc	-1.0109e-40
91	0x80078763	-6.91416e-40
92	0x331c2812	3.6358024e-08
93	0x80002d68	-1.6289e-41
94	0x000016cb	8.177e-42
95	0xab56094c	-7.6040975e-13
96	0x8001fa98	-1.81732e-40
97	0x8005d4f7	-5.35575e-40
98	0x248d685c	6.1325794e-17
99	0x8001a60c	-1.51402e-40
100	0x80025db0	-2.1728e-40
101	0x00011e75	1.02761e-40
102	0x0003ea60	3.59584e-40
103	0x8001be2a	-1.60054e-40
104	0x325fa7c2	1.3018452e-08
105	0x80014ece	-1.20105e-40
106	0x000020e6	1.1802e-41
107	0x8000b153	-6.3612e-41
108	0x8001990c	-1.46738e-40
109	0x8001b797	-1.57695e-40
110	0x000577d7	5.02168e-40
111	0x800165eb	-1.28397e-40
112	0x0002e8a6	2.6713e-40
113	0xb489634e	-2.5590492e-07
114	0x00020628	1.8588e-40
115	0x80015c6b	-1.24989e-40
116	0x8001d5fb	-1.68597e-40
117	0x80022248	-1.95969e-40
118	0x37abf5dc	2.0499276e-05
119	0x800163b6	-1.27605e-40
120	0xa9945efc	-6.5889975e-14
121	0x00019232	1.4428e-40
122	0x800341f2	-2.99163e-40
123	0x80012b67	-1.07405e-40
124	0x800374e6	-3.17442e-40
125	0x33585fa8	5.0378418e-08
126	0x0002b776	2.49484e-40
127	0xb425feec	-1.5459563e-07
128	0x3ad408af	0.0016176904
129	0x00018bc8	1.4198e-40
130	0xbcebda49	-0.02879061
131	0xbc9ea23a	-0.019364465
132	0x0002c36f	2.5378e-40
133	0x00076335	6.78437e-40
134	0x8001bc22	-1.59325e-40
135	0xbc228064	-0.009918306
136	0x960ef4ec	-1.1547952e-25
137	0x3a85e703	0.0010215942
138	0x35504c45	7.7597025e-07
139	0xba69bb4b	-0.00089161535
140	0x00013bbc	1.13264e-40
141	0xbca69825	-0.02033622
142	0x8001c2b9	-1.61689e-40
143	0x8003bae7	-3.42554e-40
144	0xafa64e68	-3.0250935e-10
145	0xbb9f3b99	-0.0048593995
146	0xbc58d35b	-0.013233985
147	0x3c4fb642	0.012677731
148	0x00011d99	1.02453e-40
149	0x00046867	4.04794e-40
150	0xbd14c53d	-0.036320914
151	0x80064317	-5.7508e-40
152	0x0001aa51	1.52934e-40
153	0x000564bb	4.95313e-40
154	0x3e1afc4b	0.15135305
155	0x800562b8	-4.94591e-40
156	0x8000fc2f	-9.0466e-41
157	0x0000c02d	6.894e-41
158	0x00038d5b	3.26215e-40
159	0x00017517	1.3384e-40
160	0x12148c8c	4.6873803e-28
161	0x00011330	9.8719e-41
162	0xa3041194	-7.159457e-18
163	0xbc9d2504	-0.01918269
164	0x0001ee28	1.7727e-40
165	0xbcac05d8	-0.02099888
166	0x296303f8	5.0407568e-14
167	0x80021cff	-1.94073e-40
168	0x8002cb97	-2.56705e-40
169	0x000014f7	7.521e-42
170	0x8001a5e7	-1.5135e-40
171	0x34add32c	3.237741e-07
172	0x00022e62	2.0031e-40
173	0x80008dbb	-5.0843e-41
174	0x00013c50	1.13472e-40
175	0x0001fc9c	1.82455e-40
176	0x000156ab	1.22926e-40
177	0x3d63c5ce	0.055608563
178	0xbcfd37d6	-0.030910414
179	0x80025f0e	-2.1777e-40
180	0x8002d086	-2.58475e-40
181	0xb9511d2d	-0.00019942662
182	0x80054c4b	-4.86546e-40
183	0x80057a76	-5.03108e-40
184	0xbd00c078	-0.031433553
185	0x00052696	4.7302e-40
186	0x87c12b46	-2.9064846e-34
187	0x9d9684b5	-3.9841885e-21
188	0x800332d3	-2.93739e-40
189	0x380e1080	3.3870805e-05
190	0x29c13a00	8.580983e-14
191	0x0001b1de	1.55642e-40
192	0xba79a4cc	-0.0009523153
193	0x000399dd	3.30702e-40
194	0x0005f62d	5.47489e-40
195	0x800149b0	-1.1827e-40
196	0x00001c3e	1.0131e-41
197	0x80013290	-1.09974e-40
198	0x80018810	-1.40646e-40
199	0x80013d17	-1.1375e-40
200	0x8001bd0c	-1.59653e-40
201	0x2fe008bb	4.0751566e-10
202	0x8000d1d5	-7.5274e-41
203	0x000073c7	4.1533e-41
204	0xb16b40d6	-3.4233856e-09
205	0x8001cf27	-1.66148e-40
206	0x8001b93d	-1.58286e-40
207	0x0002b762	2.49456e-40
208	0x0000ac0b	6.1717e-41
209	0x800273c6	-2.25203e-40
210	0x0000289e	1.4571e-41
211	0xa2a52ca9	-4.4770625e-18
212	0x80023e7a	-2.06083e-40
213	0x0002d93d	2.61601e-40
214	0xad934529	-1.6742678e-11
215	0x000061c5	3.5073e-41
216	0x000208fa	1.86891e-40
217	0xae66381c	-5.234578e-11
218	0xa4164a6e	-3.258911e-17
219	0x00018272	1.3863e-40
220	0x8002d28d	-2.59202e-40
221	0x800163b9	-1.27609e-40
222	0x80029d60	-2.40127e-40
223	0x00004906	2.6196e-41
224	0xae065afc	-3.0548883e-11
225	0x800165a0	-1.28292e-40
226	0x80049771	-4.21669e-40
227	0xb487f825	-2.5326258e-07
228	0x0001ac02	1.5354e-40
229	0x80014f94	-1.20383e-40
230	0x0001f6b0	1.8033e-40
231	0x80026d1d	-2.22813e-40
232	0xa9854693	-5.918629e-14
233	0x000092df	5.2687e-41
234	0x8005f4ea	-5.47036e-40
235	0x0000f10f	8.6476e-41
236	0x800585bc	-5.07152e-40
237	0xb1219ccc	-2.3517712e-09
238	0x8001b043	-1.55066e-40
239	0x800171e4	-1.32692e-40
240	0x00024d7e	2.1147e-40
241	0xba1364e9	-0.0005622642
242	0x8000f6f5	-8.8591e-41
243	0x8004eec6	-4.52998e-40
244	0x00052592	4.72655e-40
245	0x2d9faa3a	1.8151803e-11
246	0x80073844	-6.63033e-40
247	0x000227a6	1.97894e-40
248	0x80019837	-1.4644e-40
249	0x80017436	-1.33524e-40
250	0x80041687	-3.75423e-40
251	0xa726b27a	-2.313388e-15
252	0x80020d50	-1.88447e-40
253	0x0002c273	2.53426e-40
254	0x0001b056	1.55093e-40
255	0x8003d658	-3.52399e-40

fc2.bias f4 [64]
0	0xb5ecfd95	-1.7657172e-06
1	0xa0512638	-1.7715634e-19
2	0xbde96fa2	-0.113982454
3	0xbaa42a65	-0.0012524842
4	0x3d4aa94d	0.049477864
5	0xbd253be0	-0.040340304
6	0xbd910949	-0.07081849
7	0x3a3f16cd	0.00072894694
8	0x3d6f6445	0.058445234
9	0xbcbfeef6	-0.023429375
10	0x3dbb5a05	0.09148029
11	0xae9a9ee9	-7.031337e-11
12	0x3e48276a	0.19546285
13	0x3c8e0552	0.017336521
14	0xb15c5427	-3.2062049e-09
15	0x3df400c7	0.11914211
16	0x3d220346	0.039553903
17	0x3c1707a2	0.009218128
18	0x3e2caa3f	0.16861819
19	0xbc802b6e	-0.015645709
20	0xbd4c210c	-0.049836203
21	0xbd04ac42	-0.03239084
22	0xbce1997f	-0.027539013
23	0x3e477f47	0.19482146
24	0x3dceab0d	0.10091219
25	0xbc55d2d0	-0.01305075
26	0x3dc3d50c	0.0956212
27	0xbd7d48d8	-0.061837047
28	0xbd0a024a	-0.03369359
29	0x3be21dc7	0.0069005224
30	0xb6a1fbe9	-4.8275e-06
31	0xbd9d33f0	-0.07675922
32	0x3e040a0f	0.12894462
33	0xb9bbc726	-0.00035815797
34	0xbd7768ad	-0.06040256
35	0xbc6adb2b	-0.01433448
36	0x3d856863	0.06514051
37	0x3e300490	0.1718924
38	0x3dbef2cd	0.09323654
39	0x3d28a7c2	0.04117561
40	0x3e470a55	0.19437535
41	0xbe3b9550	-0.18318677
42	0xbde91ca5	-0.11382417
43	0xbb83a219	-0.0040171263
44	0x3d97ec2e	0.074180946
45	0x3d473a82	0.04863978
46	0x3ea705e1	0.32621673
47	0xbdedb9b9	-0.116076894
48	0x3c89de01	0.016829493
49	0xbc433875	-0.011915316
50	0xbe08ee40	-0.13372135
51	0xbe0ec41c	-0.13941997
52	0x86b694a6	-6.867921e-35
53	0x3e08821f	0.13330887
54	0x3e4a2e55	0.19744237
55	0xbd83f653	-0.06443467
56	0xbbf70a5e	-0.0075390777
57	0x3cd5a45c	0.02607935
58	0xbd073639	-0.033010695
59	0x3de1f96c	0.110339016
60	0x3cbfbb38	0.023404703
61	0xbb373c80	-0.0027959645
62	0x3c511390	0.012761012
63	0xba9faf3c	-0.0012182961

fc3.weight f4 [16, 64]
0	0xb0a3d8e3	-1.1921454e-09
1	0xae713a1f	-5.4848678e-11
2	0xbd966018	-0.07342547
3	0x3592647d	1.0907094e-06
4	0xbe609375	-0.2193125
5	0xbd0e3773	-0.03472085
6	0xbe1c65ef	-0.1527326
7	0xbdbb039d	-0.091315486
8	0x3c3f223a	0.011665875
9	0x3d85f459	0.06540746
10	0xbdeb797d	-0.114977814
11	0x893075cf	-2.1240623e-33
12	0xbd1cc673	-0.038275193
13	0xbca34bc3	-0.019933587
14	0xb866bf84	-5.5014636e-05
15	0xbd888780	-0.066664696
16	0xbe13eb53	-0.14445238
17	0xbd6217a8	-0.05519834
18	0xbe0b2755	-0.13589223
19	0xbe140feb	-0.14459197
20	0x3d65840b	0.05603413
21	0xbe13b7de	-0.14425609
22	0xbdd75dbb	-0.105159245
23	0x3ca26e2d	0.019827927
24	0xbcd7a477	-0.02632354
25	0xbe0eb53d	-0.13936324
26	0x3c9ba957	0.019001646
27	0xbd9db622	-0.07700755
28	0xbe21a763	-0.15786509
29	0xbcbf0b4d	-0.023320818
30	0xba8253ab	-0.0009943148
31	0xbe6f24d1	-0.23353888
32	0x3da0815a	0.07837172
33	0x36468593	2.958205e-06
34	0xbe05be13	-0.13060789
35	0xbe06f7a6	-0.13180408
36	0x3c0e5890	0.008688107
37	0xbe1b5d10	-0.1517222
38	0x3c5e6c4d	0.013575626
39	0xbd4c95d4	-0.049947575
40	0xbcac10d8	-0.021004125
41	0xbd6f61a8	-0.05844274
42	0xbdbc385b	-0.091904365
43	0xbe0a32fa	-0.13496009
44	0xbe2181bc	-0.15772146
45	0xbdfb4587	-0.12269121
46	0xbd8a0615	-0.06739441
47	0xbe1824fc	-0.14857858
48	0xbde52c6e	-0.11190115
49	0xbd6dd372	-0.058062978
50	0xbd93f93c	-0.07225272
51	0xbd8ef9e5	-0.06981257
52	0x8591eada	-1.3722005e-35
53	0x3abb0e2a	0.0014271189
54	0x3bacf471	0.005278163
55	0xbce9d025	-0.028541634
56	0xbdd52720	-0.10407853
57	0xbe12e606	-0.1434556
58	0xbda3837a	-0.079840615
59	0xbe1cfdaf	-0.15331148
60	0xbd9a03e3	-0.075202726
61	0xbd1bfdf5	-0.03808399
62	0xbdd2a4e0	-0.10285354
63	0xb88349a7	-6.2602856e-05
64	0xa2c3aa70	-5.3035314e-18
65	0x0ee383fa	5.608691e-30
66	0xbe56144a	-0.20906177
67	0xa227a68e	-2.2720894e-18
68	0xbd0aa23d	-0.03384613
69	0xbc85537f	-0.016275166
70	0xbe1dcb72	-0.1540964
71	0xbe897953	-0.26850376
72	0xbd8ce8f5	-0.068803705
73	0xbddcb8a9	-0.10777409
74	0xbd406c2e	-0.04697817
75	0x0916990a	1.8127552e-33
76	0xbcad081f	-0.021122037
77	0xbe282a88	-0.16422474
78	0xaf0d7284	-1.286456e-10
79	0xbdd445bf	-0.103648655
80	0xbd603372	-0.054736562
81	0xbd7d0d44	-0.06178023
82	0x3d48afdd	0.04899584
83	0xbe49c5f6	-0.19704422
84	0xbe1507cb	-0.14553754
85	0xbe5ca653	-0.21547823
86	0xbe7f764f	-0.24947475
87	0xbe41f74d	-0.18941994
88	0xbe69d755	-0.22836049
89	0xbceeaa33	-0.029133892
90	0xbddc59c9	-0.10759313
91	0xbe49da53	-0.1971219
92	0xbe6cece5	-0.23137243
93	0xbd87c3a7	-0.066291146
94	0xb44a4065	-1.8836143e-07
95	0xbe605889	-0.21908773
96	0xbb960923	-0.004578726
97	0xa923c5cd	-3.6364835e-14
98	0xbe794426	-0.24342403
99	0xbd73ff1b	-0.05956946
100	0xbc83260b	-0.016009351
101	0x3b9be66d	0.0047576935
102	0xbe1200a1	-0.14258052
103	0xbd612d77	-0.054975
104	0x3c4213cc	0.01184554
105	0xbe85d035	-0.26135412
106	0xbe6f3c35	-0.23362811
107	0xbe1567a9	-0.14590324
108	0xbdaf85a4	-0.08570412
109	0xbd99da1d	-0.07512305
110	0xbd425a79	-0.047449563
111	0xbe7e6266	-0.24842224
112	0xbe3d8857	-0.18509041
113	0xbe0b673d	-0.13613601
114	0xbe676813	-0.22598295
115	0xbe058ba9	-0.13041557
116	0x03f7cc6a	1.4564286e-36
117	0xbe1a5914	-0.15073043
118	0xbc59ecaa	-0.013301054
119	0xbd1a6c43	-0.037700903
120	0xbddd1bb5	-0.107963
121	0xbe0f6a27	-0.14005338
122	0xbd3f9129	-0.046769295
123	0xbe5a12a6	-0.21296176
124	0xbdd5f7db	-0.10447665
125	0xbe0be08f	-0.13659881
126	0xbcfc97bd	-0.030834073
127	0xb8b01f44	-8.398158e-05
128	0xa5d27120	-3.650585e-16
129	0xa79f923b	-4.428991e-15
130	0xbe534b92	-0.20634297
131	0xaf9a3461	-2.8049654e-10
132	0xbd6ed579	-0.058309052
133	0xbcf49c4b	-0.029859683
134	0xbd1acf20	-0.037795186
135	0xbe83a814	-0.2571417
136	0x3aa85916	0.0012843932
137	0xbd8229eb	-0.063556515
138	0xbdb45514	-0.0880529
139	0x2c32b7c1	2.5397325e-12
140	0xbd31af5f	-0.043380138
141	0xbdace0f3	-0.08441343
142	0xb50f14b9	-5.3301807e-07
143	0xbd8ba992	-0.06819452
144	0xbe1bb6bc	-0.15206426
145	0xbbababce	-0.0052389866
146	0xbdfeda0c	-0.12443933
147	0xbe00e79c	-0.12588352
148	0xbddd2fb7	-0.108001165
149	0xbe20ebd3	-0.1571496
150	0xbd8e5887	-0.06950479
151	0xbdb0b8f3	-0.08629026
152	0x3a3d8610	0.00072297547
153	0xbdd989e6	-0.10622005
154	0x3bc66687	0.0060547027
155	0xbdd9ca12	-0.10634245
156	0xbe22f4e5	-0.15913732
157	0xbec8a9fd	-0.3919219
158	0xb934f036	-0.00017255623
159	0xbe26bdaf	-0.16283296
160	0xbd50025b	-0.050783496
161	0xb6097c4a	-2.0486937e-06
162	0xbe9ceefc	-0.3065108
163	0xbe985450	-0.29751825
164	0xbe40eba9	-0.18839897
165	0x3d5256c2	0.05135227
166	0xbd4ee44d	-0.050510693
167	0xbe014e1b	-0.12627451
168	0xbd96f914	-0.07371727
169	0xbe172132	-0.14758757
170	0xbe51cda3	-0.204886
171	0xbe0aeb91	-0.13566424
172	0xbce046a7	-0.02737744
173	0xbda72aaa	-0.081624344
174	0xb894b4fc	-7.090901e-05
175	0xbe24add8	-0.16081941
176	0xbec59f63	-0.38598165
177	0xbd8de7d2	-0.06928982
178	0xbe440a68	-0.19144595
179	0xbd3936e9	-0.045218382
180	0x0594c8d2	1.3991623e-35
181	0xbc6368e0	-0.013879985
182	0xbe3f7b84	-0.18699461
183	0xbe1f9e32	-0.1558769
184	0xbe0b1b6c	-0.1358468
185	0xbe1424fb	-0.14467232
186	0xbd908cac	-0.07058081
187	0x3d9c5788	0.07633883
188	0xbdd671a1	-0.10470892
189	0xbe345cd0	-0.1761353
190	0xbd2dd9b9	-0.042443965
191	0xba76d5a1	-0.00094159885
192	0xb2981aff	-1.7707405e-08
193	0x2b6168a2	8.0081265e-13
194	0xbdda89ab	-0.10670789
195	0xb957a973	-0.00020567123
196	0xbc854141	-0.016266467
197	0xbd3a3078	-0.04545638
198	0xbd1f2d46	-0.038861535
199	0xbd71302f	-0.058883842
200	0xbda9b381	-0.08286191
201	0xbdcf3b77	-0.10118764
202	0xbd2aa4f3	-0.041661214
203	0x088b196a	8.371733e-34
204	0xbd131e72	-0.035917707
205	0xbc4b875a	-0.012422407
206	0x3b542275	0.003236917
207	0xbd78bd6f	-0.060727533
208	0x3d7f5093	0.0623327
209	0xbd8f89e4	-0.070087224
210	0xbd0329de	-0.03202235
211	0xbdce4033	-0.10070839
212	0xbe1ada01	-0.15122224
213	0xbe02ca33	-0.12772445
214	0xbe52c9ce	-0.20584795
215	0xbde36549	-0.11103303
216	0xbe4cfd38	-0.2001847
217	0xbcd54d8e	-0.026037958
218	0xbd247ead	-0.04015987
219	0xbd0f839e	-0.03503763
220	0xbdee87dc	-0.11647007
221	0x3d171008	0.036880523
222	0xb796648b	-1.7928212e-05
223	0x3d83d431	0.06436957
224	0xbda565d8	-0.08076066
225	0xb878d125	-5.932259e-05
226	0xbd00ba72	-0.031427808
227	0xbe5a2013	-0.21301298
228	0xbd2f7247	-0.042833593
229	0xbd226b28	-0.039652973
230	0xbdd7f209	-0.105442114
231	0xbd66b660	-0.05632627
232	0xbd2349dc	-0.03986536
233	0xbe73533c	-0.2376222
234	0xbded2404	-0.11579135
235	0xbdef834a	-0.11694963
236	0xbd9e6de5	-0.077358045
237	0xbdbe596d	-0.092944
238	0xbd5d7134	-0.054063037
239	0xbcde617e	-0.027146097
240	0xbdd88929	-0.10573036
241	0x3d13ae67	0.036054995
242	0xbd99a586	-0.07502274
243	0xbde5d3be	-0.11222027
244	0x848ed229	-3.357704e-36
245	0xbdfcd281	-0.12344838
246	0x3bc53f0e	0.0060194796
247	0xbdae3b89	-0.08507449
248	0xbe2c3898	-0.16818464
249	0x3df9fbc4	0.122062236
250	0xbe07eca3	-0.13273863
251	0xbd7b1fc6	-0.0613096
252	0xbd618d14	-0.055066183
253	0xbe141bee	-0.1446378
254	0xbd45a480	-0.048252583
255	0xbad5d8c0	-0.0016315207

fc3.bias f4 [16]
0	0x3f21dfc6	0.63232076
1	0x3de5b66e	0.11216436
2	0x3f25ee14	0.64816403
3	0x3eaffb2e	0.34371322
4	0xbf2aa0fb	-0.66651887
5	0xbf28bf4c	-0.65916896
6	0x3f88cfc9	1.0688411
7	0x3e1d8e30	0.15386271
8	0xbecfc5e1	-0.40580657
9	0xbeaed004	-0.34143078
10	0xbf415a72	-0.75528634
11	0xbf2ed2f7	-0.68290657
12	0xbf733c23	-0.95013636
13	0xbfae650a	-1.3624585
14	0xbfbd83cb	-1.4805845
15	0xbfb8b30b	-1.442964
