MBTI/ANN/Model/pr/lr=0.0005 L2=0.01 hd = 128 SVM/best_model.pth (torch, 85743 bytes, 6 tensors)

fc1.weight f4 [128, 17]
0	0x8000a705	-5.9915e-41
1	0x00000232	7.88e-43
2	0x8000ff99	-9.1691e-41
3	0x00013960	1.12418e-40
4	0x80008804	-4.8793e-41
5	0x8000e78c	-8.3063e-41
6	0x80016ffd	-1.3201e-40
7	0x8000df8f	-8.0198e-41
8	0x00007c91	4.4686e-41
9	0x00008cba	5.0483e-41
10	0x80001e86	-1.095e-41
11	0x00018827	1.40678e-40
12	0x800d1270	-1.200476e-39
13	0x0000047f	1.613e-42
14	0x80001b0f	-9.707e-42
15	0x0000af86	6.2966e-41
16	0xae8515d4	-6.052017e-11
17	0x8824f6e5	-4.964218e-34
18	0x08d0b4c5	1.2561043e-33
19	0x88d20afc	-1.2641498e-33
20	0x861ce8ac	-2.951128e-35
21	0x05698ae8	1.09811204e-35
22	0x08513aae	6.2962627e-34
23	0x889e20a2	-9.516951e-34
24	0x882b23a3	-5.150033e-34
25	0x88039042	-3.9590953e-34
26	0x060a93d4	2.6063522e-35
27	0x073705e2	1.3769119e-34
28	0x87ab0104	-2.5729817e-34
29	0xb0adb7b6	-1.263962e-09
30	0x80001927	-9.023e-42
31	0x80002154	-1.1956e-41
32	0x80005148	-2.9158e-41
33	0xb2c540c6	-2.2963274e-08
34	0x236f3a4c	1.2968561e-17
35	0xa3943826	-1.6069972e-17
36	0x24cbd3e8	8.83962e-17
37	0x2382a2f7	1.4163647e-17
38	0xa0d156b2	-3.5463347e-19
39	0x8a84c500	-1.2785241e-32
40	0x23e50b7f	2.4833099e-17
41	0xa3f78ff5	-2.6840762e-17
42	0xa4848d31	-5.748506e-17
43	0xa357057e	-1.1656336e-17
44	0x210e7f6d	4.828012e-19
45	0xa45d8b4d	-4.803973e-17
46	0xb2eef7fd	-2.7819619e-08
47	0x8000f1e1	-8.677e-41
48	0xacaefb5b	-4.9732835e-12
49	0x800162af	-1.27236e-40
50	0xa62c8dab	-5.9866483e-16
51	0xba26623b	-0.0006347035
52	0x3a912ab8	0.0011075353
53	0xbad5d5d4	-0.0016314336
54	0xb89f1ea8	-7.587421e-05
55	0x38ad65d8	8.268253e-05
56	0x304903c7	7.312874e-10
57	0xbb4873e7	-0.0030586661
58	0xbbd966d7	-0.006634574
59	0xba3f653a	-0.0007301156
60	0xba2b67e8	-0.00065386156
61	0x37b45f7e	2.150214e-05
62	0xba3c227c	-0.00071767694
63	0x0000c389	7.0145e-41
64	0x80003f8f	-2.28e-41
65	0x2e46b44c	4.5180124e-11
66	0x8000376a	-1.9879e-41
67	0xbb0809b9	-0.0020757748
68	0xbab6c39c	-0.0013943794
69	0xb90f45d6	-0.00013663559
70	0x3a57a559	0.0008226238
71	0xba79c0e0	-0.0009527337
72	0xaa219389	-1.4350859e-13
73	0x20a14f7d	2.7327062e-19
74	0xbb25e960	-0.0025316104
75	0xbb238710	-0.002495233
76	0xb320986e	-3.7391537e-08
77	0xb99f4df5	-0.00030384926
78	0xb2d30f91	-2.4570712e-08
79	0xb3053caa	-3.102165e-08
80	0x16a594f4	2.675119e-25
81	0x8000aba3	-6.1572e-41
82	0xadc16344	-2.1985642e-11
83	0x0000cbe5	7.3144e-41
84	0xb966a783	-0.00021996912
85	0xbe8ade72	-0.27122837
86	0x3e101785	0.14071472
87	0x3f5c4b0d	0.8605202
88	0x3e9c4872	0.3052402
89	0x3cdfc9d5	0.02731792
90	0xbcd27b69	-0.025693612
91	0xbe3af1e1	-0.18256332
92	0xbf1d3453	-0.61407965
93	0xbbd717c1	-0.006564111
94	0x3d51a29c	0.051180467
95	0xbd12ca8c	-0.035837695
96	0x3c8482dc	0.01617568
97	0xbb336df6	-0.0027378774
98	0x000052e5	2.9737e-41
99	0x8000c7c6	-7.1665e-41
100	0x0000d833	7.7558e-41
101	0x3c9673da	0.01836579
102	0xba80c774	-0.0009825067
103	0x3994c474	0.0002837513
104	0xba0f98b7	-0.00054777734
105	0xba71f61f	-0.00092300953
106	0xb83b6ff6	-4.4688546e-05
107	0xb8ba3854	-8.879663e-05
108	0xb99d3241	-0.00029982816
109	0xbad50221	-0.0016251245
110	0x33ebda8e	1.0982795e-07
111	0xb9cab1e6	-0.00038660987
112	0xb697c800	-4.5234337e-06
113	0xb812f246	-3.5034747e-05
114	0x0005236e	4.71887e-40
115	0x2bd06268	1.4806602e-12
116	0x0000802c	4.598e-41
117	0x00004c0e	2.7283e-41
118	0x39aa24e9	0.00032452427
119	0x31e5dee4	6.690117e-09
120	0x31c3378e	5.6815628e-09
121	0xb195632d	-4.3477457e-09
122	0x3189cb8a	4.0103645e-09
123	0xace5fa30	-6.536348e-12
124	0x2d278e5c	9.524461e-12
125	0x31ade940	5.06148e-09
126	0x324a366f	1.1770324e-08
127	0xb18af66c	-4.0443435e-09
128	0x31f6c519	7.1819497e-09
129	0x2bdf4420	1.5864011e-12
130	0xb14205d7	-2.8234035e-09
131	0x2d1af64e	8.808577e-12
132	0x80011ddf	-1.02551e-40
133	0x8001339d	-1.10351e-40
134	0x00001bf9	1.0035e-41
135	0xadede8b9	-2.704713e-11
136	0x80004cfd	-2.7618e-41
137	0x8001008f	-9.2036e-41
138	0x8000b324	-6.4264e-41
139	0x80000b1d	-3.987e-42
140	0x8001871d	-1.40305e-40
141	0x80001c42	-1.0137e-41
142	0x00002990	1.491e-41
143	0x800032b0	-1.8183e-41
144	0x00000b07	3.956e-42
145	0x0000fc10	9.0423e-41
146	0x0000e64c	8.2615e-41
147	0x80014891	-1.17867e-40
148	0x2c84f988	3.779369e-12
149	0x2c21ad80	2.2975788e-12
150	0x0000daac	7.8445e-41
151	0x00016c49	1.30681e-40
152	0xb67dbc23	-3.7809448e-06
153	0xaadcbac5	-3.9209448e-13
154	0x9aeef2f8	-9.882703e-23
155	0xaf1cb366	-1.4251852e-10
156	0xa407d275	-2.9451723e-17
157	0x1b189232	1.2620384e-22
158	0x9ab2c59a	-7.393832e-23
159	0xb0ba4b22	-1.3554635e-09
160	0xb0637bf7	-8.2758284e-10
161	0x9b2628e7	-1.3744414e-22
162	0x9d3d6a21	-2.506881e-21
163	0x1a7275f8	5.013972e-23
164	0x9a49c414	-4.1724216e-23
165	0x09cea3b3	4.9746638e-33
166	0x8000be34	-6.8232e-41
167	0x80005691	-3.1054e-41
168	0x8000ac66	-6.1845e-41
169	0xb9fdefb6	-0.0004843452
170	0x3e8470e5	0.25867382
171	0xbd5a2d53	-0.05326588
172	0x3a86072f	0.001022553
173	0x3c1d098d	0.009584797
174	0xbc09a756	-0.008401712
175	0x3be241b6	0.006904806
176	0x3e31b686	0.17354783
177	0x3e0f3da3	0.13988356
178	0xbc15828e	-0.009125365
179	0x3b85575c	0.004069252
180	0xbb4030b6	-0.002932591
181	0xbc1f22d3	-0.009712893
182	0x39e318ce	0.00043315295
183	0x8000d291	-7.5537e-41
184	0x0000391a	2.0484e-41
185	0x0000b58f	6.5131e-41
186	0xbea4f4bc	-0.32217968
187	0x3dfa779d	0.12229846
188	0xbd2cfb0a	-0.042231597
189	0xbb9ab635	-0.004721428
190	0x3bd27be1	0.006423459
191	0xbbbcd3f1	-0.00576257
192	0x3b7e590a	0.0038810396
193	0x3db645ab	0.08900007
194	0x3d6c8ba0	0.057750344
195	0xbc27ca0c	-0.010241043
196	0xbc4131f8	-0.011791699
197	0xbba3a176	-0.004993613
198	0xbc26a0b2	-0.010170149
199	0x388cec5a	6.719744e-05
200	0x8000b401	-6.4573e-41
201	0x0000a599	5.9405e-41
202	0x80011e3c	-1.02682e-40
203	0xbe51967e	-0.20467564
204	0xaea5a8c3	-7.5333094e-11
205	0xadd70076	-2.4442875e-11
206	0xae91673d	-6.6121754e-11
207	0xad9eecd2	-1.806769e-11
208	0x8296a0e4	-2.2132866e-37
209	0xafed022c	-4.3111592e-10
210	0xaebf6692	-8.7038945e-11
211	0xae9673cd	-6.8417806e-11
212	0xadd8f754	-2.4666193e-11
213	0x2f2a85e5	1.5508979e-10
214	0xae5794b8	-4.901743e-11
215	0x2e3a124c	4.2307755e-11
216	0x337baf76	5.8600072e-08
217	0x8000e091	-8.0559e-41
218	0x80007cf7	-4.4829e-41
219	0x800039c5	-2.0724e-41
220	0xba2ae8c1	-0.00065196684
221	0x391c4833	0.00014904216
222	0xb91dfa4e	-0.00015065933
223	0xb9ff5fa2	-0.00048708642
224	0xb917e709	-0.0001448655
225	0x374f66e1	1.2362115e-05
226	0xb8bbafb0	-8.949579e-05
227	0xb83dfe67	-4.5298042e-05
228	0xb9d52094	-0.00040650798
229	0xb89cac5f	-7.470766e-05
230	0xb8f097e1	-0.000114723814
231	0xb7497098	-1.2006749e-05
232	0xb8e7fb88	-0.0001106179
233	0x22a55712	4.481553e-18
234	0xae8f81aa	-6.52592e-11
235	0xb2bcf306	-2.1996595e-08
236	0x800089c6	-4.9424e-41
237	0xbb98c93a	-0.00466266
238	0x800093f2	-5.3073e-41
239	0x0000efde	8.6048e-41
240	0x80011995	-1.01013e-40
241	0x00003a3f	2.0895e-41
242	0x800d38af	-1.214196e-39
243	0x0000a759	6.0033e-41
244	0x800132eb	-1.10101e-40
245	0x0001640a	1.27723e-40
246	0x80037233	-3.16473e-40
247	0x80008c1d	-5.0263e-41
248	0x000548d5	4.85305e-40
249	0x000138d6	1.12224e-40
250	0x0003026f	2.7638e-40
251	0x2f56d4ca	1.9538784e-10
252	0x30caa488	1.4744197e-09
253	0x0000d413	7.6078e-41
254	0xa6bb9e68	-1.3018668e-15
255	0x800078b6	-4.3303e-41

fc1.bias f4 [128]
0	0x8f1b77ea	-7.665185e-30
1	0x893f6263	-2.303705e-33
2	0xb1bd83cd	-5.515608e-09
3	0xbc2a3da0	-0.010390669
4	0xbb180194	-0.00231943
5	0x3e691d8c	0.22765177
6	0xbae168ab	-0.0017197331
7	0xb2d90d22	-2.5268097e-08
8	0xabc6391d	-1.4084598e-12
9	0xb456e0c3	-2.0012071e-07
10	0x3f05e047	0.52295345
11	0x3e7f29ec	0.24918336
12	0xb3a25b41	-7.560312e-08
13	0x3a019a13	0.00049439183
14	0x8000ea92	-8.4148e-41
15	0xb445a4bb	-1.8406983e-07
16	0x96261431	-1.3415744e-25
17	0x3c560a05	0.013063912
18	0xb4a0852d	-2.989922e-07
19	0xb4718200	-2.2492168e-07
20	0xbb3dd852	-0.0028968048
21	0x9f1e2c8f	-3.349466e-20
22	0xba51aebb	-0.0007998754
23	0x3dc1f35f	0.094702475
24	0xaa482872	-1.7777601e-13
25	0xb93d869a	-0.00018074588
26	0x80070e86	-6.48059e-40
27	0xaa9230d2	-2.5968686e-13
28	0x3ead3f46	0.33837336
29	0xa4756fbc	-5.322055e-17
30	0xb3c8f98f	-9.35862e-08
31	0xb17ea633	-3.7056338e-09
32	0x260bb2c2	4.8467575e-16
33	0xada2b4bf	-1.8497535e-11
34	0x2aa1b49b	2.8724665e-13
35	0xab24e745	-5.8585455e-13
36	0x3dbbda3e	0.09172486
37	0xbc45dd08	-0.012076624
38	0x9d5a4466	-2.888742e-21
39	0x3cf5676a	0.029956538
40	0xb7cff36e	-2.4789679e-05
41	0xb38a68cc	-6.445188e-08
42	0x800019f9	-9.317e-42
43	0xa05f680c	-1.8923261e-19
44	0xbaf50374	-0.0018693046
45	0xaa87da6c	-2.4132378e-13
46	0x3bfd9728	0.0077389665
47	0xb6f4526b	-7.2813614e-06
48	0xb5761a04	-9.168e-07
49	0x89b6ffe4	-4.4055545e-33
50	0xa7d5c770	-5.9335607e-15
51	0x37617d29	1.3440186e-05
52	0x8000bb04	-6.7089e-41
53	0xb8550619	-5.0788836e-05
54	0x3e99ea9b	0.30061802
55	0xbb6e9bcc	-0.003640878
56	0xbaa50479	-0.0012589834
57	0x8b9f8cea	-6.1456596e-32
58	0x3db86e54	0.090054184
59	0xbba4a963	-0.0050250753
60	0xb4efd495	-4.4671893e-07
61	0xa19d1412	-1.0644046e-18
62	0x90f9a827	-9.847226e-29
63	0xa9e4efce	-1.01668335e-13
64	0xb528ddb4	-6.29075e-07
65	0xb8efb9fc	-0.000114310504
66	0x3e2b8fa8	0.1675402
67	0x0000204d	1.1587e-41
68	0xa1f12c9e	-1.6342605e-18
69	0xa9a2d653	-7.2314245e-14
70	0xa5042386	-1.1461211e-16
71	0xbc52968a	-0.012853274
72	0xba1cb9e6	-0.0005978629
73	0xb324e774	-3.839473e-08
74	0xb9d11bc1	-0.00039884265
75	0xb1a223e2	-4.7189e-09
76	0xbba5b7f5	-0.00505733
77	0xa8915e74	-1.6139196e-14
78	0xb1f1a87e	-7.0331785e-09
79	0x8001f6f2	-1.80423e-40
80	0x9f7372b2	-5.1552125e-20
81	0xab48e776	-7.137549e-13
82	0x80009347	-5.2833e-41
83	0x3c92cdb8	0.01792036
84	0xbe84b2eb	-0.25917754
85	0xb92a7ca2	-0.00016258893
86	0x9117046f	-1.1913166e-28
87	0x80011fd6	-1.03256e-40
88	0xac1439c9	-2.1064142e-12
89	0xb59369c2	-1.0983133e-06
90	0x3dda178f	0.10649025
91	0x800e1e7f	-1.296637e-39
92	0xba79121b	-0.0009501294
93	0xbc2065a5	-0.009789859
94	0xb061d52e	-8.215747e-10
95	0x89e1daf4	-5.4372682e-33
96	0xa44a89d0	-4.39185e-17
97	0xbecc8bcc	-0.39950407
98	0x9d185565	-2.016118e-21
99	0xaf6a1e58	-2.1292956e-10
100	0x3e5e1228	0.21686614
101	0xb1c72c31	-5.7966862e-09
102	0xb22226d5	-9.4384704e-09
103	0x3e1c15c4	0.15242678
104	0xb7241bb2	-9.78161e-06
105	0x3b3324c9	0.0027335158
106	0x90810eb5	-5.090419e-29
107	0x3be18863	0.0068827136
108	0x9e146047	-7.8549645e-21
109	0xb103693d	-1.912283e-09
110	0xb8ac42d1	-8.214045e-05
111	0xbc27b9f6	-0.010237208
112	0x3c08f61e	0.00835946
113	0x876377f8	-1.7112838e-34
114	0xb4f1a977	-4.501305e-07
115	0xb889189f	-6.537255e-05
116	0xa5c806b6	-3.4699017e-16
117	0xbcc4fc0b	-0.024045965
118	0xb849567a	-4.8002672e-05
119	0x3abcb550	0.0014397297
120	0xba3a6d71	-0.0007111645
121	0xaa3a65f6	-1.6555493e-13
122	0xb903110a	-0.00012499481
123	0xb99f787d	-0.00030416614
124	0x9f8e2d2c	-6.021407e-20
125	0xbbc47045	-0.005994829
126	0x111eccfa	1.2527166e-28
127	0xbb9b5957	-0.0047408747

fc2.weight f4 [128, 128]
0	0x0001507d	1.20709e-40
1	0x07b53f19	2.7270939e-34
2	0x211ce780	5.3161244e-19
3	0x39beb74c	0.0003637619
4	0xb8221cb6	-3.865055e-05
5	0x3e21cda6	0.15801105
6	0x38790375	5.9369446e-05
7	0x2d442229	1.1148895e-11
8	0x800007f5	-2.854e-42
9	0x9a2619fe	-3.4348992e-23
10	0xbd87d8ce	-0.06633149
11	0xbd137432	-0.035999484
12	0xaed8fa8a	-9.8670475e-11
13	0x394519aa	0.00018796945
14	0x800120ec	-1.03646e-40
15	0x00004b8b	2.71e-41
16	0x0000699d	3.7887e-41
17	0x36cf6274	6.180542e-06
18	0xadf08d63	-2.734763e-11
19	0x80002e1d	-1.6542e-41
20	0x26f53604	1.7014931e-15
21	0x80017b81	-1.3614e-40
22	0x00001307	6.826e-42
23	0xbd373390	-0.04472691
24	0x00007032	4.0248e-41
25	0x2483b3ce	5.7116795e-17
26	0x80000cfb	-4.657e-42
27	0x0000e695	8.2717e-41
28	0xbd38e139	-0.045136664
29	0x000038b8	2.0347e-41
30	0xad93f288	-1.681967e-11
31	0x000103bb	9.3174e-41
32	0x265bf9e2	7.631954e-16
33	0x9d08365a	-1.802755e-21
34	0xa9d0999a	-9.263701e-14
35	0x282769d6	9.293312e-15
36	0x3d0b3faa	0.03399626
37	0x39326cb7	0.00017015902
38	0x0000812d	4.634e-41
39	0xbb50dd89	-0.0031870326
40	0xb600d986	-1.9200102e-06
41	0x00006451	3.5987e-41
42	0x000073e6	4.1577e-41
43	0x80010915	-9.5094e-41
44	0x329f177c	1.8520716e-08
45	0xa90ce9ee	-3.1289146e-14
46	0xbb9515ad	-0.004549703
47	0x00000c11	4.329e-42
48	0x80003845	-2.0186e-41
49	0x800070b9	-4.0437e-41
50	0x9d677635	-3.0633707e-21
51	0x35d64658	1.5964715e-06
52	0x8000b9ab	-6.6605e-41
53	0xa02081b3	-1.3595441e-19
54	0xbd28df09	-0.041228328
55	0x3bbe47b0	0.0058068857
56	0xb96edc28	-0.00022779463
57	0x0b81475e	4.9796374e-32
58	0x3d5e446f	0.054264482
59	0x3717721a	9.026868e-06
60	0x0000e02f	8.0422e-41
61	0x1cf8c432	1.6461979e-21
62	0x8000d20f	-7.5355e-41
63	0x2652988f	7.306514e-16
64	0x8b13c962	-2.8462674e-32
65	0x80019b88	-1.4763e-40
66	0x3dc7e556	0.09760539
67	0x8000a474	-5.8995e-41
68	0x1fcd0b1c	8.6839256e-20
69	0x80010125	-9.2246e-41
70	0x800070fb	-4.053e-41
71	0x3aea6f0c	0.0017885878
72	0x2cd0920a	5.927929e-12
73	0x31615e86	3.279554e-09
74	0xb96da9bb	-0.00022665311
75	0x00008094	4.6125e-41
76	0x37e65a06	2.7460057e-05
77	0xa6f79910	-1.7180556e-15
78	0x800161de	-1.26944e-40
79	0x8000cffa	-7.4608e-41
80	0x80016fe1	-1.3197e-40
81	0x80010ae0	-9.5737e-41
82	0x00012171	1.03832e-40
83	0x3bb894d3	0.0056329756
84	0xbd2b55f3	-0.041830014
85	0x0004c179	4.36747e-40
86	0x90501c5a	-4.1042608e-29
87	0x8000a370	-5.863e-41
88	0xa99e3b42	-7.026889e-14
89	0x000043ed	2.4367e-41
90	0xbc8c4d0f	-0.017126588
91	0x000103d1	9.3205e-41
92	0xb8979d38	-7.229525e-05
93	0xb906e1f7	-0.00012863414
94	0x3014b78a	5.410291e-10
95	0x88128064	-4.40862e-34
96	0x8000cf5a	-7.4384e-41
97	0xbd8bcd1e	-0.068262324
98	0x00008175	4.644e-41
99	0xa178d0b9	-8.430191e-19
100	0x3e0a7c5c	0.13524002
101	0x0000f502	8.7892e-41
102	0x00015a4d	1.2423e-40
103	0x3db64291	0.08899415
104	0xb8a48bde	-7.846182e-05
105	0x3aa9913b	0.0012936959
106	0x0e939e95	3.6391007e-30
107	0x3bdb29c3	0.006688328
108	0x800108e5	-9.5026e-41
109	0x00002dda	1.6448e-41
110	0x0f019e94	6.390732e-30
111	0xb9aeb7e2	-0.0003332487
112	0x39f9e11b	0.00047660698
113	0x07f4d464	3.6837872e-34
114	0x35b47030	1.3443696e-06
115	0x2eab2b15	7.7838326e-11
116	0x8456b5c8	-2.5239049e-36
117	0x3c38cdb3	0.011279511
118	0x8000ba97	-6.6936e-41
119	0x39d0856e	0.00039772264
120	0xb28f50ec	-1.668419e-08
121	0x0000ab1d	6.1384e-41
122	0x80000a41	-3.678e-42
123	0xb8b153be	-8.455616e-05
124	0x069e4a4e	5.9542175e-35
125	0x3a3acea5	0.00071261293
126	0x0b00c7b0	2.480213e-32
127	0x39df03f2	0.00042536814
128	0x00009f94	5.7246e-41
129	0x0671b51c	4.546012e-35
130	0x22b5db55	4.9292375e-18
131	0xb9bed186	-0.0003639573
132	0xbaef5dab	-0.0018262168
133	0xbdd422fe	-0.10358237
134	0x38319266	4.2336433e-05
135	0x2e4629d2	4.505713e-11
136	0x00000418	1.469e-42
137	0x9e5b3511	-1.1604737e-20
138	0x3c87afce	0.016563322
139	0xb9120b1e	-0.00013927786
140	0xae5784ea	-4.900339e-11
141	0xb8967a3b	-7.1753246e-05
142	0x80016be5	-1.30541e-40
143	0x800caa9b	-1.163228e-39
144	0x00014f46	1.20273e-40
145	0xbb12c17d	-0.002239316
146	0xafcdb163	-3.7415324e-10
147	0x00005641	3.0942e-41
148	0x2b7443d2	8.6780333e-13
149	0x8000df95	-8.0206e-41
150	0xa368935a	-1.2607948e-17
151	0x3d35861d	0.044317354
152	0x000177cd	1.34812e-40
153	0x27a88568	4.6774006e-15
154	0x80013256	-1.09893e-40
155	0x800072dd	-4.1205e-41
156	0x3b596e46	0.00331773
157	0x80006614	-3.6619e-41
158	0xb0fc1b09	-1.8343097e-09
159	0x8000c762	-7.1525e-41
160	0xa4af69b2	-7.607321e-17
161	0xa53c29e0	-1.6320588e-16
162	0xa94c605b	-4.5380674e-14
163	0x273ff5aa	2.663975e-15
164	0xbca70758	-0.020389244
165	0xb9d22104	-0.0004007892
166	0x00011a65	1.01304e-40
167	0xbbe587b1	-0.007004701
168	0xb27398b0	-1.4179179e-08
169	0x0000e892	8.343e-41
170	0x8000308d	-1.7417e-41
171	0x00006da1	3.9327e-41
172	0x34946ebf	2.7647727e-07
173	0x27a82db2	4.667891e-15
174	0x3c04bffa	0.008102411
175	0x8f056c58	-6.5782725e-30
176	0x80002dd7	-1.6444e-41
177	0x8000388c	-2.0285e-41
178	0x1e4d4f3f	1.0868997e-20
179	0xb53e939a	-7.0995304e-07
180	0x8000cb4b	-7.2928e-41
181	0x20482115	1.6951605e-19
182	0x3aea0944	0.0017855545
183	0xbb0e09f1	-0.0021673406
184	0x398f32cf	0.0002731294
185	0x8c501fe1	-1.603333e-31
186	0xbd071d94	-0.032987192
187	0xb791620f	-1.7331009e-05
188	0x00014c91	1.19302e-40
189	0xa105a37b	-4.5278517e-19
190	0x000142db	1.15819e-40
191	0xa6766d1e	-8.5496276e-16
192	0x13c0ce17	4.8670834e-27
193	0x80023a4c	-2.04584e-40
194	0xbd7896f3	-0.06069083
195	0x8000a368	-5.8619e-41
196	0x1f7d1da2	5.3599346e-20
197	0x000082ec	4.6966e-41
198	0x800149fa	-1.18373e-40
199	0xbb02389a	-0.0019870163
200	0x2616a87e	5.2270054e-16
201	0xae9baacb	-7.078923e-11
202	0x38b364be	8.55415e-05
203	0x00009500	5.3451e-41
204	0x39ac71d3	0.00032891202
205	0x270ef5cd	1.9839708e-15
206	0x8000727c	-4.1069e-41
207	0x8000b50f	-6.4952e-41
208	0x00007742	4.2782e-41
209	0x00005fdd	3.4389e-41
210	0x80012002	-1.03318e-40
211	0xbb470a8a	-0.0030371272
212	0x3de0e907	0.109819464
213	0x800132c7	-1.10051e-40
214	0x8c9e82fd	-2.442259e-31
215	0x8000224e	-1.2306e-41
216	0xa81d2dd3	-8.725187e-15
217	0x872ea884	-1.3139827e-34
218	0x3ca202b3	0.019776678
219	0x0000a356	5.8594e-41
220	0x3708e7ac	8.160172e-06
221	0x3999e3d7	0.00029352188
222	0xaa486a28	-1.7800399e-13
223	0x08efb658	1.4427158e-33
224	0x00007e95	4.5409e-41
225	0x3e3d355a	0.18477383
226	0x000012dd	6.767e-42
227	0x2129979b	5.7460075e-19
228	0xbdb1ab3f	-0.08675241
229	0x8000f8ec	-8.9296e-41
230	0x83190f5a	-4.498028e-37
231	0xbd603dae	-0.054746322
232	0x377f8733	1.5230663e-05
233	0xba449d3d	-0.0007500237
234	0x0de255c9	1.3948977e-30
235	0x3bc66389	0.006054346
236	0x80008156	-4.6397e-41
237	0x0000589e	3.179e-41
238	0x1881d77d	3.3563306e-24
239	0xb720d604	-9.586573e-06
240	0xb9da6987	-0.00041658824
241	0x06042de0	2.4860144e-35
242	0x331f6df2	3.7120067e-08
243	0xb3fddda0	-1.1821544e-07
244	0x04ab92f3	4.033686e-36
245	0x3ba8fbd6	0.0051569743
246	0x80014ca9	-1.19336e-40
247	0xb9508211	-0.0001988488
248	0x326f30a6	1.3922692e-08
249	0x10c4beb8	7.760222e-29
250	0x82008000	-9.440689e-38
251	0xb578d1f8	-9.2692744e-07
252	0x861aa8a4	-2.9088078e-35
253	0x3a54c610	0.0008116672
254	0x0f84c3b9	1.3091595e-29
255	0x37c97178	2.4013905e-05

fc2.bias f4 [128]
0	0x3dc9891f	0.09840607
1	0x3d7a50bd	0.061112154
2	0x3be5c6b6	0.0070122136
3	0x3c46be0c	0.012130272
4	0x3d3d2f22	0.046187527
5	0x3c88f277	0.016717179
6	0xbc22f5bd	-0.009946284
7	0x3dc3162a	0.09525712
8	0x3bd8690f	0.006604321
9	0x3bea4d4b	0.0071503273
10	0xbbea732c	-0.007154843
11	0x3c6e36e1	0.014539451
12	0x3d2789d1	0.040902916
13	0x3d93bd4f	0.07213842
14	0x3c0df93f	0.008665382
15	0x3e0a9605	0.1353379
16	0xbc89f107	-0.016838564
17	0x3d807aab	0.06273397
18	0x3d68a8a1	0.056801442
19	0xbbe82c3c	-0.0070853513
20	0x3d791508	0.060811073
21	0x3d3ec7f8	0.046577424
22	0xbcc550c8	-0.024086371
23	0xbcd557f7	-0.026042921
24	0x3e095255	0.13410313
25	0x3d875147	0.06607299
26	0xbc397cd7	-0.011321268
27	0x3d65783d	0.05602287
28	0x3d8d614a	0.06903322
29	0x3d6f8aab	0.058481853
30	0x3cf3464f	0.029696612
31	0xbc41d461	-0.01183042
32	0xbcc614f1	-0.024179908
33	0x3de88e45	0.11355261
34	0xbb5d6e94	-0.0033787834
35	0x3cf196f6	0.02949093
36	0x3beb5be7	0.0071825865
37	0x3d73f164	0.05955638
38	0xbb0504fa	-0.0020297156
39	0x3c8d96e5	0.017283866
40	0x3b97d116	0.0046330793
41	0x3d86a35b	0.06574126
42	0x3d1f67a8	0.038917214
43	0x3dbcc5af	0.09217393
44	0x3d6916a7	0.05690637
45	0x3e121ce5	0.14268835
46	0xbc6e62df	-0.01454994
47	0x3cf04d9e	0.029333886
48	0x3dc3158a	0.095255926
49	0x3d448c97	0.04798564
50	0x3dbb135c	0.09134552
51	0x3d96631f	0.073431246
52	0xbc740470	-0.014893636
53	0xbb75389b	-0.0037417773
54	0xbb9a7371	-0.0047134687
55	0x3da33ea2	0.07970931
56	0x3cbdcc57	0.023168726
57	0x3d47c071	0.04876751
58	0xbc28606d	-0.010276896
59	0x3d5f7e0b	0.054563563
60	0x3deb121f	0.11478066
61	0x3dbe82dc	0.09302303
62	0x3d326464	0.04355277
63	0x3ca2e46f	0.019884316
64	0x3e13f2e7	0.14448129
65	0x3e0b909f	0.13629387
66	0x3c89ed0e	0.01683667
67	0x3ca21f3c	0.019790284
68	0x3d404bf1	0.046947423
69	0x3cd1cb2f	0.02560958
70	0x3d926284	0.071476966
71	0x3dd1058a	0.102061346
72	0x3d9ade1d	0.07561896
73	0x3c84f6a9	0.016230898
74	0x3bd43b68	0.0064768083
75	0x3dd2226f	0.10260474
76	0x3d567d0e	0.052365355
77	0x3c02dfbf	0.007987916
78	0x3b15bc72	0.0022847918
79	0x3e04db8d	0.12974377
80	0x3d12b34b	0.03581552
81	0x3de009fd	0.10939405
82	0x3db23a8a	0.08702572
83	0xbac99399	-0.001537907
84	0x3d32fe7e	0.043699734
85	0x3db55eb0	0.08855951
86	0x3e0bd854	0.13656741
87	0x3c31bcaf	0.010848208
88	0x3d2e9c40	0.04262948
89	0x3d8f708f	0.07003891
90	0xbc2da01a	-0.010597253
91	0xbc5bcde5	-0.013415788
92	0x3deb3da4	0.114863664
93	0x3db68003	0.08911135
94	0x3d49c8d8	0.049263805
95	0x3d114f89	0.03547624
96	0x3da24119	0.07922573
97	0x3db4df28	0.08831626
98	0x3ce98db1	0.028509947
99	0x3dd2272c	0.10261378
100	0x3da0d728	0.07853538
101	0xbc87a553	-0.016558325
102	0x3d37fe57	0.04492029
103	0xbb1bd136	-0.0023775822
104	0x3d035c05	0.03207018
105	0x3dd373cb	0.1032482
106	0x3c6c5ebe	0.014426885
107	0x3cb5bf74	0.022186019
108	0x3c82b2d8	0.01595442
109	0x3cf3ef4c	0.029777192
110	0xbd0bad61	-0.034100894
111	0xbb457d7c	-0.003013461
112	0x3dbd06f7	0.09229844
113	0x3dcf79d2	0.10130657
114	0x3c2eb275	0.010662665
115	0x3d801b0b	0.06255158
116	0x3cf71a20	0.030163825
117	0x3d72417c	0.059144482
118	0x3d365f75	0.04452463
119	0xbb3dbbb8	-0.0028951
120	0x3dae849c	0.08521387
121	0xbc242a9f	-0.010019927
122	0x3df4d2fb	0.11954304
123	0x3cbd32ef	0.023095576
124	0x3b891fc3	0.0041846945
125	0x3d5801bb	0.052736025
126	0x3d7f50fe	0.0623331
127	0x3d650435	0.055912215

fc3.weight f4 [16, 128]
0	0xbda0e137	-0.07855456
1	0xbc84e7d0	-0.016223818
2	0xbda60c45	-0.08107809
3	0x3e6f947c	0.23396486
4	0xbd13a702	-0.036047943
5	0x3ae1c3de	0.0017224511
6	0x3d62b9b8	0.055352896
7	0xbd8f4441	-0.0699544
8	0xbd9437d7	-0.07237213
9	0xbcd9ca17	-0.026585622
10	0x3dfa82f0	0.122320056
11	0x3e405176	0.18781075
12	0x3cdf147e	0.027231451
13	0xbd348275	-0.044069726
14	0x3e0fbbe2	0.14036515
15	0x3c929dd8	0.017897531
16	0x3d328dab	0.043592136
17	0x3dcd3ee3	0.1002176
18	0xbc0e8248	-0.008698054
19	0x3e12c955	0.14334615
20	0x3e143b5c	0.14475769
21	0xbadccdb4	-0.0016845972
22	0x3e44d074	0.19220144
23	0x3c88d0b5	0.016701082
24	0xbd44488e	-0.047920756
25	0x3daa96c1	0.08329535
26	0x3db3e416	0.08783738
27	0xbd1ae4d5	-0.037815887
28	0x3d1e92d9	0.038714264
29	0x3d87cf9b	0.066313945
30	0x3cb5f825	0.022213051
31	0x3e21a3bd	0.15785117
32	0x3e1df149	0.15424074
33	0x3d6c3f0a	0.057677306
34	0xbcedb8ed	-0.029018844
35	0x3da22784	0.07917693
36	0x3e4dab5a	0.20084897
37	0x3d7e7a28	0.062128216
38	0x3e7ce577	0.24696909
39	0x3e13491e	0.1438336
40	0xbdb04f6d	-0.08608899
41	0x3e22d5af	0.15901826
42	0x3db4642f	0.08808171
43	0x3e387188	0.18012059
44	0x3d004e0d	0.031324435
45	0x3da5d057	0.08096378
46	0x3d0975ed	0.03355973
47	0x3da98375	0.082770266
48	0xbd0de8c5	-0.034645814
49	0x3de07b92	0.10961069
50	0xbc7c7555	-0.0154088335
51	0xbda37ca1	-0.079827555
52	0x3e2456f7	0.160488
53	0x3d09cc0d	0.033641864
54	0x3c6333ce	0.013867332
55	0xbdc1a42b	-0.09455141
56	0x3d954c7e	0.0728998
57	0xbd80eb74	-0.06294909
58	0x3e3075bf	0.17232417
59	0x3e3cfb04	0.1845513
60	0xbc9587cc	-0.01825323
61	0xbd8c8188	-0.068606436
62	0x3d9d0a80	0.07668018
63	0x3e237954	0.15964252
64	0xbd839d50	-0.06426489
65	0xbc9e8adf	-0.019353328
66	0x3e448f5a	0.1919531
67	0xbd8d85bd	-0.06910274
68	0x3dfb48c4	0.12269738
69	0x3e676b6c	0.22599572
70	0xbc33f954	-0.010984737
71	0xbdad6a02	-0.08467485
72	0xbbee5dac	-0.00727435
73	0x3e177b02	0.14793018
74	0x3cbd5243	0.023110515
75	0x3ba687bb	0.0050820983
76	0x3e53211a	0.20618096
77	0x3e01ca89	0.12674917
78	0x3c5295b5	0.012853076
79	0xbd83b2b0	-0.06430566
80	0x3e0850e1	0.13312103
81	0x3e29122f	0.16510843
82	0x3cb5aec8	0.022178069
83	0xbd84c90a	-0.06483658
84	0x3d9a1b54	0.07524744
85	0x3d2a9736	0.041648112
86	0x3b67ffc2	0.0035400246
87	0x3db62602	0.08893968
88	0xbc1651fc	-0.00917482
89	0x3cad67bd	0.02116763
90	0x3dae2638	0.085033834
91	0x3e0a0dc1	0.13481809
92	0x3e049e1e	0.12950942
93	0xbd5dd06e	-0.054153852
94	0xbb8a6de2	-0.004224525
95	0x3e40e07e	0.18835637
96	0x3db2ba1c	0.08726904
97	0xbb86f0b1	-0.004118048
98	0xbc5ad076	-0.013355365
99	0xbbaedac0	-0.0053361356
100	0x3e01167b	0.12606232
101	0x3dff2f59	0.12460203
102	0x3e030db3	0.12798195
103	0x3e1b86f0	0.15188193
104	0x3df39c50	0.118950486
105	0x3e346c30	0.17619395
106	0x3e09405b	0.13403456
107	0x3e24b091	0.1608298
108	0x3d57293d	0.052529562
109	0x3e651e04	0.22374731
110	0x3e102434	0.1407631
111	0x3d9c4861	0.07630993
112	0xbca0b952	-0.019619618
113	0xbda4a8b0	-0.08039987
114	0x3d4b0611	0.049566332
115	0xbba4f8b2	-0.0050345296
116	0x3dd9d745	0.106367625
117	0x3d18e3a3	0.037326466
118	0xbcae6a08	-0.021290794
119	0x3da817be	0.082076535
120	0xbd55875c	-0.052131042
121	0xbdaf3955	-0.08555857
122	0x3b8a7d2d	0.004226348
123	0x3e0ac66e	0.13552257
124	0x3d5194ab	0.05116717
125	0xbc1f02a6	-0.009705221
126	0x3d6a7b34	0.057246402
127	0x3e1183ab	0.14210384
128	0x3da93698	0.08262366
129	0xbd81aaf5	-0.063314356
130	0xbd23c5db	-0.03998361
131	0xbd09566d	-0.033529688
132	0x3ba3c4d8	0.004997831
133	0xbb15e5d5	-0.0022872586
134	0xbd862c75	-0.06551448
135	0x3df12719	0.117750354
136	0xbd3897ec	-0.04506676
137	0x3c49b127	0.012310303
138	0xbdfd066b	-0.1235474
139	0xbdae89da	-0.08522387
140	0x3d602612	0.054723807
141	0x3d4724fb	0.04861925
142	0xbda4616d	-0.08026395
143	0xbd3dfa81	-0.046381477
144	0xbd01fc07	-0.031734493
145	0xbdfc470e	-0.1231824
146	0x3c582f38	0.013194852
147	0xbd9cc67c	-0.076550454
148	0x3cf16231	0.029465767
149	0xbd089d07	-0.033352878
150	0xbd9a1530	-0.075235724
151	0xbb25b562	-0.0025285115
152	0x3e31082c	0.17288274
153	0x3d5d1f19	0.053984735
154	0xbc84751a	-0.01616912
155	0x3d8c4716	0.06849496
156	0xbd76e05c	-0.06027256
157	0xbd6abdbb	-0.057309847
158	0x3cb45c2e	0.022016611
159	0xbe018dad	-0.12651701
160	0xbdd3c365	-0.10340003
161	0x3d7afcdb	0.061276298
162	0x3c6ded72	0.014521943
163	0xbda51b55	-0.08061854
164	0xbe259940	-0.16171741
165	0xbd4a5a7f	-0.04940271
166	0xbdd8abc5	-0.105796374
167	0xbda8381e	-0.082138285
168	0xbc676679	-0.0141235525
169	0x3d3cfe28	0.04614082
170	0xbdd39f8c	-0.103331655
171	0x3d555147	0.052079465
172	0x3d8b8af9	0.06813616
173	0x3dd5394e	0.104113206
174	0xbd4c8ac4	-0.049937025
175	0xbda719ea	-0.081592396
176	0x3db345a3	0.087535165
177	0x3c21d51f	0.009877472
178	0x3d711a46	0.058862947
179	0x3dd31343	0.10306408
180	0xbdf57899	-0.11985893
181	0xbd2d4b23	-0.042307984
182	0xbcd6fcd6	-0.026243608
183	0x3dca5b51	0.098806985
184	0xbd6b8e67	-0.057508852
185	0xbd8cacff	-0.06868934
186	0xbd966635	-0.07343713
187	0xbd3c7fdc	-0.046020374
188	0x3dd358c3	0.10319664
189	0x3db596b0	0.08866632
190	0xbd891a8e	-0.06694518
191	0xbdba3458	-0.09092015
192	0x3e361531	0.17781521
193	0x3e3181a6	0.17334613
194	0xbd4ebb65	-0.050471682
195	0xbce5c3d6	-0.028047483
196	0xbc70c158	-0.014694534
197	0xbd40bf01	-0.047057156
198	0xbd13b721	-0.036063317
199	0x3dd30695	0.1030399
200	0x3dafed61	0.08590198
201	0xbe13da9c	-0.14438862
202	0xba875462	-0.0010324831
203	0x3ddb4ca7	0.1070798
204	0xbd01603f	-0.031585928
205	0xbdb300ee	-0.08740412
206	0xbb1b6b3a	-0.0023715035
207	0x3e4078ce	0.18796083
208	0xbd52bea4	-0.05145134
209	0x3d4e49a3	0.050363194
210	0x3da5e8c2	0.08101036
211	0xbd1128a6	-0.035439156
212	0xbda5e48e	-0.08100234
213	0x3d68ff98	0.05688438
214	0x3dce2109	0.10064895
215	0xbdf6e94e	-0.12056218
216	0x3ca0e117	0.019638581
217	0x3d150e3d	0.03639053
218	0xbda26ecd	-0.0793129
219	0xbdcdda69	-0.10051424
220	0x3c9f1d88	0.019423261
221	0x3d91a04a	0.07110651
222	0x3d29ffc8	0.041503698
223	0xbc9f7d99	-0.01946907
224	0xbd5d0fdd	-0.053970207
225	0x3cf0aa59	0.029378103
226	0x3c74c654	0.014939863
227	0x3de01341	0.109411724
228	0xbcfd3cee	-0.030912843
229	0xbdc81e73	-0.09771433
230	0xbda37622	-0.079815164
231	0xbdbbe272	-0.091740504
232	0xbd136574	-0.035985425
233	0x3daed15d	0.085360266
234	0xbda0ab56	-0.0784518
235	0xbdac8a56	-0.08424823
236	0x3d086a4a	0.03330449
237	0xbd8d7f0b	-0.06908997
238	0xbdfb50d1	-0.12271274
239	0xbd87c123	-0.06628635
240	0x3dd61645	0.10453466
241	0x3de0034f	0.10938131
242	0xbc812634	-0.015765287
243	0xbcc3e2db	-0.023911884
244	0xbdf031a9	-0.11728222
245	0x3d90f228	0.07077438
246	0x3d05f0ce	0.032700352
247	0xbd3cedd4	-0.046125248
248	0x3d60f283	0.054918777
249	0xbcb5e57a	-0.02220415
250	0x3de5e829	0.11225922
251	0xbdba1be9	-0.09087355
252	0xbdcd2460	-0.100167036
253	0xbd2c258c	-0.042027995
254	0xbd45102e	-0.048111133
255	0x3d423547	0.04741409

fc3.bias f4 [16]
0	0x3e840ee5	0.25792614
1	0x3f087569	0.53304154
2	0xbd280f7e	-0.0410304
3	0x3e674d99	0.22588195
4	0xbc60ebe5	-0.013728117
5	0xbde1e37f	-0.110297196
6	0xbcd9c0ee	-0.026581254
7	0x3eeb7ce0	0.4599371
8	0xbd9a89b8	-0.07545799
9	0x3ddac348	0.10681778
10	0xbe18869a	-0.14895096
11	0xbd9d5a2c	-0.076832145
12	0xbe3f377a	-0.18673506
13	0xbeb9adfd	-0.36265555
14	0xbedd6d72	-0.43247563
15	0xbed563a7	-0.4167759
