MBTI/ANN/Model/lr=0.001 3HL/best_model.pth (torch, 106223 bytes, 6 tensors)

fc1.weight f4 [128, 57]
00000000: 6257 d9bd a0fa eebd dddf 9dbd f43e 39be
00000010: 6e46 16be bb61 cfba 357e 6b3d ceee dcbd
00000020: 3c8c a9bd ef88 b33c a110 eabd 9428 d13d
00000030: 3720 b1bd dc6c b23d 7ca0 483b d975 4c3d
00000040: 2d40 2cbd c00c 2fbe eaa1 39be 9e26 a6bd
00000050: 672f 1dbe f3e8 04be b79d d7bd 15c7 38be
00000060: b70b 11bd b578 adbc a969 d0bd 8da2 d0bd
00000070: f736 4b3d 2dbf 19be 2f42 12be c793 e53c
00000080: ef38 84ba 08ef 6cbd 9ed0 87bd fb3d dcbd
00000090: 526a a6bd 8879 e33c 3017 cabd e1a5 e2bd
000000a0: 456d e6bd 06fc 18bd f120 96bb 4180 2f3d
000000b0: 4d68 97bc 4f6c 2a3d 8512 a53c ba28 3abd
000000c0: 554f fabd 6d5b b2bb 7f1b 1f3e 8d64 afbd
000000d0: 00f0 87bd 776a fcbd b093 9fbd 00da c63d
000000e0: e23a c9bd 4abf 10be 5234 bd3d 7df4 453e
000000f0: d02a 97be 483d 87bd 81b7 79bd a714 15bf
00000100: 78f6 2dbd ed65 a43d 6d9b 92bd 0573 09bd
00000110: d18a 2dbd fc34 e6be eb08 c4bd 1b77 16be
00000120: 0f98 543e e0ac 523e 4651 27be ddf3 4d3e
00000130: d7f5 dfbd 91d2 2bbf bcbe 8b3e 61a8 45be
00000140: 74be 9bbd 0df4 a23d 37cf cabd a29d d53d
00000150: faee e43d cba7 34bd 02b7 b03c 4e4f 7c3d
00000160: 4db0 a63e 5e0a 02be f858 b7be f5cd 93bc
00000170: c14c b4bd 73bc 053e 31ce 033d 646d 8ebd
00000180: 7db7 9fbd b60a b43d 42a5 e13d c9db 71bd
00000190: 5ec7 97be 42a7 80be 10a4 bbbe 53bb a0be
000001a0: ec26 8dbe 4298 c9bd 2f31 4bbe de01 1a3d
000001b0: f3fd 49bd 2014 da3d db04 9c3b 1852 823c
000001c0: d27a d1bd bc04 a7bc e8ff 97bc ad4f c3bc
000001d0: 696b 84be 1d9d 16be 9be5 e53d d6d8 eebe
000001e0: adcf b8be 95c1 593c 36ea 40be 7208 85be
000001f0: a9a4 5dbc 3513 523d 57d3 123e 2e3c 293e
00000200: c9a5 81be accd 063e 118b 643e 6f1b dbbd
00000210: b1eb 133e 0aa2 20be 94c2 aebe 7305 47be
00000220: b6c7 583c 9a52 df3d 1dc5 033d c71e cebd
00000230: 18f9 143e 3a66 14bf d046 80be 34cf 44be
00000240: addb 513e 0541 da39 6d41 ee3c 72e3 03be
00000250: 8fc9 0dbe d972 153d 10ce 17bd b6f1 52bd
00000260: fb56 1e3e 5df1 dc3d 5ddd 6c3e a8ab 9bbd
00000270: 519a e6be adc5 75bd 2e46 0abe 75ec 0dbe
00000280: c4c1 a23e ef82 1a3e 9af1 8f3e bf3e 113e
00000290: ac29 e63e 7dd4 9b3e 444c 313e 5db9 e3bc
000002a0: 6da8 9cbd 5bdd fbbb cb5b 15be a85e 94bd
000002b0: 1ff4 2bbd af04 cfbd df26 e1bd b5bb dabc
000002c0: 941b 533c bf7c b83d 0890 eabd d058 81bb
000002d0: 724d e43a e3b9 0abd 6b1f aebd 02d1 33be
000002e0: 0d0f cb3c 71ad 25be f8a4 7fbd ae98 523d
000002f0: 7912 38be 3a24 0abe 0358 8c3c 286b 753d
00000300: bea9 e5bc caa1 f93b 4286 38bd 6784 87bd
00000310: 7bae 34ba 1ada febd b981 76bd 4198 113d
00000320: 068d 493c 0618 6abd f23c fa3c a385 32be
00000330: 60e4 abbd 204e 8a3c c707 063d f23c 0abe
00000340: 8701 20be afcd afbd 2312 febd 749a bfbd
00000350: ea7a c8bd 1eb7 eebd 71e1 803d 9d96 41bd
00000360: fd95 9dbd 7475 33bc 487b 763d 1504 763d
00000370: ffa7 26bd 689f e9bd 7a70 e73d 402e 8cbc
00000380: 1ca3 a2bd 6461 fc3d b670 bb3d 1611 07bd
00000390: d53b 25be 1d5e a1bc f9d6 bbbd 06dd 18be
000003a0: aafc 38be 0c62 703d 23ee c4bd b70d 673d
000003b0: 25e7 673b de0b 21be f3b2 b73e c1fe 5abe
000003c0: 5144 25be 0c6c 38be a593 5f3e daf0 69bb
000003d0: 92d0 ffbe 2c75 003d 6aea 953e 9f2e a3ba
000003e0: 4b4a 0c3e 938b 34be 34ce fabd 535f 34be
000003f0: 95f5 6b3e 9d53 1e3e bab5 95be e44d d83d
-0.1061237 -0.11668897 -0.07708714 -0.18090421 -0.14675304 -0.0015821973 0.057493407 -0.10787736
-0.08278701 0.021915881 -0.11428953 0.10212818 -0.086487226 0.087121695 0.0030613234 0.049917076
-0.04205339 -0.17094707 -0.18128172 -0.081128344 -0.15350114 -0.12979488 -0.105281286 -0.18044694
-0.035411563 -0.021175722 -0.10176403 -0.10187254 0.049612965 -0.15014334 -0.1428306 0.028024567
-0.0010087768 -0.057845145 -0.066315874 -0.10754009 -0.08125748 0.027767912 -0.09867704 -0.11066795
-0.1125131 -0.037349723 -0.0045815636 0.04284692 -0.018482352 0.041607197 0.020150432 -0.045448996
-0.12222163 -0.0054430277 0.15537833 -0.085641004 -0.06637573 -0.12324994 -0.07791841 0.09709549
-0.09825684 -0.14135471 0.09238495 0.19331546 -0.2952485 -0.06603485 -0.06096602 -0.5823464
-0.04247138 0.08027253 -0.07158551 -0.033556957 -0.042368714 -0.449623 -0.095720135 -0.14693873
0.20761131 0.20573759 -0.16339597 0.20112558 -0.10935562 -0.67118174 0.27293956 -0.19302513
-0.076046854 0.07956705 -0.09902804 0.10430457 0.11178394 -0.044105332 0.02157164 0.06159907
0.32556382 -0.12699267 -0.35810065 -0.018042544 -0.08803702 0.13060169 0.03217906 -0.06954458
-0.077986695 0.087911054 0.110178486 -0.059047494 -0.29644293 -0.25127608 -0.36648607 -0.31392917
-0.27568758 -0.09843494 -0.19842981 0.037599437 -0.04931445 0.1064837 0.004761321 0.015908286
-0.10228504 -0.020388 -0.018554643 -0.023841703 -0.25863197 -0.14708371 0.112254344 -0.46649808
-0.36095944 0.013290782 -0.18839344 -0.25983006 -0.013528028 0.05128785 0.14338432 0.16526863
-0.25321797 0.13164395 0.22318675 -0.10698592 0.14445378 -0.15686813 -0.34132826 -0.19435672
0.013231209 0.10904427 0.032170404 -0.10064464 0.14548147 -0.57968485 -0.25054026 -0.19219667
0.20493956 0.00041628644 0.029083932 -0.12879732 -0.1384642 0.03648648 -0.03706175 -0.051500045
0.15462868 0.10788224 0.23131318 -0.076011 -0.4503961 -0.06000297 -0.13503334 -0.13859732
0.31788456 0.1508901 0.28114015 0.14184092 0.44953668 0.30435553 0.1731425 -0.027798349
-0.07649312 -0.0076862997 -0.14585797 -0.07244617 -0.04198086 -0.10108315 -0.10993742 -0.026700834
0.012884993 0.090081684 -0.11453253 -0.003947355 0.00174181 -0.03386868 -0.08502086 -0.17560199
0.02478745 -0.16179444 -0.062413186 0.051415138 -0.17975797 -0.13490382 0.017131811 0.059916645
-0.028035041 0.0076181637 -0.045049913 -0.066170506 -0.00068924547 -0.12443943 -0.060182307 0.03554559
0.012301689 -0.057151817 0.03054664 -0.17433791 -0.083931684 0.016882956 0.03272226 -0.13499811
-0.15625583 -0.08584153 -0.12405803 -0.093556315 -0.09789069 -0.116560206 0.062929995 -0.047262777
-0.076946236 -0.010953296 0.060176164 0.060062487 -0.040687557 -0.114073575 0.1130075 -0.017111897
-0.07941267 0.12323263 0.09152357 -0.03297528 -0.16136105 -0.019698197 -0.09171862 -0.14928064
-0.18065134 0.058687255 -0.096157335 0.056409564 0.0035385576 -0.15727183 0.35878715 -0.21386243
-0.16139342 -0.18009967 0.21833666 -0.0035696537 -0.49963814 0.031361744 0.29280406 -0.0012449807
0.13700216 -0.17631368 -0.122463614 -0.17614488 0.23042901 0.15461583 -0.2924021 0.105617315

fc1.bias f4 [128]
00000000: d733 b7bd 2d7a 5a3e 1cc6 e3bc 708d 21bd
00000010: f66b b9bd c229 03be d224 4abe 775d 973d
00000020: 58e6 7dbe cccd 0e3d e2e9 72bd 35ae 203d
00000030: c418 e3bd 8062 3dbe e729 22be 3b8e 2dbe
00000040: 4ea1 4fbe d9b2 1fbd cbcd 7e3c fde9 cfbc
00000050: 27d3 91bb b227 b4bd 58fc ea3d b7e7 f03c
00000060: 225d 8ebc 5571 ddbd fc10 113d bd18 9c3d
00000070: 5432 f6bd 1bed 51be 0421 8cbe a81c 2e3e
00000080: be70 75bd e748 14be 4861 a7bd cccb 583d
00000090: 53d2 2d3b 4c7d 49bd 2076 41be ab83 9dbd
000000a0: 1969 3b3e c32a 17be 8a5b bcbd 9447 183d
000000b0: 4b76 83bd 2b27 3abe d83f 17bd 6ad9 23be
000000c0: 04ac 5cbe 938e 823d 5c5a 3bbe 3ecc 54be
000000d0: f92f 5cbd 0d4b a3be cac6 05bd 81fa c23d
000000e0: 4822 4f3d a5a3 4e3d 221e 273d 8515 f1bd
000000f0: 5f39 51bd 485a d03c f84f 7f3c 5530 2abc
00000100: db09 bd3d e3fa 433d a898 aa3c 8aa6 05be
00000110: cf45 bfbd 81dd c73d ecc6 4abd f134 0c3c
00000120: b26e 55be 4956 3e3c 59d2 993d 8502 7b3e
00000130: 9db2 083e c68e e3bd 0849 11bd d773 d23d
00000140: 8480 ccbd 240b b23e eb50 183d 7627 81bd
00000150: 2c3c 7d3d 8405 22be 99fe d1bd b18d 253e
00000160: 7571 15bd 3626 173e dab7 e4bd e278 84bd
00000170: 2395 b2bd 57c8 1b3e f5dc 5dbe 1774 113d
00000180: 8e42 c6bd e33f d73d 6a56 c83c c766 69be
00000190: 66be ebbd 6c8b 893d cf04 a13e 793b abbc
000001a0: 9fb4 ffbd 254e 92bd 91a4 deba a8a6 2a3e
000001b0: f350 473d e0e7 0fbe bf3f c4bd 9163 07be
000001c0: 0cd1 d93d c401 90bd 665c c9bd 217c 283d
000001d0: 109a c2bd 968d ee3c e442 b3bc db64 75be
000001e0: 4e3a 6ebb 87f0 86bd e240 1abe 8292 3fbe
000001f0: 2108 04be 8662 4d3e 5672 0abe 8926 97be
-0.089454345 0.21335669 -0.027804427 -0.039441526 -0.09053795 -0.12808898 -0.19740608 0.07390874
-0.247949 0.034864232 -0.05930508 0.039228637 -0.11088708 -0.18494606 -0.15836297 -0.16948788
-0.20276377 -0.03898892 0.015551995 -0.025380129 -0.00445022 -0.08796634 0.11473912 0.029407365
-0.017378394 -0.10812632 0.03541659 0.07621906 -0.12021318 -0.20500605 -0.2736894 0.17003119
-0.059921972 -0.14480935 -0.08172852 0.05292873 0.0026523068 -0.049191758 -0.18892717 -0.07691129
0.1830181 -0.14762406 -0.09197147 0.037177637 -0.06419047 -0.18179004 -0.03692612 -0.16000906
-0.21549994 0.0637485 -0.18296188 -0.20781037 -0.053756688 -0.31893197 -0.032660283 0.09520436
0.050569803 0.050449032 0.04080022 -0.11771683 -0.051080104 0.025433674 0.015583031 -0.0103875
0.092303954 0.047846686 0.020824745 -0.13051811 -0.09339487 0.097590454 -0.049506113 0.008557544
-0.20843008 0.011617252 0.07510824 0.2451268 0.13349386 -0.11111216 -0.03547004 0.10276001
-0.0998545 0.34774125 0.037186544 -0.06306355 0.061824962 -0.15822417 -0.10253639 0.16167332
-0.036485154 0.1476067 -0.111678794 -0.06468369 -0.08719852 0.15213142 -0.2166632 0.035511103
-0.09680663 0.10510232 0.024455268 -0.22793113 -0.11510925 0.06716046 0.3144898 -0.020902382
-0.124856226 -0.07143811 -0.00169863 0.16665137 0.048661184 -0.14053297 -0.09582471 -0.13221575
0.10635576 -0.07031587 -0.09832077 0.041134004 -0.09502041 0.029120248 -0.021882482 -0.23964255
-0.003635067 -0.06588846 -0.15063813 -0.18708232 -0.12893726 0.20057115 -0.13520178 -0.29521587

fc2.weight f4 [128, 128]
00000000: 6863 8bbc 00f3 e9bd caa2 0e3d b0cc fb3c
00000010: 40b9 90bd 3567 473d e8e9 6abc 55fd 29bb
00000020: cdc4 5d3e b136 3a3d 1032 29bd 0d7f 243d
00000030: 3c13 48bd 0fdf b5bb 7dfd 87bd 8736 10bd
00000040: a7ce 15be 0ea8 94bc ebad 6a3e ba2e 423c
00000050: 1ad4 823e d538 b63c 08c9 03bd 1d98 273d
00000060: 31ff 86be 7449 dbbc 86c8 acba 12f9 2b3f
00000070: ae4c 3f3d a864 b2bc cc9f 47bd 179b 4c3e
00000080: ad70 cabc faf4 c13d decb 2bbe 3b0a 18be
00000090: 82fe a7bc 843c 77bd 8c1f 283d b34b 2a3d
000000a0: a385 653d b76e 693d a41a dd3d e185 283e
000000b0: 04e9 81bc fc0c 54bc 9161 a73d 530f 423d
000000c0: 74a3 78bd b93b 94bd 4ffa 75bd 6cf2 6fbc
000000d0: 2fa5 6a3d bb38 373e a919 373d c7ee 2abd
000000e0: 0557 8dbd a063 67bb b70c 93bd 05fe ec3d
000000f0: 42e9 9dbc f3c7 743d b9cc 0e3c cc0d b03d
00000100: f419 a8bd 20d4 cebd b473 b63d 38a3 2ebd
00000110: d596 413e 2a7b 45be 1ae3 91bd ba42 713d
00000120: b5d3 f33c b2f5 083e bc63 a33b bc2b 363e
00000130: fdd6 473e 0615 cb3e 741b 8f3d 0fda 843e
00000140: 0b03 523c 81a6 66be adc4 993e 3d8a 253d
00000150: e2f0 253d 4199 733d a42b aabb f6c7 0bbd
00000160: f323 c33c 0b47 a03d e35a 7abe a0d2 093d
00000170: cbc0 673e bd85 b8bd 6071 773d 70e7 a23e
00000180: 9392 8f3d f29c 333d c6d6 ac3d 51ee 15be
00000190: f722 c93c 6549 533e 95a8 abbb f5b1 9cbd
000001a0: fb41 6cbd 3c47 113c 0673 5a3d 2603 d83e
000001b0: 0eaf 53bc 3357 b3bb 6a8a 1f3e 69ec 80bd
000001c0: a004 663c ea27 21be 123e 96bd 9272 173e
000001d0: 1d83 0abd a04e 563e bec6 923d b7f9 48be
000001e0: f295 56bd 88cd 843e 1704 0b3e ea4d abbd
000001f0: de53 06bc 9eda ca3a 4398 d93c a222 c9bb
00000200: bdda acbd 181b aa3e 012c 973e 757c 9a3d
00000210: 3099 723d 022c 63bd f7a9 913d b993 76be
00000220: 82b5 a4bd 05ff 4bbd da15 9a3d 7ea9 67bd
00000230: 53da 41bd 76d6 02bc aeb8 36be 6c64 8e3d
00000240: e806 d63d 2f9f 11bd 0527 213e a1c0 f2bb
00000250: 64b3 7e3d 6fca 0e3e 674d 75bd 8551 943d
00000260: 91e4 ff3e f8ae 843d 825f 883c a7ad a0bc
00000270: 7224 b8bb 3578 2b3e 6472 2e3e 621c a1bd
00000280: 2cc7 79bd 0edf 973c 0b93 d13b 61d1 f3bc
00000290: b353 8e3d 3d4e 933d 0567 aa3d 42bd 9e3c
000002a0: dd69 edbd d54a 3abd eabb a83d e428 95bd
000002b0: eff8 853d 8321 883d 9d3d f2bd 87e8 4d3e
000002c0: 9753 9ebc 36d8 8d3c ae42 a2bc 69b2 6e3c
000002d0: f57c 043e d7a6 ae3e 328d 6abd 5b7d 4fbd
000002e0: 03c6 0dbd 7643 06bd 7717 b43c ff07 633e
000002f0: bbdb 803d 2a62 a63c bd7c 9e3c f9ca 893d
00000300: ec0d bd3b 62a5 553e aa87 8b3c dc4e 6abd
00000310: eb45 c13c 5c60 78bd 6c3b 943d bc9c 6a3d
00000320: f594 c5bd d895 c0bd f015 fe3d 4a10 a0be
00000330: 6ad8 9c3e 8e66 95bd 3d34 4a3a ad4c 0abd
00000340: 07df 4abd 8769 27be 17b8 9a3d 5ccc 1f3d
00000350: d488 c73e 5e93 1e3d a412 b03c c61b c43e
00000360: f100 62bd 795d 243c a52f 223d eb00 3f3d
00000370: 5758 423d 0bf7 f73e 8a1d 8a3e 2b51 423d
00000380: 7e52 373d 3290 16bd 0e1a 773d 29bc 163e
00000390: b7fa 5dbd 1870 dfbc 23c0 b93e 3324 093e
000003a0: 001f eb3b fce2 90bc d0db 4f3d 1087 523e
000003b0: 675d f43c 85ae 89bd b81c 27be 7078 5c3c
000003c0: 1c45 d1bc 18fa 953d a6ee 97bd 9330 e4bd
000003d0: 89d7 5a3c eb5b 98bd 1388 053e 5415 093c
000003e0: 3a82 e73c d6c6 c0bd 9592 b83e 56cc 8c3b
000003f0: 8884 243c e269 dabd db5c 0b3e b144 423e
-0.017015174 -0.11423302 0.034823216 0.030737251 -0.07066584 0.04868241 -0.014337994 -0.0025938351
0.21657105 0.045462314 -0.04130751 0.040160228 -0.04884647 -0.0055502723 -0.06640146 -0.03520825
-0.14629613 -0.018146541 0.22917907 0.011851961 0.25552446 0.022243896 -0.03217414 0.04091655
-0.2636657 -0.026768424 -0.0013182319 0.67176926 0.046703987 -0.021776512 -0.04873638 0.19981037
-0.024711931 0.09470554 -0.16776988 -0.14847653 -0.020507101 -0.060360447 0.04104571 0.0415761
0.05603565 0.05699035 0.10796097 0.16457321 -0.01585818 -0.012942549 0.08172906 0.047377896
-0.060702756 -0.07237954 -0.060053166 -0.0146452 0.057286438 0.17892735 0.044702206 -0.041731622
-0.06901363 -0.0035307184 -0.071801595 0.11571888 -0.019276265 0.059761 0.008715802 0.085963815
-0.08208075 -0.100990534 0.08908787 -0.042636126 0.18905194 -0.19285265 -0.07123394 0.058901526
0.029764036 0.13374975 0.0049862545 0.17790121 0.19515605 0.39664477 0.06987658 0.25947616
0.012818108 -0.22524454 0.30032864 0.040415037 0.040512927 0.059472326 -0.0051931906 -0.034126244
0.023820853 0.0782605 -0.24448733 0.033648133 0.22632138 -0.090098836 0.060410857 0.31817198
0.07010379 0.043850847 0.08439402 -0.14641692 0.024552805 0.20633467 -0.0052386024 -0.0765113
-0.05768011 0.008867081 0.05333235 0.42189902 -0.012920154 -0.0054730414 0.15580145 -0.06295092
0.014039189 -0.15737882 -0.07336058 0.14789799 -0.033816446 0.2092843 0.07166813 -0.19626509
-0.052389093 0.25938058 0.13575779 -0.0836447 -0.008198706 0.001547653 0.026561862 -0.0061381618
-0.084401585 0.33223796 0.2952576 0.075432695 0.059228122 -0.05546189 0.07112496 -0.24079789
-0.08042432 -0.049803752 0.07523699 -0.056558125 -0.04732735 -0.007985702 -0.17843887 0.06952748
0.10450536 -0.0355522 0.15737541 -0.007408217 0.0621828 0.1394441 -0.05988827 0.07242111
0.4997907 0.06478685 0.016647104 -0.019614054 -0.005619579 0.16745074 0.17035824 -0.07866742
-0.06098096 0.018538978 0.0063957027 -0.029762926 0.06949558 0.07192657 0.08320431 0.019377355
-0.115924574 -0.04548152 0.08238967 -0.0728319 0.06541621 0.06647017 -0.11828158 0.20108233
-0.019326968 0.017315011 -0.019807186 0.0145689035 0.12938292 0.34111664 -0.05726356 -0.050656658
-0.034612667 -0.03277918 0.021983845 0.22171019 0.0629191 0.02031048 0.01934659 0.06728167
0.005769482 0.2086387 0.017032463 -0.057204112 0.02359291 -0.06063877 0.07237896 0.05727838
-0.09647552 -0.094035804 0.12406528 -0.31262428 0.3063386 -0.072949514 0.00077134726 -0.03376453
-0.0495291 -0.16348849 0.075546436 0.03901325 0.3897158 0.03871476 0.021493264 0.3830244
-0.05517668 0.010032051 0.03959622 0.046631735 0.04744753 0.48430666 0.26975662 0.04744069
0.044756405 -0.03675861 0.060327582 0.14720215 -0.05419418 -0.02727513 0.362794 0.13392715
0.0071753263 -0.01768636 0.05074674 0.20559335 0.029829694 -0.0672274 -0.16319549 0.013456449
-0.02554565 0.07323092 -0.074185655 -0.11142077 0.013357052 -0.07439407 0.1304019 0.008366901
0.028260339 -0.09412925 0.36049333 0.0042968197 0.010041364 -0.10664727 0.1360964 0.18971516

fc2.bias f4 [128]
00000000: 8290 80bf a6bb 9dbf 7eff 35bf 0223 43bf
00000010: 84c3 5bbf cc50 b3be d12c b7bf 8c35 9abd
00000020: 4a95 103d 11b1 a4bf c094 9fbf e085 82bf
00000030: 450d c5be 512f b1bf ded5 65bf 8fc6 adbf
00000040: 33f9 3ebc 454a 80bf 0993 2ebf e487 83bf
00000050: eba8 3dbf 9211 24bf 4332 67bf 59f4 38bf
00000060: 15b5 02bf 2e7b 02bf 7b51 6abf 7a39 2fbf
00000070: 4d6b 1bbf 377d 8fbf 7045 52bf e4df 66bf
00000080: 8452 82bc 43d9 5dbf c17a 94bd 9374 92bf
00000090: 88f9 4cbf cb56 8abf b3af b8be 7507 27bf
000000a0: 8997 2fbe 95b9 74bf c2ef 73bf 638d 8ebf
000000b0: efa7 b6bf d85b b7bf a356 85bf 8989 27bf
000000c0: cb85 58bf f945 e2be ba61 88bf 201a b2bf
000000d0: 8699 8abf 1c7d 8dbf da87 a2bf 805d 90bf
000000e0: ec21 87bf 284c 9ebf b9f6 97bf de31 01bf
000000f0: 367d 8abf e499 9cbf d20e 99bf c978 8abe
00000100: 5d91 99bf 6026 9cbf 6d74 9ebf af45 2abf
00000110: bc40 bcbc e50a 6ebf d53d 91bc 0e43 06bf
00000120: 12ba cebc 07b2 8bbf ea44 c6bd 08e9 a6be
00000130: b8db a8be 880a 01bf 883a a0be cfa3 ebbb
00000140: 10c0 87bf d928 16bf 9d3c 68bf bf60 e6be
00000150: 5629 a6bf c125 22bf 9745 96bf 1549 0bbf
00000160: dd54 20bf 9fc0 4ebf 6dc6 adbf 9f41 efbd
00000170: 897f 2dbf 9dbb 6abf 66b4 f3be 1c32 11bf
00000180: f0de 89bf 343f 5ebe fc63 94bf 0a62 19bf
00000190: 289f 5dbf 579b 983d 31db bbbf 9db2 0ebf
000001a0: 1449 d0bf 1019 8bbf d3f3 85bf 70eb 6b3c
000001b0: f7e8 99bf 2f9c 97bf 9a95 4abf 0899 a2bf
000001c0: f18e 6abf a883 05be e24b 32bf 9335 61bf
000001d0: 13c5 a3bf 7e79 a7bf dced 71bf 2fbe 74bf
000001e0: e91c 34bf 4673 7cbf b71e 71bf 01fc a5bf
000001f0: 1bb0 2dbf cc68 123c afe7 b2be 089d a8bf
-1.00441 -1.2322891 -0.71092975 -0.7622529 -0.8584521 -0.3502258 -1.4310552 -0.075297445
0.035298623 -1.2866536 -1.246727 -1.0197105 -0.38486686 -1.3842565 -0.8977946 -1.357622
-0.011656093 -1.0022665 -0.6819311 -1.0275846 -0.74085873 -0.6408931 -0.9031107 -0.72247845
-0.5105756 -0.5096921 -0.9153058 -0.6844708 -0.60710603 -1.1210088 -0.82137203 -0.9018538
-0.015908487 -0.8665964 -0.07249976 -1.1441826 -0.80068254 -1.0807737 -0.36071548 -0.65245754
-0.1714765 -0.95595676 -0.95287716 -1.1136898 -1.4269999 -1.4324903 -1.0417064 -0.65444237
-0.8457915 -0.4419401 -1.0654824 -1.3914223 -1.0828102 -1.1053805 -1.2697709 -1.1278534
-1.0557227 -1.2366991 -1.1872169 -0.50466716 -1.0819461 -1.2234464 -1.1957648 -0.27045277
-1.1997486 -1.2199211 -1.237928 -0.6651258 -0.022980087 -0.92985374 -0.01772968 -0.5244607
-0.02523521 -1.0913705 -0.09681113 -0.32599664 -0.32980132 -0.50406694 -0.31294656 -0.0071911584
-1.0605488 -0.5865608 -0.9071749 -0.44995686 -1.2981365 -0.6333886 -1.1739987 -0.5440839
-0.6262949 -0.80762666 -1.357618 -0.11682438 -0.6777273 -0.91692525 -0.4759857 -0.56717086
-1.077116 -0.21703798 -1.1593013 -0.5991522 -0.8657098 0.07451504 -1.4676267 -0.5574129
-1.6272302 -1.0867023 -1.0465034 0.014399394 -1.202422 -1.1844538 -0.79134524 -1.2702951
-0.9162436 -0.13038504 -0.6964704 -0.8797237 -1.2794517 -1.3083951 -0.9450357 -0.956027
-0.70356613 -0.98613393 -0.9418749 -1.296753 -0.6784684 0.008936118 -0.34942386 -1.3172922

fc3.weight f4 [16, 128]
00000000: 824a 73bf 3fbf 4dbf 03f6 b9bf 0e79 66bf
00000010: 583a 91bf ba2b 39bf edb4 18bf 6791 40bf
00000020: b4b7 f8be a8ba 50bf 62c3 6dbf 8432 91bf
00000030: 8408 bcbe 535e 95bf c1fb 9ebf 94c2 9bbf
00000040: b8fa 1fbf d23b 57bf d12e 1cbf 3a9e 7abf
00000050: e12a acbf b60d 64bf 7837 87bf 0d9e 3fbf
00000060: 90de c3be f002 87bf 3c29 37bf 7f7f 8dbf
00000070: ce57 efbe 1075 5dbf e5d1 39bf 7a79 69bf
00000080: 9878 b6be 22f1 3fbf 1d88 4dbf 4f2c 8bbf
00000090: 49e0 98bf a7a8 c3bf 9d12 85bf e850 85bf
000000a0: 0892 1abf 5616 31bf 1527 92bf fc7f 34bf
000000b0: 601a 8abf e19d 25bf 8745 8cbf f21c e0be
000000c0: 4ab0 66bf 09ea 72bf 90c4 91bf 81c1 74bf
000000d0: 3c21 8cbf f9c6 87bf 5069 61bf 21f0 39bf
000000e0: d7de 85bf 07ae a8bf 9f9c 66bf ffbc 81bf
000000f0: 0756 a2bf d4c6 48bf 591b fbbe 2b2e 87bf
00000100: b08b 7ebf 94bc 88bf 7d81 a1bf b916 41bf
00000110: 93fd 0cbf 28cd 93bf e9df 31bf 21c2 55bf
00000120: a449 ebbe d788 6ebf 5cbe 69be e9b5 18c0
00000130: d31b 66be a7cb 64bf 14bf 5bbf d5f4 16bf
00000140: f98c b4be fc53 e8be a65f 90bf b264 86bf
00000150: 44b2 80bf d40b 1bbf f66b 67bf dd61 b2bf
00000160: c78d cabf 6119 bebf c20b 65bf af6d acbf
00000170: 4f83 35bf 5920 68bf 3d9f fdbe 46be 9ebe
00000180: 657f 5dbf b18d 9ebf 48b1 34bf aa90 56bf
00000190: 6723 9abf d2a6 efbe 4ee2 85bf 5063 f7be
000001a0: f2a0 6dbf caac 1ebf e5b5 5dbf 09f2 3dbf
000001b0: 977e 28bf bb27 ecbe 48a8 47bf 05ad 59bf
000001c0: 5c80 74bf 47bf fcbe cb22 d8be 734e b3be
000001d0: bd18 65bf aabd 8dbf ef10 77bf 608e 80be
000001e0: d454 37bf d7b9 2abf f910 26bf fe55 6bbf
000001f0: 7701 a7bf a865 28bf b149 e5be 67c3 46bf
00000200: 67ed 85bf 2d13 81bf 2da8 07c0 2258 c5bf
00000210: 80de ebbf aeb6 30bf 3eeb 51bf 27fc 86bf
00000220: b842 15bf 1eaf a7bf cd0c e2bf 273b 6fbf
00000230: 92a5 99bf 4f90 e6bf 46d1 f6bf 4aeb c5bf
00000240: 892d 4dbf 6f2e a5bf 6982 02bf b6ef b2bf
00000250: f405 ecbf a616 acbf e15c 94bf ab7d d9bf
00000260: aea2 bebf 1401 f9bf e6e2 edbf 78f0 a4bf
00000270: fb02 d4bf 774b c9bf bb9b 96bf 9d92 ebbf
00000280: ca1d edbe 1d6e dfbf 2ed4 a2bf a143 66bf
00000290: c0f5 1dc0 db76 15c0 65ca 94bf 388d 64bf
000002a0: 4f90 11bf 36e1 bcbf e3f8 8bbf 2d8c c9bf
000002b0: 5ec4 f6bf c444 adbf f299 26c0 0083 34bf
000002c0: 5780 eabf 2e46 5ebf 5ba7 8dbf 5a37 d6bf
000002d0: db12 04c0 0a5c 91bf a8bc e1bf abfb aabf
000002e0: deab e8bf e6db bfbf 7ce3 d9bf 6793 a0bf
000002f0: f885 29c0 f0b8 d3bf c23d 96bf f52d 82bf
00000300: d9f2 3cbf 0b4d 3fbf af03 c2bf 8e01 debe
00000310: 90c8 0bbf 7272 d5bf 2498 2fbf adc4 b9bf
00000320: 7172 0abf c635 5cbf cb86 95bf cfd7 11c0
00000330: f2b1 94be 6857 30bf f45b 45bf 5dac 22bf
00000340: a34a c6bf 5f0a 03c0 6ba0 e9bf 75a1 06c0
00000350: ca11 cbbf 3e9f 80bf 72f8 09c0 39a0 1fc0
00000360: 99a4 febf b2ad 0cc0 4d37 eebf d804 d7bf
00000370: 2719 4ebf d301 b4bf f3d6 0abf d685 b1bf
00000380: 6e90 b6bf 5a74 a8bf 5256 d9bf 4f76 8cbf
00000390: 2b68 cdbf 3880 09bf 5487 9abf 2c66 5bbf
000003a0: c127 e9bf 9af1 e7bf ef39 a5bf 57a0 53bf
000003b0: dadf b0bf 2734 e5bf 9054 95bf 449f 07c0
000003c0: 1a7d dbbf 8952 d0be 5713 9bbf 8df7 b3bf
000003d0: 2daf c2bf 5899 88bf 0ed4 5cbf 2762 dbbf
000003e0: dda7 37bf d617 b6bf c528 c9bf 858a 85bf
000003f0: 0238 0bc0 b4f2 0abf 0785 a1bf 8c16 efbe
-0.95035565 -0.80369943 -1.4528202 -0.90028465 -1.134593 -0.72332346 -0.5965107 -0.75221866
-0.48577654 -0.81534815 -0.92876256 -1.1343541 -0.36725247 -1.166941 -1.2420579 -1.2168756
-0.6249194 -0.84075654 -0.61008936 -0.97897685 -1.3450586 -0.8908342 -1.0563803 -0.7485054
-0.3825574 -1.0547771 -0.71547294 -1.1054534 -0.46746677 -0.8650675 -0.725859 -0.91200984
-0.3563888 -0.74977314 -0.8028582 -1.0872897 -1.1943446 -1.5285844 -1.0396305 -1.0415316
-0.60379076 -0.69174707 -1.1418177 -0.7050779 -1.0789299 -0.6469403 -1.0958718 -0.43772084
-0.90112746 -0.9488836 -1.1388111 -0.95607764 -1.0947642 -1.0607597 -0.8805132 -0.7263203
-1.045863 -1.3178109 -0.90082735 -1.0135802 -1.2682503 -0.7842839 -0.49044302 -1.0560964
-0.99431896 -1.068255 -1.2617642 -0.754253 -0.55074424 -1.1546984 -0.69482285 -0.8349934
-0.4595462 -0.9317755 -0.22826523 -2.386103 -0.22471552 -0.8937325 -0.8583844 -0.58967334
-0.35263804 -0.45376575 -1.127919 -1.049948 -1.0054402 -0.60564923 -0.9039911 -1.3936116
-1.5824517 -1.4851495 -0.89471066 -1.3470973 -0.70903486 -0.9067436 -0.49535552 -0.31004542
-0.86522514 -1.2386991 -0.7058301 -0.8381449 -1.2042054 -0.4680696 -1.0459688 -0.48317957
-0.9282371 -0.61982405 -0.86605674 -0.7419744 -0.6581816 -0.46124062 -0.7799115 -0.8502963
-0.9550836 -0.49364683 -0.42214045 -0.3502079 -0.8949087 -1.1073506 -0.96510214 -0.25108624
-0.7161381 -0.6668982 -0.6486965 -0.9192809 -1.3047322 -0.65780115 -0.44782785 -0.7764191
-1.0463074 -1.0083977 -2.1196396 -1.5417521 -1.8427277 -0.6902875 -0.81999576 -1.0545701
-0.5830493 -1.3100317 -1.7660156 -0.93449634 -1.2003653 -1.801279 -1.9282615 -1.546243
-0.80147606 -1.2904795 -0.5098024 -1.3979404 -1.8439317 -1.3444412 -1.1590844 -1.6991476
-1.4893396 -1.9453454 -1.8584869 -1.2885885 -1.656341 -1.5726155 -1.1766275 -1.8404118
-0.4631179 -1.7455479 -1.2721002 -0.89946944 -2.4681244 -2.3353794 -1.1624266 -0.8927798
-0.5686082 -1.4756229 -1.0935329 -1.5745903 -1.9278677 -1.3536611 -2.603146 -0.7051239
-1.8320416 -0.86825836 -1.1066698 -1.6735642 -2.0636508 -1.1356213 -1.7635698 -1.3358053
-1.817745 -1.4988983 -1.7022548 -1.2544984 -2.6488018 -1.6540813 -1.1737597 -1.0170275
-0.73808056 -0.74726933 -1.5157374 -0.4336056 -0.5460291 -1.6675551 -0.68591523 -1.4513146
-0.54080874 -0.8601955 -1.168176 -2.278797 -0.29042011 -0.6888337 -0.77093434 -0.63544255
-1.5491527 -2.047508 -1.8252081 -2.1036046 -1.5864804 -1.0048597 -2.155789 -2.4941542
-1.9893981 -2.1981015 -1.8610626 -1.6798353 -0.8050713 -1.4063057 -0.54234236 -1.3868968
-1.4262826 -1.3160508 -1.6979468 -1.0973605 -1.6047415 -0.5371127 -1.2072549 -0.85702777
-1.8215257 -1.8120606 -1.2908305 -0.82666534 -1.3818314 -1.7906541 -1.1666431 -2.1190958
-1.7147553 -0.4068797 -1.2115277 -1.4059922 -1.520971 -1.0671797 -0.8626107 -1.7139329
-0.71740514 -1.4226024 -1.5715567 -1.0432898 -2.1752934 -0.54276586 -1.2618722 -0.4669689

fc3.bias f4 [16]
00000000: 1243 093f 0ae9 0b3c 25f1 003f d475 743e
00000010: f2f3 85bf 8e07 88bf 9c93 803f 0103 083d
00000020: a12e 3ebf 939a 1fbf a6ed 9bbf 542e 8abf
00000030: 0051 d4bf 04ec 03c0 c75a 0dc0 382d 0bc0
0.53617966 0.008539448 0.5036796 0.23873073 -1.0465071 -1.0627306 1.0045047 0.03320599
-0.742899 -0.62345237 -1.21819 -1.0795388 -1.6587219 -2.0612803 -2.2086656 -2.174635
