MBTI/ANN/Model/TFJP/lr=0.00001/best_model.pth (torch, 34735 bytes, 6 tensors)

fc1.weight f4 [64, 57]
0	0x3db3649e	0.087594256
1	0xbbe58b51	-0.007005133
2	0xbd16e58b	-0.036840003
3	0xbd158932	-0.036507793
4	0xbd8920ac	-0.06695685
5	0xbdacf652	-0.08445419
6	0xbd54889d	-0.051888097
7	0x3db0ba7d	0.0862932
8	0xbcfa98fb	-0.030590525
9	0xbd99b2d3	-0.07504811
10	0x3d944e45	0.07241491
11	0xbd43511b	-0.04768477
12	0x3dcf6458	0.10126561
13	0x3d9e5d98	0.07732695
14	0xbaf93072	-0.001901163
15	0x3d87c0b2	0.066285506
16	0xbda3ed03	-0.08004191
17	0xbd41ed1e	-0.047345273
18	0xbdadacff	-0.08480262
19	0xbd525191	-0.05134732
20	0x3c80bcc9	0.01571502
21	0xbc3b346a	-0.011426071
22	0xbd18f9cb	-0.037347596
23	0x3d24f6da	0.04027448
24	0x3cdda27a	0.027055014
25	0x3d3db55c	0.046315536
26	0x3dc329b5	0.09529439
27	0x3d6685ed	0.056280065
28	0xbd8b4434	-0.06800118
29	0x3d572c8c	0.052532718
30	0xbd908e6a	-0.07058413
31	0xbd2fc3a1	-0.042911176
32	0x3d4454cc	0.04793243
33	0x3bf7caa4	0.0075619984
34	0xbdb25925	-0.08708409
35	0x3d8aff9e	0.06787036
36	0xbd4ea9cc	-0.0504549
37	0x3d07d6d2	0.033163853
38	0xbcbd8e84	-0.023139246
39	0xbc721ab0	-0.014776871
40	0x3cfcb5c7	0.030848397
41	0xbd5371b5	-0.05162211
42	0xbc604919	-0.013689303
43	0x3d475056	0.0486606
44	0x3d61bfa0	0.05511439
45	0x3cc217e7	0.023693038
46	0xbd28712e	-0.04112356
47	0x3c48ba78	0.012251489
48	0x3d083236	0.03325101
49	0xbd5464b1	-0.05185384
50	0xbb3806ca	-0.0028080218
51	0xbb91a91e	-0.004445209
52	0xb870d08f	-5.7414694e-05
53	0x80474068	-6.543425e-39
54	0x002a4b71	3.884154e-39
55	0x80486bbb	-6.650802e-39
56	0x80455e8e	-6.370569e-39
57	0xbd315c2f	-0.043300804
58	0xbd1770c5	-0.03697278
59	0x3d4624a4	0.048374787
60	0x3d7b9f1b	0.06143103
61	0xbd2352c6	-0.03987386
62	0x3da6d8be	0.08146809
63	0xbd0c3b1f	-0.03423607
64	0xbd7747a6	-0.060371064
65	0xbd27641e	-0.040866964
66	0xbc5dc2ad	-0.013535184
67	0x3cec63bc	0.02885615
68	0xbb0bdc04	-0.0021340856
69	0xbd12e1b5	-0.035859782
70	0x3d9291de	0.07156728
71	0xbd2eeade	-0.042704456
72	0xbd86649b	-0.06562158
73	0x3ce91c4f	0.028455881
74	0xbcbcf1e8	-0.023064569
75	0x3dabbdaf	0.08385789
76	0x3d2e1f27	0.042510178
77	0xbd9c7c9b	-0.07640954
78	0x3d914aef	0.070943706
79	0xbd23021c	-0.039796934
80	0xbd708293	-0.058718275
81	0xbd23d9fb	-0.040002804
82	0x3d29f167	0.041489985
83	0x3d646d10	0.055768073
84	0xbd644634	-0.055731013
85	0xbb5db0bd	-0.0033827268
86	0xbc7c49c6	-0.015398448
87	0x3d75936c	0.059955046
88	0x3d8e7625	0.06956128
89	0xbd43e668	-0.047827154
90	0xbcd470d0	-0.0259327
91	0xbd2fd124	-0.04292406
92	0x3ca62a25	0.020283768
93	0x3d15a49d	0.03653394
94	0x3cdb3f89	0.026763694
95	0xbb083e14	-0.0020788955
96	0x3ce71238	0.02820693
97	0xbcde50f4	-0.02713821
98	0x3d4f352a	0.05058781
99	0xbc09a5c4	-0.008401338
100	0xbd50b64a	-0.050955094
101	0xbd857b0d	-0.06517611
102	0x3d27808e	0.040894084
103	0x3d266141	0.040620092
104	0xbbe7d131	-0.007074498
105	0xbd08734c	-0.03331308
106	0xbbcfeee6	-0.0063456176
107	0xbbe3b389	-0.0069488925
108	0xbc10cf73	-0.008838522
109	0xbb30ed71	-0.0026996995
110	0xbb019742	-0.0019773995
111	0x3a7d194e	0.0009654955
112	0x3a7d194e	0.0009654955
113	0x390ffb35	0.00013731125
114	0x3d851a9d	0.06499217
115	0xbc6485d7	-0.0139479255
116	0xbd134905	-0.03595831
117	0xbd8db5e1	-0.06919456
118	0x3cd2cb6f	0.02573177
119	0x3be56582	0.007000626
120	0x3d7c2788	0.061561137
121	0xbba630aa	-0.005071719
122	0xbdaf8405	-0.085701026
123	0x3bec932f	0.007219694
124	0x3d156bcf	0.036479767
125	0xbd2b5bbb	-0.041835528
126	0x3db988e6	0.090593144
127	0xbd0b2001	-0.03396607
128	0xbd3d4c24	-0.04621519
129	0xbdc9fd88	-0.098628104
130	0xbb237123	-0.002493926
131	0x3d42ecb2	0.04758901
132	0xbbed99f2	-0.0072510177
133	0xbcbcdaa0	-0.023053467
134	0x3d812ddc	0.06307575
135	0xba9b07d4	-0.0011827894
136	0x3e079c8e	0.13243315
137	0x3be8471d	0.0070885555
138	0x3d445e00	0.047941208
139	0x3baa80ba	0.0052033337
140	0x3d7c532e	0.061602764
141	0xbc0d481e	-0.008623151
142	0x3c3f04b3	0.011658835
143	0xbda0d8bd	-0.078538395
144	0x3b9647b8	0.0045861863
145	0x3d837d7a	0.06420417
146	0xbdc13274	-0.09433451
147	0xbd970bbd	-0.07375286
148	0xbd85c4b3	-0.06531658
149	0x3cb5d79c	0.022197537
150	0x3c84a4eb	0.01619192
151	0x3ac45233	0.001497811
152	0x3d9b1994	0.07573238
153	0xbd48f630	-0.049062908
154	0xbdbb538e	-0.09146796
155	0x3cdcf2c3	0.026971227
156	0x3d0f1320	0.03493035
157	0xbcd894d9	-0.026438164
158	0x3bea260f	0.00714565
159	0xbd83e1b1	-0.064395316
160	0x3da35977	0.079760484
161	0xbc06a465	-0.008217906
162	0x3c38ec56	0.011286816
163	0xbd14b22a	-0.036302723
164	0xbbd22078	-0.006412562
165	0xbc2125e3	-0.009835693
166	0xb9adb6d2	-0.00033133343
167	0xba2d9a7a	-0.0006622445
168	0x804a1e71	-6.806747e-39
169	0x8048c4ca	-6.68275e-39
170	0x0044274e	6.258914e-39
171	0x3c21c4f1	0.009873615
172	0x3cb70047	0.022339
173	0xbd08f014	-0.03343208
174	0x3d208f1d	0.039198983
175	0x3d65cc4d	0.05610304
176	0x3d933d30	0.07189405
177	0x3c96782a	0.018367846
178	0x3d7d01da	0.061769344
179	0x3d38ac40	0.045086145
180	0x3d715609	0.05891994
181	0x3da9448f	0.0826503
182	0xbd74254c	-0.05960588
183	0x3da48eb6	0.080350325
184	0x3d483a23	0.04888357
185	0xbd8bc665	-0.0682495
186	0x3d3fb5d1	0.046804253
187	0xbd358414	-0.044315413
188	0x39d566ed	0.00040703212
189	0xbd80aee9	-0.062833615
190	0xbcca6687	-0.024707092
191	0x3d0c5e17	0.03426942
192	0x3d7ac33b	0.061221343
193	0x3a5ee72a	0.0008503074
194	0x3b7e5517	0.0038808042
195	0xbd04b389	-0.03239778
196	0x3c1a49c1	0.009416998
197	0xbcb31d32	-0.021864507
198	0xba498b40	-0.00076882914
199	0xbc09e372	-0.008416044
200	0x3cadc265	0.021210859
201	0x3d27018b	0.040772956
202	0xbb1b1c0f	-0.0023667847
203	0x3d2545ec	0.040349886
204	0xbcc9626d	-0.024583066
205	0xba22f683	-0.00062165427
206	0x3d2e55f9	0.04256246
207	0xbd056c52	-0.032574005
208	0x3cc6cc08	0.024267212
209	0x3d52b870	0.051445425
210	0x3d8a2175	0.06744663
211	0x3d286090	0.041107714
212	0xbd68d60e	-0.056844763
213	0x3c33f6e4	0.010984156
214	0x3cd7ca92	0.02634171
215	0xbc59d270	-0.013294801
216	0x3d9a8cfe	0.075464234
217	0x3cf042bc	0.029328696
218	0xbc948616	-0.018130343
219	0x3d3239d0	0.043512166
220	0x3aed7117	0.0018115368
221	0x3c05c153	0.008163768
222	0x3bf6babb	0.007529584
223	0x3b360099	0.0027771352
224	0x3aa8216d	0.0012827344
225	0x39936fa8	0.00028121215
226	0x39936fa8	0.00028121215
227	0x1d2b6d56	2.2688187e-21
228	0xbcc729a2	-0.024311844
229	0xbc9684d2	-0.01837388
230	0x3d87e3e6	0.06635265
231	0x3d4a439a	0.049380876
232	0x3c8f7b69	0.017514901
233	0x3c6ddfa0	0.014518648
234	0x3bc7f9ca	0.006102775
235	0x3d137e04	0.03600885
236	0xbd48cee8	-0.049025446
237	0xbb4f71e7	-0.0031653584
238	0x3c80d3c1	0.015725972
239	0xbd0e3b76	-0.034724675
240	0x3d1ac57c	0.037785992
241	0x3ce78474	0.0282614
242	0x3ca26781	0.019824745
243	0xbd07c1ee	-0.03314393
244	0x3d48dab6	0.049036704
245	0xbd497dbe	-0.049192183
246	0xbc32dd1d	-0.010916975
247	0xbceb062b	-0.028689465
248	0xbd62e2c8	-0.055392057
249	0x3b70dce6	0.003675276
250	0xbcd6ba75	-0.026211957
251	0x3cc514f6	0.024057847
252	0x3d6a6df3	0.057233762
253	0x3d3eb88a	0.04656271
254	0x3d409d7e	0.047025196
255	0x3d488a9a	0.048960306

fc1.bias f4 [64]
0	0x3d4d5d45	0.050137777
1	0x3dab7c6b	0.0837334
2	0x3e275fd0	0.16345143
3	0xbd8f8415	-0.070076145
4	0xbd22a56a	-0.039708532
5	0x3dfe0ad0	0.12404406
6	0xbd8e27cd	-0.06941185
7	0x3dd3401f	0.103149645
8	0xbd814517	-0.06312006
9	0x3dcb9ae3	0.09941652
10	0x3df03429	0.11728699
11	0x3d00fac1	0.031489138
12	0x3da9c53c	0.082895726
13	0x3de1a436	0.11017649
14	0x3ddab266	0.10678558
15	0x3d92a0a2	0.071595445
16	0xbda50c20	-0.08058953
17	0xbd00f1e4	-0.031480685
18	0xbde2364d	-0.11045513
19	0x3db1e92c	0.08687052
20	0x3c002ebe	0.007823644
21	0xbcc77663	-0.024348443
22	0x3d70e264	0.058809653
23	0x3e03f952	0.12888077
24	0x3e2bf37d	0.16792102
25	0xbda0791a	-0.07835598
26	0x3e0600e2	0.13086274
27	0x3d8b23c3	0.067939304
28	0x3e0946e6	0.13405952
29	0x3de633e3	0.11240365
30	0x3ddf272c	0.10896143
31	0x3d8dc952	0.069231644
32	0x3e408e1e	0.18804213
33	0xbe216e1e	-0.15764663
34	0xbd14e338	-0.036349505
35	0xbe15148d	-0.14558621
36	0x3de4d825	0.11174039
37	0x3d931781	0.071822174
38	0x3dc60973	0.09669771
39	0x3e09f516	0.13472399
40	0xbe81c229	-0.25343445
41	0x3deb25b4	0.11481801
42	0x3dfd216b	0.123598896
43	0xbe5541f4	-0.2082594
44	0xbdf39320	-0.11893296
45	0xbd35eecf	-0.0444172
46	0x3e1a9ae3	0.15098147
47	0xbd8d1e6d	-0.06890569
48	0x3e152b51	0.14567305
49	0x3e083a11	0.133034
50	0x3e0de7d4	0.13857967
51	0xbde184d7	-0.11011665
52	0x3df5ba6c	0.11998448
53	0x3db5085f	0.08839487
54	0x3dd25ad7	0.102712326
55	0x3db3fe08	0.08788687
56	0x3dcf9004	0.10134891
57	0x3de2f76e	0.1108235
58	0x3cb398c5	0.021923432
59	0x3dfebe86	0.12438683
60	0xbd9e280c	-0.07722482
61	0x3e284d06	0.16435632
62	0x3dcfa3a7	0.10138636
63	0x3de96b36	0.11397402

fc2.weight f4 [64, 64]
0	0x3ca375b6	0.01995359
1	0x3bdf046d	0.0068059475
2	0x3ce445dd	0.027865345
3	0xbcda5a27	-0.026654316
4	0x3d146ace	0.03623467
5	0x3c81ae23	0.015830105
6	0x3c5ccd06	0.013476616
7	0x3d8220ca	0.0635391
8	0xbd4035c6	-0.046926282
9	0x3d47b58e	0.04875713
10	0x3c82a778	0.015948996
11	0x3cd2dcb2	0.025740001
12	0x3ce7223e	0.02821457
13	0xbb339a80	-0.0027405322
14	0x3c944bdb	0.018102577
15	0x3cad78ee	0.021175828
16	0xbda46d04	-0.080286056
17	0xbd923c6c	-0.07140431
18	0xbc07f6d6	-0.008298596
19	0x3cda18bb	0.02662312
20	0xbcb4836f	-0.022035329
21	0xbd350d39	-0.044202063
22	0x3c8b72da	0.017022539
23	0x3c8d61ff	0.017258642
24	0x3a0016d4	0.0004886214
25	0x3d6edac6	0.058314107
26	0x3c354a94	0.011065144
27	0xbc276358	-0.0102165565
28	0x3bee0d32	0.0072647566
29	0x3ccfa692	0.025347982
30	0x3c613daa	0.013747612
31	0x3d099833	0.033592414
32	0x3c31339a	0.010815525
33	0x3b8a70d9	0.0042248783
34	0x3d23ce88	0.039991885
35	0xbda3c820	-0.07997155
36	0x3d253aec	0.040339395
37	0x3c5758a9	0.013143697
38	0x3cb0f59b	0.021601489
39	0xbceb4ff8	-0.028724656
40	0x3d52a558	0.051427215
41	0x3c1abd86	0.0094446
42	0x3c4eaa74	0.012613881
43	0xbcb2ddea	-0.021834332
44	0xbd1c7f45	-0.03820731
45	0xbd8eb271	-0.06967629
46	0x3cbb25f8	0.022845253
47	0x3d3c872e	0.046027355
48	0x3d10c6af	0.03534573
49	0x3cb0edeb	0.021597823
50	0x3cb9dd51	0.02268854
51	0x3dc63358	0.09677762
52	0x3cfd7fc9	0.030944722
53	0x3ce17f72	0.027526591
54	0x3ced3dcf	0.028960137
55	0x3c3f4a12	0.011675375
56	0x3d3fd37a	0.04683254
57	0x3cd254c9	0.025675194
58	0xbbab31b4	-0.005224431
59	0xbb2c0175	-0.0026245986
60	0x3ccf7eb6	0.025328975
61	0x3bb497b3	0.005511248
62	0xbc12981c	-0.0089473985
63	0x3bbd13f1	0.0057701995
64	0x3c6fb88e	0.014631404
65	0x3c3d743b	0.011563356
66	0x3c9731be	0.018456336
67	0x3bd6bbaa	0.006553133
68	0xbc7fc7d0	-0.015611604
69	0x3c2ae088	0.010429509
70	0x3d0f2479	0.034946892
71	0x3b4075bf	0.0029367057
72	0xb9c5dc68	-0.00037738984
73	0x3bb95fdc	0.0056571793
74	0x3c846626	0.01616199
75	0x3bacf2a9	0.005277951
76	0x3c931b4b	0.01795735
77	0x3c24b0f7	0.010051957
78	0x3c847d7b	0.016173115
79	0x3c8c0db2	0.017096374
80	0xbc8c64f1	-0.017137976
81	0xbacdb01c	-0.0015692743
82	0x3cc225cc	0.023699664
83	0x3c632f5d	0.013866273
84	0x3c8b4266	0.016999435
85	0x3c245c51	0.010031776
86	0x3c32904a	0.010898659
87	0x3c7115e4	0.014714692
88	0x3ca0b0c7	0.019615544
89	0x3d113c5b	0.03545795
90	0x3c69496f	0.014238699
91	0x3ccaaff5	0.024742106
92	0x3cb78808	0.022403732
93	0x3c47ac21	0.012187035
94	0x3c915957	0.017742796
95	0x3c1d0515	0.009583731
96	0x3c8fea81	0.017567875
97	0x3ca99833	0.020702457
98	0x3d34385c	0.04399906
99	0x3ca0d57f	0.019633053
100	0x3c5e01be	0.01355022
101	0x3c740978	0.014894836
102	0x3c83f26f	0.016106812
103	0x3cc039c8	0.023465052
104	0xbd14e7e0	-0.036353946
105	0x3c8e9005	0.017402658
106	0x3c83fa95	0.016110698
107	0xbcc8eef9	-0.024528014
108	0xbcec0b83	-0.028814083
109	0xbc61863e	-0.013764916
110	0x3c8a213a	0.016861547
111	0x3c03e25d	0.008049575
112	0x3cce4a20	0.02518183
113	0x3c7a2e0d	0.015269768
114	0x3cb9cdbe	0.022681113
115	0xbd88055d	-0.06641648
116	0x3c92ad1a	0.017904807
117	0x3c13a256	0.009010872
118	0x3c76488d	0.015031946
119	0x3caf1b71	0.02137539
120	0x3c954d2d	0.018225277
121	0x3c4d89cb	0.012545059
122	0xbc71a9cf	-0.014749958
123	0x3c884b5c	0.016637497
124	0x3cb41697	0.021983428
125	0x3c8efe53	0.017455256
126	0x3c845088	0.016151682
127	0x3ccad213	0.024758374
128	0x3cc28b7e	0.023748156
129	0x3c8429ad	0.016133154
130	0x3c6c8f50	0.014438465
131	0x3d5eae49	0.05436543
132	0x3d0980c4	0.033570066
133	0x3c8bb9ac	0.017056309
134	0xbd3c3f90	-0.045959055
135	0x3c900ef7	0.01758526
136	0x3c9248c0	0.017856956
137	0x3c393e95	0.011306425
138	0x3cb9e151	0.022690447
139	0x3bfa60cf	0.007640935
140	0x3d4d3b21	0.050105218
141	0x3cf95e4a	0.030440468
142	0x3cc27267	0.023736192
143	0x3cc28159	0.023743318
144	0xbbabde10	-0.005244978
145	0x3d3528ce	0.044228368
146	0x3c01c79e	0.007921128
147	0x3c901fe9	0.017593341
148	0x3d44c2b4	0.048037246
149	0x3ca0af8f	0.019614963
150	0x3cbd7908	0.023129001
151	0x3d0115df	0.031515
152	0x3d6c0a67	0.057627108
153	0xbd926eb4	-0.07150021
154	0x3ca22566	0.019793224
155	0x3d00a3e9	0.031406317
156	0x3d22359b	0.039601903
157	0x3cf5091d	0.029911572
158	0x3cf0d5de	0.029398855
159	0x3c8271b3	0.015923357
160	0x3d21290e	0.039345793
161	0x3a001a9e	0.0004886779
162	0xbc4462e1	-0.011986465
163	0x3d7cad7a	0.061688878
164	0x3cc7abbf	0.024373887
165	0x3bd3c929	0.006463189
166	0x3c90bb36	0.017667394
167	0x3d27f0d3	0.041001152
168	0xbd4d74db	-0.05016027
169	0x3cfaa5bd	0.030596608
170	0x3ce3d0f5	0.0278096
171	0xbd60b615	-0.054861147
172	0x3c86b0aa	0.016441662
173	0xbd349d56	-0.04409536
174	0x3cdd7f3e	0.027038213
175	0xbd16269b	-0.03665791
176	0x3d2b8c73	0.04188199
177	0x3cea993e	0.028637525
178	0x3d5ed9c1	0.054406885
179	0xbc1b16f1	-0.009465919
180	0x3cb1c3f3	0.021699881
181	0x3c7929f1	0.0152077535
182	0x3c8ba794	0.01704768
183	0x3ce8cf60	0.028419197
184	0xbc6255cb	-0.0138144
185	0xbac59b36	-0.0015076164
186	0xbd499c3f	-0.049221274
187	0x3d015e51	0.031584088
188	0x3c734d54	0.014849979
189	0x3ce44ec3	0.027869588
190	0x3b364f04	0.0027818093
191	0x3d1a4650	0.03766471
192	0xbd0c8cac	-0.034313843
193	0xbd2780e7	-0.040894415
194	0xbd7dfe89	-0.06201032
195	0x3d575ff9	0.05258176
196	0x3d3caa40	0.0460608
197	0xbd17a271	-0.03702015
198	0x3d02cc46	0.03193309
199	0xbc901fc0	-0.017593265
200	0x3dac3e17	0.0841028
201	0xbd308ccb	-0.04310302
202	0xbd398170	-0.045289457
203	0xbcc461d8	-0.023972437
204	0xbd50ac38	-0.05094549
205	0xbc9ca7f7	-0.01912306
206	0xbd248e39	-0.040174697
207	0xbd4c42ba	-0.049868323
208	0x3d15089b	0.03638516
209	0x3d89bad5	0.067250885
210	0x3d869165	0.065707006
211	0xbd3cb442	-0.046070345
212	0xbd134490	-0.03595406
213	0x3d21c6f2	0.03949637
214	0xbd198f81	-0.03749037
215	0xbd1cd4e0	-0.03828895
216	0xbbc2d397	-0.0059456336
217	0xbd31f201	-0.043443684
218	0xbd220d1f	-0.039563295
219	0xbd15d5c9	-0.036580835
220	0xbd725804	-0.05916597
221	0xbd40222e	-0.046907596
222	0xbd29b249	-0.04142979
223	0xbcfa373b	-0.030543914
224	0xbd9d401c	-0.076782435
225	0x3d9075bf	0.07053708
226	0xbc2080ce	-0.009796334
227	0x3bb70521	0.005585328
228	0xbce4c29c	-0.027924828
229	0xbd584e25	-0.0528089
230	0xbd34acdc	-0.044110164
231	0xbd3d8f09	-0.046278987
232	0x3c8920cd	0.016739273
233	0xbd262ad2	-0.04056818
234	0xbd4f8d01	-0.05067158
235	0xbd1d5496	-0.038410746
236	0x3daee86b	0.08540424
237	0xbd1e1dbe	-0.038602583
238	0xbd2dae6d	-0.042402674
239	0xbd38fe26	-0.04516425
240	0xbcd93bc7	-0.026517762
241	0xbd0eb0a0	-0.03483641
242	0xbcfd387d	-0.030910725
243	0x3dc3cc0e	0.09560405
244	0xbd8b7e16	-0.06811158
245	0xbd89a7b1	-0.06721438
246	0xbd839a27	-0.064258866
247	0xbd1785eb	-0.03699295
248	0xbc47e91d	-0.012201575
249	0xbd2746cb	-0.040838998
250	0xbcbd592c	-0.02311381
251	0xbd2e1bbc	-0.04250692
252	0x3cd95408	0.026529327
253	0xbd418e60	-0.04725492
254	0xbd9dfbe0	-0.07714057
255	0xbd41d0c8	-0.04731825

fc2.bias f4 [64]
0	0x3d43f95c	0.04784523
1	0x3cd16186	0.025559198
2	0x3dd09e2a	0.101864174
3	0xbd8638ba	-0.065537885
4	0xbdc08242	-0.09399845
5	0xbe37478c	-0.17898387
6	0xbdff70cb	-0.124726854
7	0x3cc2515b	0.023720434
8	0xbd82e457	-0.063912086
9	0x3dd939c5	0.10606722
10	0x3d580418	0.05273828
11	0xbd9b92aa	-0.07596333
12	0x3da53d93	0.08068385
13	0x3d3069d6	0.043069683
14	0xbdddc7d4	-0.1082913
15	0xbe074a88	-0.13212025
16	0x3e18cb0e	0.14921209
17	0xbc2736ce	-0.010205938
18	0x3de53576	0.111918375
19	0x3ddb52e4	0.107091695
20	0x3e3b8fd4	0.18316585
21	0xbdcb3cdf	-0.099237196
22	0x3de4b3ea	0.111671284
23	0xbdcd6e1e	-0.10030769
24	0x3d2053d3	0.03914244
25	0x3db58aa8	0.08864337
26	0xbd1d5235	-0.038408477
27	0xbd320b8c	-0.043468043
28	0x3d88278b	0.06648167
29	0x3d71e37d	0.05905484
30	0xbc54f4b5	-0.012997796
31	0x3e0e5c0a	0.13902298
32	0x3e35f26b	0.17768256
33	0x3d4eb915	0.050469477
34	0xbc8eb303	-0.017419344
35	0xbe257ec9	-0.16161646
36	0xbdb74807	-0.08949285
37	0x3d81ea0d	0.0634347
38	0xbcf1d9d1	-0.029522808
39	0x3dd68a0d	0.1047555
40	0x3da77dba	0.08178277
41	0xbe5b2963	-0.21402507
42	0x3df306e7	0.11866551
43	0x3db25127	0.08706885
44	0x3decb8d1	0.115586884
45	0x3daf4bfe	0.08559416
46	0xbda1f3f9	-0.07907862
47	0xbd6987d8	-0.057014316
48	0xbba9944d	-0.0051751495
49	0x3e4e909d	0.20172353
50	0x3e18484a	0.14871326
51	0xbda55369	-0.0807255
52	0xbe0d869a	-0.13820878
53	0xbdba17e9	-0.09086592
54	0x3e29d43d	0.16584869
55	0x3e373bcb	0.17893903
56	0xbe3b6b8f	-0.18302749
57	0x3df52e34	0.11971703
58	0x3b52fa34	0.003219259
59	0x3e02f844	0.12790018
60	0x3dd50b14	0.104025036
61	0x3cd05605	0.025431642
62	0xbc0b8276	-0.008514991
63	0xbdbbae70	-0.09164131

fc3.weight f4 [4, 64]
0	0x3d8e3ac2	0.06944801
1	0x3cdb552e	0.026774015
2	0x3d45b844	0.048271433
3	0xbe261c1d	-0.16221662
4	0xbe12512c	-0.14288777
5	0xbe2c18b9	-0.16806306
6	0xbde0ed2f	-0.10982739
7	0xbad710a8	-0.0016408162
8	0xbdaaaedd	-0.08334134
9	0x3e1a311a	0.15057793
10	0x3de3d9d2	0.1112553
11	0xbe09bb1a	-0.1345028
12	0x3de06b5f	0.109579794
13	0xbdbf850d	-0.09351549
14	0xbe2efcbe	-0.17088601
15	0xbe112c6c	-0.14177102
16	0x3e01478f	0.12624954
17	0x3c45a151	0.012062387
18	0x3deb0ec1	0.114774235
19	0x3e2547af	0.16140626
20	0x3d983df8	0.074336946
21	0xbdd2af97	-0.10287397
22	0x3df5745b	0.11985084
23	0xbe2771d4	-0.16352016
24	0x3c9a46f3	0.01883266
25	0x3db09fa0	0.08624196
26	0xbda195d5	-0.07889906
27	0xbdacbf09	-0.084348746
28	0xbd4d9205	-0.050188083
29	0x3df841b6	0.12121908
30	0xbc8938dc	-0.016750745
31	0x3e1e7f7f	0.15478323
32	0x3e274dad	0.16338225
33	0x3d60f032	0.054916568
34	0x3c9287e8	0.01788707
35	0xbe4cff72	-0.2001932
36	0xbdd20e43	-0.102566265
37	0x3cf86be9	0.030324893
38	0xbe1e6f29	-0.15472092
39	0x3d47fdbd	0.048825968
40	0x3da32da9	0.07967693
41	0xbe4bf2c2	-0.19916824
42	0x3dff96fc	0.1247997
43	0x3db60e5d	0.08889458
44	0x3d0441c5	0.032289285
45	0x3d51ed2a	0.051251568
46	0xbe235517	-0.15950428
47	0xbe1d8f53	-0.15386705
48	0x3c5e008d	0.013549936
49	0x3e1b8c7d	0.15190311
50	0x3ddd5742	0.10807659
51	0xbdb943f4	-0.09046164
52	0xbe137344	-0.14399439
53	0xbde2079f	-0.1103661
54	0x3d9a9005	0.07547001
55	0x3dc73f8e	0.09728919
56	0xbe56b014	-0.20965606
57	0x3e165693	0.14681463
58	0x3d33d4dc	0.04390417
59	0x3ddd57b0	0.10807741
60	0x3d868d7a	0.06569953
61	0x3c213a4f	0.009840562
62	0xbd822f07	-0.06356626
63	0xbe51ae36	-0.20476612
64	0x3cb04285	0.021516094
65	0x3d09fde9	0.033689413
66	0x3df57995	0.119860806
67	0xbd808ed5	-0.06277243
68	0xbac91712	-0.0015341958
69	0xbded0a89	-0.11574275
70	0xbe15e840	-0.14639378
71	0x3d57e757	0.052710857
72	0xbd35cdea	-0.044385828
73	0x3dbb793d	0.09153984
74	0x3dc6cd6f	0.09707152
75	0xbc91ed93	-0.01781348
76	0x3d1c63d3	0.038181137
77	0x3baba805	0.0052385353
78	0xbe25d184	-0.16193205
79	0xbd9bbaab	-0.076039635
80	0x3e393eab	0.18090312
81	0xbc5ca483	-0.013466957
82	0x3e00279b	0.12515108
83	0x3e1b3046	0.15155134
84	0x3e3bd0c3	0.18341355
85	0xbe1798d1	-0.14804389
86	0x3e1ad4f9	0.15120305
87	0xbd5150c5	-0.05110242
88	0xbae3cfce	-0.0017380656
89	0x3dbed5f8	0.09318155
90	0xbc8b1b5e	-0.016980823
91	0x3c99f164	0.018791862
92	0x3d8558d4	0.06511083
93	0x3dee2935	0.11628953
94	0x3d2ebe4e	0.042661957
95	0x3e27bcfe	0.16380689
96	0x3e3830f4	0.17987424
97	0x3da65cab	0.08123144
98	0xbce8e674	-0.028430201
99	0xbe00c943	-0.12576775
100	0xbc2b3df1	-0.01045178
101	0x3c1e326f	0.009655579
102	0xbdb27c7b	-0.08715149
103	0x3e0e8793	0.13918905
104	0x3db9b151	0.090670235
105	0xbe50ef9d	-0.20403905
106	0x3dc6a5b6	0.096995756
107	0x3dc79ea3	0.097470544
108	0x3dbc532a	0.0919555
109	0x3d8eb73c	0.06968543
110	0xbd7118fb	-0.058861714
111	0xbe0fc1e1	-0.14038803
112	0x3d4694b5	0.04848166
113	0x3e357903	0.17721944
114	0x3e186435	0.14881976
115	0xbd5b9b6b	-0.053615015
116	0xbde585ad	-0.11207137
117	0xbd95b1d3	-0.07309308
118	0x3e20bc56	0.15696844
119	0x3d8a3178	0.06747717
120	0xbe241857	-0.1602491
121	0x3e316c21	0.17326404
122	0xbbc320c7	-0.005954835
123	0x3daf11ad	0.08548293
124	0x3df3ef13	0.11910834
125	0x3d9c67fe	0.076370224
126	0x3d1ce2fd	0.03830241
127	0xbdced9bc	-0.10100123
128	0xbe1aa60e	-0.15102407
129	0xbc0cc8c5	-0.008592789
130	0x395b5cad	0.00020919992
131	0x3d06e780	0.03293562
132	0x3c0b9cb5	0.008521249
133	0x3d7baef5	0.06144615
134	0xbd052f94	-0.032516077
135	0xbcca4984	-0.024693258
136	0x3cdeaa1a	0.02718072
137	0xbe1c60ad	-0.15271254
138	0xbdd44795	-0.10365216
139	0xbcaa29df	-0.020771919
140	0xbe073e4b	-0.13207357
141	0xbd914e75	-0.070950426
142	0x3e0234de	0.1271548
143	0x3d7bb1ea	0.06144897
144	0xbd7ae2a4	-0.061251298
145	0xbc1b2381	-0.009468914
146	0xbde47a0e	-0.111560926
147	0xbe04b2be	-0.1295881
148	0xbe059c14	-0.1304782
149	0x3d900dd7	0.0703389
150	0xbd27c855	-0.040962536
151	0x3cd74cf4	0.026281811
152	0xbd7aaf4e	-0.06120234
153	0xbda81514	-0.08207145
154	0x3bd6c5ef	0.0065543572
155	0x3dd4ebe8	0.10396558
156	0x3d4cf27e	0.050035946
157	0xbdd63e13	-0.104610585
158	0xbd1991ed	-0.03749268
159	0xbe0a958a	-0.13533607
160	0xbdd481f6	-0.103763506
161	0xbdf7490b	-0.12074479
162	0x3cd174b6	0.025568347
163	0x3e03f6f5	0.12887175
164	0x3dca208a	0.098694876
165	0x3d62e8c1	0.055397753
166	0xbd582ba8	-0.05277601
167	0xbd70c6bc	-0.058783278
168	0xbdc4dc4c	-0.09612331
169	0x3d7bd295	0.061480124
170	0xbdab1d99	-0.08355255
171	0xbdb10522	-0.08643557
172	0xbdc54f7a	-0.096342996
173	0xbdcb20c5	-0.0991836
174	0x3d629a8a	0.05532316
175	0x3df02e3e	0.1172757
176	0xbcb7178e	-0.022350099
177	0xbe0509da	-0.1299204
178	0xbde93525	-0.1138709
179	0x3cfd5d48	0.030928269
180	0x3d73ebc0	0.059551
181	0x3d251649	0.040304456
182	0xbdb21704	-0.08695796
183	0xbe12c47f	-0.1433277
184	0x3d018f6a	0.03163091
185	0xbe06d013	-0.13165312
186	0xbd376bd2	-0.04478056
187	0xbdd540c5	-0.104127444
188	0xbe08ffa6	-0.13378772
189	0xbd4f0629	-0.050542984
190	0x3cb20fa3	0.021735972
191	0x3decc9a7	0.115619
192	0x3d05717a	0.032578923
193	0xbda01fa9	-0.07818539
194	0xbdf72bbc	-0.120688885
195	0x3df1819b	0.117922984
196	0x3dd27899	0.102769084
197	0x3e06ac12	0.13151577
198	0x3e00f108	0.12591946
199	0xbd461db1	-0.04836816
200	0x3d6a2430	0.057163417
201	0xbdef1597	-0.1167404
202	0xbdebffdb	-0.1152341
203	0x3d45a20f	0.048250254
204	0xbe17ec59	-0.14836253
205	0x3d5ebb7f	0.05437803
206	0x3e14ae2b	0.14519565
207	0x3e090e9e	0.13384482
208	0xbdd5b2ae	-0.10434471
209	0xbb2a0bf4	-0.0025947066
210	0xbe3d97d5	-0.1851495
211	0xbdf3ff01	-0.119138725
212	0xbe640861	-0.22268821
213	0x3d3fe9c6	0.046853803
214	0xbddbaa85	-0.107258834
215	0x3dae0f21	0.08498979
216	0x3e0d7e5c	0.13817734
217	0xbe186c43	-0.14885049
218	0x3d3cc443	0.046085607
219	0xbdab3a23	-0.08360698
220	0xbcded6f9	-0.027202116
221	0xbe225cae	-0.15855667
222	0xbcd0e5af	-0.025500147
223	0xbe0c8612	-0.13723019
224	0xbe49acbf	-0.19694804
225	0xbd707f9d	-0.05871545
226	0x3c56a74e	0.013101412
227	0x3e47d938	0.19516456
228	0x3e17544f	0.14778255
229	0xbdb34973	-0.08754244
230	0x3c7b45d2	0.015336471
231	0xbe1545fa	-0.14577475
232	0xbdf6d6ef	-0.12052714
233	0x3e0ccf07	0.1375085
234	0xbdd3dcc2	-0.103448406
235	0xbe17a17a	-0.14807692
236	0xbe28ee63	-0.16497187
237	0xbdf1e5f3	-0.118114375
238	0x3e162833	0.14663772
239	0x3e2cd51e	0.16878173
240	0xbdc8b72d	-0.09800563
241	0xbe3720c1	-0.17883588
242	0xbe3e8a9a	-0.1860756
243	0x3d84081c	0.06446859
244	0x3d5e3b01	0.05425549
245	0x3d9e2e47	0.077236705
246	0xbe40710c	-0.18793124
247	0xbe615f00	-0.22008896
248	0x3de8ab8f	0.11360847
249	0xbdea9d0a	-0.11455734
250	0xbd1cc2f3	-0.038271856
251	0xbe14a558	-0.14516199
252	0xbe23d155	-0.15997823
253	0xbd3f873d	-0.046759833
254	0x3db7b203	0.089695
255	0x3de271d2	0.11056866

fc3.bias f4 [4]
0	0x3deb2900	0.114824295
1	0x3db21fab	0.086974464
2	0xbdb93ded	-0.090450145
3	0xbdb107f8	-0.08644098
