MBTI/ANN/Model/1d/lr=0.001/best_model.pth (torch, 10993 bytes, 4 tensors)

fc1.weight f4 [128, 1]
0	0x3d5f2a15	0.054483492
1	0xbf78544a	-0.97003615
2	0xbf0cd8de	-0.55018413
3	0xbf5e54a8	-0.86847925
4	0xbf67ec2d	-0.9059475
5	0xbf5f229e	-0.87162197
6	0xbd021710	-0.031760275
7	0x3d197b14	0.037470892
8	0x3b1651d6	0.0022936962
9	0xbf3713e4	-0.71514726
10	0xbf2456b2	-0.64194787
11	0xbf4b467e	-0.7940444
12	0xbeb69468	-0.356601
13	0xbf07da30	-0.530673
14	0xbb027bb2	-0.0019910154
15	0xbf1d8bce	-0.6154145
16	0x3cdbfc00	0.026853561
17	0xbef11054	-0.4708277
18	0xbdb4321e	-0.087986216
19	0x3b913293	0.0044310777
20	0x3d6d723f	0.05797028
21	0x3ce7c440	0.028291821
22	0x39e9fcae	0.00044629484
23	0xbe0b9e38	-0.13634574
24	0xbf6a4bba	-0.915218
25	0x3cb29ee7	0.021804286
26	0xbd8064a0	-0.06269193
27	0x3d9453a0	0.07242513
28	0x3dfd1aa6	0.123585984
29	0x3c7fa587	0.01560343
30	0xbf0933c0	-0.5359459
31	0xbe57a49b	-0.21058886
32	0x3d9eb9a8	0.07750255
33	0x3de432b8	0.11142486
34	0xbf7de06c	-0.99170566
35	0x3cf347d1	0.02969733
36	0xbf1c3a54	-0.610265
37	0xbf6b10e8	-0.9182267
38	0x3d8bbc27	0.068229966
39	0xbf6c4fd6	-0.9230932
40	0xbf05bd9c	-0.52242446
41	0xbf01901e	-0.5061053
42	0xbf786ab0	-0.9703779
43	0xbe2c8c30	-0.16850352
44	0x3bc002d8	0.005859714
45	0xbd232c7e	-0.039837353
46	0xbd868e00	-0.06570053
47	0x3d547bb3	0.05187578
48	0xbe939102	-0.2882157
49	0x3d8e19fe	0.06938551
50	0x3d43e356	0.047824226
51	0xbd2b20ee	-0.04177945
52	0x3db33512	0.08750357
53	0xbccb1f4a	-0.024795193
54	0xbefd2534	-0.49442446
55	0xbf73c53c	-0.9522283
56	0x3d045d3a	0.03231547
57	0xbf237eab	-0.63865155
58	0xbe5f95a0	-0.21834421
59	0xbc913c66	-0.017728996
60	0xbef4736c	-0.4774431
61	0xbf7bbfec	-0.98339725
62	0x3bc815c9	0.0061061126
63	0x3d957a84	0.072987586
64	0xbf66179e	-0.89879787
65	0xbefcbfa8	-0.49364972
66	0xbf607b2e	-0.8768796
67	0x3c6cde91	0.014457361
68	0x3d3566b4	0.0442874
69	0x3b95068d	0.0045479
70	0xbcfeca78	-0.031102404
71	0xbe43ddc8	-0.19127572
72	0x3d7c227b	0.06155632
73	0xbf6312fc	-0.8870084
74	0xbd70a7c0	-0.05875373
75	0xbb904e26	-0.0044038473
76	0xbe451d70	-0.19249511
77	0x3c505c38	0.012717299
78	0xbd2ec84b	-0.042671483
79	0xbd0a9c4c	-0.033840463
80	0x3b74821e	0.0037309001
81	0x3d22f3ff	0.039783474
82	0x3c8c979d	0.017162139
83	0x3d8a199d	0.067431666
84	0xbf50f16a	-0.8161837
85	0x3c90f38a	0.017694253
86	0xbce64e12	-0.028113399
87	0x3cb14b55	0.021642366
88	0xbf1ae938	-0.60512114
89	0xbc402fcb	-0.011730145
90	0xbe48ef5a	-0.19622555
91	0xbd8f8549	-0.07007844
92	0xbd9b9904	-0.07597545
93	0xbf046240	-0.5171242
94	0xbd82af65	-0.0638111
95	0x3ca34f86	0.01993538
96	0xbcbb8e7d	-0.022895092
97	0x3bc7f04d	0.006101644
98	0xbe8818a8	-0.2658131
99	0xbf617eb8	-0.8808398
100	0xbf5b6476	-0.85700166
101	0x3d30e3d8	0.04318604
102	0x3b1b8384	0.0023729512
103	0xbd873aa2	-0.0660298
104	0xbd38bcd0	-0.04510194
105	0xbd6616d8	-0.05617413
106	0xbf6bd008	-0.92114305
107	0x3acae4de	0.0015479585
108	0xbf3f4be7	-0.7472519
109	0x3dec1eb7	0.11529296
110	0x3d5fb181	0.05461264
111	0xbd05bca9	-0.032650623
112	0x3b9a0ccc	0.0047012325
113	0xbc1eaa49	-0.009684154
114	0x3c9a3900	0.018826008
115	0xbeb8cf88	-0.36095834
116	0xbf0cac38	-0.54950285
117	0xbc7153f9	-0.014729493
118	0x3c3c82f2	0.011505829
119	0xbcf2ad48	-0.029623643
120	0xbc9eba17	-0.019375844
121	0xbeda9550	-0.4269204
122	0xbe84fd72	-0.25974613
123	0x3c8659b6	0.0164002
124	0xbb721291	-0.0036937336
125	0xbd62a627	-0.055334236
126	0xbe8a9324	-0.27065384
127	0xbaadbf0c	-0.0013255789

fc1.bias f4 [128]
0	0xbf8b828f	-1.0899218
1	0xbf7d5966	-0.98964536
2	0xbf4a8046	-0.7910198
3	0xbecf92c4	-0.4054166
4	0xbbf7902a	-0.0075550275
5	0xbf7a721c	-0.9783037
6	0xba085d30	-0.00052018743
7	0xbf567336	-0.8376955
8	0xbeecb68a	-0.46233016
9	0xbb468c3c	-0.0030295989
10	0xbe920b18	-0.2852409
11	0xbf0c8694	-0.5489285
12	0xbb4d9448	-0.00313689
13	0xbf7bf412	-0.98419297
14	0xbec59721	-0.38591865
15	0xbf2d9e1e	-0.6781939
16	0xbf013c1c	-0.50482345
17	0xba86c4fe	-0.0010282097
18	0xbbe5a99c	-0.0070087444
19	0xbf066872	-0.5250312
20	0xbf8b25d0	-1.0870914
21	0xbf5d282a	-0.8638941
22	0xbcdccb4e	-0.026952412
23	0xbf5865c8	-0.84530306
24	0xbf4fae46	-0.81125295
25	0xbed2f890	-0.41205263
26	0xbbdcf7e5	-0.0067434185
27	0xbf97a982	-1.1848605
28	0xbfe0ac3d	-1.7552563
29	0xbf14696c	-0.5797336
30	0xbc2a49b5	-0.01039355
31	0xbaf523c4	-0.0018702676
32	0xbfb3cbc4	-1.4046559
33	0xbfca805f	-1.5820426
34	0xbb2aab16	-0.0026041917
35	0xbee5c495	-0.44876543
36	0xbb239401	-0.0024960043
37	0xbb62cfdf	-0.0034608764
38	0xbf911f42	-1.1337664
39	0xbf4a9e88	-0.7914815
40	0xbe920288	-0.28517556
41	0xbf66fd3e	-0.90230167
42	0xbc32648b	-0.010888229
43	0xbe9b8df4	-0.3038174
44	0xbdb33103	-0.087495826
45	0xbbbdf846	-0.0057974188
46	0xba4a7f87	-0.00077246915
47	0xbf8b0400	-1.0860596
48	0xba1eb070	-0.0006053513
49	0xbf82d3e6	-1.0220916
50	0xbf67eff9	-0.90600544
51	0xbabce1e9	-0.0014410588
52	0xbfba2418	-1.4542265
53	0xbb21feea	-0.002471859
54	0xbe3e6ef8	-0.18597019
55	0xbb2d7e37	-0.0026472935
56	0xbf4dd12c	-0.80397296
57	0xbb4eb170	-0.0031538866
58	0xbe5dfed8	-0.21679246
59	0xba975339	-0.0011545188
60	0xbbb29cc3	-0.0054508164
61	0xbf44f0fe	-0.76930225
62	0xbdfbf73e	-0.12303017
63	0xbfa53049	-1.290536
64	0xbb929251	-0.0044730087
65	0xbb9ed918	-0.004847657
66	0xbd9bc690	-0.07606232
67	0xbe50269e	-0.20327231
68	0xbf619bea	-0.8812853
69	0xbdb2715f	-0.0871303
70	0xbd2763d1	-0.040866677
71	0xbf65648c	-0.8960655
72	0xbf75a597	-0.95955795
73	0xbf2f6fac	-0.6852977
74	0xbf7fdf5e	-0.99950206
75	0xbc8a2a9a	-0.016866017
76	0xbbef204f	-0.0072975527
77	0xbf03c0d4	-0.5146611
78	0xbaa6bd00	-0.0012721121
79	0xb99f30ed	-0.00030363296
80	0xbd7e8445	-0.06213786
81	0xbf565e43	-0.8373758
82	0xbeab02fd	-0.33400717
83	0xbf91d262	-1.1392329
84	0xbf3657dc	-0.7122781
85	0xbef04dd5	-0.4693438
86	0xba01d467	-0.000495261
87	0xbef30c41	-0.47470286
88	0xb796cb3f	-1.7976037e-05
89	0xbe9d8b72	-0.3077045
90	0xbac2ead4	-0.001487101
91	0xbbb38df9	-0.005479571
92	0xbb365090	-0.0027819015
93	0xbacee5a9	-0.0015784997
94	0xbbea44c4	-0.007149311
95	0xbf2d59b4	-0.67715
96	0xbb28619c	-0.0025692945
97	0xbe3a3700	-0.18185043
98	0xba179c54	-0.00057834876
99	0xbb5431c9	-0.0032378307
100	0xbb6af0c4	-0.0035849074
101	0xbf4c6539	-0.79841954
102	0xbd956d38	-0.072962224
103	0xbbf85f73	-0.007579738
104	0xbb869686	-0.0041072993
105	0xbbb91534	-0.0056482796
106	0xbb434b3d	-0.0029799484
107	0xbd147395	-0.03624304
108	0xbc051458	-0.008122526
109	0xbfdef45a	-1.741832
110	0xbf8a097c	-1.0784144
111	0xb8ca0e4a	-9.634772e-05
112	0xbe4e3cbf	-0.2014036
113	0xbb872df2	-0.00412535
114	0xbe8d9a83	-0.27656946
115	0xbbd45c23	-0.00648071
116	0xbf629e8a	-0.8852316
117	0xbe3c52f1	-0.18391015
118	0xbe3fc435	-0.18727191
119	0xbb8138ec	-0.003943553
120	0xbad71e9d	-0.0016412322
121	0xbe93141c	-0.2872628
122	0xbc5290c0	-0.012851894
123	0xbe860c31	-0.26181176
124	0xbc7938e7	-0.0152113205
125	0xbb9e462c	-0.0048301425
126	0xbb484338	-0.0030557644
127	0xbbc7e6c9	-0.00610051

fc2.weight f4 [16, 128]
0	0xbe9c0087	-0.30469152
1	0x3c8aa8ac	0.016926132
2	0x3d1c7bde	0.038204066
3	0xbd5084d4	-0.050907925
4	0xbee7b847	-0.4525778
5	0xbd2f079c	-0.042731866
6	0xbc883575	-0.016627053
7	0xbd32d827	-0.04366317
8	0xbd2a6c29	-0.041607056
9	0xbdddc918	-0.10829371
10	0xbd6b70e8	-0.057480723
11	0xbd93714b	-0.07199343
12	0x3da63b2a	0.081167534
13	0xbd120243	-0.03564669
14	0x3963c60c	0.00021722185
15	0x3cc410bc	0.02393376
16	0x3d86bfc5	0.06579546
17	0x3e14fcc0	0.14549541
18	0xbb030efa	-0.001999794
19	0xbd3b0444	-0.045658365
20	0xbeb99071	-0.36243013
21	0xbe00d37e	-0.12580678
22	0x3d450aa2	0.048105843
23	0xbc91f370	-0.017816275
24	0xbd9daefc	-0.07699391
25	0xbc8d8aaf	-0.017278044
26	0xbe57cd3c	-0.21074384
27	0xbe2b67e0	-0.16738844
28	0xbf85bbb2	-1.0447905
29	0xbcd220b3	-0.025650358
30	0xbf27c8c8	-0.6554074
31	0xbfb248a7	-1.3928422
32	0xbdb90a8b	-0.09035214
33	0xbe2fa686	-0.17153367
34	0xbe4f911f	-0.20270203
35	0xbd652734	-0.05594559
36	0xbe850ab4	-0.25984728
37	0xbdd4bece	-0.103879556
38	0xbdda882a	-0.106705025
39	0x3d39cd22	0.045361646
40	0xbd4bab89	-0.049724136
41	0x3aff61c0	0.0019484088
42	0xbe43baff	-0.19114302
43	0x3db2b14b	0.08725222
44	0x3c236d37	0.009974769
45	0xbf077022	-0.52905476
46	0xbf9b071a	-1.2111542
47	0xbe3f2234	-0.18665391
48	0xbef37ed7	-0.4755771
49	0xbeb546f4	-0.35405695
50	0xbe6761e8	-0.22595942
51	0x3cf3229b	0.029679587
52	0xbd6d3778	-0.057914227
53	0xbcd9bbd8	-0.026578829
54	0xbd05eb22	-0.032694943
55	0xbd395785	-0.04524948
56	0xbe2abe7e	-0.1667423
57	0xbd99afcb	-0.07504233
58	0x3ccd2078	0.025039896
59	0x3c02dedf	0.007987707
60	0xbd1ea315	-0.038729746
61	0x3b8650b0	0.004098974
62	0x3d8ff247	0.070286326
63	0xbdb971f1	-0.09054936
64	0xbe0238f9	-0.12717046
65	0x3d67f72b	0.056632202
66	0x3d82ff71	0.06396378
67	0x3cbccea6	0.023047756
68	0xbee9ed4d	-0.4568886
69	0xbd87b403	-0.066261314
70	0x3c085f69	0.008323529
71	0x3d1bd1ea	0.038041987
72	0xbcb94510	-0.02261594
73	0xbd70a2e6	-0.058749102
74	0xbcbbe234	-0.02293501
75	0x3d069609	0.03285793
76	0xbe4fbc0a	-0.20286575
77	0xbe7ebb48	-0.2487613
78	0xbcf1b879	-0.029506909
79	0xbf0d66fa	-0.55235255
80	0xbd85c8dd	-0.06532452
81	0xbdbd9cae	-0.092584
82	0xbdadcb9c	-0.08486101
83	0xbddee713	-0.10883918
84	0xbd3219d6	-0.04348167
85	0xbd15f96b	-0.036614817
86	0x3cb5db60	0.022199333
87	0xbbb9dcd1	-0.0056720753
88	0xbd8c9241	-0.06863833
89	0xbdf6ada3	-0.12044837
90	0xbd858f6f	-0.065214984
91	0xbc44a6c8	-0.012002654
92	0xbe42f419	-0.19038428
93	0xbd8e026b	-0.06934055
94	0xbecb55ed	-0.39713994
95	0xbe990208	-0.29884362
96	0xbd8d0332	-0.06885375
97	0xbe3fe746	-0.18740568
98	0xbd090158	-0.033448547
99	0x3d663ae9	0.056208525
100	0xbaa68681	-0.001270488
101	0xbd1ab4c1	-0.037770037
102	0x3d83b4e5	0.06430987
103	0xbee72284	-0.4514352
104	0xbd9ce2b5	-0.076604284
105	0x3cd9e3bf	0.026597856
106	0xbd98b104	-0.07455638
107	0x3ccc602d	0.024948204
108	0xbe5b27a0	-0.21401834
109	0xbf7ba58a	-0.9829947
110	0xbeba2c06	-0.36361712
111	0xbd954c53	-0.07289948
112	0x3c76a50c	0.015053999
113	0xbe8568a1	-0.26056388
114	0xbc05a553	-0.008157092
115	0x3d82a2d7	0.063787155
116	0xbd8adc88	-0.06780344
117	0xbdb457c5	-0.08805803
118	0xbd19f3cc	-0.03758602
119	0xbe458065	-0.1928726
120	0x3da99562	0.08280446
121	0x3d56741e	0.05235683
122	0xbf832f86	-1.0248878
123	0xbd89fb83	-0.06737425
124	0xbdab2509	-0.08356673
125	0x3db51853	0.0884253
126	0xbc0c5213	-0.00856449
127	0xbd4b4492	-0.04962594
128	0xbdcde985	-0.10054306
129	0x3d69d0e2	0.05708397
130	0xbda5817c	-0.08081338
131	0xbc3592d0	-0.011082366
132	0xc0b294e2	-5.580674
133	0x3dac65c5	0.084178485
134	0xbe1426ee	-0.14467975
135	0xbdb3e4fd	-0.087839104
136	0xbda829b1	-0.08211077
137	0xbf2a2389	-0.6646047
138	0x3d2c3d42	0.042050608
139	0x3d6319e6	0.05544462
140	0x3cd05946	0.025433194
141	0xbd4caa0c	-0.049966857
142	0x3cb3bfb4	0.021941997
143	0x3d4cc166	0.049989127
144	0xbd6310f3	-0.055436086
145	0xbf361f94	-0.71141934
146	0xbd08db1f	-0.033412095
147	0x3c4901f6	0.012268534
148	0xbb7c9ee0	-0.0038546845
149	0xbe0ac376	-0.13551125
150	0xbca6ffdb	-0.020385673
151	0x3bc3cb30	0.0059751496
152	0x3d02ec1a	0.031963445
153	0x3c47de45	0.012198989
154	0xbe4b5a8c	-0.1985876
155	0xbe29f81b	-0.16598551
156	0xbf823f16	-1.0175502
157	0xbd05621c	-0.032564268
158	0xc08ef926	-4.4679136
159	0xc0bf0705	-5.969607
160	0xbd1e9f7c	-0.038726315
161	0xbce2f0c8	-0.027702704
162	0xbf8c32e4	-1.095303
163	0xbd51410d	-0.051087428
164	0xbf7f1038	-0.9963412
165	0xbde05bae	-0.109549865
166	0xbce38e2a	-0.02777775
167	0xbd96e8e1	-0.07368637
168	0xbd287e6b	-0.041136187
169	0xbd34b20d	-0.044115115
170	0xbf5ce6b1	-0.8628951
171	0x3d651b32	0.05593414
172	0xbcfb14b4	-0.03064952
173	0xbed3035a	-0.41213495
174	0xbf8fb1e0	-1.1226158
175	0xbde2ee21	-0.11080576
176	0xc046c691	-3.1058695
177	0xbe421d1b	-0.18956415
178	0xbda614c9	-0.08109433
179	0xbc2acd85	-0.010424976
180	0xbc7da32a	-0.015480796
181	0xbc9fd060	-0.01950854
182	0x39ba2f00	0.00035511702
183	0xbdb9c8da	-0.090715125
184	0xbe1e2414	-0.1544345
185	0xbfc1e8ba	-1.5149148
186	0x3ccc6c40	0.024953961
187	0xbe35ef5b	-0.17767088
188	0xbe1f1f59	-0.15539302
189	0x3d8fb28d	0.07016478
190	0xbdc78725	-0.09742574
191	0xbd9b12c1	-0.075719364
192	0xbebb30e4	-0.36560738
193	0xbe88cccd	-0.2671875
194	0xbd820ecd	-0.06350479
195	0x3d18ee1c	0.037336454
196	0xbdc062a9	-0.09393818
197	0xbe1881bd	-0.14893241
198	0xbda64f88	-0.08120638
199	0x3d21b902	0.039483078
200	0x3bfb1856	0.007662813
201	0xbd631df4	-0.055448487
202	0xbcf9a598	-0.030474469
203	0x3d571656	0.052511536
204	0xbfa324d2	-1.2745612
205	0xbe863daf	-0.26218936
206	0xbdc41dfd	-0.09576032
207	0xbf27f9d7	-0.656156
208	0xbe42ee08	-0.19036114
209	0xbd36e63b	-0.04465316
210	0x3c1a9e45	0.009437148
211	0x3c127952	0.008940058
212	0x3d9143e9	0.07093031
213	0xbd2d9ab1	-0.042383853
214	0x3cf883cb	0.030336281
215	0xbd4c107e	-0.049820416
216	0x3c847240	0.01616776
217	0xbd466da6	-0.048444413
218	0xbf50c8b2	-0.81556237
219	0xbda0f105	-0.07858471
220	0xbeabd36a	-0.33559734
221	0xbdf804fd	-0.121103264
222	0xbe961ef5	-0.29320493
223	0xbe4ec963	-0.2019401
224	0x3d01d407	0.031696346
225	0xbd70fbe1	-0.05883396
226	0xbd918abf	-0.07106542
227	0xbe184927	-0.14871655
228	0xbdb15b6f	-0.08660018
229	0xbdd0825f	-0.10181116
230	0xbe077021	-0.13226368
231	0xbe517957	-0.20456444
232	0xbd9463b0	-0.072455764
233	0xbda44adc	-0.08022091
234	0xc01205e8	-2.2816105
235	0xbc54c713	-0.012986916
236	0xbfaf2736	-1.3683841
237	0xbf012cce	-0.5045899
238	0xbe809a78	-0.2511785
239	0xbe007eb7	-0.12548338
240	0xbe07e949	-0.13272585
241	0xbe88e03d	-0.2673358
242	0xbc34b5a1	-0.011029632
243	0xbedbd388	-0.42934823
244	0x3d3e9492	0.046528406
245	0xbd4777b5	-0.048698146
246	0xbda0fc56	-0.07860629
247	0xbe8ba154	-0.2727152
248	0xbdd3d15e	-0.10342668
249	0x3cbb1a44	0.022839673
250	0xc0b07c2d	-5.515158
251	0xbe6612ba	-0.22468081
252	0xbce94b02	-0.02847815
253	0xbdd8faf2	-0.10594739
254	0x3d57232f	0.052523788
255	0xbdcb1d9b	-0.09917756

fc2.bias f4 [16]
0	0xc0acb3eb	-5.3969626
1	0xc0c4be07	-6.1481967
2	0xc0b2e8fe	-5.5909414
3	0xc0b82480	-5.7544556
4	0xc0e9a895	-7.301829
5	0xc0eeec46	-7.466342
6	0xc0a65f5e	-5.1991415
7	0xc0c6da9b	-6.214185
8	0xc0e51837	-7.159206
9	0xc0de2ecc	-6.9432125
10	0xc0f0092d	-7.50112
11	0xc0e97173	-7.295099
12	0xc103b90b	-8.2326765
13	0xc10f0cfa	-8.940668
14	0xc1102d6d	-9.01109
15	0xc10e5687	-8.896125
