MBTI/ANN/Model/pr/lr=0.001 L2=0.01 hd = 128 SVM/best_model.pth (torch, 85743 bytes, 6 tensors)

fc1.weight f4 [128, 17]
4.575496e-05 -0.0001371873 -0.00038583478 -0.00011898681 5.0785013e-05 -1.38509395e-05 -5.774402e-06 -0.00043853428
7.5662297e-06 6.248848e-06 -2.3627304e-05 -5.2802214e-05 1.13150145e-29 1.7041e-41 -6.6777e-41 3.0205e-41
-0.008956715 2.0163884e-34 -2.4537593e-36 8.709491e-35 2.3719593e-34 6.136524e-35 -2.9384e-41 -1.591412e-34
-1.2919686e-34 7.917176e-35 -2.743681e-35 7.2471224e-35 -9.427927e-35 8.3049973e-13 -4.295e-42 -1.5283337e-11
2.486e-42 -1.5891592e-06 -4.3879e-41 -3.8155e-41 -3.4085e-41 5.1042e-41 -1.74466e-40 -3.91115e-40
-1.9981e-41 -4.5715e-41 1.3887e-41 -2.3547e-41 4.1568e-41 1.3963e-41 -3.4344957e-05 0.00013029575
-5.636e-41 4.2705e-41 -1.571282e-05 -1.7831209e-07 6.417161e-07 -4.0568514e-07 1.6872634e-06 -3.8677857e-08
9.190619e-07 -3.9080712e-07 -3.5411068e-07 5.291511e-08 9.2218954e-07 3.1863067e-08 -2.214073e-07 4.969689e-13
2.2271e-41 -2.7208e-41 4.3268e-41 -2.0928153e-06 -1.293e-42 -6.9974e-41 -1.918e-42 4.6321e-41
-8.377e-42 1.114642e-39 1.0134e-41 -2.0728e-41 5.125e-42 -3.7944e-41 4.4551e-41 -3.677e-42
-2.42055e-40 0.00012951833 -2.9629805e-09 1.3612e-41 -7.009726e-05 -2.305e-41 2.8189e-41 4.383e-42
-5.2173e-41 3.9895e-41 -2.633e-41 -1.3445e-41 1.997e-42 1.9352e-41 -1.1422e-41 4.7674e-41
5.5389e-41 2.275e-41 -5.1883e-41 2.162e-41 1.085e-42 -1.4411978e-05 -4.4442e-41 3.2086e-41
8.628e-42 -1.3909e-41 -3.0255e-41 -1.026546e-39 -2.743503e-32 1.9954951e-28 4.8123e-41 -1.318e-41
-1.21984e-40 -1.76063e-40 -1.3002625e-15 -4.606e-42 4.1497e-41 2.9458e-41 -0.0033653642 -2.4085947e-08
-1.200914e-08 -1.6687373e-08 9.830746e-09 1.973399e-08 6.0626027e-12 -6.668907e-08 -3.3149014e-08 2.0861258e-08
8.672915e-09 -1.6174265e-08 -1.4042889e-08 -2.0204675e-13 2.844618e-07 5.7634e-41 2.787e-42 -8.579309e-07
6.619e-26 2.3377257e-25 1.5226114e-25 -3.486344e-26 -6.890532e-28 3.384769e-28 1.2597197e-25 -2.7998596e-25
-4.8779387e-26 -1.0590164e-25 -1.0482571e-25 -1.0801585e-25 1.2070481e-10 6.0969e-41 3.1265261e-09 -2.2174e-41
-0.0010810927 0.052784942 -0.011092065 0.003003758 0.005889346 -0.0062599387 -0.0062357606 0.02317082
0.037006777 0.00048892736 0.011285446 -0.0067533934 -0.0067416965 -6.5005668e-09 4.473e-41 1.909855e-07
2.5925e-41 -0.070727475 -1.2138411e-06 1.9882798e-06 -1.8319861e-07 5.971558e-07 -3.745104e-08 1.9407984e-05
-1.8525656e-06 -4.5784276e-08 -8.269731e-07 1.5612848e-06 -2.59082e-07 -8.671502e-07 -2.23178e-39 -8.661e-42
2.3658e-41 -9.239e-42 -1.3037666e-06 -8.827061e-18 2.536113e-18 -1.0840909e-18 -2.8085766e-18 4.4027053e-20
-1.9024094e-29 3.282884e-18 8.874014e-19 -2.8983271e-18 4.4664477e-18 4.1394107e-18 6.0633625e-18 -6.297351e-08
-7.5558455e-11 1.0328e-41 9.18e-43 -8.80797e-06 0.0054707834 -0.0024477511 -0.0020801595 -0.00166642
0.00018183084 -5.5303473e-05 0.0054207062 -0.005879675 0.00022415443 -0.000516683 -0.00058430334 -0.0016903396
4.1183867e-17 -6.4519654e-11 -4.9703e-07 -3.515e-41 -0.033899 -1.8839e-41 2.9042e-41 -2.0118e-41
-4.9341e-41 5.667e-41 -5.9526e-41 5.105e-42 -3.3225e-41 9.726e-42 3.631e-42 -6.1133e-41
6.1485e-41 3.6383e-41 -6.1577e-41 -3.939e-41 3.2755e-41 -2.0961015e-05 5.4168548e-17 1.46202e-40
2.8369348e-14 -2.2740193e-21 -2.3135e-41 -4.3072e-41 1.766469e-10 -5.1589457e-09 -1.9558e-41 3.138348e-28
-2.5e-41 5.2029e-41 2.6068e-41 -7.1953394e-09 -3.9651e-41 -7.414e-42 -0.012520561 -2.3657049e-11
00000000: 04e9 3f38 efd9 0fb9 de49 cab9 8f88 f9b8
00000010: fe01 5538 5561 68b7 bcc1 c1b6 13eb e5b9
00000020: 6be1 fd36 32ad d136 4033 c6b7 f277 5db8
00000030: ea7e 650f 812f 0000 26ba 0080 3354 0000
00000040: 30bf 12bc 1203 8607 25be 5084 b989 e706
00000050: cca4 9d07 0523 a306 e951 0080 f288 5387
00000060: 6abb 2b87 8279 d206 0de1 1186 5ca9 c006
00000070: 25a3 fa86 d0c3 692b f90b 0080 046f 86ad
00000080: ee06 0000 184b d5b5 517a 0080 5c6a 0080
00000090: 045f 0080 498e 0000 57e6 0180 4542 0480
000000a0: b337 0080 6f7f 0080 b626 0000 a441 0080
000000b0: e073 0000 ec26 0000 9e0d 10b8 00a0 0839
000000c0: 1c9d 0080 0b77 0000 06cf 83b7 0e76 3fb4
000000d0: 6542 2c35 f1cc d9b4 ee75 e235 c11e 26b3
000000e0: 74b5 7635 1fd0 d1b4 9a1c beb4 c744 6333
000000f0: 628c 7735 d0d9 0833 fabb 6db4 62e2 0b2b
00000100: 153e 0000 d84b 0080 9d78 0000 4b72 0cb6
00000110: 9b03 0080 0fc3 0080 5905 0080 2081 0000
00000120: 5a17 0080 2b23 0c00 401c 0000 c839 0080
00000130: 490e 0000 c669 0080 317c 0000 400a 0080
00000140: c0a2 0280 50cf 0739 4e9d 4bb1 f225 0000
00000150: 2e01 93b8 4140 0080 944e 0000 380c 0000
00000160: 7091 0080 366f 0000 6649 0080 7b25 0080
00000170: 9105 0000 f235 0000 d71f 0080 e584 0000
00000180: 679a 0000 6b3f 0000 a190 0080 453c 0000
00000190: 0603 0000 f9ca 71b7 e37b 0080 7159 0000
000001a0: 0d18 0000 c626 0080 5754 0080 982d 0b80
000001b0: 6973 0e8b 85f5 7c11 2686 0000 be24 0080
000001c0: 0b54 0180 cbea 0180 3863 bba6 d70c 0080
000001d0: ad73 0000 1e52 0000 718d 5cbb 8fe5 ceb2
000001e0: c250 4eb2 ec57 8fb2 14e4 2832 8183 a932
000001f0: 124f d52c b436 8fb3 ba5f 0eb3 6432 b332
00000200: e2ff 1432 96ef 8ab2 4741 71b2 037c 63aa
00000210: 22b8 9834 a9a0 0000 c507 0000 904c 66b5
00000220: e6e0 a315 beb2 9016 7b7d 3c16 a9a2 2c95
00000230: a35e 5a92 0489 d611 1cf2 1b16 8c4d ad96
00000240: 388b 7195 9219 0396 98c4 0196 97b7 0596
00000250: 62b7 042f f5a9 0000 6eda 5631 d03d 0080
00000260: 74b3 8dba 0635 583d 7ebb 35bc b2da 443b
00000270: 6afb c03b 2c20 cdbb 5a55 ccbb bbd0 bd3c
00000280: 6b94 173d 5c2b 003a 97e6 383c 924b ddbb
00000290: 73e9 dcbb 975b dfb1 b07c 0000 b211 4d34
000002a0: 4548 0000 91d9 90bd 43eb a2b5 636e 0536
000002b0: 40b5 44b4 3c4c 2035 dbd9 20b3 54ce a237
000002c0: aba5 f8b5 58a4 44b3 29fd 5db5 568d d135
000002d0: f517 8bb4 1cc6 68b5 4b4d 1880 2518 0080
000002e0: f341 0000 c119 0080 14fd aeb5 9ed4 22a3
000002f0: d221 3b22 ccfb 9fa1 833c 4fa2 71e9 4f1f
00000300: 5fed c08f ed3b 7222 14f5 8221 dadb 55a2
00000310: 68c8 a422 a1b7 9822 d7b2 df22 0e3c 87b3
00000320: a127 a6ae ca1c 0000 8f02 0000 f1c5 13b7
00000330: 4244 b33b 736a 20bb 4953 08bb c76b daba
00000340: d8a9 3e39 a7f5 67b8 2ea0 b13b 4aaa c0bb
00000350: ff0a 6b39 0272 07ba ef2b 19ba 638e ddba
00000360: 54ed 3d24 56e1 8dae a46b 05b5 fc61 0080
00000370: aed9 0abd 8434 0080 f550 0000 1538 0080
00000380: 8b89 0080 f99d 0000 efa5 0080 3b0e 0000
00000390: 9e5c 0080 1d1b 0000 1f0a 0000 6aaa 0080
000003a0: 65ab 0000 6c65 0000 a7ab 0080 ce6d 0080
000003b0: 4f5b 0000 70d5 afb7 efce 7924 8d97 0100
000003c0: 4387 ff28 eed1 2b9d 7e40 0080 1178 0080
000003d0: af39 422f 9142 b1b1 8536 0080 9cea c611
000003e0: b145 0080 0991 0000 ab48 0000 e03a f7b1
000003f0: 886e 0080 ab14 0080 0a23 4dbc f016 d0ad

fc1.bias f4 [128]
0.00057362556 -1.6922334e-17 -7.3250764e-26 -2.7256053e-06 -3.0283058e-14 -1.4264669e-15 -2.1803551e-08 -2.4338805e-08
-2.7954242e-10 0.093780845 -7.743528e-06 -2.9941885e-10 0.009856017 -8.455031e-18 -0.0002385988 -6.993483e-11
-0.03358449 -0.00040532136 -9.298007e-07 -9.1102345e-05 0.43943524 -0.007452599 -2.9229555e-05 2.4842947e-07
-0.0045083123 0.4760573 -4.654737e-10 -0.0024566136 -1.721116e-07 -2.7754335e-15 8.560857e-12 -1.1869205e-32
-6.973009e-18 -7.247123e-07 -7.89733e-09 -9.536926e-07 -0.015980272 -9.183622e-11 0.2583142 -2.535489e-07
-1.2824269e-06 -0.46500182 -0.0023586717 -0.00012054252 -5.0690716e-07 -0.0008972648 -2.6308514e-06 -1.0201193e-07
0.0065261205 -2.1006096e-11 -5.2575466e-05 -4.8320473e-17 -1.5202648e-08 -5.2590623e-11 -6.0823573e-19 -2.1001815e-06
5.8473617e-08 2.0035106e-11 -7.0953797e-06 -1.9216922e-10 -7.705055e-05 4.9287955e-08 1.8051612e-12 -1.5422766e-12
-0.0005903964 0.010423697 -1.35589e-06 -1.5993468e-05 -6.964629e-20 -6.3825167e-09 -2.512741e-08 -6.324751e-05
-7.562383e-05 0.107335955 -0.0005790848 -7.804382e-08 -5.8849943e-15 -4.7155343e-08 -1.6618277e-07 -1.124747e-05
6.5225922e-09 -0.0011180764 -2.1942531e-08 -6.823964e-27 0.1333361 -1.10451674e-16 -0.010526404 -1.1849584e-22
-0.008497265 -7.619247e-07 -1.0666724e-08 -2.3318108e-08 -1.4282403e-05 -0.0025100198 -8.7079894e-07 -1.7368222e-12
-0.000290898 0.22114888 -3.7813747e-18 -3.8292699e-25 -5.3398762e-05 -3.164769e-07 -4.4225428e-07 0.062220998
-4.2838446e-13 -1.1012716e-05 -4.725861e-06 -5.300591e-26 -0.022012394 -5.5682444e-06 -1.0522827e-07 1.4726244e-16
-3.0132927e-07 -9.9056614e-23 -6.739053e-07 -0.00829798 -2.5763733e-10 -7.3017327e-06 -2.2421511e-09 -5.65395e-13
0.032034434 -2.0984839e-08 -2.3955974e-06 -1.2686162e-06 -4.8124834e-13 0.2813369 -0.00032936112 -3.5219792e-11
00000000: 5c5f 163a bb14 9ca3 305c b595 8be9 36b6
00000010: fd61 08a9 5793 cda6 844a bbb2 9911 d1b2
00000020: 19ae 99af 2c10 c03d 33ea 01b7 759b a4af
00000030: 227b 213c c1f7 1ba3 6130 7ab9 cfc9 99ae
00000040: e48f 09bd 5081 d4b9 6b97 79b5 330e bfb8
00000050: a8fd e03e ee34 f4bb fe31 f5b7 e35f 8534
00000060: 77ba 93bb c8bd f33e 99e5 ffaf 23ff 20bb
00000070: adcd 38b4 b6fd 47a7 ac9a 162d 8583 768a
00000080: 1ba1 00a3 da89 42b5 d3ac 07b2 a100 80b5
00000090: 0fe9 82bc 32f3 c9ae c241 843e 7f1f 88b4
000000a0: da1f acb5 b814 eebe f293 1abb c6cb fcb8
000000b0: 6512 08b5 6c36 6bba af8d 30b6 a711 dbb3
000000c0: 11d9 d53b 86c5 b8ad 7a84 5cb8 bfd6 5ea4
000000d0: fa96 82b2 c74b 67ae fe84 33a1 d8f0 0cb6
000000e0: 6c24 7b33 0c3b b02d d914 eeb6 d44a 53af
000000f0: 3396 a1b8 aeb0 5333 c90d fe2b 5f0e d9ab
00000100: d5c4 1aba 27c8 2a3c 07fc b5b5 b629 86b7
00000110: 9972 a49f 364d dbb1 c2d7 d7b2 c0a3 84b8
00000120: 3c98 9eb8 f4d2 db3d b9cd 17ba 0b99 a7b3
00000130: 7e07 d4a7 d987 4ab3 f96f 32b4 84b3 3cb7
00000140: 541d e031 6b8c 92ba 237c bcb2 9c29 0794
00000150: 4289 083e 29af fea4 f076 2cbc b040 0f9b
00000160: 1d38 0bbc 1187 4cb5 c040 37b2 104d c8b2
00000170: 749e 6fb7 257f 24bb d9c0 69b5 9d6f f4ab
00000180: ab83 98b9 da74 623e 1382 8ba2 3405 ed96
00000190: 7cf8 5fb8 41e8 a9b4 f76e edb4 72db 7e3d
000001a0: b528 f1aa 41c3 38b7 d692 9eb6 7d3c 8395
000001b0: 5653 b4bc dbd6 bab6 daf9 e1b3 33c8 2925
000001c0: 61c6 a1b4 1381 ef9a 6be6 34b5 40f4 07bc
000001d0: 3ba3 8daf 6801 f5b6 5714 1ab1 0125 1fab
000001e0: 8a36 033d 2642 b4b2 0dc4 20b6 5245 aab5
000001f0: 9975 07ab 640b 903e 1aae acb9 f6e5 1aae

fc2.weight f4 [128, 128]
-0.00015156582 1.9631e-41 -8.5e-43 -5.1889856e-07 -9.421e-42 -3.3e-41 -4.9577e-41 2.0979785e-08
4.80431e-26 -0.04618504 2.4173386e-07 -3.4918486e-20 -0.0027981992 -3.1702e-41 3.6970258e-12 1.0983182e-17
0.0004831528 -7.837784e-05 7.211882e-12 -2.063114e-38 -0.08105373 -2.2673075e-10 4.1782064e-06 -6.4442384e-07
9.97684e-09 -0.08685684 4.8385e-41 1.6647946e-05 -1.6403686e-09 2.522e-42 8.046298e-14 -6.3479e-41
2.0755e-41 -6.5705756e-15 -7.1808576e-10 -2.8643601e-08 -6.202018e-05 4.480111e-12 0.23371997 -1.8018621e-19
3.391359e-18 -0.13665682 2.6944423e-05 -2.1706972e-25 7.991136e-08 7.069027e-05 -1.2353551e-29 -1.11636e-08
-0.0016612473 1.5746e-40 8.0173865e-23 2.84e-41 -6.5976656e-16 1.8678e-41 -3.1290703e-37 -1.3467593e-23
-1.30992e-07 -3.914655e-12 -3.3926597e-08 -2.5288e-41 -8.485484e-06 1.6453679e-13 1.732137e-13 -5.7315e-41
6.6185976e-18 -0.003603778 8.272842e-15 -3.206205e-08 4.8712e-41 -2.38e-43 1.01998e-39 -8.236366e-09
1.8588926e-06 0.024969554 3.0043273e-27 -3.014e-42 -2.0626e-41 -6.4091e-41 3.282264e-11 1.8354401e-20
1.4869188e-09 3.1603035e-06 -2.5806055e-09 1.2535e-41 0.17500482 -1.4983e-41 -1.612851e-06 3.526e-42
-0.0043682596 -1.2868e-41 -6.95018e-13 -1.1767138e-09 1.2392844e-07 -3.168699e-10 1.1988e-41 -6.2543e-41
2.9586124e-20 0.18977033 -7.547e-42 1.7896e-41 -6.3556094e-05 -1.6489e-41 4.3184354e-08 0.031983268
-2.9268e-41 -2.7503805e-07 3.1406958e-07 1.7104e-41 -7.81106e-08 -2.1480633e-28 4.058305e-12 1.0652044e-16
9.396247e-13 5.978e-42 -1.7747e-41 5.909831e-09 -2.2266503e-26 4.548846e-39 -9.503374e-33 -1.6224995e-27
0.0011573015 -1.4174032e-27 -7.1680395e-18 -3.767454e-22 1.4977e-41 -0.053640712 -2.6726841e-36 3.3512856e-12
-8.2985304e-07 -1.1044784e-36 -4.4756e-41 -2.6793833e-07 -1.0192e-41 6.8302e-41 -2.2621e-41 -2.3121416e-08
1.0709441e-25 0.0129222665 -1.8430607e-07 3.3365484e-18 -0.0006194914 -3.892e-41 5.204094e-19 -3.109285e-17
-0.0036114426 -1.6075159e-05 -4.4989732e-12 -3.585144e-37 0.015936352 -3.1813855e-07 6.0700313e-06 2.2615163e-09
-9.7252325e-08 0.015364071 -7.175e-42 -2.5987552e-05 6.252009e-08 -1.3304e-41 1.6400352e-13 6.4692e-41
3.1749e-41 -1.4482764e-15 -2.2087504e-10 -1.8926096e-08 5.022328e-05 4.1584397e-12 -0.063890204 8.9954043e-20
-4.4674582e-33 0.14635256 5.591453e-06 -2.844763e-19 -4.5374644e-08 -0.00010998323 1.6111772e-31 -1.5421207e-08
-0.0004090658 -5.1075714e-20 -1.5733147e-16 9.96e-42 -3.4052252e-16 3.5872e-41 4.378145e-36 -4.7698763e-35
-2.8527543e-09 1.3819648e-11 -2.9950644e-07 5.2602e-41 4.310243e-06 3.2286702e-09 3.4694417e-16 -9.456e-42
-2.4385281e-20 -0.0024303086 -1.5428862e-15 -5.080601e-16 1.1558e-41 -4.09e-42 -7.1351295e-33 3.4113906e-11
2.058985e-06 0.09052655 1.7085438e-18 8.03457e-40 2.2453e-41 -2.1221e-41 -1.6021016e-09 -2.6039675e-23
-2.741245e-10 1.2812878e-05 -7.0403603e-09 -2.0041e-41 -0.019539332 -4.595e-41 -0.00060100853 1.9627e-41
-0.00078235357 -3.98e-42 -1.26482e-11 -7.5157346e-20 3.4037333e-07 -2.0482605e-10 -2.222e-41 -2.2478e-41
-1.021204e-19 -0.05585446 2.503e-41 4.2583e-41 -6.619932e-06 2.7181812e-23 5.5603856e-08 0.06065474
3.5873e-41 1.0504862e-06 -9.647605e-07 -2.9298e-41 3.124958e-05 1.6430703e-26 -3.3495423e-10 -4.5659255e-17
-1.1870713e-14 1.941e-41 3.792914e-39 0.00034173572 -3.606713e-26 2.2924331e-30 -1.2869308e-32 -1.6558055e-28
0.018363595 2.081675e-27 1.1700947e-17 -7.603719e-12 3.0372e-41 0.016535515 8.901562e-18 2.1938601e-12
00000000: a4ed 1eb9 b936 0000 5f02 0080 704a 0bb5
00000010: 431a 0080 fe5b 0080 338a 0080 0937 b432
00000020: dde5 6d15 862c 3dbd a6c7 8134 dce5 249f
00000030: fe61 37bb 5f58 0080 d913 822c 9c9a 4a23
00000040: ac4f fd39 c85e a4b8 dcbe fd2c 39a7 e080
00000050: 7fff a5bd 084b 79af 8532 8c36 78fc 2cb5
00000060: 9b66 2b32 00e2 b1bd e186 0000 31a7 8b37
00000070: 5773 e1b0 0807 0000 c02f b529 f4b0 0080
00000080: db39 0000 ddba eca7 cb62 45b0 f20b f6b2
00000090: d510 82b8 41a1 9d2c 4a54 6f3e f1b9 54a0
000000a0: f63c 7a22 c4ef 0bbe b506 e237 125c 8696
000000b0: bc9b ab33 8d3f 9438 4e8f 7a8f 08ca 3fb2
000000c0: 36be d9ba efb6 0100 38d9 c11a 2b4f 0000
000000d0: 2e2a 3ea6 1134 0000 18f4 d482 2540 8299
000000e0: cfa6 0cb4 14bc 89ac b0b6 11b3 7e46 0080
000000f0: e05c 0eb7 8040 392a 7305 432a c59f 0080
00000100: e32e f422 5d2d 6cbb c007 1528 99b4 09b3
00000110: ca87 0000 aa00 0080 4a1b 0b00 ec7f 0db2
00000120: 107f f935 f38c cc3c ff06 6e13 6708 0080
00000130: 7f39 0080 a9b2 0080 025b 102e 385a ad1e
00000140: 4e5c cc30 9a15 5436 7e56 31b1 f122 0000
00000150: 7734 333e c429 0080 2379 d8b5 d409 0000
00000160: 9e23 8fbb df23 0080 53a1 43ab f0b9 a1b0
00000170: 3111 0534 7933 aeaf 6b21 0000 58ae 0080
00000180: 6eb7 0b1f 2753 423e 0a15 0080 e331 0000
00000190: 6b49 85b8 f72d 0080 b379 3933 e300 033d
000001a0: 9651 0080 f1a8 93b4 659d a834 ae2f 0000
000001b0: c2bd a7b3 5226 8891 f6c9 8e2c 929e f524
000001c0: 8c3d 842b aa10 0000 7931 0080 6c0f cb31
000001d0: 4b84 dc94 5588 3100 9a60 458a 338c 0093
000001e0: 98b0 973a b498 e092 1c3a 04a3 87ba e39b
000001f0: c029 0000 5db6 5bbd e85d 6384 65d3 6b2c
00000200: 11c3 5eb5 d2ea bb83 c37c 0080 2ad9 8fb4
00000210: 691c 0080 66be 0000 0f3f 0080 889c c6b2
00000220: 9393 0416 eab7 533c abe5 45b4 9e31 7622
00000230: 5d65 22ba 7e6c 0080 0699 1921 f563 0fa4
00000240: f4ad 6cbb 24d9 86b7 264b 9eac 05fe f382
00000250: f48c 823c a1cc aab4 2cad cb36 0469 1b31
00000260: 08d9 d0b3 96b9 7b3c 0014 0080 d8ff d9b7
00000270: c842 8633 1625 0080 cca6 382a 56b4 0000
00000280: 8158 0000 f8b7 d0a6 ccda 72af ed92 a2b2
00000290: d6a6 5238 e54f 922c ded8 82bd e265 d41f
000002a0: 2a92 b989 72dd 153e 379e bb36 d8ec a7a0
000002b0: f3e1 42b3 cca6 e6b8 8c24 510c 9877 84b2
000002c0: e277 d6b9 c032 719f 0e64 35a5 c41b 0000
000002d0: 414c c4a5 ff63 0000 c739 ba04 319c 7d86
000002e0: 2f0a 44b1 291e 732d dacb a0b4 a292 0000
000002f0: b5a0 9036 5edf 5d31 ecff c725 5c1a 0080
00000300: fe4f e69e d045 1fbb 745a dea6 3870 12a6
00000310: 3820 0000 670b 0080 db30 148a d808 162e
00000320: 182d 0a36 fc65 b93d f622 fc21 b6bf 0800
00000330: 973e 0000 283b 0080 f030 dcb0 1dd7 fb99
00000340: 98b3 96af e4f6 5637 aae7 f1b1 de37 0080
00000350: f310 a0bc 1780 0080 008d 1dba b636 0000
00000360: dc16 4dba 180b 0080 6e82 5ead d475 b19f
00000370: 8ebc b634 6835 61af f13d 0080 a93e 0080
00000380: fe1f f19f a5c7 64bd c645 0000 b476 0000
00000390: c820 deb6 7471 031a 16d1 6e33 1b71 783d
000003a0: 0064 0000 6efe 8c35 eb7c 81b5 ac51 0080
000003b0: fb11 0338 c8b8 a214 9e24 b8af ef90 52a4
000003c0: 00d8 55a8 1b36 0000 1a4d 2900 fe2a b339
000003d0: 8598 3295 f9fb 390e 7da4 858a f6e5 5191
000003e0: 406f 963c 63ed 2413 29d8 5723 1bc4 05ad
000003f0: aa54 0000 7d75 873c 7034 2423 1261 1a2c

fc2.bias f4 [128]
0.12346243 0.024639035 -0.0021221205 0.0030743699 0.025113482 0.024614295 0.013419295 0.072953366
-6.2190426e-05 0.17970964 0.10160559 0.10936976 0.07011386 0.053541157 0.051050715 0.069415785
0.01140368 0.108237125 -0.015461471 0.014618831 0.07869111 0.10962406 -3.499551e-05 -0.002087128
-0.01411797 0.042461853 -0.0024394789 -0.000117614916 0.025955675 0.039152108 0.033199534 -0.009404676
0.0051879026 -1.7548267e-06 -0.012926001 0.017718468 -1.07152914e-07 -0.0061518103 0.065476775 0.07005993
0.019855415 0.030759994 0.11120173 0.06785485 0.015983595 0.0054526115 -0.016352393 -0.0025431425
0.05088081 0.12904876 0.05122498 0.044197526 -0.008256778 0.017739756 0.08993637 0.10368634
0.09130948 -6.522561e-05 -0.004794606 0.06343545 0.010129098 0.020460162 0.036234934 -7.857302e-05
-0.02702936 -3.281792e-06 0.0070293304 0.025083615 0.0018206355 -0.018130684 0.051654324 0.076906495
0.026061606 0.07756441 0.022998812 -1.051585e-06 0.058007415 0.039668698 0.022981498 -0.014837515
-5.796762e-06 0.11763888 0.053729057 0.08945563 0.060331 0.07898555 -0.03193852 0.015793448
0.06681358 0.007576088 0.11484969 -0.0045151846 0.041230462 0.014382635 0.09789438 -0.038294993
0.05982035 0.029615117 0.012285311 0.15315615 0.060503304 -0.009854764 0.1468665 0.02486803
-0.00024735654 0.019539513 0.08091086 0.022113537 0.100636296 -0.041251834 0.074201964 0.064315036
0.07207591 -0.009009412 -2.8903298e-05 0.055312607 0.079281546 0.043284833 0.13670501 0.03464996
-3.4599336e-07 0.13395399 -0.007703685 0.021726266 0.115350366 0.12082042 -0.006656646 0.08208144
00000000: dfd9 fc3d cdd7 c93c 4613 0bbb 5e7b 493b
00000010: caba cd3c eba3 c93c 9adc 5b3c 9368 953d
00000020: 3b6c 82b8 ce05 383e 9716 d03d 41fd df3d
00000030: db97 8f3d f94d 5b3d 8e1a 513d dd29 8e3d
00000040: 80d6 3a3c 6dab dd3d 1c52 7dbc d283 6f3c
00000050: ce28 a13d 9482 e03d 25c8 12b8 33c8 08bb
00000060: 0f4f 67bc 7bec 2d3d aadf 1fbb 07a8 f6b8
00000070: ffa0 d43c f65d 203d 3cfc 073d 1216 1abc
00000080: 48ff a93b 6387 ebb5 94c7 53bc 5226 913c
00000090: f01b e6b3 2095 c9bb b018 863d 957b 8f3d
000000a0: d3a7 a23c 62fc fb3c bcbd e33d 7cf7 8a3d
000000b0: 07f0 823c d2ab b23b 74f5 85bc daaa 26bb
000000c0: 6568 503d 5c25 043e 49d1 513d 7708 353d
000000d0: 7047 07bc f752 913c 8f30 b83d 8159 d43d
000000e0: 7700 bb3d bcc9 88b8 121c 9dbb 72ea 813d
000000f0: 84f4 253c 129c a73c 156b 143d 92c7 a4b8
00000100: ad6c ddbc c23c 5cb6 4c56 e63b 277c cd3c
00000110: 64a2 ee3a cd86 94bc 7c93 533d 2781 9d3d
00000120: 267f d53c 17da 9e3d 0168 bc3c 2f24 8db5
00000130: 2f99 6d3d a57b 223d b243 bc3c 0c19 73bc
00000140: ce81 c2b6 a7ec f03d 0013 5c3d 8334 b73d
00000150: a31d 773d 2dc3 a13d f7d1 02bd 4361 813c
00000160: 8fd5 883d d540 f83b 5036 eb3d 1df4 93bb
00000170: 46e1 283d 25a5 6b3c d97c c83d 36db 1cbd
00000180: 2f06 753d 679b f23c 5448 493c f7d4 1c3e
00000190: 50d2 773d e075 21bc 2c64 163e 0ab8 cb3c
000001a0: a2af 81b9 5411 a03c 98b4 a53d 7327 b53c
000001b0: 671a ce3d aff7 28bd 33f7 973d 9ab7 833d
000001c0: 899c 933d 369c 13bc 5c75 f2b7 798f 623d
000001d0: 5d5e a23d 704b 313d 66fc 0b3e 1eed 0d3d
000001e0: f7c0 b9b4 3c2b 093e 326f fcbb 48fb b13c
000001f0: d03c ec3d b270 f73d fe1f dabb 501a a83d

fc3.weight f4 [16, 128]
-0.021650258 0.03730177 -0.055129748 0.13410561 0.2153225 -0.069563866 -0.0174561 0.14081903
-1.2691253e-06 0.11454016 -0.025898151 0.018858733 0.05612476 0.13779475 0.1802384 0.07414988
0.0023849965 -0.05933838 0.018322755 0.11220789 0.2525546 -0.08751639 -4.2622545e-05 0.09475997
-0.037150964 0.046473525 0.034551304 -7.945946e-05 0.1335734 0.017470278 0.23436184 -0.027980195
0.001858101 1.2063931e-09 0.26797137 0.1231026 9.0799555e-11 0.17000547 -0.020220617 -0.0067326473
-0.060854714 0.044276796 -0.13581088 -0.025741136 0.16105047 -0.009330853 0.1387461 -0.000199561
0.11826831 -0.09041407 0.10952244 0.01755471 0.14638533 -0.03313152 -0.08486624 0.20633237
-0.049711183 0.13354939 -0.0016117743 0.04135006 0.037980195 0.16743948 0.039613605 -6.034094e-06
0.06418154 -8.377839e-07 0.13922086 0.22793761 0.19668414 0.11014961 0.08384708 -0.03744644
0.25785908 -0.0830313 0.2423325 -5.051172e-07 -0.030502722 -0.01210579 0.11138135 -0.027952665
5.040455e-07 0.011811873 -0.116081536 0.14267497 -0.018167604 -0.06773796 0.070423916 0.14288582
0.00086367584 -0.043352246 0.010090927 0.19954407 0.20156845 0.1632757 -0.06165008 0.14556807
-0.03302048 0.01172922 0.047554754 0.03572901 0.28446364 0.2102912 -0.060536586 0.16453388
-3.8413477e-06 0.03281749 -0.011154998 0.18151928 -0.025871575 0.12427624 0.027044266 0.14658467
-0.077490486 0.17538598 -5.688212e-05 0.04999591 0.085945696 0.20997247 -0.059843656 0.006829585
2.6322857e-13 0.11724455 -0.03621805 0.08160849 0.03432052 -0.047556978 0.006551443 -0.047334764
0.029795868 -0.053054232 -0.041737642 -0.06601085 -0.058334973 0.031733043 -0.03760383 -0.02192908
4.3719507e-07 0.18564974 -0.040270712 0.102961265 -0.03472115 0.01896347 -0.052369554 0.076836556
-0.06965287 0.047306184 -0.08589175 -0.09356336 0.06760835 0.05363071 1.1943278e-06 -0.05485996
-0.07010986 0.031354286 -0.033443123 -5.2454197e-05 -0.010535435 -0.08829602 -0.035178702 -0.023353046
-0.004693373 -1.0585045e-07 -0.12840411 -0.071950175 -2.9155156e-09 -0.12167724 -0.085023575 -0.016622415
-0.008699059 0.024097437 0.06620735 0.053180266 -0.066466145 -0.0027405843 -0.108707875 0.00070020434
-0.104703195 0.13274069 -0.056189813 0.02305249 -0.11050274 -0.04878345 0.09486951 0.12344298
0.02983436 -0.074869454 -0.014449695 -0.03605726 -0.08605819 -0.15188044 -0.04012731 7.980931e-06
-0.102502644 6.345673e-08 -0.13426866 -0.08951209 -0.106344774 -0.068938866 0.0565066 0.012153447
-0.13468409 0.10720983 -0.14168906 -2.8012738e-07 0.032780338 -0.03507455 0.0354132 -0.052034132
-1.0462934e-17 0.097240314 -0.036242947 0.019056806 0.062463485 0.057553902 -0.059973754 -0.09524017
-0.048312828 -0.09084434 0.14584817 -0.06838124 -0.051328287 -0.13280177 0.13894995 -0.07721007
0.0031911386 0.026716145 -0.098906375 0.15608878 -0.12230374 -0.11858972 0.19007607 -0.0796263
1.49755115e-05 0.024108412 0.14941174 -0.05805503 0.17369126 -0.05467766 0.09090071 0.020532867
-0.09101561 -0.09140999 -1.5767042e-05 -0.007133567 0.096747145 0.017095584 0.11138234 -0.00818171
-9.665911e-15 -0.05391596 -0.07340179 -0.09946465 0.09401416 0.1844844 -0.00096694246 0.06693774
00000000: e25b b1bc bec9 183d bbcf 61bd fb52 093e
00000010: 807d 5c3e 8077 8ebd 1800 8fbc dd32 103e
00000020: d056 aab5 0894 ea3d 5c28 d4bc a17d 9a3c
00000030: 14e3 653d 111a 0d3e 6a90 383e e4db 973d
00000040: 9a4d 1c3b cd0c 73bd 9a19 963c 40cd e53d
00000050: d64e 813e cb3b b3bd 9cc5 32b8 8411 c23d
00000060: 9c2b 18bd 065b 3e3d ab85 0d3d 79a3 a6b8
00000070: 77c7 083e d41d 8f3c 8dfc 6f3e b936 e5bc
00000080: 868b f33a 2fce a530 8b33 893e 371d fc3d
00000090: 9bab c72e ea15 2e3e b5a5 a5bc 8a9d dcbb
000000a0: cb42 79bd 965b 353d 0212 0bbe 13df d2bc
000000b0: 6aea 243e 6fe0 18bc 7513 0e3e 3f41 51b9
000000c0: a836 f23d 032b b9bd 4d4d e03d e5ce 8f3c
000000d0: 09e6 153e ebb4 07bd 5ace adbd cb48 533e
000000e0: f49d 4bbd 2cc1 083e 2c42 d3ba ae5e 293d
000000f0: 1f91 1b3d 4175 2b3e e041 223d 7978 cab6
00000100: 9c71 833d 12e4 60b5 ea8f 0e3e 7a68 693e
00000110: 9167 493e 1e96 e13d 05b8 ab3d 7061 19bd
00000120: 1b06 843e 500c aabd 0326 783e 6497 07b5
00000130: d8e0 f9bc 5d57 46bc e81b e43d fdfc e4bc
00000140: be4d 0735 9686 413c 28bc edbd 6319 123e
00000150: 3ad4 94bc 33ba 8abd 6a3a 903d a950 123e
00000160: 4e68 623a 2092 31bd 6a54 253c 4855 4c3e
00000170: f667 4e3e bf31 273e cb84 7cbd cc0f 153e
00000180: 7c40 07bd ea2b 403c c6c8 423d 9558 123d
00000190: 38a5 913e 9456 573e 36f5 77bd 927b 283e
000001a0: ede4 80b6 a26b 063d 74c3 36bc 31e0 393e
000001b0: a0f0 d3bc 8b84 fe3d f08b dd3c 4b1a 163e
000001c0: 55b3 9ebd 6298 333e b694 6eb8 83c8 4c3d
000001d0: 4c04 b03d 0603 573e 9f1e 75bd b6ca df3b
000001e0: 3c2f 942a e91d f03d 6159 14bd 5a22 a73d
000001f0: ac93 0c3d 1bcb 42bd 7dad d63b 19e2 41bd
00000200: 7716 f43c 654f 59bd 17f5 2abd b230 87bd
00000210: a7f0 6ebd 82fa 013d 7906 1abd 9da4 b3bc
00000220: a2b7 ea34 f71a 3e3e e7f2 24bd 5bdd d23d
00000230: c437 0ebd 4759 9b3c 7581 56bd 7c5c 9d3d
00000240: 2aa6 8ebd 21c4 413d 04e8 afbd 269e bfbd
00000250: 3f76 8a3d e0ab 5b3d ca4c a035 d6b4 60bd
00000260: c295 8fbd 5a6d 003d a8fb 08bd 4402 5cb8
00000270: d19c 2cbc 8bd4 b4bd 8b17 10bd e34e bfbc
00000280: deca 99bb e64f e3b3 5e7c 03be 9d5a 93bd
00000290: 4b5a 48b1 eb31 f9bd d720 aebd bb2b 88bc
000002a0: 7f86 0ebc fd67 c53c b897 873d 8dd3 593d
000002b0: 671f 88bd 609b 33bb 3ca2 debd eb8d 373a
000002c0: a16e d6bd 2ded 073e 4a27 66bd 93d8 bc3c
000002d0: 434f e2bd 28d1 47bd f24a c23d accf fc3d
000002e0: 3067 f43c 2855 99bd 6abe 6cbc c7b0 13bd
000002f0: 473f b0bd 8c86 1bbe 895c 24bd d6e5 0537
00000300: e8ec d1bd b545 8833 b97d 09be 1d52 b7bd
00000310: 4acb d9bd d22f 8dbd 7773 673d 401f 473c
00000320: a0ea 09be d490 db3d f016 11be 6a64 96b4
00000330: ad44 063d 55aa 0fbd 6e0d 113d be21 55bd
00000340: cf01 41a3 ee25 c73d 7c73 14bd 051d 9c3c
00000350: b6d9 7f3d a4bd 6b3d 0aa7 75bd 470d c3bd
00000360: ace3 45bd 990c babd 3959 153e 770b 8cbd
00000370: 9c3d 52bd 30fd 07be e548 0e3e 5020 9ebd
00000380: 6c22 513b d1db da3c 6d8f cabd bdd5 1f3e
00000390: 627a fabd 2bdf f2bd 4da3 423e 1d13 a3bd
000003a0: 553f 7b37 017f c53c 64ff 183e 1ccb 6dbd
000003b0: 1fdc 313e aff5 5fbd 272a ba3d 8b34 a83c
000003c0: 6466 babd 2935 bbbd 7743 84b7 b2c0 e9bb
000003d0: 5e23 c63d 0a0c 8c3c 6d1c e43d 940c 06bc
000003e0: 2620 2ea8 fbd6 5cbd ad53 96bd 1fb4 cbbd
000003f0: 7f8a c03d 7be9 3c3e 697a 7dba a716 893d

fc3.bias f4 [16]
0.31544733 0.57054013 -0.014343444 0.2798318 -0.03410807 -0.1229666 0.036831725 0.48808745
-0.0848822 0.10678524 -0.16772687 -0.095119804 -0.21438138 -0.39583492 -0.47620988 -0.45534638
00000000: 5082 a13e eb0e 123f c400 6bbc 1d46 8f3e
00000010: e7b4 0bbd ead5 fbbd dddc 163d 99e6 f93e
00000020: b8d6 adbd 38b2 da3d 98c0 2bbe 2cce c2bd
00000030: cb86 5bbe e0aa cabe c8d1 f3be 2923 e9be
