MBTI/ANN/Model/TFJP/4char/best_model.pth (torch, 34735 bytes, 6 tensors)

fc1.weight f4 [64, 57]
000000 cc 1c 3a 3d 9b f5 f4 bb 2d d4 17 bd 2c e3 3b bb
       0.04543762 -0.0074755675 -0.03706758 -0.002866934
000010 1f 39 37 bd 70 fb da 3b fa 90 4a 3d e5 9f 22 bd
       -0.04473221 0.0066828057 0.049454667 -0.03970327
000020 94 65 09 3d b9 d5 66 ba 38 71 d4 3c 1b 5b 97 3c
       0.033544138 -0.0008805651 0.025932893 0.01847606
000030 93 aa 8a bd 6d 55 8d bb 25 f4 3b bd 61 1c 10 bc
       -0.06770816 -0.004313162 -0.04588713 -0.008795829
000040 49 ac 09 bd 5e 6e 89 3c 4f 1d 88 bd 47 a3 a2 3c
       -0.03361157 0.01677626 -0.06646215 0.019853247
000050 46 96 d5 bc 54 75 8e 3c e3 a1 1d bc 7a be 39 bb
       -0.026072633 0.01738993 -0.009621116 -0.0028342293
000060 8d c5 91 bc 54 17 94 3c 66 2e 4e bd 2c 23 76 bc
       -0.017794395 0.01807753 -0.050337218 -0.015023034
000070 86 54 10 bd d7 e5 b0 3d 7b a2 39 bd 0c 15 8c bc
       -0.035236858 0.086375885 -0.04532097 -0.01709988
000080 9d 89 0b 3d 52 06 4a bc df 31 f7 3b cf 7e 7e 3b
       0.034066785 -0.012330608 0.007543787 0.0038832908
000090 f6 42 b9 bc af c0 94 bc 2a 46 cc bc d9 b6 1a bd
       -0.022614937 -0.018158285 -0.0249358 -0.037772033
0000a0 4d 97 87 3d c2 e8 50 3d ff 6a 0d bd 89 cb df 3a
       0.06620655 0.051003225 -0.034525868 0.0017074208
0000b0 54 be 9f 3c 15 3e 3e 3d e0 b0 04 3d 01 df 2a 3d
       0.019499935 0.046445925 0.032395244 0.04171658
0000c0 72 b7 65 bd 3a 08 c2 bb 1d 6d 3e 3a db 6c fc bb
       -0.05608315 -0.005921391 0.0007264184 -0.0077034063
0000d0 d4 41 21 3b 70 63 2e 3b de 8d 3e 3b de 8d 3e 3b
       0.0024605887 0.0026609562 0.0029076259 0.0029076259
0000e0 b7 42 05 80 94 d6 e7 bc f0 1d fc bc 74 f1 cb 3b
       -4.8311e-40 -0.028300561 -0.030775994 0.006223852
0000f0 31 20 fa 3c a1 c6 1d 3d 7e 21 5b bd 6f fc 52 bd
       0.030532928 0.038519505 -0.053498738 -0.05151027
000100 4e 2d 18 bd 6b de 4f bb a2 cd 7a bd 9a e7 f8 3c
       -0.03715258 -0.0031718265 -0.061231263 0.030383874
000110 20 e4 be bc fd 23 9b 3d bd 7f 7a bd d1 64 9a bd
       -0.023302138 0.075752236 -0.061156977 -0.075387605
000120 15 4f 87 3c 1c a9 6e 3c fd 27 a1 bc 43 33 5e bd
       0.016517201 0.014566686 -0.019672388 -0.054248106
000130 2c ce 8c 3c 6a c3 a8 bd fb 7d 77 3d b4 1a b8 3d
       0.017188154 -0.08240397 0.06042288 0.08989468
000140 0e 59 c3 bb 33 15 50 3d 24 53 2c bc 16 38 8e 3d
       -0.005961544 0.050801467 -0.010517869 0.06944291
000150 78 79 36 bc 8b e2 45 3d ca 58 e8 3d f5 be c0 3b
       -0.011137359 0.04831175 0.1134506 0.005882139
000160 69 a3 d2 bd c9 0e 77 bd 8b b9 d0 bb 19 28 f6 3b
       -0.10285074 -0.060316835 -0.0063697747 0.007512104
000170 a1 14 88 3d f1 4d 5b bd 84 4f 0e bd 66 1e 94 bd
       0.0664456 -0.053541128 -0.0347438 -0.072323605
000180 31 a7 a6 bd 3f da f8 3c e6 9b 17 bd ab 94 58 3b
       -0.08137358 0.030377505 -0.03701391 0.0033047597
000190 cb f0 d7 3d 38 0e 80 bc a5 48 09 bd 8a 50 f0 bc
       0.105439745 -0.01563178 -0.033516545 -0.029335279
0001a0 83 24 15 bc 9a 09 5b 3d a1 60 55 3d 3c a6 f3 3a
       -0.009102943 0.053475954 0.052094106 0.001858897
0001b0 ab f6 ff ba e4 bd c2 b9 6b c2 0d ba d8 ea 01 00
       -0.0019528469 -0.00037144043 -0.00054076937 1.76082e-40
0001c0 e8 d5 03 80 de ff 02 80 76 77 3a 3d 65 1b 76 bc
       -3.52242e-40 -2.75459e-40 0.045524083 -0.01502118
0001d0 fa c6 d1 3c 62 db 89 3d b4 7e 2e bd 0d ad 1d b9
       0.025607575 0.06731297 -0.042601302 -0.00015037153
0001e0 e0 01 d2 bd 38 bc ad bd c0 d0 16 3d 92 76 8b bd
       -0.10254264 -0.084831655 0.036820173 -0.06809725
0001f0 62 10 97 3c 47 a1 a8 3b 09 82 d4 3c 51 49 9c 3d
       0.01844043 0.005146179 0.025940912 0.076311715
000200 e4 38 e7 3b fe 6e 44 3c 58 a8 40 bd 5b 0a 37 3c
       0.0070563424 0.011989353 -0.047035545 0.0111719025
000210 e1 e8 e2 3c 81 fb 8e bc 32 3b ce 3c b3 36 c2 3b
       0.027698936 -0.01745391 0.02517471 0.005926931
000220 fa 86 1d 3d a9 3c 19 bc 19 34 98 bc e9 de d4 bc
       0.0384588 -0.009352841 -0.01857953 -0.025985198
000230 9e fe 2a bd 3b 13 e2 bc cb e0 7f 3c 9e b7 25 bd
       -0.041746728 -0.02759706 0.01561756 -0.040458314
000240 c2 63 8f 3c e1 f2 64 3d 6e 79 17 bc 0e be 2b bd
       0.017503623 0.05589569 -0.00924526 -0.041929297
000250 90 82 fb bc 63 28 56 3b 85 c5 d9 bc da a2 4d 3c
       -0.030701905 0.003267788 -0.026583442 0.012551034
000260 78 9f cd 3c a3 2a 40 3d fb 7f 4d 3d 1b bc 60 3d
       0.025100455 0.04691566 0.05017088 0.05486689
000270 95 c6 0e 3d fa 11 d3 bc c8 2e 3d bd 5b a7 b0 bc
       0.03485735 -0.025765408 -0.046187192 -0.021564176
000280 a5 c4 3d 3d f5 ad 8d bc 3d e6 97 bc 24 75 0b 3d
       0.046330113 -0.017294863 -0.018542403 0.03404726
000290 51 26 f2 bb 8f 34 86 bc 5a b0 80 bb 5a 75 07 bb
       -0.0073898216 -0.016382484 -0.0039272727 -0.0020669312
0002a0 6f 63 35 3b 02 92 35 3b fc d4 04 80 fc 30 8f bc
       0.0027677675 0.0027705436 -4.43746e-40 -0.017479412
0002b0 43 97 92 bd ec c2 a8 bd 84 2b 30 bd 22 57 2e bd
       -0.07157757 -0.082403034 -0.04301025 -0.042563565
0002c0 b5 dc ec 3b 98 72 9d bb 1c a9 42 bc c3 18 30 3d
       0.0072284588 -0.0048049204 -0.011881139 0.042992365
0002d0 ca 18 ac 3d 52 78 03 be e2 82 70 bc 76 10 5d bd
       0.08403166 -0.12838867 -0.014679642 -0.053970776
0002e0 61 0a 5b 3d 69 a7 26 bd 5b d8 bd 3d 8c 62 a2 3c
       0.053476695 -0.040687 0.09269782 0.019822381
0002f0 10 be db 3c 66 f1 5b 3c cb d5 aa 3c 39 a7 8a 3d
       0.026824027 0.013424253 0.020853898 0.067701764
000300 c3 f7 04 bd 93 22 0a bb 8b 99 b1 bd fe 7b a9 bd
       -0.032462846 -0.0021077737 -0.08671864 -0.08275603
000310 65 00 b9 3c 89 d0 df 3d a4 0c a3 3d 08 85 8e bc
       0.022583196 0.10928447 0.079613954 -0.017397419
000320 84 df b5 bc 3d ba cb 3c ab 97 88 3c 81 70 fb bd
       -0.022201307 0.024869079 0.016673883 -0.12277318
000330 87 43 8b 3d 07 a6 f7 3b de ae 03 be 34 38 1a bd
       0.06799989 0.007557634 -0.12859675 -0.037651256
000340 8e 41 b2 bc 76 54 1a 3d 65 94 4e 3b 91 e9 71 3d
       -0.021759775 0.037678204 0.0031521556 0.059060637
000350 d7 25 39 3d 8f 40 70 bd 0a 05 5e 3d 7e 75 f1 bb
       0.045202103 -0.058655318 0.054204024 -0.0073687425
000360 87 b9 ef bc fd 43 8c 3c 79 de 2b bd b9 97 26 3d
       -0.029263271 0.017122263 -0.041960213 0.040672038
000370 94 d9 3d 3d 7d dd e8 bb 44 3c f1 bb 7b d7 1a ba
       0.046350077 -0.0071064816 -0.0073619206 -0.0005906743
000380 8a 84 f0 b9 90 b4 01 00 30 d0 06 00 31 e6 06 80
       -0.00045875116 1.56609e-40 6.25697e-40 -6.3359e-40
000390 5f c7 1e bb bb 1b 83 bc 6d 84 8f 3d f9 8d 5a 3d
       -0.002422772 -0.016004434 0.0700768 0.053358052
0003a0 18 9a c1 3d ff 8a b6 3c a0 92 87 bd 6f 4a a9 bd
       0.09453219 0.022283075 -0.066197634 -0.0826615
0003b0 9b 6d 1b bd f7 c4 b6 3c 9c 50 0b bd 9f 79 8e 3c
       -0.037946325 0.022310717 -0.034012422 0.017391978
0003c0 4b f7 6f 3c 9d f0 6d 3c 76 17 1b bd 8d ae 32 bc
       0.014646362 0.014522699 -0.03786417 -0.010905874
0003d0 12 48 61 3d 09 b3 3e bd 96 01 b8 bb 06 38 2c bd
       0.055000372 -0.04655746 -0.0056154234 -0.042045616
0003e0 07 66 38 3b e0 c2 2a bc 2f 57 62 bd 1b 0b 90 bc
       0.0028136985 -0.010422438 -0.055258926 -0.01758342
0003f0 17 48 2e 3d a7 09 88 bd 35 03 72 bc f7 4b e8 bb
       0.04254922 -0.06642466 -0.014771272 -0.007089134

fc1.bias f4 [64]
000000 e7 61 8b bb bd db 9a 3b 2d 9c 7c 3b 2c 1e 91 3b
       -0.004253614 0.004725902 0.0038545236 0.0044286456
000010 8a 6f b0 3a a2 5a cd 3b 1d de 52 3b 14 8c af 3c
       0.0013460976 0.006266908 0.0032175847 0.0214291
000020 fc f1 d0 3b f6 d6 3d b7 15 17 0e ba 28 ba bf 3b
       0.006376503 -1.1315327e-05 -0.00054203096 0.005851049
000030 ba f0 31 3c 79 98 17 3c 1f c3 eb bb c5 d1 71 3c
       0.010860616 0.009252661 -0.007194891 0.014759486
000040 4f 8e b7 3a 34 a6 e0 3b c4 84 07 3b bc 91 0b 3c
       0.0014004203 0.0068557505 0.00206785 0.0085186325
000050 1e 5b 42 bc 82 ab f5 ba 00 e0 50 bb da 84 81 3c
       -0.011862544 -0.001874313 -0.0031871796 0.015810419
000060 a6 49 06 3c 6a 08 d6 3a c4 59 e5 3b be bf c6 bb
       0.00819627 0.0016329412 0.0069992263 -0.006065338
000070 59 fa 01 bc 32 43 06 3c 15 63 b0 3b 90 e0 00 80
       -0.007933223 0.008194732 0.0053829052 -8.0558e-41
000080 f5 67 9e b9 6d ed 95 3b 79 3b 82 3b 07 10 36 3c
       -0.00030213562 0.0045754225 0.003974375 0.01111222
000090 53 bc 46 bb 38 7c 0d ae 2d c2 06 3c 5c 37 fc 3b
       -0.0030324652 -3.2170017e-11 0.008225006 0.007697029
0000a0 7b 3a 6c bb 2b 03 4d 31 b0 d6 b7 3b 2b 59 ac b3
       -0.00360456 2.9833227e-09 0.0056103095 -8.025594e-08
0000b0 9e 31 b7 bb d6 cf 1f bc 22 19 e8 3a 27 fa 9d 3c
       -0.0055906316 -0.009754142 0.0017707685 0.019284321
0000c0 2d cc 9f 3c 7e 6d a5 ba af de c5 bb ce 9f 96 85
       0.019506538 -0.0012621132 -0.006038509 -1.4164635e-35
0000d0 11 8f 7e 3c a7 04 bb 3a 01 99 b3 bc 15 2e 2a 3c
       0.015537039 0.0014268354 -0.021923544 0.010386963
0000e0 83 21 84 3c 9a 77 2f bc 12 09 cc bb b0 6f ad 3a
       0.01612926 -0.010709668 -0.006226667 0.0013232138
0000f0 94 ca 99 3b 07 c4 3c 3c e6 ce 40 3c 44 69 0c 3c
       0.0046933386 0.011521346 0.011768078 0.008570019

fc2.weight f4 [64, 64]
000000 4b e9 2a 3d ef 09 53 3d 4d 7a 78 bc 53 55 77 3d
       0.04172639 0.051523145 -0.0151658775 0.060384106
000010 76 b1 24 3d 86 d9 2c 3d 99 26 b3 3c d1 9d 24 3d
       0.040208302 0.042199634 0.02186899 0.040189568
000020 b8 2c 46 3c fe 68 d6 3a c6 fc 8c 3c c0 2f 57 bc
       0.012095623 0.0016358194 0.017210376 -0.013133943
000030 fb 1e 69 3d 6f 49 82 3d 12 18 e6 bc ec c2 f0 ba
       0.05691431 0.063616626 -0.02808765 -0.0018368638
000040 71 49 2f 3d 20 db df 3c 34 9a 37 3b d4 2c 97 3c
       0.04279465 0.027326167 0.0028015496 0.018453993
000050 c2 00 3a 3b 83 89 77 3d 5b a2 4d 3d 55 54 0a 3d
       0.00283818 0.060433876 0.050203662 0.03377183
000060 56 25 18 3d a6 80 65 3d 8e 1a 47 3d 38 47 41 3d
       0.03714498 0.05603089 0.04860931 0.04718706
000070 9c 53 16 3a 56 cc 6d 3d 3b 17 7d 3d d3 ab b3 b3
       0.00057345047 0.058056198 0.061789732 -8.366592e-08
000080 7a d2 54 3d e6 60 66 3d 13 75 98 3d 04 bc 8b 3d
       0.05195854 0.056244753 0.07444205 0.068229705
000090 f9 32 12 3d 68 3f f4 b9 43 2d 95 bb 03 45 2a 3d
       0.035693143 -0.00046586548 -0.0045525148 0.04156972
0000a0 ac cc 47 3d f3 14 d9 b6 aa d0 7f bd a6 87 8a b8
       0.048779175 -6.4695428e-06 -0.062454857 -6.605619e-05
0000b0 f9 75 2d bd 8a ad 0d 3c e6 37 ff 3c 7a 84 df 3c
       -0.042348836 0.008647332 0.031154584 0.02728485
0000c0 47 12 5e 3d 7a 50 33 3c 47 0a b3 3c f1 f4 05 00
       0.05421665 0.01094448 0.021855487 5.47046e-40
0000d0 ee e5 08 3d 3a 6b e6 3c b2 b4 3a 3d bf fe 2b 3d
       0.033422403 0.028127301 0.04558248 0.04199099
0000e0 1a 03 bc 3c 82 e3 35 3d 1e b6 3b 3d 95 33 70 3d
       0.022950698 0.04440642 0.045827977 0.058642942
0000f0 4d 8d 16 3d b5 a2 66 3d d2 62 8a 3c 00 e3 53 b9
       0.03675585 0.056307513 0.016892824 -0.00020207092
000100 0a c6 f8 bc 5d ef 86 bd d1 fc cc bc 50 b5 f2 bc
       -0.03036787 -0.06588624 -0.025022896 -0.029627472
000110 5a 4f 39 bd 3b c6 db bc 51 b1 60 bd 08 e3 35 bd
       -0.04524169 -0.026827922 -0.054856602 -0.044405967
000120 3b 03 22 3c e3 f0 5f 3b cd 0f 3b bd ec 44 4f 3d
       0.0098884655 0.003417068 -0.045669366 0.05060284
000130 6a 99 48 bd 62 09 72 bd f6 08 b6 3c 29 df 61 bd
       -0.048974432 -0.05909098 0.02222107 -0.055144463
000140 3d 6e e4 bc a3 2c 3d bd 8f 11 0b 3a 2d a4 88 bc
       -0.027884597 -0.046185147 0.00053050456 -0.016679848
000150 a7 3f 6b 3d c4 a0 f7 bc e3 87 2f bd e9 87 25 bd
       0.05743375 -0.030228026 -0.0428542 -0.040412817
000160 97 f6 ad bc 3f 1e a9 bc 95 9f 78 bd 79 3e f9 bc
       -0.021235747 -0.020644305 -0.060699064 -0.030425297
000170 b3 b0 03 bc 11 95 f2 bc ac 71 5f bd 06 c2 a9 36
       -0.008037734 -0.029612096 -0.054551765 5.05918e-06
000180 da 1a 5c bd 29 3f 0a bd cd df 82 bd 65 c6 ed bc
       -0.053736545 -0.03375164 -0.06390343 -0.029025266
000190 6f f7 ac 3c 19 ca 09 3a 77 06 86 bd 04 09 7e bd
       0.02111408 0.000525625 -0.06544202 -0.062020317
0001a0 cb 04 10 bd 75 da 97 b7 2d cb 1c 3c 09 ed df 39
       -0.03516082 -1.810233e-05 0.009569925 0.0004271048
0001b0 6c 61 0e 3d 6b 0c 90 bc 79 67 35 bd b3 8f 8b bd
       0.034760877 -0.017584046 -0.044288132 -0.06814518
0001c0 67 28 3b bd 2c b3 ee bc 36 77 05 3d 19 d5 02 00
       -0.045692828 -0.02913817 0.03258439 2.60116e-40
0001d0 e8 5f 33 bd 27 61 5e bd b4 76 2b 3d f9 dd 72 bd
       -0.043792635 -0.05429187 0.04186125 -0.05929372
0001e0 b3 3c 00 bd 47 f1 c1 bc 15 44 0f bd 58 92 5d bd
       -0.031307887 -0.02367462 -0.034977037 -0.054094642
0001f0 28 65 7e bd 00 e2 51 bd d1 2d d7 bc 5f db bb 3b
       -0.06210819 -0.05124092 -0.026266964 0.005732938
000200 6f d2 d4 bc 96 c8 30 bd d0 3d 29 bd f7 58 79 bd
       -0.025979249 -0.043160044 -0.041318715 -0.06087586
000210 64 8c 4f bd 55 80 e8 bc 20 97 41 bd 80 32 0f bd
       -0.050670996 -0.028381506 -0.047263265 -0.03496027
000220 c5 85 2e 3c 20 06 ff b9 3e 3b 1d bd c6 4c 2d 3d
       0.01065201 -0.00048641954 -0.038386576 0.042309545
000230 39 0a 34 bd 79 88 17 bd 5e 46 93 3c 7b 18 6c bd
       -0.04395506 -0.036995385 0.01797789 -0.057640534
000240 bf 58 1a bd f5 27 e2 bc 31 5d a2 bc 3f 9c 04 bd
       -0.03768229 -0.027606944 -0.019819828 -0.03237557
000250 97 e4 1a 3d 20 76 ea bc cb 7c 3b bd 81 c0 73 bd
       0.037815657 -0.02862078 -0.04577331 -0.059509758
000260 90 78 0d bd bd 2c c1 bc f6 be 5d bd bd 85 54 bd
       -0.034538805 -0.023580903 -0.054137193 -0.051885355
000270 e0 23 7f ba 6e b6 47 bd 67 58 f7 bc 4d b9 17 97
       -0.0009732824 -0.048757963 -0.03019352 -4.9024614e-25
000280 f6 7a a0 bd 58 31 7f bd 44 a6 5a bd a3 ed 43 bd
       -0.07835953 -0.062302917 -0.05338122 -0.04783405
000290 fb 20 ab 3c ef 3e 57 ba 68 f6 6d bd 9d 76 47 bd
       0.02088975 -0.0008210977 -0.05809632 -0.048697103
0002a0 5c c4 28 bd 6d 05 d9 36 95 24 f2 3c dd d1 2a b9
       -0.041202888 6.4677356e-06 0.02955846 -0.00016290644
0002b0 dd 8b 5e 3d 93 3f 1d bd 1b 2b 0a bd f4 33 a1 bd
       0.054332603 -0.038390707 -0.033732515 -0.078712374
0002c0 ec 5a 2d bd 43 34 20 bd 13 6e 1c 3c 19 50 86 b6
       -0.042323038 -0.03911234 0.009547728 -4.002836e-06
0002d0 78 8c e5 bc b1 7e 2b bd bb f5 cf 3c 92 54 70 bd
       -0.028021082 -0.04186887 0.025385728 -0.058674403
0002e0 2c 9b 34 bd 80 b4 41 bd 01 d5 60 bd 09 aa 7c bd
       -0.044093296 -0.04729128 -0.054890636 -0.061685596
0002f0 97 bc 7b bd 94 3d 97 bd e8 45 3b bd 6c ce cd 3b
       -0.06145915 -0.07384792 -0.045720965 0.006280711
000300 6d c7 d8 3c 0b f2 22 3d bc 57 07 3d fd c3 01 3d
       0.026462281 0.03978161 0.033042654 0.03168105
000310 94 76 26 3d 71 5e 53 3d 3a 98 83 3d 5e c6 72 3d
       0.04064043 0.05160374 0.06425519 0.05927121
000320 6f ee 02 bc 49 17 80 3a f9 c6 42 3d 25 db d0 bc
       -0.007991417 0.0009772565 0.047553036 -0.025495121
000330 b1 73 32 3d c2 5d 24 3d 5d 35 05 3d 5a 85 d1 3c
       0.043567363 0.040128477 0.032521594 0.025576282
000340 45 f1 f9 3c bd fb 61 3d d2 40 05 bc 73 97 32 3d
       0.030510554 0.055171717 -0.00813313 0.043601464
000350 52 a8 5b bd 91 a9 2b 3d a9 c3 9f 3c 6d fa 65 3c
       -0.05362732 0.041909758 0.019502478 0.014036757
000360 43 8e 20 3d 75 a5 27 3d b9 4f 3a 3d 53 61 42 3d
       0.03919817 0.040929276 0.045486186 0.047456097
000370 51 da 6d bb f0 d1 76 3d be 8e 42 3d 9c b1 48 b7
       -0.0036293457 0.060258806 0.04749941 -1.1962282e-05
000380 eb 03 0b 3d 32 7b 16 3d aa 9b 58 3d 3f 2a 49 3d
       0.033939283 0.036738582 0.052882828 0.049112555
000390 d7 44 1d 3c 92 ed 90 38 e4 37 8c 3d 8c 77 30 3d
       0.009598932 6.910706e-05 0.06846598 0.04308276
0003a0 e7 e6 80 3d 17 ea ba 36 79 9f ca bc 79 89 bd ae
       0.06294041 5.5704836e-06 -0.024734246 -8.619145e-11
0003b0 e7 b1 e9 3c 06 6d 9d 3c ea 91 21 3d d9 9d 59 3d
       0.028527213 0.019217025 0.039445795 0.05312905
0003c0 8e b5 2c 3d 22 db f4 3c db 06 d2 3b 57 61 11 b8
       0.04216533 0.029889647 0.0064095086 -3.466135e-05
0003d0 e9 34 41 3d 97 96 01 3d ec 88 fd 3c 10 6d e8 3c
       0.0471696 0.031637754 0.030949079 0.028372318
0003e0 7d 27 25 3d f3 9c 77 3b e4 7a 36 3d 8f cc 41 3d
       0.040320862 0.0037782758 0.04455079 0.047314223
0003f0 a0 b0 04 3d 85 31 74 3d 80 fd 05 3d ed 5b 48 3b
       0.032395005 0.059617538 0.03271246 0.003057237

fc2.bias f4 [64]
000000 d7 dc 58 bc 80 95 13 3b 4c 8e 68 3c 7b f0 38 3c
       -0.013236246 0.002251953 0.0141940825 0.011287804
000010 af bf 94 3b 4b ad 7d 3c b2 5f d5 3c ac 0b 81 3c
       0.004539452 0.015483211 0.026046608 0.015752636
000020 12 9b d2 3c dd a9 d8 b8 9a dd af 36 4e 46 ae bb
       0.025708709 -0.00010331322 5.2412042e-06 -0.0053184396
000030 c7 e8 05 3d 81 95 64 3c 55 2f 9f 3c f4 3f fa 3c
       0.032692697 0.01395166 0.01943175 0.030548073
000040 69 d2 3d bc c0 69 80 3c e3 72 53 3d 43 9e 92 bc
       -0.01158581 0.015675426 0.051623236 -0.01789773
000050 de 4d 80 bc c6 85 a7 bb 5b 70 2f 3d 0f 57 53 bc
       -0.01566213 -0.0051123826 0.04283176 -0.012899174
000060 b4 e0 a1 3c 9b 39 0d bc 56 b5 28 ba e7 80 9b 3c
       0.019760467 -0.008619691 -0.00064357126 0.018982364
000070 14 a1 dd 3c ec 73 17 3c a4 9a d1 bb ad 9d ad 1d
       0.027054347 0.0092439465 -0.0063966084 4.595575e-21
000080 e5 3c 93 8e a1 72 00 3c b2 c9 d4 ba 21 5c 03 80
       -3.6296937e-30 0.00783983 -0.0016234426 -3.08556e-40
000090 10 28 69 bb b9 92 66 ba 4a a7 b2 3c b7 70 b5 3c
       -0.0035576858 -0.0008795667 0.021808285 0.022148473
0000a0 ab b1 ba 3c 67 a5 8a bc 6d c9 9f 3c c5 d3 ab bc
       0.022789797 -0.016924573 0.019505227 -0.020975003
0000b0 cc 92 80 3c 22 95 41 3d db 69 98 3c 5a 10 4d 3d
       0.015694998 0.047261365 0.018605163 0.050064422
0000c0 b5 61 5b b9 ae 55 94 3c ff 8d 26 3d 63 cf c6 3b
       -0.00020921866 0.018107262 0.04066276 0.006067203
0000d0 c2 37 b6 3b b8 c7 81 3c bd 8a 17 bc e8 3e 3f bb
       0.005560846 0.015842304 -0.009249386 -0.0029181782
0000e0 c1 78 0f 3c 32 45 00 3d 71 03 57 3d bf 3b 33 bd
       0.008756817 0.03131599 0.052493516 -0.04375815
0000f0 88 20 6f 3b a9 9b 03 bc 82 1f 26 3c c6 bd bd bc
       0.0036487896 -0.008032718 0.010139348 -0.02316178

fc3.weight f4 [4, 64]
000000 3c 31 44 3d 31 0c 36 be 32 51 00 be 30 76 24 3d
       0.047898516 -0.17778088 -0.12530974 0.040151775
000010 95 d0 3a be ae e5 2c be 5d e5 08 be a3 89 2a be
       -0.1824363 -0.16884491 -0.13368745 -0.16654067
000020 0f d5 0f be 6d 9c 55 3d 61 ba 17 3d 20 92 3f be
       -0.14046119 0.052151132 0.03704298 -0.18708086
000030 d9 e3 62 bd 33 0a 9e bd fb ac b5 bd 48 05 9f bd
       -0.055393074 -0.07716789 -0.08870884 -0.07764679
000040 68 0c 00 bc 11 75 24 be 98 48 09 be d7 41 15 3c
       -0.007815458 -0.16060282 -0.13406599 0.009109936
000050 6a 14 4a 3c 4c ff af 3d 1c 11 7f bd af ad 9a 3d
       0.012333969 0.08593616 -0.062272176 0.07552659
000060 a6 3f 12 3d 11 c3 92 bd d4 ad be 3d cb 5b d5 bd
       0.03570523 -0.07166112 0.09310499 -0.10417899
000070 65 4d eb bd 1d a2 0d be b9 1d 6e 3d f9 91 94 a5
       -0.11489371 -0.13831373 0.058133814 -2.5772822e-16
000080 3d 54 01 b5 7c 2b b9 3d f6 83 f7 3c af 1a 05 80
       -4.817883e-07 0.09041497 0.030214291 -4.6875e-40
000090 35 23 ed 3c 08 83 93 3d 42 aa 0d be 3e b5 b8 3d
       0.028947452 0.072027266 -0.1383448 0.09018944
0000a0 f0 b7 ce bd 91 07 3d 3c ed cf f5 bd 97 f9 36 be
       -0.10093677 0.0115374485 -0.12002549 -0.17868648
0000b0 c2 03 81 3d b9 73 68 bc d4 6f 1f be 29 c5 f4 bd
       0.06299545 -0.014187747 -0.15570003 -0.11951668
0000c0 5e 1e d8 3d 6f 36 c7 bd b8 52 6d 3d 34 1c 41 b9
       0.10552667 -0.09727179 0.057940215 -0.00018416421
0000d0 94 56 e3 bb d4 a5 83 bd 25 cf 20 be 80 2c 9d 3d
       -0.006937811 -0.064281136 -0.1570402 0.07674503
0000e0 62 03 4f bc 53 86 9c bd 47 10 a1 bd 10 47 1e be
       -0.012635084 -0.07642808 -0.07864433 -0.15456796
0000f0 f5 e4 12 be 9e cd 00 3d c0 2e f9 bd 18 b9 a5 3d
       -0.14345153 0.03144609 -0.1216712 0.080919445
000100 78 4b ce bc 28 24 a2 bd 4d 27 b9 bd 13 97 d5 3c
       -0.02518247 -0.079170525 -0.09040699 0.026073014
000110 49 52 72 bd 8c fc bc bd 83 42 76 bd 54 45 bf bd
       -0.059160504 -0.09227857 -0.060122024 -0.09339395
000120 7e 2d 46 bd 8f c3 b7 3c 95 fc e8 3c 22 36 a6 bd
       -0.04838323 0.022432117 0.028440753 -0.08115794
000130 25 f7 25 3c 76 26 dd 3c ab 5e 95 bd 9c 40 ea 3c
       0.010129725 0.026995879 -0.07293447 0.028595261
000140 9d 47 42 3d a3 f0 80 bd 4f 71 5a bd 5f 1c de bc
       0.047431577 -0.06295898 -0.053330716 -0.027113138
000150 dd 80 2c 3d c1 ee 01 3d a1 a3 05 bd e5 f2 2a 3d
       0.04211508 0.031721834 -0.03262675 0.04173555
000160 22 56 7d 3d 28 d8 00 3d fd 1b 6c 3b 1d 63 63 bd
       0.06184972 0.031456143 0.0036027425 -0.055514444
000170 ee 66 03 bd fc 33 be bd b9 9d 17 3d 8d a3 1e 26
       -0.032080583 -0.09287259 0.03701565 5.5038914e-16
000180 2f d0 b7 b1 4c ff 75 3c 6c 65 26 3d 06 70 01 00
       -5.3496687e-09 0.015014481 0.040624067 1.32022e-40
000190 16 70 03 3d d9 e9 33 3d d1 0e ea 3c be 97 37 3d
       0.032089315 0.043924186 0.028571518 0.044822447
0001a0 31 a5 7e bc f5 da a4 3c 8b ab 8d bd 2c 4e 9d bd
       -0.015542314 0.020123938 -0.06917485 -0.07680926
0001b0 01 a9 0f 3d 16 fd 06 3e f4 ac bd bd 5b db 97 bb
       0.035073284 0.13182482 -0.09261504 -0.0046343035
0001c0 11 0b c1 3c 85 8e 88 bd ac bd a0 3d 3b 23 80 bb
       0.023564847 -0.066678084 0.07848677 -0.00391045
0001d0 07 35 d6 3b 9b e9 24 3b 10 ca 9f bd 68 e2 24 3c
       0.006537083 0.0025163654 -0.07802212 0.010063745
0001e0 e9 e8 0b 3d 1c 1a 25 3d 29 bd 20 3e ff 71 c9 bd
       0.034157667 0.040308103 0.15697159 -0.09836196
0001f0 ee 38 7e bd 41 b1 2b 3d 3e a9 af bd be c0 42 bd
       -0.06206601 0.04191709 -0.08577202 -0.047547095
000200 db 69 e9 3d d5 c7 98 3c 76 0e 9a 3a 7a 3d a5 3c
       0.113971435 0.018649975 0.0011753577 0.020170916
000210 ff 4a b0 3c 67 18 92 3c fb 53 dc bc 82 7f 12 3d
       0.021520136 0.017833902 -0.026895514 0.035766132
000220 65 9c 39 3c d9 fe 26 3d 98 a5 3c 3d ea 20 29 3a
       0.011328791 0.040770385 0.04605636 0.0006451743
000230 fc 40 64 bd 37 78 3c bc 8d 40 b9 bc 98 6a 18 bd
       -0.055726036 -0.011503271 -0.022613788 -0.03721103
000240 3f 00 04 3d 2c ca 48 bb 3c 75 17 bd 8d 5b a4 3d
       0.032226797 -0.0030638082 -0.036977038 0.080252744
000250 00 26 c9 3c c4 79 9c 3c fd 88 9a bd b6 6b fb 3c
       0.024554253 0.019101031 -0.0754566 0.030691009
000260 f2 5a 5c bd 8e 7b 5c 3c 0e f7 7a 3d b1 98 96 bb
       -0.05379767 0.013457192 0.061270766 -0.004595839
000270 a0 66 a6 bc 30 c7 96 ba d9 78 14 3d 44 d1 6a a4
       -0.020312607 -0.0011503454 0.03624806 -5.0917917e-17
000280 3d 4f a3 b4 ed 80 60 3b 24 8e 79 3d 9c 27 07 80
       -3.041877e-07 0.0034256533 0.06092657 -6.57058e-40
000290 d5 f1 3e 3d ec 5d 31 3d 14 54 7a bc a0 d5 96 bd
       0.046617348 0.04330246 -0.015278835 -0.073649645
0002a0 da 3b 90 bc 35 b1 8a 3d 97 63 9a bc 32 c2 3f 3d
       -0.017606664 0.06772081 -0.018846316 0.04681606
0002b0 55 15 79 bc 3a c3 a6 bd 21 8e 80 b8 73 06 96 bd
       -0.01520284 -0.08142705 -6.129989e-05 -0.07325449
0002c0 e7 8b 63 3d a7 df a9 bc ac fb ec bd b3 23 ac bc
       0.055553343 -0.020736529 -0.1157144 -0.021013116
0002d0 e1 46 c8 bc fe 00 79 bc 64 59 f0 ba f6 2d 00 3d
       -0.02444786 -0.01519799 -0.0018337187 0.03129383
0002e0 e3 43 b6 3d bd a6 2e bd 2f 6e b6 bd d5 f4 44 3d
       0.08899667 -0.042639483 -0.089077346 0.048085053
0002f0 4b 9d 82 3c 82 7b 3c 3d 54 30 8a bc c5 14 3a 3d
       0.015944144 0.046016224 -0.016868748 0.045429964
000300 8b 80 39 be c2 8f 2a 3e 35 bb 46 3e 74 9c 38 be
       -0.18115442 0.16656402 0.19407351 -0.18028432
000310 20 97 52 3e 29 55 38 3e 79 48 14 3e 7f f5 37 3e
       0.20565462 0.18001236 0.14480771 0.17964743
000320 73 26 2e 3e b2 4d 25 be 16 75 33 be 20 60 2d 3e
       0.17006855 -0.1614292 -0.17525133 0.169312
000330 5c b0 7d 3d ae 4c c7 3c 6b 55 07 3e 45 3d 2f 3d
       0.061935768 0.024328556 0.13216178 0.04278304
000340 bd 49 e6 bd 81 92 18 3e 84 c0 2b 3e ac 56 cc bd
       -0.11244533 0.14899637 0.16772658 -0.09977469
000350 d6 be 06 be 44 55 49 be ca 7d 06 3e 99 1a 58 be
       -0.13158736 -0.19661433 0.13133922 -0.21103896
000360 78 0d 98 bd 31 da 00 bc 75 ff 4e be 31 ea e5 3d
       -0.07424444 -0.007864521 -0.20214637 0.11226309
000370 43 d9 e5 3d c6 f5 34 3e 01 aa 5d be ad cb cc a4
       0.1122308 0.1767188 -0.21646883 -8.881594e-17
000380 83 43 81 b5 fc 27 1a be 2b 11 55 be e9 6f 04 80
       -9.630897e-07 -0.15054315 -0.2080733 -4.07488e-40
000390 cb cf 3f be 9f 02 16 be cc 22 76 3d e8 f1 fd bd
       -0.1873161 -0.14649437 0.06009178 -0.123996556
0003a0 35 00 af 3d 63 c0 14 be d9 a1 2c 3e 8c 12 15 3e
       0.08544961 -0.14526515 0.16858615 0.14557856
0003b0 f1 59 f5 bd e7 15 80 bd fe 20 1c 3e d0 03 0b 3e
       -0.119800456 -0.062541775 0.1524696 0.13575673
0003c0 0e 2c 55 be e6 48 fe 3d be d6 49 bd 8e 44 07 3c
       -0.20817587 0.12416248 -0.04927706 0.008256091
0003d0 9f 7a f0 3a d1 cf 2b 3d 95 f1 14 3e 01 3b 1d be
       0.0018347091 0.041946236 0.14545281 -0.1535454
0003e0 a1 ef 4b be 4c f6 28 3d a3 2c 5e bc 85 d1 34 3e
       -0.1991563 0.041250512 -0.013560447 0.1765805
0003f0 14 b3 1a 3e 5c dd 21 be 45 90 22 3e b1 48 f8 bd
       0.15107375 -0.15807098 0.15875347 -0.1212324

fc3.bias f4 [4]
000000 76 ad 9a bd ae d7 0f 3e 0b 44 33 be 83 0c ab 3d
       -0.07552616 0.14047119 -0.17506425 0.08351996
