MBTI/ANN/Model/pr/lr=0.001 L2=0.01 hd = 64/best_model.pth (torch, 27375 bytes, 6 tensors)

fc1.weight f4 [64, 16]
000000 7e 04 00 00 e6 0d 00 00 58 07 00 80 9b 40 00 00
       1.611e-42 4.986e-42 -2.634e-42 2.3176e-41
000010 e7 01 00 00 88 af 00 00 b2 41 00 80 37 44 00 00
       6.82e-43 6.2969e-41 -2.3567e-41 2.4471e-41
000020 f4 aa 00 80 86 1d 00 80 24 46 00 80 ee 7a 00 00
       -6.1326e-41 -1.0591e-41 -2.5162e-41 4.4099e-41
000030 54 31 00 00 fa 38 00 00 73 4b 00 00 be 3f 00 80
       1.7696e-41 2.044e-41 2.7066e-41 -2.2866e-41
000040 cd 95 cf 0f 10 69 00 80 8a a9 8d a8 52 b1 42 00
       2.0469477e-29 -3.769e-41 -1.572767e-14 6.124753e-39
000050 e8 41 00 80 ee b8 00 00 00 97 79 a2 44 87 a0 9e
       -2.3643e-41 6.634e-41 -3.3825731e-18 -1.6996603e-20
000060 8a 39 00 80 dd 4a 00 00 18 45 00 80 12 28 00 00
       -2.0641e-41 2.6856e-41 -2.4786e-41 1.4375e-41
000070 ea 06 00 80 a6 46 00 80 20 3f 11 34 21 ba 00 80
       -2.48e-42 -2.5344e-41 1.3527142e-07 -6.677e-41
000080 34 47 00 80 3a 96 00 80 67 07 00 80 45 90 00 80
       -2.5543e-41 -5.3891e-41 -2.655e-42 -5.1754e-41
000090 7d 03 00 80 3e 81 00 00 d1 56 00 00 a1 14 00 80
       -1.251e-42 4.6363e-41 3.1144e-41 -7.4e-42
0000a0 96 87 00 80 e5 67 00 80 2e 3f 00 80 e8 6c 00 00
       -4.8639e-41 -3.727e-41 -2.2665e-41 3.9068e-41
0000b0 d5 ae 00 00 64 1f 00 80 8e 10 00 80 fb 5a c4 b3
       6.2718e-41 -1.1261e-41 -5.939e-42 -9.1435105e-08
0000c0 3e 2c 00 80 85 0e 00 00 9b 25 00 80 a3 18 00 80
       -1.5871e-41 5.209e-42 -1.349e-41 -8.838e-42
0000d0 97 80 00 80 5a 56 00 80 bd 29 00 80 34 0e 00 00
       -4.613e-41 -3.0977e-41 -1.4973e-41 5.095e-42
0000e0 c2 0c 00 80 3b 51 00 80 d5 5b 00 80 86 07 00 00
       -4.577e-42 -2.914e-41 -3.2943e-41 2.699e-42
0000f0 05 9e 00 80 94 7f 63 32 6d 83 00 80 4a 32 00 80
       -5.6687e-41 1.3242147e-08 -4.7147e-41 -1.804e-41
000100 7d 89 a3 3e 68 8f 8e be 15 35 2d be ef 70 5b be
       0.31940833 -0.27843785 -0.1691478 -0.214298
000110 21 ec 50 bd 69 e7 ed bb 31 12 2e 3f e8 0b ec b9
       -0.05100644 -0.0072602523 0.6799651 -0.000450223
000120 f8 a2 13 bd d0 c8 51 be 9c d1 34 bd 87 37 8a bd
       -0.03604409 -0.2048676 -0.04414521 -0.06748872
000130 70 bc aa ba 1a 01 00 80 a4 90 00 00 c4 56 00 80
       -0.001302613 -3.95e-43 5.1887e-41 -3.1126e-41
000140 f4 35 00 80 d7 1f 00 80 4f 71 00 80 61 27 00 00
       -1.9355e-41 -1.1422e-41 -4.0647e-41 1.4126e-41
000150 44 69 00 80 28 a7 00 00 68 60 00 80 f2 7f 00 00
       -3.7762e-41 5.9964e-41 -3.4584e-41 4.5898e-41
000160 87 42 00 00 ca 10 00 80 4c 21 00 80 ec 4f 00 00
       2.3866e-41 -6.023e-42 -1.1945e-41 2.867e-41
000170 2a 0a 00 00 20 28 1b ad 5c 17 3d b2 8e c2 00 80
       3.646e-42 -8.8196395e-12 -1.1006559e-08 -6.9793e-41
000180 73 5d ab 3c 94 2a ad bc 01 07 b3 bc fa 34 9b bb
       0.020918583 -0.021138467 -0.021853926 -0.00473654
000190 5d 4a 52 b9 66 dd ce 3a 56 37 3e 3c c5 22 0a 3c
       -0.00020054863 0.0015782535 0.011609873 0.008431141
0001a0 47 a7 a5 bb e5 2c 3c bc 3f 64 2e bb f7 fa 94 bb
       -0.0050553414 -0.011485313 -0.0026610044 -0.004546519
0001b0 30 7f 5f 31 29 62 00 80 cc ac f2 ad 11 34 00 00
       3.2523069e-09 -3.5213e-41 -2.7588952e-11 1.8678e-41
0001c0 08 13 00 80 2e 25 00 80 b3 52 00 00 ca a6 00 80
       -6.827e-42 -1.3338e-41 2.9667e-41 -5.9833e-41
0001d0 7e 7b 00 00 2d 66 00 80 1b 4c 00 80 24 4e 00 00
       4.43e-41 -3.6654e-41 -2.7301e-41 2.8032e-41
0001e0 4d 73 00 00 87 b8 00 80 f2 48 00 00 9c 57 00 00
       4.1362e-41 -6.6196e-41 2.6168e-41 3.1428e-41
0001f0 e0 b5 00 00 db 58 30 34 68 99 cb 2a 6e 37 00 80
       6.5244e-41 1.6423603e-07 3.616649e-13 -1.9884e-41
000200 29 e3 41 be 0c 13 99 3d 9a 78 4e 3f 9e 4a 83 3e
       -0.18934311 0.07474336 0.80652773 0.25642866
000210 ad d5 1e 3c 45 a4 f6 bc 40 b9 43 3b 71 49 18 bf
       0.009694499 -0.030107627 0.0029865056 -0.5948706
000220 fe 02 b9 bb 38 42 94 bd f9 1a 5f bd 28 2f 51 ba
       -0.0056461086 -0.07239193 -0.054469083 -0.0007979744
000230 e7 94 3d bb dc 96 00 80 ca 12 00 00 21 80 00 80
       -0.0028927864 -5.4118e-41 6.74e-42 -4.5964e-41
000240 a7 d5 24 3d 4c b6 b8 bd 83 04 b0 3e 71 8b 43 3d
       0.040242817 -0.09019145 0.34378442 0.047740404
000250 80 89 88 bc 10 8a 89 bc fd 01 9b 3e 67 e4 a9 be
       -0.016667128 -0.016789466 0.30274954 -0.3318207
000260 c1 f6 c3 bc 67 cf 0c be 02 1e 39 bd a8 dd ff bc
       -0.023921372 -0.13750993 -0.045194633 -0.031233624
000270 6b 57 3a ba 3e 73 00 00 e7 71 00 80 da 37 00 00
       -0.0007108363 4.1341e-41 -4.086e-41 2.0036e-41
000280 05 4d 00 80 8a 02 00 00 a7 50 00 00 1b 49 00 80
       -2.763e-41 9.11e-43 2.8933e-41 -2.6225e-41
000290 b8 b4 00 80 36 4e 00 80 11 47 00 80 34 8b 00 80
       -6.483e-41 -2.8057e-41 -2.5494e-41 -4.9937e-41
0002a0 23 9b 00 00 b2 28 00 80 f8 00 00 00 eb 1f 00 00
       5.5653e-41 -1.4599e-41 3.48e-43 1.145e-41
0002b0 db b8 00 00 98 26 00 80 6a 60 12 b4 c1 31 77 b1
       6.6314e-41 -1.3845e-41 -1.3632385e-07 -3.5971512e-09
0002c0 09 cd 42 be b9 ed 9c 3d 28 0d 4e 3f f9 93 83 3e
       -0.19023527 0.076625295 0.80488825 0.25698832
0002d0 94 c9 22 3c 57 a5 f5 bc 1c 50 7b b9 d4 59 17 bf
       0.009935755 -0.029986067 -0.00023967068 -0.5912144
0002e0 1b 4e ae bb 18 cb 90 bd c1 c5 5c bd 5a ac d2 b9
       -0.0053193695 -0.07069987 -0.05389953 -0.00040182733
0002f0 d3 8a 3c bb 60 5a 00 80 c2 00 00 80 a7 50 00 00
       -0.002876927 -3.242e-41 -2.72e-43 2.8933e-41
000300 0a 49 dd 9d ee ee 2e 1e dc 9d 8a 1d 7b 02 22 1e
       -5.8573734e-21 9.260893e-21 3.669152e-21 8.5767215e-21
000310 db cc c3 9b 20 ab b1 17 60 cf a8 9e 40 79 fc 9e
       -3.2392429e-22 1.1481555e-24 -1.787346e-20 -2.6731686e-20
000320 44 74 6a 9d ac e6 01 1d f9 20 a2 1c a8 7e 5e 1d
       -3.102975e-21 1.7192262e-21 1.0728784e-21 2.9446935e-21
000330 fe f4 f5 0e 54 31 00 80 5b 81 00 00 c8 80 00 80
       6.0633082e-30 -1.7696e-41 4.6404e-41 -4.6198e-41
000340 d0 c2 19 1d 00 f4 dc 9d d8 a9 60 1d e5 45 87 1d
       2.0350097e-21 -5.8485805e-21 2.973396e-21 3.580647e-21
000350 47 5e f8 1c c8 d4 7b 9d 7f e8 7e 1d 6b 8e 02 9f
       1.6435633e-21 -3.3329579e-21 3.3736818e-21 -2.7646376e-20
000360 7a 74 19 9c a6 1d 42 9d 2e bf 80 9c a7 85 da 9d
       -5.0773996e-22 -2.5691014e-21 -8.519748e-22 -5.7842313e-21
000370 28 50 f1 b3 28 f5 9b 30 18 ca fe 34 d0 0c 00 80
       -1.12370174e-07 1.1347412e-09 4.745823e-07 -4.596e-42
000380 f2 dc 2e 2a 9a e5 c5 29 aa af 1c 2a bf 94 12 ab
       1.553096e-13 8.788387e-14 1.3916529e-13 -5.2076046e-13
000390 ec 73 97 26 30 a6 bd 22 34 2e 5a 2a f0 c1 82 aa
       1.050915e-15 5.140451e-18 1.937832e-13 -2.322721e-13
0003a0 24 53 78 27 ea 87 a2 aa a9 c7 86 28 ca e8 8b aa
       3.4461984e-15 -2.887129e-13 1.4963577e-14 -2.485289e-13
0003b0 a4 79 3a 1d b0 44 00 00 da 32 3e b5 4d 27 00 80
       2.4679782e-21 2.464e-41 -7.0854514e-07 -1.4098e-41
0003c0 b1 0d bc 34 3c 38 62 32 a6 7d a7 34 5b 6b 3a 34
       3.502769e-07 1.3167718e-08 3.1197595e-07 1.7361656e-07
0003d0 07 4a e2 33 98 8c 8b b0 ee c7 2f 33 7e e3 f2 b3
       1.05374106e-07 -1.015354e-09 4.0927198e-08 -1.1310384e-07
0003e0 a6 93 1a b4 16 d2 cc b2 94 6c 01 34 7d 12 0c b4
       -1.4396082e-07 -2.3844262e-08 1.2053562e-07 -1.3045242e-07
0003f0 f7 9e d7 31 9f 75 00 80 80 6f 17 2f b0 04 00 80
       6.2753958e-09 -4.2194e-41 1.3772983e-10 -1.682e-42

fc1.bias f4 [64]
000000 b4 e0 0a 92 da 9e 30 b8 6a aa 00 80 c8 9f a5 9c
       -4.382209e-28 -4.2109612e-05 -6.1133e-41 -1.0960087e-21
000010 b3 7e c6 3c 2d 9c c3 a1 a8 a7 27 3a 27 df 1d 9d
       0.024230337 -1.3255053e-18 0.0006395527 -2.0894144e-21
000020 8e 55 59 3e 58 9d 8b 3d b7 59 b7 a5 d0 ad 59 3e
       0.21224043 0.0681712 -3.1806233e-16 0.2125771
000030 54 7d bf b0 48 73 59 b5 ce 63 6a ab d1 d6 f3 b9
       -1.3932699e-09 -8.1006556e-07 -8.3272007e-13 -0.00046508622
000040 03 a7 00 80 cc 56 0c 93 19 eb e0 b9 22 ad 0d 3d
       -5.9913e-41 -1.7713278e-27 -0.0004289977 0.03458894
000050 92 ec 68 bc dc dd 6c b9 ef 9d 6f bb bf 55 df 8e
       -0.014216559 -0.00022589363 -0.0036562642 -5.5056315e-30
000060 43 40 00 80 60 aa 1c b9 68 77 00 80 bd cd 6d ba
       -2.3053e-41 -0.00014940789 -4.2835e-41 -0.000907149
000070 c0 f2 fb ac 88 87 51 87 21 3b 68 a9 0b e9 a1 9f
       -7.1607997e-12 -1.5763241e-34 -5.1565634e-14 -6.857169e-20
000080 c7 7c bd b1 b4 7e 6d b3 b6 90 78 94 82 0f 83 ba
       -5.5148095e-09 -5.52961e-08 -1.25493395e-26 -0.0009999129
000090 89 99 84 3c 8d cd 71 3d dc 60 00 80 74 6d 4c b6
       0.016186493 0.05903392 -3.4747e-41 -3.046208e-06
0000a0 a2 4f 84 a3 22 d4 92 ac 0d 0e 02 b0 72 e3 f1 a6
       -1.4345194e-17 -4.173121e-12 -4.731369e-10 -1.6784383e-15
0000b0 5e e4 6e b9 f7 8f 93 3b cb a3 8a b4 60 a6 39 b1
       -0.00022782522 0.004503246 -2.5823678e-07 -2.7015616e-09
0000c0 24 33 8c 34 a3 26 00 80 80 f8 b9 b9 7b 0f 64 b7
       2.6114242e-07 -1.386e-41 -0.00035471097 -1.3593463e-05
0000d0 cf c1 87 ba 98 19 00 80 98 35 72 b5 5d 84 a5 b3
       -0.0010357442 -9.181e-42 -9.0230014e-07 -7.707488e-08
0000e0 00 ce ca 2b 18 12 03 bb fb 59 96 3e 0d 7e 00 80
       1.441014e-12 -0.0019999798 0.29365525 -4.5219e-41
0000f0 6d 6c 1a 3d a5 f9 3d 3c 46 4b f6 b6 0a 8a 00 80
       0.03770106 0.011595164 -7.3401343e-06 -4.9519e-41

fc2.weight f4 [64, 64]
000000 e0 46 00 80 f7 58 00 00 a6 69 00 80 34 0b 00 80
       -2.5425e-41 3.1915e-41 -3.79e-41 -4.019e-42
000010 16 d9 b2 bc a4 31 00 00 d7 46 44 3c c1 35 00 80
       -0.02183203 1.7808e-41 0.01197978 -1.9283e-41
000020 be 6e 3f 3e 42 c5 a9 3d c1 15 00 00 11 ea 3e 3e
       0.18694589 0.08289577 7.804e-42 0.18643977
000030 fe 46 62 9d 57 4e e4 9d fe 88 5b a8 64 19 c6 b3
       -2.9947553e-21 -6.04321e-21 -1.21866476e-14 -9.224712e-08
000040 46 60 00 80 47 75 00 80 cf 9e 0c 20 62 18 16 bd
       -3.4536e-41 -4.2071e-41 1.1911007e-19 -0.036644347
000050 f7 32 29 3a 13 d0 aa b8 e5 1d 6e 3b 04 5f 00 80
       0.0006454433 -8.1449885e-05 0.0036333736 -3.4085e-41
000060 8e 1e 00 80 7f 28 00 00 10 6e 00 80 15 0c db 2f
       -1.0961e-41 1.4527e-41 -3.9483e-41 3.9844453e-10
000070 7b ef 42 af 90 90 98 03 6a 47 93 9c 6c 21 00 80
       -1.7729278e-10 8.966947e-37 -9.746104e-22 -1.199e-41
000080 bb 92 03 b0 84 0d 00 80 b0 32 c1 90 08 75 62 21
       -4.786604e-10 -4.848e-42 -7.6203174e-29 7.672667e-19
000090 de 88 ae ba 22 59 87 bd 2e 4c 00 80 ee 87 f6 8d
       -0.0013315936 -0.066087976 -2.7328e-41 -1.5193644e-30
0000a0 f6 b3 8f a0 6b 10 6e 2b cd a0 00 00 58 a9 00 80
       -2.434423e-19 8.457737e-13 5.7684e-41 -6.0749e-41
0000b0 16 7e 88 20 17 ce 48 3c e6 f4 38 16 25 b9 00 00
       2.3122733e-19 0.012256167 1.4940678e-25 6.6417e-41
0000c0 b7 17 56 34 74 23 00 80 ab 75 aa 8a 8d bb a8 05
       1.993893e-07 -1.2718e-41 -1.6414666e-32 1.586754e-35
0000d0 04 a6 0f b4 2c e7 45 33 cd 75 47 33 0c 34 00 00
       -1.3378309e-07 4.6077886e-08 4.6440437e-08 1.8671e-41
0000e0 d0 f7 5e aa 9a 76 ea 2f fa fc 7d 3e 0c 3e 00 00
       -1.9803538e-13 4.2648624e-10 0.24803534 2.2258e-41
0000f0 df 88 23 3d 1e 16 68 3b cd d5 e4 35 6b 12 00 00
       0.039925452 0.0035413573 1.7049548e-06 6.607e-42
000100 d1 3e 00 00 33 14 00 80 a0 60 00 80 1e 8c 00 00
       2.2534e-41 -7.246e-42 -3.4663e-41 5.0265e-41
000110 7b c0 8d bd 0d 84 00 80 80 d4 27 3b 19 34 00 80
       -0.06921478 -4.7371e-41 0.0025608838 -1.8689e-41
000120 c2 2f 42 3e b9 7b 88 3d c0 26 00 00 98 ad 41 3e
       0.1896353 0.06664223 1.3901e-41 0.18913877
000130 43 ab 9f 9b 97 50 1b 9c 80 df e5 25 bc 2f 9a b1
       -2.641502e-22 -5.138936e-22 3.9876617e-16 -4.4874167e-09
000140 1e 74 00 00 57 26 00 00 86 e0 c8 29 3b 75 ba bd
       4.1655e-41 1.3754e-41 8.920733e-14 -0.09104391
000150 ea 50 2d 3a 97 49 2c 38 8e 85 cc ba 8e 40 00 80
       0.00066114834 4.107653e-05 -0.0015603767 -2.3158e-41
000160 97 65 00 00 1f 7c 01 80 96 2b 00 00 38 aa 23 b0
       3.6444e-41 -1.36362e-40 1.5636e-41 -5.954095e-10
000170 c1 e6 88 2f 53 50 46 05 bc 70 a7 1c 56 10 00 00
       2.4902216e-10 9.3246685e-36 1.1080274e-21 5.86e-42
000180 e4 b2 6c 2f 61 2f 00 80 22 cc 1e 94 40 15 7e 21
       2.152763e-10 -1.6996e-41 -8.0172196e-27 8.608667e-19
000190 b4 28 22 bd 2e 1d 09 be 31 63 00 00 3f 12 16 8e
       -0.0395896 -0.13390037 3.5583e-41 -1.8497713e-30
0001a0 7a bf 16 9f 25 c4 a5 ab d4 13 00 80 d0 8b db 10
       -3.192212e-20 -1.1778396e-12 -7.113e-42 8.6595684e-29
0001b0 7f c0 29 a0 0c 30 41 bc fc b9 ed 96 ab 28 30 2c
       -1.4378548e-19 -0.01179124 -3.8406788e-25 2.503368e-12
0001c0 22 70 e5 34 54 7e 00 80 e3 c5 01 0d 47 81 3e 84
       4.273616e-07 -4.5318e-41 3.998939e-31 -2.2393754e-36
0001d0 64 8d 43 38 bf 5f 00 00 3a d5 17 34 71 8c 00 80
       4.6623303e-05 3.4347e-41 1.4140542e-07 -5.0381e-41
0001e0 84 b3 16 ad b8 21 fe af bd e5 84 3e 9b 02 00 80
       -8.566373e-12 -4.622629e-10 0.25956526 -9.35e-43
0001f0 f8 fb 1c 3a 39 82 ff bc 89 ff 31 36 6a 90 00 80
       0.0005988474 -0.031190025 2.6523796e-06 -5.1806e-41
000200 ac 35 00 80 49 36 00 80 b5 4d 00 00 39 1b 00 80
       -1.9254e-41 -1.9474e-41 2.7876e-41 -9.766e-42
000210 1c 1f 45 3d e0 03 00 80 69 c3 a6 ba c9 10 00 80
       0.04812537 -1.39e-42 -0.0012723032 -6.021e-42
000220 db 16 33 3e a1 c5 f3 3d 1b 2e 00 80 a8 47 32 3e
       0.17489187 0.11902929 -1.654e-41 0.17410147
000230 ae e6 12 9c 53 a1 8a 1d 08 56 a1 a4 96 73 c2 b3
       -4.8605494e-22 3.66951e-21 -6.996836e-17 -9.054854e-08
000240 29 30 00 00 62 06 00 00 b1 71 b0 1a 8a 0e 44 3d
       1.7277e-41 2.29e-42 7.297557e-23 0.047865428
000250 81 49 15 bb 64 95 b2 b7 c7 0d 28 39 41 2e 00 80
       -0.0022779407 -2.1288819e-05 0.00016026861 -1.6593e-41
000260 25 19 00 80 63 91 00 00 82 4c 00 80 3b 68 a0 30
       -9.02e-42 5.2155e-41 -2.7446e-41 1.1671156e-09
000270 f5 01 77 2b a3 6d 4e 04 8d 40 37 9c 52 02 00 00
       8.7754744e-13 2.4265526e-36 -6.063305e-22 8.32e-43
000280 8c 75 41 30 37 b6 00 00 1c 18 8a 11 a1 77 de 21
       7.0380035e-10 6.5366e-41 2.178742e-28 1.5074971e-18
000290 66 9d 5a 3d c2 d2 37 3d ac 67 00 80 21 e5 a3 8d
       0.053372763 0.04487873 -3.719e-41 -1.0100811e-30
0002a0 ae af af a0 f2 9a cc ac 18 1a 00 80 54 b8 5e 13
       -2.9762408e-19 -5.815231e-12 -9.36e-42 2.811122e-27
0002b0 1a cf 82 21 75 8b d1 3c a3 5b 38 15 4f 35 33 2c
       8.863962e-19 0.025579194 3.7230793e-26 2.5467022e-12
0002c0 94 d6 df 34 10 04 52 32 ec 89 e7 0b 57 f2 ca 85
       4.1693113e-07 1.22245325e-08 8.9185485e-32 -1.908501e-35
0002d0 67 5c 9b 36 5f be 00 80 a1 21 14 33 0e 9f 00 80
       4.630117e-06 -6.8292e-41 3.448952e-08 -5.7058e-41
0002e0 20 94 95 2c 12 c1 b7 2f 13 54 54 3e ed 31 00 80
       4.25128e-12 3.342469e-10 0.20735197 -1.791e-41
0002f0 a1 ec ff 3d b8 4f 45 3d de 3f 09 b4 18 8b 00 00
       0.12496305 0.04817173 -1.2782354e-07 4.9897e-41
000300 8b 3a 00 80 ea 2b 00 80 de 21 00 80 82 64 00 00
       -2.1001e-41 -1.5753e-41 -1.2149e-41 3.6055e-41
000310 13 05 d9 bc 01 3f 00 00 89 43 2b bc dc 73 00 80
       -0.026491677 2.2602e-41 -0.010453113 -4.1563e-41
000320 8b 43 43 3e 22 e1 a8 3d 07 1b 00 80 52 a6 42 3e
       0.19068734 0.08246066 -9.696e-42 0.19008759
000330 f1 89 07 1e 8a c2 a6 9b 95 df 89 aa 6c ab d6 b3
       7.175366e-21 -2.7588114e-22 -2.449123e-13 -9.996333e-08
000340 81 81 00 80 f2 39 00 00 02 cc 14 27 23 5d 1e bd
       -4.6457e-41 2.0787e-41 2.0649719e-15 -0.03866304
000350 ce 07 84 37 05 81 d3 38 18 e9 14 bc c9 93 00 00
       1.573926e-05 0.00010085296 -0.009088777 5.3015e-41
000360 1d b4 00 00 94 3a 00 00 b5 3e 00 80 90 99 77 b1
       6.4612e-41 2.1014e-41 -2.2495e-41 -3.603052e-09
000370 58 fa bd af f6 5a 3f 05 1b d0 ad 9c 0b 50 00 00
       -3.455678e-10 8.997484e-36 -1.1501974e-21 2.8714e-41
000380 58 3d bd 30 82 84 00 00 e8 94 8a 13 10 69 55 1f
       1.3768995e-09 4.7535e-41 3.498293e-27 4.519141e-20
000390 3a dd 0a bc 1e b8 80 bd df 78 00 80 e8 20 96 8d
       -0.008475596 -0.062851176 -4.336e-41 -9.252386e-31
0003a0 cc c9 8b a1 81 c0 bc 2c 5a 33 00 00 64 2a 00 00
       -9.472422e-19 5.3646536e-12 1.8421e-41 1.5207e-41
0003b0 01 c3 90 20 95 63 48 ba 4e 74 23 97 3a 84 00 00
       2.4523592e-19 -0.00076442334 -5.281494e-25 4.7434e-41
0003c0 0f 9c 8c 33 82 17 00 00 51 cb 27 8c 70 eb f8 05
       6.547645e-08 8.433e-42 -1.2926395e-31 2.3408294e-35
0003d0 f3 f9 24 35 d4 5e 00 80 9c 67 12 33 3f 12 00 80
       6.1458485e-07 -3.4018e-41 3.4087506e-08 -6.545e-42
0003e0 26 49 23 2d 4f 32 a5 30 4c 05 81 3e e9 0a 00 80
       9.2817195e-12 1.2019629e-09 0.25199354 -3.914e-42
0003f0 9d af 26 3d ad 87 c2 bb ea 31 d6 b5 d0 0a 00 00
       0.04069482 -0.005936584 -1.5958769e-06 3.879e-42

fc2.bias f4 [64]
000000 5c 5e c6 3c 17 51 f1 3c b8 e4 01 3b 42 06 dc ba
       0.024214916 0.029457612 0.0019820165 -0.0016786533
000010 68 61 cd bc 12 cd af 3c 2a 35 a3 3d 9e 43 5a bd
       -0.025070861 0.02146009 0.079691246 -0.05328714
000020 23 0b 83 3d 61 6e 14 3c fd 57 74 3d 53 01 c3 3d
       0.063986085 0.0090595195 0.059654225 0.09521737
000030 7c 26 1f bd ee 16 f6 bd f9 0b 0f 3d 25 f1 a7 3d
       -0.03885506 -0.12016092 0.034923527 0.082002915
000040 cf a5 08 3e 44 11 b1 3d fe 0b 9a 3d d8 1d 7e 3c
       0.13344501 0.08645871 0.075218186 0.015510045
000050 90 a9 1d b5 fb 61 43 3d 39 f5 b2 bc 89 43 a6 bc
       -5.8733804e-07 0.047700863 -0.021845447 -0.020295875
000060 bc 7c 1b bd df b1 58 bd 22 df 1a 3d 80 dd 81 3c
       -0.037960753 -0.052904006 0.037810452 0.01585269
000070 08 10 b8 3d 9b 14 07 3d 5b 83 05 3d 2d 08 b3 3c
       0.08987433 0.032978635 0.032595973 0.021854484
000080 62 7b 81 bc bc 22 9b 3d c0 2c fc 3c 73 73 13 3d
       -0.015805904 0.075749844 0.030783057 0.035998773
000090 6f 46 b2 bc 53 e6 20 bd fd 05 22 3d ac 48 73 3d
       -0.021762101 -0.039282154 0.039556492 0.059395477
0000a0 5f 7d 80 3d 5f c5 11 bc b5 5f 60 3d 6f bb a1 3d
       0.06273913 -0.008897155 0.054778773 0.07897078
0000b0 b5 7d 82 3a cb 21 97 3d 5c be dd 3c 9e 36 4a ba
       0.0009955677 0.07379492 0.02706831 -0.0007713827
0000c0 3c 33 51 3d 14 21 75 3c 55 b1 58 3c 82 b2 97 bd
       0.05107425 0.0149615 0.013225873 -0.074070945
0000d0 f0 f9 08 3d fd 71 8a 3d c8 37 4c bd ff 3f d0 3c
       0.033441484 0.06760023 -0.049857885 0.02542114
0000e0 2a ff 97 3d 68 b8 32 bd d8 6d 91 3d 4e c1 ea 3d
       0.074217156 -0.043632895 0.07101029 0.11462651
0000f0 16 4b b6 3d e4 e5 b5 bd 58 f0 b1 3d 5a c9 d4 3c
       0.0890104 -0.08881739 0.0868842 0.025974918

fc3.weight f4 [16, 64]
000000 f3 17 70 3d b2 c0 10 3c c2 ee 97 bc 80 ad 22 bc
       0.05861659 0.008835005 -0.018546466 -0.009929061
000010 84 96 50 3d 08 95 b9 3d 93 80 d6 bd 23 b5 88 3d
       0.050924793 0.090616286 -0.10473742 0.06675174
000020 fe 18 33 3e 7a b2 4b 3e 19 63 c1 bd 27 14 21 3e
       0.17490003 0.19892302 -0.094427295 0.15730344
000030 8f e7 83 3c 5a 40 ac 3d d7 52 27 bd 00 ec 53 3e
       0.016101627 0.084107116 -0.040850487 0.20695496
000040 e9 a2 e7 3d 51 c9 43 bd 17 35 09 3e 2b fa 2f 3e
       0.113103695 -0.047799412 0.13399158 0.17185275
000050 65 f6 8e b0 fc 52 39 bd 08 b1 14 3e 7a da 3e 3e
       -1.0401889e-09 -0.045245156 0.14520657 0.1863803
000060 6f 1a c4 3c d9 c3 be 3d 6e eb 83 3e 6c 7d 09 3e
       0.023938386 0.09314699 0.25765556 0.13426751
000070 14 7a 1b 3e 53 f4 2d bc 78 49 e5 3d b0 2b f7 3c
       0.15183288 -0.010617333 0.11195654 0.030172199
000080 d1 1b e1 3d 1e 45 33 bd 11 ef 67 3e c0 8d fd 3d
       0.10991634 -0.043767087 0.2264979 0.12380552
000090 31 8a 8a bc a6 23 7f 3a 82 d9 f9 3d b7 b7 a9 3c
       -0.016911598 0.000973279 0.121996894 0.020717485
0000a0 99 d3 65 3e c3 0a 5c 3d 7c 78 e0 b9 5c b4 77 3e
       0.22444 0.0537212 -0.00042814377 0.24189895
0000b0 e0 b9 7b 3e 15 18 48 3e 0c 90 04 3c d2 8d dd 3c
       0.24582624 0.19540437 0.008090984 0.027045164
0000c0 eb 54 31 3e 25 09 3b 3e b1 2c ae 3d a5 73 c5 3d
       0.1731755 0.18265207 0.08504618 0.09641198
0000d0 c8 6f 53 3e b6 19 cd 3c 58 da f4 3c f9 f8 34 3e
       0.2064811 0.025036674 0.02988927 0.176731
0000e0 9a 94 53 bd 43 5e a1 3c 51 44 3e 3e da 66 db 3d
       -0.05165539 0.019698268 0.18580748 0.10712977
0000f0 16 87 16 bd e7 99 2a 3e c5 8b 5b bd 47 ec d0 3b
       -0.03674992 0.16660272 -0.05360009 0.0063758227
000100 2f 58 a0 3d 75 9c 9d 3d c3 28 af 3d 43 ab 2b 3e
       0.0782932 0.076958574 0.085526966 0.1676455
000110 dd 93 10 bd 98 9e 9f bd 65 bd dc 3d 33 e0 84 bc
       -0.035297263 -0.07793921 0.10778312 -0.016220188
000120 b1 f0 da bd 56 7d 00 be 72 2c ef 3d 20 e6 4a bd
       -0.106904395 -0.12547812 0.11678399 -0.04953587
000130 4e fa 57 3d 52 44 44 bd ca a9 84 3d 14 b2 b9 bd
       0.052728944 -0.047916718 0.06477697 -0.09067169
000140 59 e6 85 bd 8a cb 7e 3d 6f f5 90 bd e5 0a 89 bd
       -0.06538076 0.06220583 -0.07078063 -0.06691531
000150 11 3a 8a b2 aa c4 c9 3d fc f0 07 be 8f a2 01 be
       -1.609172e-08 0.09851964 -0.13275522 -0.12659667
000160 30 a3 91 3d 91 41 4f bd e4 ce 30 be 7a 75 bd bd
       0.07111204 -0.05059964 -0.17266423 -0.092509225
000170 80 18 30 be d0 a2 d3 3d ca af 2b be 5b 5c eb 3c
       -0.17196846 0.103337884 -0.16766277 0.028730562
000180 fa 7c a8 bd 14 a4 03 3e 5c 91 16 be 5e 03 05 3e
       -0.082269624 0.1285556 -0.14703888 0.12989566
000190 0c ad db 3b 44 28 a0 3d 11 c9 fc bd 4a b1 43 3e
       0.0067039784 0.0782018 -0.12343038 0.19110599
0001a0 80 12 f9 bd eb 9c 91 3d 6c 18 10 3e 23 7d ff bd
       -0.12161732 0.07110008 0.14071816 -0.1247504
0001b0 37 a1 04 be 1d 39 ad bd d8 31 df 3d dc aa 7d 3d
       -0.12952124 -0.08458159 0.10898179 0.061930522
0001c0 b4 77 b3 bd 23 b5 6f bd ad fd cc bd 1c 51 13 bd
       -0.08763066 -0.058522355 -0.10009322 -0.035966024
0001d0 82 c2 01 be ea d0 17 3e 6b 55 95 3d 93 9f c2 bd
       -0.12671855 0.14825788 0.07291683 -0.095030926
0001e0 10 b5 1e 3e e1 38 ec 3c 6a 53 14 be 9b 7c 5b bd
       0.15498757 0.028835716 -0.14484945 -0.05358563
0001f0 69 c2 20 3e 27 b1 b9 bd 36 70 01 3e 44 62 39 3e
       0.15699162 -0.09066992 0.12640461 0.18103892
000200 65 63 57 3e 13 d3 3c 3e 68 65 02 3e de b3 72 3e
       0.2103401 0.18439893 0.12733996 0.23701426
000210 58 a8 68 3e 0c 70 63 3e ab ed 83 3e 0b 91 35 3e
       0.22720468 0.22210711 0.25767264 0.17731111
000220 2c 77 09 be 0e e6 83 bd 4f c0 29 3e 40 65 a5 bd
       -0.13424367 -0.06440364 0.16577266 -0.080759525
000230 ff 40 39 3e 92 0a 15 3e d0 e5 23 3e a2 38 b9 bd
       0.180912 0.14554814 0.16005635 -0.09044005
000240 2b 07 38 be a5 17 8d 3e cf 0d 01 be d9 24 b0 bd
       -0.17971484 0.27557102 -0.12602924 -0.08600778
000250 53 0c 66 32 b6 4d 55 3e d8 4e 24 bd e6 fd fd 3c
       1.3390564e-08 0.20830426 -0.040114254 0.031004857
000260 88 f3 7e 3e 90 40 85 3e ef 39 5b bc f0 5d 81 bc
       0.24897587 0.2602582 -0.013380512 -0.015791863
000270 18 da 9b bd f7 f0 88 3e 98 08 db bd a5 6a 62 3e
       -0.076099575 0.26746342 -0.106949985 0.22110994
000280 82 b6 92 bb 08 b1 18 3e cf b7 d3 bd 22 59 2c 3e
       -0.004477323 0.14911282 -0.10337793 0.16830876
000290 4d 06 85 3e ac 73 8c 3e 6e 39 03 be e8 6f 4a 3e
       0.2598137 0.27432 -0.12814876 0.19769251
0002a0 d8 c9 a4 3b a4 75 4c 3e 89 f6 4d 3e cc 6f d6 bd
       0.0050289445 0.19966751 0.20113577 -0.10470542
0002b0 e9 e7 18 bd 56 e0 c5 bd 67 6d 37 3e 76 31 5a 3e
       -0.03733054 -0.09661929 0.17912827 0.2130793
0002c0 5e d6 6e bd 3e 6f 7f bd 36 41 57 bc d0 0c 35 3e
       -0.058309905 -0.06236195 -0.013138106 0.17680669
0002d0 0f 27 77 bd 5e c2 6f 3e 71 70 8d 3e 34 20 b6 bd
       -0.060339984 0.23413989 0.27624848 -0.08892861
0002e0 ce 41 23 3e 0a a8 44 3e e5 ca 3b bd da f5 b3 bd
       0.15943071 0.19204727 -0.045847792 -0.08787127
0002f0 64 de 08 3e c5 f0 76 3e 94 14 5c 3e 01 04 6a 3e
       0.13366085 0.24115284 0.21492225 0.2285309
000300 cd 83 5f 3e ae d7 7f 3e b4 2c 2b 3e 39 cf dd 3d
       0.21827622 0.24984619 0.16716272 0.1083054
000310 f0 12 ee 3d ca 05 6b 3d f8 d7 cb 3d 91 8a 74 3d
       0.11624706 0.057378568 0.09953302 0.05970246
000320 59 6d 07 be 34 5e ce bd 34 21 23 3e 42 24 d6 bd
       -0.13225307 -0.100765616 0.15930635 -0.104561344
000330 8e bb 4f 3e 3a 44 c5 3c cf 87 1a 3e fa 63 8f bd
       0.2028639 0.024080385 0.1509087 -0.07001491
000340 e9 45 da bd e3 9c 3d 3e e9 69 f2 bd a0 14 2f bd
       -0.106578656 0.18516879 -0.11836607 -0.04274428
000350 49 d0 5f b2 1b db 48 3e 28 38 4f 3b a2 be 7e bd
       -1.3027667e-08 0.19614832 0.0031619165 -0.06219352
000360 b9 ca 36 3e e1 a5 07 3e 4b 76 28 bd fd 07 bf bd
       0.1785077 0.13246872 -0.041128438 -0.093276955
000370 3a 60 74 bd 3c 0f 54 3e 99 c4 24 bd 0e 45 39 3e
       -0.05966208 0.20708936 -0.040226553 0.18092749
000380 67 23 04 bd 9b 62 0e 3e c3 ca 8c bd 65 a2 09 3e
       -0.032260325 0.13904803 -0.06874611 0.13440855
000390 1a cd 17 3e dd 43 30 3e 6d 59 ae bd 39 99 39 3e
       0.14824334 0.17213388 -0.0851315 0.18124856
0003a0 8c 2f 03 be c3 c1 9b 3d 3e 14 22 3e 84 74 23 be
       -0.12811106 0.076053165 0.15828034 -0.15962416
0003b0 dc d4 84 bd bc 08 87 bd 0a 3a 32 3e 61 6d 1b 3e
       -0.06485912 -0.06593463 0.17404953 0.15178443
0003c0 77 25 bf bc 3e 3c 8f bd bf 7b 9c bd e4 c0 17 3e
       -0.023333294 -0.06993912 -0.0764079 0.14819676
0003d0 0b 14 22 bd e4 74 35 3e 14 3e 31 3e 1e a4 bc bd
       -0.039569896 0.17720371 0.17308837 -0.0921099
0003e0 3a d8 2f 3e 8e d3 00 3e 25 0e 05 be fb 50 e3 bd
       0.17172328 0.12580702 -0.12993677 -0.1109943
0003f0 1f 51 61 3e 3d ab 7a 3d e7 18 85 3e 69 74 44 3e
       0.22003601 0.06119846 0.2599556 0.19185032

fc3.bias f4 [16]
000000 b1 ce dc 3e 24 f3 0a 3f 9f 73 8b bd 6d a0 6f 3e
       0.43126443 0.54277253 -0.06809162 0.23401041
000010 10 fb b2 bd 3d e2 cf bd 11 2e e6 3c 4c 88 3b 3f
       -0.087392926 -0.101505734 0.028098138 0.7325485
000020 f2 da 52 bd d4 9b b2 3d d7 4d 3a be 81 3c e4 bd
       -0.051478334 0.08721128 -0.18193756 -0.11144353
000030 59 ec 75 be 0c 98 e4 be 12 5b 07 bf bb ee ff be
       -0.2401594 -0.44647253 -0.5287334 -0.49986824
