MBTI/ANN/Model/TFJP/lr=0.01/best_model.pth (torch, 34735 bytes, 6 tensors)

fc1.weight f4 [64, 57]
000000 5b a5 50 b1 7e bc 2b b3 83 4b a2 b1 67 62 31 28
       -3.0361977e-09 -3.9985473e-08 -4.7234052e-09 9.846811e-15
000010 a5 29 9f b0 b6 9e 37 b3 f6 45 b8 b3 b9 92 6b b1
       -1.1580609e-09 -4.2752355e-08 -8.5808935e-08 -3.4280403e-09
000020 1a 47 6e 92 77 4f ea ad 04 ae 1c b3 a3 dc 97 b3
       -7.51872e-28 -2.663801e-11 -3.6479847e-08 -7.071619e-08
000030 cc 03 11 ab d2 5e b6 b1 0f 08 a3 b3 25 88 12 b0
       -5.151962e-13 -5.307677e-09 -7.591745e-08 -5.3307964e-10
000040 6d 3a 70 b3 12 72 80 30 93 f0 25 ae 34 14 1a af
       -5.5932492e-08 9.345646e-10 -3.773033e-11 -1.4013396e-10
000050 6c 4d 6e b3 60 fa a7 b2 be 44 28 20 b0 9a 3d ae
       -5.5484108e-08 -1.9555216e-08 1.4252898e-19 -4.3111015e-11
000060 6f 13 41 b3 a8 df 39 ae b2 e9 13 b0 c9 6c e5 a4
       -4.495399e-08 -4.2262777e-11 -5.381039e-10 -9.949721e-17
000070 81 d5 46 ac 79 92 93 b3 82 9e ef b0 b5 22 9b ac
       -2.825601e-12 -6.871864e-08 -1.7434589e-09 -4.409218e-12
000080 4f bd b5 b3 e8 23 a6 b3 e2 8a 92 b3 f1 f8 d6 ac
       -8.462904e-08 -7.736509e-08 -6.8239174e-08 -6.109884e-12
000090 06 d8 c5 af b9 4f e3 b0 22 da 7f b1 d6 ef 18 b3
       -3.5987585e-10 -1.6539082e-09 -3.7231378e-09 -3.5608387e-08
0000a0 0a fb 41 ab 17 a1 34 b3 d0 ff 32 a6 fb ee b2 2f
       -6.891576e-13 -4.2056026e-08 -6.2102846e-16 3.2547817e-10
0000b0 6d 2f c4 9d db 6e 8d 29 78 1d 00 80 98 e9 e3 8d
       -5.1929805e-21 6.280888e-14 -1.0571e-41 -1.4046191e-30
0000c0 b1 07 00 80 3b 10 00 00 38 f3 ea 2a 4e 62 73 ba
       -2.759e-42 5.822e-42 4.1735517e-13 -0.0009284363
0000d0 50 06 1d 2b 54 0a 00 00 3d 7d b0 b7 a2 0b 03 b2
       5.5786365e-13 3.705e-42 -2.1039154e-05 -7.627849e-09
0000e0 26 0d 51 2f ec 1d 07 b8 13 0b 29 b4 b9 59 4c b6
       1.901311e-10 -3.2214375e-05 -1.574338e-07 -3.0450594e-06
0000f0 8a 5c 70 b7 ed 24 20 b7 84 0a 2f b5 0f 2c 2d b2
       -1.4326661e-05 -9.545341e-06 -6.520788e-07 -1.0079943e-08
000100 04 db b6 b4 9b 8c 2f b5 39 d3 95 b7 90 a3 d9 b5
       -3.4059497e-07 -6.539719e-07 -1.7860542e-05 -1.6215363e-06
000110 31 a1 4e b3 1d 0f e5 b3 e5 3d a5 b1 cc c2 ea b3
       -4.8109715e-08 -1.06663926e-07 -4.8091686e-09 -1.09319075e-07
000120 31 a3 3c b4 12 00 48 b7 d8 3a 0e b4 48 8a f7 b5
       -1.7568233e-07 -1.1920945e-05 -1.3246188e-07 -1.8443179e-06
000130 57 c9 97 b3 6b 10 01 b6 8d e6 94 b7 0f ce 71 b8
       -7.068109e-08 -1.9232054e-06 -1.7750333e-05 -5.7650785e-05
000140 78 d6 17 b4 a2 dc d2 b0 20 fd 85 b8 03 7d 94 b0
       -1.4140994e-07 -1.5342219e-09 -6.3890824e-05 -1.0803948e-09
000150 4d 65 9e b2 93 8b a3 b5 56 00 ad b8 4b 92 7e b6
       -1.8439687e-08 -1.2185068e-06 -8.2493454e-05 -3.7934103e-06
000160 4b 34 51 b6 1b 53 5d b4 87 a2 f8 ae 29 99 b8 b6
       -3.1173865e-06 -2.0612462e-07 -1.1306605e-10 -5.5014575e-06
000170 27 fe 09 b8 6a b4 0a b4 f7 63 6f a4 f1 5d b9 b8
       -3.2900043e-05 -1.2917886e-07 -5.1909537e-17 -8.8389854e-05
000180 b9 d4 2d b5 68 86 71 b8 38 1d 0c b3 45 11 66 b6
       -6.4757074e-07 -5.7584053e-05 -3.2622864e-08 -3.4282723e-06
000190 9e fd 3a b8 68 e9 9f b6 e3 e9 16 b8 2c a6 ba b6
       -4.4582055e-05 -4.7657413e-06 -3.598061e-05 -5.562577e-06
0001a0 d2 b7 8e b5 01 fc e1 b7 3c e3 05 aa c4 62 ca b7
       -1.0633323e-06 -2.6939439e-05 -1.1891611e-13 -2.4126268e-05
0001b0 40 62 08 31 1e 6a 3a 38 30 ad 28 ac aa e2 15 bb
       1.9846453e-09 4.4444685e-05 -2.3970374e-12 -0.0022870698
0001c0 d2 c7 65 2b 3c b2 b5 ae 93 53 35 28 5d df 9b a6
       8.163445e-13 -8.262588e-11 1.0065641e-14 -1.0815828e-15
0001d0 c0 78 51 a7 4a 06 c7 25 ee e1 02 27 0e e8 d4 28
       -2.9070035e-15 3.452526e-16 1.81636e-15 2.3637366e-14
0001e0 3c 22 4d 28 7d 38 f1 28 4f d9 8c 28 13 45 d0 27
       1.1387209e-14 2.6780873e-14 1.5637365e-14 5.7806488e-15
0001f0 07 ff 52 28 ec 8e 54 26 38 a2 02 a7 c4 76 ad 28
       1.1712642e-14 7.374597e-16 -1.8129063e-15 1.9258365e-14
000200 e1 e9 aa 28 90 50 11 26 d8 be ee 28 ba 3c ba 27
       1.897522e-14 5.0416163e-16 2.6506073e-14 5.169121e-15
000210 39 7a 4b 28 d8 f1 53 a7 fc d1 f4 a7 8b 00 6d 28
       1.12952665e-14 -2.9413236e-15 -6.795127e-15 1.3156261e-14
000220 f7 26 26 a8 90 11 1d a8 92 f5 91 28 43 a2 c3 27
       -9.2233e-15 -8.719059e-15 1.6204733e-14 5.4299297e-15
000230 64 37 9c a8 9a 5c ac a7 57 cd 8d a7 24 b5 09 28
       -1.7343501e-14 -4.783999e-15 -3.935799e-15 7.644306e-15
000240 62 4c 8f 27 42 ce 3a 28 86 e1 0e 28 b9 d1 d9 28
       3.9773288e-15 1.0369799e-14 7.931486e-15 2.4182792e-14
000250 de f3 af a8 b5 7c a0 26 01 9b 0d 28 5c 23 1b 28
       -1.9534663e-14 1.1136032e-15 7.8606834e-15 8.611896e-15
000260 20 ef 93 28 8c 26 b9 a8 16 22 cc 28 b2 94 e0 a7
       1.6423982e-14 -2.0555843e-14 2.2663332e-14 -6.2333705e-15
000270 d6 d8 ad a8 f8 40 b3 a7 0a 0d 5a a7 be 30 bc 28
       -1.9300896e-14 -4.975292e-15 -3.0260646e-15 2.0893331e-14
000280 d2 65 03 a8 0a c2 41 28 f6 8e 4b 28 9c 63 f9 a6
       -7.2940396e-15 1.0755728e-14 1.1299763e-14 -1.7304845e-15
000290 d6 70 37 b7 0c 66 92 33 a0 15 40 33 c0 57 01 33
       -1.0933922e-05 6.817217e-08 4.472315e-08 3.011496e-08
0002a0 90 cd d1 b6 4c 39 c8 3a bb d4 26 38 e1 39 77 ae
       -6.252616e-06 0.0015275865 3.9775605e-05 -5.6212705e-11
0002b0 78 a5 14 ae 7d 36 c0 ac 01 42 fa ab f6 2d 82 ac
       -3.379827e-11 -5.4630176e-12 -1.7781888e-12 -3.699925e-12
0002c0 6b 66 6c a9 b8 95 02 a9 5f 3a dd ae 56 46 47 aa
       -5.249136e-14 -2.899566e-14 -1.0060285e-10 -1.7699153e-13
0002d0 c4 06 af a8 f8 d7 b4 ab e0 73 8b 14 ba 81 ff ab
       -1.9431837e-14 -1.2849713e-12 1.4081118e-26 -1.8154846e-12
0002e0 53 29 4b ae bd f0 1b ae ce d6 70 ae 01 67 28 a7
       -4.619356e-11 -3.5456738e-11 -5.4760467e-11 -2.3370522e-15
0002f0 89 eb 4f ae 4e a9 90 ad bc 5a 15 ae 61 c0 f4 11
       -4.7275548e-11 -1.6446091e-11 -3.3959266e-11 3.8614975e-28
000300 34 dc ab ac 41 7d e7 a9 ab 26 51 ac ff 5c 11 ab
       -4.8845598e-12 -1.0280189e-13 -2.9722151e-12 -5.1643406e-13
000310 31 4d 6b a7 d0 d2 08 11 9b f3 4e aa ee 7f 51 ac
       -3.2654647e-15 1.079347e-28 -1.8380993e-13 -2.9771702e-12
000320 bc 65 35 ab aa 1f 91 ad 32 e6 18 ac a8 1f 45 aa
       -6.44453e-13 -1.6498653e-11 -2.1728283e-12 -1.7508098e-13
000330 6d f7 88 a6 55 63 78 92 76 6d be 14 9a 05 25 a5
       -9.503961e-16 -7.837744e-28 1.9228272e-26 -1.4313367e-16
000340 63 cc 37 ae cf 38 26 a2 78 a3 9b ae 17 e1 22 aa
       -4.1790914e-11 -2.252727e-18 -7.077622e-11 -1.4466584e-13
000350 df 44 61 aa 4e 09 f0 a7 00 4c ca aa 87 3c 63 ac
       -2.0007909e-13 -6.662347e-15 -3.5935144e-13 -3.229224e-12
000360 02 ff 35 a7 ef 90 e5 91 81 0c 5e ac ad 9f a0 91
       -2.5257036e-15 -3.6219152e-28 -3.1555039e-12 -2.5341957e-28
000370 4b c9 9a 92 28 51 0a 16 02 a1 0f 33 23 99 aa b8
       -9.768389e-28 1.117316e-25 3.3441218e-08 -8.1347556e-05
000380 28 0f 94 2f fa 28 8e 37 d6 34 8b b1 9b d3 61 ac
       2.6931812e-10 1.69468e-05 -4.051439e-09 -3.2091888e-12
000390 00 d7 71 0c d0 c9 4d b7 d4 86 d3 b1 b1 ba b7 ac
       1.8630664e-31 -1.226594e-05 -6.1562364e-09 -5.2218997e-12
0003a0 a4 01 3e b4 3a a2 2d 0e b9 5a 0b b7 1f 53 e6 b1
       -1.7695726e-07 2.1402006e-30 -8.306169e-06 -6.703331e-09
0003b0 d9 88 b2 8e 50 7e ef b7 2a 54 ea b7 e4 30 ce a8
       -4.4012167e-30 -2.8549839e-05 -2.7934166e-05 -2.2891797e-14
0003c0 1f 4f 7c b3 19 eb cc b1 2e 1b 8a b8 c6 67 da b0
       -5.8745282e-08 -5.963909e-09 -6.5854154e-05 -1.5891082e-09
0003d0 6f 16 b6 a9 0d 66 2a a6 c9 d0 4a 8b dc 63 96 b2
       -8.086315e-14 -5.9118903e-16 -3.9060857e-32 -1.7507709e-08
0003e0 0c a1 db b3 d7 e3 85 b8 9c d1 82 b8 2c 00 91 a9
       -1.02272764e-07 -6.384373e-05 -6.237926e-05 -6.4393234e-14
0003f0 db bd c2 b0 97 27 ed b0 40 f4 b1 af 37 0a 61 a9
       -1.4169318e-09 -1.7255272e-09 -3.2369663e-10 -4.9968896e-14

fc1.bias f4 [64]
000000 61 01 40 95 72 62 84 ab 57 cc d9 a7 99 36 f1 13
       -3.877518e-26 -9.406488e-13 -6.0451145e-15 6.089079e-27
000010 35 c0 25 a9 70 78 2c 28 43 00 00 80 f6 51 be b0
       -3.6804073e-14 9.574034e-15 -9.4e-44 -1.3847614e-09
000020 fd 02 00 00 f5 ff 61 b4 ae 97 fa 89 27 5a 70 a6
       1.072e-42 -2.1047875e-07 -6.032795e-33 -8.3388906e-16
000030 69 20 0b a7 01 70 35 b6 13 04 9c 1a d0 13 62 29
       -1.9307695e-15 -2.7036297e-06 6.452667e-23 5.0199265e-14
000040 ff cd 08 ab b1 80 8e aa 9e 04 00 00 85 be 01 81
       -4.8602783e-13 -2.5313565e-13 1.656e-42 -2.383025e-38
000050 3a e9 80 a8 f7 30 f6 a7 2f 10 36 aa 71 02 00 80
       -1.4312e-14 -6.8331804e-15 -1.6170462e-13 -8.76e-43
000060 f2 fd b4 af 82 51 68 ad 77 03 00 80 0e 9f 7e ad
       -3.2922248e-10 -1.32057715e-11 -1.243e-42 -1.4473546e-11
000070 dd bd fe ae af 98 cf 09 25 6f a6 9c bb 6d 9b af
       -1.1584309e-10 4.997702e-33 -1.1013689e-21 -2.8272304e-10
000080 84 ba dd a9 5a 90 84 2a 36 38 b5 2a 78 bb e8 ac
       -9.846727e-14 2.3548074e-13 3.2191063e-13 -6.61465e-12
000090 60 25 70 a9 ed 09 83 a4 67 d4 76 a7 b6 ea 15 a5
       -5.3323123e-14 -5.682901e-17 -3.4254502e-15 -1.3003213e-16
0000a0 10 95 77 0e cf 1d 82 8a 83 22 0d aa 1f 6f 92 b9
       3.0516872e-30 -1.2529757e-32 -1.253529e-13 -0.00027930082
0000b0 37 29 aa aa e2 ce 8f a5 a2 59 a4 b0 d6 d6 a0 23
       -3.0226665e-13 -2.4946735e-16 -1.1958046e-09 1.7438221e-17
0000c0 e0 08 5b b0 1d 1d d4 0a a0 a7 99 97 75 82 08 a9
       -7.968435e-10 2.0425809e-32 -9.929708e-25 -3.031122e-14
0000d0 f0 53 65 81 5c 3d 5f a3 96 07 00 80 21 c4 0b 99
       -4.212088e-38 -1.21018476e-17 -2.721e-42 -7.2257395e-24
0000e0 2e 0d c9 a6 66 85 d9 2d d2 45 81 a5 12 2f 13 ac
       -1.3950749e-15 2.4729285e-11 -2.2425245e-16 -2.0916086e-12
0000f0 51 95 f4 08 82 4f 28 0c 10 2f 9c 97 41 bb ce af
       1.472032e-33 1.2966175e-31 -1.0093144e-24 -3.7604234e-10

fc2.weight f4 [64, 64]
000000 1c 08 ad 2d c4 69 1b af ee d9 c8 9d 5d 0d 47 33
       1.9671424e-11 -1.4134743e-10 -5.3164893e-21 4.6345452e-08
000010 6c 06 00 80 77 02 00 80 12 f5 e0 2f fb 10 00 00
       -2.304e-42 -8.84e-43 4.0919496e-10 6.091e-42
000020 11 0c 00 80 e9 0a 00 00 2a 0c 00 80 d7 01 00 00
       -4.329e-42 3.914e-42 -4.364e-42 6.6e-43
000030 de 02 00 80 28 ce 00 00 c7 69 cf ab f9 0c 00 00
       -1.029e-42 7.3955e-41 -1.4737594e-12 4.654e-42
000040 e9 01 00 00 f9 01 f4 36 51 ce ab 3a 43 14 00 80
       6.85e-43 7.2719963e-06 0.0013107752 -7.269e-42
000050 cb 01 00 80 b3 0c 00 00 8c 11 3d 24 48 19 03 b9
       -6.43e-43 4.556e-42 4.0997705e-17 -0.00012502552
000060 c2 81 d0 33 c2 03 f3 ad ee 00 d8 b3 54 27 25 b3
       9.7093576e-08 -2.762757e-11 -1.0058453e-07 -3.8452825e-08
000070 64 7a 1d 34 90 ba dd 31 f9 10 00 80 6f 08 00 80
       1.466629e-07 6.4531562e-09 -6.089e-42 -3.025e-42
000080 72 01 00 80 f1 02 00 80 f4 4b a5 38 22 03 00 00
       -5.18e-43 -1.055e-42 7.8819605e-05 1.124e-42
000090 0c 65 3e 31 cc 24 cc 34 c6 3d 25 29 df a2 08 39
       2.7706077e-09 3.8024734e-07 3.669094e-14 0.00013030645
0000a0 76 06 00 80 b5 0a 09 bb 52 04 00 00 d5 76 78 39
       -2.318e-42 -0.0020910923 1.55e-42 0.00023695391
0000b0 95 01 00 00 16 89 df af b0 7a 4d b5 42 10 00 00
       5.68e-43 -4.066087e-10 -7.6546985e-07 5.832e-42
0000c0 7b 91 89 b2 fe 75 ed ac 1b 0c 00 80 64 d6 46 33
       -1.6015056e-08 -6.749045e-12 -4.343e-42 4.6295455e-08
0000d0 a4 05 00 00 68 d3 4d 1b 82 78 78 3a fa 05 00 80
       2.023e-42 1.7025512e-22 0.0009478406 -2.144e-42
0000e0 60 67 00 00 8f ce 0b 2c 76 a0 02 2f ae 0f 3e ac
       3.7084e-41 1.9867751e-12 1.1880438e-10 -2.7009328e-12
0000f0 7a 0c 00 80 9a 5f 4f 37 5c 14 00 00 66 11 00 00
       -4.476e-42 1.236042e-05 7.304e-42 6.241e-42
000100 88 bd 00 37 10 05 00 80 94 34 38 b1 c2 0e 82 36
       7.673523e-06 -1.816e-42 -2.6805411e-09 3.87602e-06
000110 e5 08 00 80 89 fe 19 b9 72 0b 00 80 a9 03 00 80
       -3.191e-42 -0.00014686039 -4.106e-42 -1.313e-42
000120 f4 e2 fa 98 32 09 60 b3 98 0f 00 00 49 07 00 80
       -6.485265e-24 -5.2162427e-08 5.594e-42 -2.613e-42
000130 34 1f c1 25 d0 7f 32 a7 f8 81 00 00 e6 32 21 35
       3.3501307e-16 -2.477175e-15 4.6624e-41 6.005124e-07
000140 40 ca 06 00 70 08 00 80 ea 05 00 80 a3 2b 00 00
       6.23567e-40 -3.027e-42 -2.122e-42 1.5654e-41
000150 2c 03 00 80 01 08 00 80 98 38 01 80 b5 09 00 00
       -1.138e-42 -2.871e-42 -1.12138e-40 3.482e-42
000160 f3 01 00 00 84 84 b3 b5 de 5e 9b 30 28 0d 00 80
       6.99e-43 -1.3375106e-06 1.1304697e-09 -4.72e-42
000170 59 06 00 00 36 06 00 00 41 e0 00 80 50 d6 df 38
       2.277e-42 2.228e-42 -8.0447e-41 0.000106733874
000180 6d 20 01 00 40 23 02 b7 e8 9a 6a a6 f1 01 00 00
       1.03468e-40 -7.756811e-06 -8.1394996e-16 6.96e-43
000190 7b 00 00 80 66 7a 81 9e 38 0e 00 80 02 58 f3 a3
       -1.72e-43 -1.3709029e-20 -5.101e-42 -2.6383386e-17
0001a0 8a ca 17 ae a3 a1 8f 3b 51 9c 07 00 cc 3c 65 31
       -3.4513316e-11 0.0043832823 6.98924e-40 3.3358445e-09
0001b0 c8 b1 23 b5 44 6e b2 35 4f 08 00 80 54 44 e9 2f
       -6.098094e-07 1.3294125e-06 -2.98e-42 4.2431003e-10
0001c0 78 50 00 80 f0 06 00 00 18 07 00 00 5c 01 00 00
       -2.8867e-41 2.489e-42 2.545e-42 4.88e-43
0001d0 e1 08 00 00 08 a4 cc 26 e4 05 00 00 bc 0f 00 80
       3.185e-42 1.4199804e-15 2.113e-42 -5.644e-42
0001e0 34 27 56 b6 ec 03 00 00 b3 01 00 00 65 12 01 00
       -3.1911304e-06 1.407e-42 6.1e-43 9.8434e-41
0001f0 3a 11 00 80 21 0d 00 00 a5 01 00 80 46 0c 00 80
       -6.18e-42 4.71e-42 -5.9e-43 -4.403e-42
000200 0c 2f 0b af 70 03 00 80 a6 0d 00 80 11 07 00 80
       -1.2658691e-10 -1.233e-42 -4.896e-42 -2.535e-42
000210 db 04 9e 80 18 02 00 80 a7 04 00 80 5f 06 00 80
       -1.451175e-38 -7.51e-43 -1.669e-42 -2.286e-42
000220 6e 03 00 80 26 0f 00 00 5b 0d 00 80 5e c6 84 32
       -1.23e-42 5.434e-42 -4.791e-42 1.545703e-08
000230 d2 04 00 00 ad 02 00 00 88 3f e4 ad c0 43 1e 37
       1.729e-42 9.6e-43 -2.5948813e-11 9.433308e-06
000240 2f 05 00 80 ce 0f 00 80 f3 14 00 00 8b aa 00 80
       -1.86e-42 -5.67e-42 7.515e-42 -6.1179e-41
000250 04 11 00 80 94 d5 02 00 4b 07 00 80 83 1c 1b 99
       -6.104e-42 2.60288e-40 -2.616e-42 -8.01907e-24
000260 e3 0b 00 80 d2 01 00 00 3c 7b b8 aa eb 0a 00 80
       -4.264e-42 6.53e-43 -3.2770477e-13 -3.917e-42
000270 48 0a ef b0 2b 13 00 00 1e 00 00 80 98 11 00 00
       -1.7392461e-09 6.876e-42 -4.2e-44 6.311e-42
000280 9c 55 06 b5 11 01 00 00 4d 0a 00 80 62 9e 04 90
       -5.004347e-07 3.83e-43 -3.695e-42 -2.6154424e-29
000290 2c f2 7a b6 77 64 44 be 88 00 00 80 61 02 00 80
       -3.7393866e-06 -0.1917895 -1.9e-43 -8.53e-43
0002a0 83 10 00 80 9c 04 00 80 ab 01 00 00 42 03 00 80
       -5.923e-42 -1.654e-42 5.98e-43 -1.169e-42
0002b0 10 e1 2a b7 06 00 00 80 c2 13 00 00 bc 90 ea b2
       -1.0185191e-05 -8e-45 7.088e-42 -2.7307003e-08
0002c0 33 00 00 80 65 05 00 00 0b 08 00 80 ab 05 00 80
       -7.1e-44 1.935e-42 -2.885e-42 -2.033e-42
0002d0 d3 6b 00 00 78 01 00 00 b1 04 00 80 d4 49 2c b7
       3.868e-41 5.27e-43 -1.683e-42 -1.0269188e-05
0002e0 64 0c 00 00 08 77 e1 b1 09 09 00 80 a7 0b 00 80
       4.445e-42 -6.561894e-09 -3.241e-42 -4.18e-42
0002f0 f3 02 00 00 b3 07 34 ae ab 20 00 00 e6 2e 00 00
       1.058e-42 -4.09341e-11 1.1719e-41 1.6824e-41
000300 dc 01 00 00 ed 05 00 80 a8 00 00 00 92 09 00 00
       6.67e-43 -2.126e-42 2.35e-43 3.433e-42
000310 94 0f b8 99 21 03 00 80 50 d2 a4 31 63 05 00 80
       -1.9031446e-23 -1.122e-42 4.796938e-09 -1.932e-42
000320 d0 ea 5d b0 e5 f2 66 a8 f6 d9 e8 32 11 98 00 00
       -8.073302e-10 -1.2820234e-14 2.7107472e-08 5.4551e-41
000330 01 8e 17 36 00 7f f4 ad 9a 07 00 80 42 ad 01 27
       2.258341e-06 -2.7795988e-11 -2.727e-42 1.799627e-15
000340 d7 02 00 00 9e c1 6c 39 94 08 00 00 8b 13 00 00
       1.019e-42 0.00022578842 3.077e-42 7.01e-42
000350 a5 06 00 80 40 f3 05 80 b2 11 00 00 d7 24 19 ae
       -2.384e-42 -5.46439e-40 6.348e-42 -3.4820893e-11
000360 1d dd d6 b4 fa 76 b9 ab ae 52 00 80 91 78 15 38
       -4.0021487e-07 -1.3178063e-12 -2.966e-41 3.5636655e-05
000370 1b 0d 00 80 d6 a8 97 b2 92 42 03 80 f6 11 00 80
       -4.701e-42 -1.7655491e-08 -2.99387e-40 -6.443e-42
000380 ae 7f a8 05 b5 64 00 00 1b 07 00 00 6c a4 00 b2
       1.5845546e-35 3.6127e-41 2.549e-42 -7.487966e-09
000390 f8 ff 1e b5 a7 0f 00 80 f6 04 00 80 cc 1d 04 00
       -5.923207e-07 -5.615e-42 -1.78e-42 3.78031e-40
0003a0 ac 0f 00 00 98 1c 18 29 49 04 00 00 1a 69 dd 3b
       5.622e-42 3.377558e-14 1.537e-42 0.006756914
0003b0 3c 0e 00 80 ac 0d 2b a0 e6 10 00 00 80 87 01 00
       -5.106e-42 -1.4488787e-19 6.062e-42 1.40444e-40
0003c0 c0 6c 00 00 2e 94 06 39 f3 d4 04 00 70 bc 00 00
       3.9012e-41 0.00012834437 4.43734e-40 6.7599e-41
0003d0 47 16 01 80 22 01 00 80 60 ec 39 b8 23 03 00 80
       -9.9827e-41 -4.06e-43 -4.432758e-05 -1.125e-42
0003e0 04 86 b5 ae b3 12 00 00 9c 84 9f af 50 0f 00 00
       -8.254733e-11 6.708e-42 -2.9016156e-10 5.493e-42
0003f0 de 34 00 80 cf 8c 1d 00 89 c4 b7 2f 4e 9d 00 00
       -1.8965e-41 2.713742e-39 3.3427153e-10 5.643e-41

fc2.bias f4 [64]
000000 25 ef e2 b1 b0 00 9f b6 2a 7a 39 b9 f4 9a 9c bb
       -6.6046533e-09 -4.7386493e-06 -0.00017688485 -0.004779214
000010 5d 5c d0 b8 be 48 e8 bb 60 c7 85 bb 2e e1 09 b8
       -9.935417e-05 -0.0070887497 -0.0040826052 -3.287306e-05
000020 4c 63 c4 b4 e7 e5 e7 ba 76 5e c6 b2 0e 3d 8c b5
       -3.6580093e-07 -0.0017692418 -2.309319e-08 -1.0448582e-06
000030 41 75 a0 b8 72 45 5e b4 73 79 7e b3 da 35 6d ba
       -7.651235e-05 -2.0700625e-07 -5.924944e-08 -0.0009048857
000040 1b ca 35 b6 c3 32 b0 b3 33 b5 76 b9 37 44 0d bb
       -2.7088743e-06 -8.204872e-08 -0.0002352789 -0.0021555552
000050 f0 6c 00 b6 66 ca 1d b8 65 0f c5 ac df 59 fd ad
       -1.9136896e-06 -3.7620215e-05 -5.600786e-12 -2.880268e-11
000060 b2 a3 f8 af 35 d5 94 b7 e1 80 1b b8 c1 cc a0 af
       -4.522725e-10 -1.7742257e-05 -3.7074908e-05 -2.9249317e-10
000070 d9 9a f8 ba c0 21 2d b3 85 2f 37 b6 72 ee b0 ac
       -0.0018967047 -4.0310397e-08 -2.7296785e-06 -5.0286936e-12
000080 e8 25 df b8 55 24 24 b6 e3 e4 ac bb 65 81 ed b9
       -0.00010640529 -2.4459052e-06 -0.005276309 -0.0004530057
000090 a2 a9 a0 b1 7e af 62 b7 ce 4e 21 b6 57 8b 08 b4
       -4.675898e-09 -1.351151e-05 -2.403674e-06 -1.2716679e-07
0000a0 47 aa 03 b5 40 36 7b b9 d6 d2 58 ba 8b 49 07 b6
       -4.904909e-07 -0.00023957435 -0.0008271163 -2.0159375e-06
0000b0 22 a9 3e b4 09 a6 9d 37 54 ff bc b4 ec 46 7c bb
       -1.7756659e-07 1.8793175e-05 -3.5203504e-07 -0.0038494421
0000c0 1c ec 62 b6 7f f0 d2 3c a6 83 b0 b1 9e f9 d3 b9
       -3.3814058e-06 0.025749443 -5.137241e-09 -0.00040431035
0000d0 64 61 a1 b4 23 16 5f bc 35 39 ba bb 85 fc a6 ba
       -3.0059448e-07 -0.013616118 -0.005683089 -0.0012740052
0000e0 b2 23 4c b6 99 48 8e b9 ef 52 5a b3 93 5b b0 b9
       -3.0419146e-06 -0.0002713844 -5.0832508e-08 -0.00033637564
0000f0 7e 6a 03 b4 e8 ed 13 32 16 93 2d b9 3c 0e d6 b2
       -1.2239067e-07 8.61062e-09 -0.0001655336 -2.4919352e-08

fc3.weight f4 [4, 64]
000000 3c 42 49 b3 f9 2d a6 b4 20 45 2b be d3 a5 f7 3c
       -4.68592e-08 -3.095336e-07 -0.16725588 0.030230438
000010 43 c4 ef b8 a1 e3 10 be 8e c1 c4 bb bf 2e 08 b9
       -0.00011432965 -0.14149334 -0.006004519 -0.00012987385
000020 90 32 71 b5 fa 7b 7e 37 e0 33 4a 3a b8 56 4b b5
       -8.9853074e-07 1.5168445e-05 0.00077134185 -7.5749585e-07
000030 57 4b 12 b8 1b 73 e6 ae c6 b6 f6 ba c5 ee dd bb
       -3.487928e-05 -1.0479636e-10 -0.0018822781 -0.0067728483
000040 97 23 39 39 23 38 e8 b6 bf a4 0b 3d 52 7a 40 bd
       0.00017656233 -6.920674e-06 0.03409266 -0.046991654
000050 90 06 24 3b a3 cd 07 39 86 b6 ad 29 0d 1d b1 b4
       0.0025028326 0.00012951209 7.714406e-14 -3.2989956e-07
000060 6c e9 96 a8 88 2f 43 39 7a d3 94 b1 75 6e db 39
       -1.6754576e-14 0.00018614356 -4.331409e-09 0.00041853232
000070 84 82 94 38 6c ed 61 a5 4c dc 29 b6 f2 5d 1f b6
       7.0815004e-05 -1.9596081e-16 -2.5311192e-06 -2.374753e-06
000080 13 51 7c 38 a9 17 ce 3a a4 5a 55 bc b1 2d 13 bc
       6.015699e-05 0.0015723604 -0.013022099 -0.008983062
000090 ef 10 65 a8 07 d4 4a bc f5 3d 80 39 c1 83 03 39
       -1.27157255e-14 -0.012379653 0.00024460224 0.00012542216
0000a0 79 fd e5 3b 61 1b d5 bc e4 b2 93 ba c4 13 c2 2f
       0.0070187417 -0.026014032 -0.0011268524 3.530244e-10
0000b0 36 13 e7 ba d9 a8 23 b7 c5 79 ac b7 fa bb b4 b9
       -0.0017629627 -9.75487e-06 -2.0560701e-05 -0.0003447233
0000c0 a6 0e a0 b1 75 75 4b bb 79 3d 18 b9 ee 23 cb bb
       -4.658278e-09 -0.0031045352 -0.0001451875 -0.0061993515
0000d0 f9 1d 85 a9 72 18 d5 bd c5 e0 6c 3b a0 d1 bd bd
       -5.911586e-14 -0.10405053 0.0036144715 -0.092684984
0000e0 7b 09 66 a9 38 45 29 a8 7f 23 3b 3b 8a d7 08 3d
       -5.1078482e-14 -9.396394e-15 0.0028555093 0.03340868
0000f0 70 67 05 37 aa 62 e9 b1 3d 61 ed b6 49 1e 2d ba
       7.951501e-06 -6.7924093e-09 -7.0744704e-06 -0.0006603939
000100 68 14 1d b2 74 4e 61 ba 08 5e 60 3d 1c 89 9c bc
       -9.143243e-09 -0.0008594759 0.054777175 -0.019108348
000110 68 e1 af 39 42 fd 6a bd 5c 53 14 be db f0 ea b5
       0.00033546542 -0.05737043 -0.14484924 -1.7504457e-06
000120 14 9e 6c 36 c3 d8 3c 39 14 55 dc b8 66 6e 84 36
       3.5258754e-06 0.00018009827 -0.000105062645 3.9467586e-06
000130 be 73 f7 b8 2e 7f 27 b6 a3 07 0c 3d 83 22 66 bb
       -0.000117994365 -2.4958968e-06 0.03418697 -0.0035115785
000140 72 8d d7 ba 87 5b d6 b7 e6 11 51 bd 25 23 09 b7
       -0.0016445352 -2.5553409e-05 -0.05104246 -8.174019e-06
000150 c5 16 89 3a 08 a2 9e 3a df 74 7f 29 8d 25 fc b1
       0.0010459056 0.0012102732 5.6722744e-14 -7.3384343e-09
000160 15 c7 8a 2e 41 aa 11 3a 14 03 f7 33 fb 11 33 b9
       6.3108775e-11 0.0005556681 1.1502394e-07 -0.00017077469
000170 db b2 0a bb 40 a3 3c ab 77 f0 38 b4 2a 5c 6d 27
       -0.0021163735 -6.701757e-13 -1.7223816e-07 3.294032e-15
000180 ff 69 71 38 2d 7d 7e b8 09 a8 15 3c 6d ea 01 3c
       5.7557594e-05 -6.0674898e-05 0.009134301 0.007929427
000190 4b 85 af a8 8f 58 cf bc 81 64 61 a9 3b 69 22 35
       -1.948671e-14 -0.025310783 -5.004721e-14 6.0502833e-07
0001a0 b6 7e ca b9 56 1e 16 bb d1 86 9f 3b c4 58 be ad
       -0.0003862285 -0.0022906265 0.0048683663 -2.1639919e-11
0001b0 90 f6 46 b9 e7 4a 97 b7 b0 cf 76 39 b6 10 ad ba
       -0.00018974603 -1.8035482e-05 0.00023537758 -0.0013203833
0001c0 d7 72 be af c4 f0 ef bb 58 3a 0d b8 25 49 a6 3a
       -3.4642397e-10 -0.0073224027 -3.3671357e-05 0.0012686594
0001d0 12 ac 50 b5 50 51 34 bb 7e 10 8d bb 66 79 cc bd
       -7.7736433e-07 -0.0027514286 -0.0043049445 -0.099840924
0001e0 dd 53 cc b5 58 5a f9 31 75 11 80 b9 85 ac db bc
       -1.5223592e-06 7.2571247e-09 -0.0002442707 -0.026815662
0001f0 ef 71 b6 2b 7f 0b 38 33 a1 71 02 35 26 4f 1a 36
       1.2963501e-12 4.2851294e-08 4.8594126e-07 2.2993859e-06
000200 34 2f 29 b1 f9 d0 23 3c d4 c3 a3 bd 2c 8d 9d b9
       -2.4619569e-09 0.009998553 -0.079963356 -0.00030050555
000210 2e 20 54 ba 55 41 eb bd ba 5c 21 3d 0e c5 c9 38
       -0.00080919534 -0.114870705 0.03939507 9.621131e-05
000220 bd 64 f4 32 9a c5 c7 b5 bb 07 f5 39 53 57 7c b4
       2.8451149e-08 -1.4884165e-06 0.000467358 -2.3501097e-07
000230 c0 97 8a 3a 16 6e 55 b8 0b 08 ab ba 2e 66 9e bb
       0.001057379 -5.0885683e-05 -0.0013048662 -0.004833958
000240 cc 13 9c 3a 15 f3 44 37 55 16 0b bb 1d f1 da 3c
       0.0011907755 1.1739107e-05 -0.0021223028 0.0267263
000250 58 8a a7 bb 11 f9 56 3b 3d 1a 49 a9 70 7d c0 b0
       -0.0051129274 0.0032802264 -4.4653724e-14 -1.400549e-09
000260 17 96 83 30 93 86 44 3b 6b ea b6 b6 fc ab 6e b7
       9.574163e-10 0.002998744 -5.4513125e-06 -1.4225949e-05
000270 86 6b e7 b7 27 c1 89 28 f8 85 dc b4 88 e7 4e b7
       -2.7587415e-05 1.5293822e-14 -4.1075668e-07 -1.2332464e-05
000280 a1 5d 83 b8 63 07 d9 3a 3d 49 e0 bc 91 80 a1 b8
       -6.2640065e-05 0.0016557988 -0.027378673 -7.7010256e-05
000290 07 1e 19 30 df 58 62 b6 31 7b 9f b7 86 87 8f 37
       5.5703747e-10 -3.3728354e-06 -1.9011643e-05 1.7110036e-05
0002a0 41 0a f0 b1 d1 fb 1f bb 3d dc 71 b2 b8 6e b1 a8
       -6.986085e-09 -0.002441157 -1.4078123e-08 -1.9698964e-14
0002b0 05 3c 1d 3c dd 7b 02 37 bf 48 e3 b7 99 d9 01 3b
       0.009596829 7.777443e-06 -2.7094384e-05 0.0019813536
0002c0 64 29 cc b1 88 e1 07 3c 16 6e ca b7 6a ef 9c b9
       -5.941887e-09 0.008293517 -2.413154e-05 -0.00029933016
0002d0 73 72 ee b5 9a 8b a2 bd e8 28 92 ba b2 8d 39 b6
       -1.7765691e-06 -0.07936783 -0.0011151107 -2.7649626e-06
0002e0 da a8 0c b2 3b 48 87 b2 72 75 a5 b8 6b 90 90 bb
       -8.187465e-09 -1.5748915e-08 -7.889689e-05 -0.004411747
0002f0 1b 17 a2 b8 bf 55 ae b0 d4 49 34 39 3b 4a 44 2f
       -7.729066e-05 -1.2684537e-09 0.00017193641 1.7852468e-10
000300 51 9a 41 35 1e ae 03 bb 5d 01 39 3d a9 dc d6 bb
       7.212266e-07 -0.0020092796 0.045167316 -0.0065570665
000310 2f db 91 3b 3c b6 9a bc a7 a6 e8 3d dc 93 14 38
       0.0044511775 -0.018885724 0.113599114 3.5423654e-05
000320 39 d6 54 ae 80 2d 42 b9 56 90 74 3a e6 7a bc 34
       -4.8393487e-11 -0.00018518232 0.0009329369 3.510715e-07
000330 6b 3e a0 bb 8c 66 e6 39 9c 3f c8 bc 1b 3a de 3c
       -0.0048902533 0.00043945422 -0.024444394 0.027127316
000340 77 f3 af 3a 56 8e 22 b9 f6 56 04 bb c5 f2 53 3d
       0.0013423999 -0.00015502548 -0.0020193434 0.051745195
000350 ee 80 d7 bb b6 07 72 ba 2b 7f aa aa 09 15 4a 31
       -0.006576649 -0.00092327164 -3.0286307e-13 2.9406826e-09
000360 46 37 93 30 92 f6 43 bb 7f d5 d4 b6 6a 5a 90 b1
       1.0711367e-09 -0.0029901606 -6.3429466e-06 -4.2012305e-09
000370 64 30 0f 3c cd a8 09 b5 6b 24 00 36 66 23 e0 b7
       0.008739565 -5.1282115e-07 1.9094684e-06 -2.6719365e-05
000380 55 04 80 b8 64 0a 00 bb 9c 27 4e 3d 31 30 a9 bc
       -6.1043225e-05 -0.0019537443 0.050330743 -0.020652862
000390 14 4b 9f b0 19 63 0d bc 5f 53 bb b8 c3 fc ff b8
       -1.1590111e-09 -0.008629584 -8.932384e-05 -0.00012206428
0003a0 37 b9 16 bb b2 14 3e bc c5 1d ab bb dd 09 1c ab
       -0.002299858 -0.011601614 -0.0052220547 -5.543602e-13
0003b0 00 bf 14 ba 4a da 9d 37 a0 e9 06 3a 62 2b 8d 3c
       -0.0005674213 1.8817507e-05 0.0005146507 0.0172326
0003c0 5b 13 cd 32 2d ef 43 3b 11 9c 0f 3a 81 22 78 b5
       2.3873943e-08 0.0029897199 0.0005478273 -9.243741e-07
0003d0 4c 48 b7 b5 04 db 7f bd f7 ae 98 3a 86 92 d5 3d
       -1.3655604e-06 -0.06246473 0.0011648823 0.10428338
0003e0 52 9c 6c 3a 69 db f9 36 c8 8f 8e ba 13 a9 2a bc
       0.0009025979 7.446321e-06 -0.001087659 -0.010416287
0003f0 07 40 e3 38 1c fe 42 b1 37 e5 aa b7 75 44 b8 3a
       0.000108361295 -2.837516e-09 -2.0372316e-05 0.0014058488

fc3.bias f4 [4]
000000 ce 2e 97 be 22 aa 42 3e fc 7d 61 be 94 e3 98 3e
       -0.29527897 0.19010213 -0.22020715 0.29861128
