MBTI/ANN/Model/lr=0.001 3HL hd_size = 64/best_model.pth (torch, 37871 bytes, 6 tensors)

fc1.weight f4 [64, 57]
0	0xbd864225	-0.06555585
1	0xbdc2ba48	-0.095081866
2	0xbe5289d2	-0.20560387
3	0xbe54d950	-0.20786023
4	0x3e761fa8	0.24035513
5	0x3e2d8482	0.16945079
6	0xbd822fe8	-0.06356794
7	0x3dccf6b7	0.100079946
8	0xbe97bb17	-0.29634926
9	0x3d708ef2	0.058730073
10	0xbce57ac2	-0.028012637
11	0x3d4c2363	0.049838435
12	0x3e007667	0.12545167
13	0x3d473770	0.048636854
14	0x3e34238b	0.17591684
15	0x3e136a26	0.14395961
16	0xbe8179c3	-0.2528821
17	0xbe927887	-0.2860758
18	0xbe136348	-0.14393342
19	0xbd75e1d4	-0.06002982
20	0x3c396c31	0.011317299
21	0xbe4cfec4	-0.2001906
22	0xbe2fd2ea	-0.17170301
23	0xbd8d965c	-0.069134444
24	0xbe698950	-0.22806287
25	0xbe1ae6ec	-0.15127152
26	0x3be1fb59	0.006896418
27	0xbdcc8fa8	-0.09988338
28	0xbdf20c29	-0.118187256
29	0xbdb5c5d6	-0.08875625
30	0xbc33e572	-0.010979997
31	0xbe20d771	-0.15707184
32	0x3c03bd09	0.008040675
33	0xbdaa314a	-0.083101824
34	0xbdcfb8ff	-0.10142707
35	0x3cbbdb26	0.022931647
36	0x3d932d67	0.07186394
37	0xbddd5c8c	-0.108086675
38	0xbe069ec4	-0.13146502
39	0xbd5748b3	-0.052559566
40	0xbd545371	-0.05183739
41	0xbbc08d5c	-0.0058762264
42	0x3d1c8d5c	0.03822075
43	0x3c2fa028	0.010719337
44	0x3c632dc5	0.013865893
45	0x3ce3d0ba	0.02780949
46	0xbd0394b7	-0.032124247
47	0xbde303a0	-0.11084676
48	0xbda2ae4e	-0.07943402
49	0xbc6798b4	-0.014135528
50	0x3d5f4241	0.054506544
51	0x3de2ceb5	0.110745825
52	0x3d4b1a25	0.04958548
53	0xbdb34e4a	-0.08755167
54	0x3d48b23b	0.0489981
55	0xbd3d5d35	-0.046231467
56	0x3cd0b8fe	0.025478836
57	0xbe2f7501	-0.17134477
58	0xbdfa7118	-0.12228602
59	0xbd60cd9c	-0.054883584
60	0xbd9d3eeb	-0.07678016
61	0xbd180d24	-0.037121907
62	0xbe303114	-0.17206222
63	0xbd4281b6	-0.047486983
64	0xbda291de	-0.07937978
65	0xbe6c89fc	-0.23099512
66	0x3c8743e0	0.016511858
67	0xbce35c14	-0.027753867
68	0xbd04c8bf	-0.03241801
69	0x3dd84a7b	0.10561081
70	0x3d4366d4	0.047705486
71	0xbdf2ee90	-0.118619084
72	0x3ca77954	0.020443596
73	0xbe1a533e	-0.15070817
74	0xbd4f8948	-0.05066803
75	0xbe601e60	-0.21886587
76	0xbe5eba4b	-0.21750753
77	0xbdbc506e	-0.09195028
78	0x3c48e886	0.012262469
79	0xbde0b0fc	-0.10971257
80	0xbc0e301f	-0.008678465
81	0xbd36d1c7	-0.044633653
82	0xbdec5032	-0.115387335
83	0xbc1a68d7	-0.00942441
84	0xbd36a665	-0.04459228
85	0xbc7a9ba6	-0.015295899
86	0x3d95ba40	0.07310915
87	0xbb8db126	-0.0043240963
88	0x3d2eca26	0.042673253
89	0xbe213a3b	-0.1574487
90	0xbe1658b6	-0.14682278
91	0xbd89c2cf	-0.0672661
92	0xbcdbd290	-0.026833802
93	0xbdc89009	-0.097930975
94	0x3c9bb9c8	0.019009486
95	0x3d7bada5	0.061444897
96	0x3cbf6ca6	0.023367237
97	0xbd0ae82d	-0.033912826
98	0xbe5a6ca8	-0.21330512
99	0x3e1dd6a6	0.15413913
100	0xbdbbeb3e	-0.09175728
101	0x3d6de816	0.058082663
102	0x3c8874b0	0.016657203
103	0xbd1f0eb7	-0.038832393
104	0x3dbc5b8a	0.09197147
105	0xbc3017df	-0.010747879
106	0x3e612835	0.21987994
107	0xbe13414a	-0.14380375
108	0x3dad89e6	0.08473568
109	0x3db8a2d7	0.09015434
110	0xbde4beb5	-0.11169187
111	0x3b182ac0	0.002321884
112	0x3da347e6	0.07972698
113	0x3dcb33ac	0.09921965
114	0xbd07f7fd	-0.033195484
115	0x3d555733	0.052085113
116	0xbe208435	-0.15675433
117	0xbe13943a	-0.14412013
118	0xbe0d9bf3	-0.13829021
119	0xbdbdec2d	-0.092735626
120	0xbe1cd0cb	-0.15314023
121	0xbe1f28a1	-0.15542842
122	0xbd985273	-0.07437601
123	0xbe613182	-0.21991542
124	0xbd82d6a7	-0.06388598
125	0xbd5c68e7	-0.05381098
126	0xbd855ec1	-0.065122135
127	0xbbf2c888	-0.007409159
128	0xbde80a4b	-0.11330088
129	0x3a324243	0.0006800035
130	0x3de61624	0.11234692
131	0x3d9f9458	0.07791966
132	0xbe29a6f7	-0.16567598
133	0xbe016430	-0.12635875
134	0xbcefad16	-0.029257338
135	0xbd87223f	-0.06598329
136	0x3d6ab6ff	0.057303425
137	0x3d7471f1	0.059678975
138	0xbc3fe9eb	-0.011713485
139	0xbc5f101b	-0.01361468
140	0xbe1e3874	-0.15451223
141	0xbdaf2400	-0.08551788
142	0x3c74012a	0.014892856
143	0x3d8fb237	0.07016414
144	0xbd4b7361	-0.04967058
145	0x3dda1c6f	0.106499545
146	0x3c300b14	0.010744829
147	0x3b494f44	0.0030717412
148	0xbd97d309	-0.07413299
149	0xbd0deb0e	-0.034647994
150	0xbdb25233	-0.087070845
151	0x3deef947	0.1166864
152	0xbe2cd14e	-0.16876718
153	0x3aac2779	0.0013134322
154	0x3d608075	0.054810006
155	0xbe1511b4	-0.14557534
156	0x3d0ebed7	0.034849968
157	0x3d3952a0	0.045244813
158	0xbc010e09	-0.007876881
159	0x3d647266	0.05577316
160	0x3e1e457b	0.15456192
161	0xbd00aaa2	-0.031412728
162	0xbd2f98a6	-0.042870186
163	0x3a05b6d8	0.0005100793
164	0x3d3e37c3	0.046439897
165	0xbe25aedf	-0.1617999
166	0xbe014464	-0.12623745
167	0x3c2629f0	0.010141835
168	0x3cd4a958	0.025959656
169	0x3dd6b1d4	0.10483137
170	0xbde72669	-0.11286623
171	0xbb9d2351	-0.00479547
172	0xbc856c72	-0.016287062
173	0xbe8daa74	-0.27669108
174	0xbe3a03c6	-0.18165502
175	0xbe7165cb	-0.23573987
176	0x3e82fbb0	0.25582647
177	0x3ea38d76	0.31943864
178	0xbef0c604	-0.47026074
179	0xbe0d988a	-0.1382772
180	0xbeb682b4	-0.35646594
181	0xbdb36d4e	-0.087610826
182	0x3c8aa771	0.016925545
183	0xbece0605	-0.40238968
184	0x3dae3f9e	0.08508228
185	0xbeadc760	-0.33941174
186	0x3e1cc469	0.153093
187	0x3dca94ff	0.098917
188	0x3e830d44	0.25596058
189	0xbde87224	-0.113498956
190	0x3e88d9fb	0.26728806
191	0x3d9c2587	0.07624345
192	0xbbcacced	-0.00618898
193	0xbe874e7f	-0.26427075
194	0xbddbb2e8	-0.10727483
195	0xbda17b1f	-0.078848116
196	0xbe54299d	-0.20718999
197	0xbe869bc1	-0.26290706
198	0xbe95d0c4	-0.29260838
199	0x3e893dfc	0.26805103
200	0xbdbcf536	-0.09226458
201	0xbd333f9a	-0.043761827
202	0xbe55fcde	-0.20897242
203	0xbe4f1a8d	-0.20224972
204	0xbeac4197	-0.3364379
205	0x3e150c05	0.14555366
206	0xbc00965c	-0.0078483485
207	0xbe8fad57	-0.28061935
208	0x3ea53c2c	0.3227247
209	0x3e923ca1	0.2856188
210	0xbe811b1f	-0.25216004
211	0xbde92450	-0.11383879
212	0x3e5fa623	0.2184072
213	0x3efbbddf	0.49168298
214	0xbce854fb	-0.028360834
215	0xbf063a50	-0.5243273
216	0x3e1a3cf2	0.15062311
217	0x3d54f162	0.051988013
218	0xbe96cf89	-0.29455212
219	0x3eca203b	0.39477715
220	0x3e037a8d	0.12839718
221	0xbda5c8c3	-0.08094933
222	0xbda3e043	-0.08001759
223	0x3dc25c3b	0.09490248
224	0xbd190872	-0.03736157
225	0x3ddd3cb2	0.10802592
226	0x3dbb723a	0.09152646
227	0x3dbcabe6	0.092124745
228	0x3a887627	0.0010411189
229	0xbd91781d	-0.07102988
230	0xbddccc34	-0.10781136
231	0x3c98a461	0.01863307
232	0x3d5883b0	0.052859962
233	0x3cf2927e	0.029610869
234	0xbcfcd72f	-0.030864326
235	0xbdf872a3	-0.1213124
236	0x3d9b340d	0.07578287
237	0xbdf92cf0	-0.12166774
238	0xbe5b551b	-0.21419184
239	0xbd8ef9b8	-0.06981224
240	0xbe22a1f1	-0.15882088
241	0x3c366a89	0.011133798
242	0xbdcac9c8	-0.09901768
243	0xbd132822	-0.035926946
244	0x3d95353a	0.07285543
245	0xbe448cec	-0.19194382
246	0xbd80eca8	-0.062951386
247	0xbc413352	-0.011792021
248	0xbe358943	-0.17728142
249	0x3c803c18	0.015653655
250	0xbbdd6166	-0.0067559956
251	0xbdde6d2e	-0.10860668
252	0xbcfd4a4e	-0.03091922
253	0xbd44e459	-0.04806933
254	0xbe48dcf6	-0.1961554
255	0xbd729958	-0.05922827

fc1.bias f4 [64]
0	0xbe41cd9a	-0.18926087
1	0xbd3e37da	-0.046439983
2	0xbd432e9a	-0.047651865
3	0xbd65a993	-0.05606992
4	0xbe0be046	-0.13659772
5	0xbd24c43f	-0.040226217
6	0xbe35830e	-0.17725775
7	0xbe31616d	-0.17322321
8	0xbae92cf2	-0.0017789884
9	0x3e02dc44	0.12779337
10	0xbcadb862	-0.021206085
11	0xbdb86931	-0.09004439
12	0xbd3fe63c	-0.046850428
13	0xbe1c23de	-0.15248057
14	0xbba41de1	-0.0050084447
15	0xbdd3a5dc	-0.103343695
16	0x3cc7d735	0.02439461
17	0xbd92376b	-0.071394764
18	0x3dba4b31	0.09096373
19	0xbe12ec32	-0.14347914
20	0xbd320b83	-0.04346801
21	0x3d7e833d	0.062136877
22	0x3d3359ba	0.04378674
23	0xbe9aef0f	-0.30260512
24	0xbe0db81c	-0.13839763
25	0x3e46217a	0.19348708
26	0xbddde4f3	-0.10834684
27	0xbe2b4232	-0.1672447
28	0xbdbce604	-0.092235595
29	0xbd2b789f	-0.04186308
30	0xbe3fbcb2	-0.18724325
31	0xbd63ede9	-0.05564681
32	0x3cdaf4d6	0.026728075
33	0xbe53dfc6	-0.20690832
34	0xbea22ed1	-0.31676343
35	0xbd9cc696	-0.07655065
36	0x3cffaff2	0.031211827
37	0xbdbaebe8	-0.09127027
38	0xbd0dff60	-0.034667373
39	0x3d46b383	0.04851104
40	0x3e890070	0.26758146
41	0x3e0f5deb	0.1400067
42	0xbda36612	-0.07978453
43	0xbdc8b7c4	-0.098006755
44	0x3b233efa	0.0024909363
45	0xbe311018	-0.17291296
46	0x3c019a62	0.007910343
47	0xbe221783	-0.15829282
48	0x3f1ccb50	0.6124773
49	0xbdce42ef	-0.1007136
50	0xc0079a01	-2.1187747
51	0x3d9c0688	0.07618433
52	0x3c87e145	0.01658691
53	0xbd8ccc1e	-0.0687487
54	0x3ce2937c	0.027658217
55	0xbe495516	-0.19661364
56	0xbd1a0f43	-0.03761221
57	0x3d8a8899	0.06764335
58	0xbe5b7f24	-0.21435219
59	0xbd9bdef3	-0.076108836
60	0xbd82b05b	-0.063812934
61	0x3e1ebd74	0.15501958
62	0x3b33a4fa	0.0027411566
63	0xbe45dff7	-0.19323717

fc2.weight f4 [64, 64]
0	0xbd9ccc94	-0.07656208
1	0xbdb62a13	-0.08894744
2	0x3d83ca73	0.064350985
3	0xbe472ce8	-0.19450724
4	0x3deba334	0.11505738
5	0xbdaaaff0	-0.08334339
6	0xbdacb133	-0.084322356
7	0xbcb4ab2b	-0.022054275
8	0x3c0d6643	0.008630338
9	0xbe2c4d4e	-0.16826364
10	0xbcfe9d79	-0.031080948
11	0xbeb11dde	-0.345931
12	0x3daa7990	0.083239675
13	0x3d160d8f	0.036634024
14	0xbc808c37	-0.01569186
15	0xbccf4ea7	-0.025306059
16	0xbd95a3ea	-0.07306655
17	0xbe187782	-0.14889339
18	0xbe02a778	-0.12759197
19	0x3dad17da	0.08451815
20	0xbe88eda0	-0.26743793
21	0x3d165b2d	0.036708046
22	0xbec08971	-0.3760486
23	0xbd954c08	-0.072898924
24	0x3d5c49d1	0.053781334
25	0x3e085460	0.13313437
26	0x3e725216	0.23664126
27	0x3df19274	0.11795512
28	0xbe52ccbc	-0.20585912
29	0x3bb3875b	0.005478782
30	0x3d83b1f8	0.06430429
31	0xbd8652d9	-0.06558771
32	0xbe2bee42	-0.16790107
33	0xbe603917	-0.21896778
34	0x3d300e1c	0.042982206
35	0xbcd7cf6d	-0.026344026
36	0xbe03c99d	-0.12869878
37	0xbedcb1e6	-0.43104476
38	0xbe2ae30f	-0.16688178
39	0xbeab6a78	-0.33479667
40	0xbe823268	-0.25429082
41	0x3d2be7ec	0.041969225
42	0x3cdf4d57	0.027258558
43	0x3decedfb	0.11568829
44	0xbdcd1298	-0.10013312
45	0x3c6f3855	0.014600833
46	0x3dce14b4	0.100625426
47	0x3d1f91c9	0.03895739
48	0xbde175ad	-0.11008773
49	0xbe4a68a5	-0.19766481
50	0xbd01d097	-0.031693067
51	0xbdedd00f	-0.1161195
52	0xbe8bbdf2	-0.27293354
53	0xbccdde34	-0.025130369
54	0xbdc26e21	-0.09493662
55	0xbc8df9e5	-0.017331073
56	0x3cedb6df	0.029017864
57	0xbd58253b	-0.05276988
58	0x3e7cd372	0.24690035
59	0x3c73bfc4	0.014877263
60	0xbdea340b	-0.11435708
61	0x3d5792f6	0.052630387
62	0xbe3f7ed0	-0.18700719
63	0xbdf6ec66	-0.12056808
64	0xbd18774a	-0.037223138
65	0x3d98b3d2	0.07456173
66	0x3d05f677	0.03270575
67	0x3ec53bf0	0.3852229
68	0x3dd809f7	0.10548776
69	0xbde1d897	-0.11027639
70	0xbdba5e80	-0.09100056
71	0xbcc46b2e	-0.023976889
72	0xbd023d5f	-0.03179681
73	0xbd932943	-0.071856044
74	0xbd00e6fa	-0.031470276
75	0xbe997984	-0.29975522
76	0xbdc40660	-0.095715284
77	0xbdb2e95a	-0.087359145
78	0x3e3f2691	0.18667056
79	0x3cf1892a	0.02948435
80	0xbd33f4c3	-0.043934595
81	0x3d3ec2ba	0.046572424
82	0xbe5d432c	-0.21607655
83	0xbd188f3c	-0.037245974
84	0x3ea22b0c	0.31673467
85	0xbe3a79ed	-0.18210573
86	0x3e5d77a6	0.21627674
87	0x3e06ec09	0.13175978
88	0x3ccc8e80	0.024970293
89	0x3ea9d48e	0.3316998
90	0x3c04e905	0.008112197
91	0xbdb9ffd2	-0.09081997
92	0xbdb567a1	-0.08857656
93	0xbd2268ab	-0.0396506
94	0xbd832d51	-0.06405128
95	0xbba04ec4	-0.004892202
96	0xbd4efb50	-0.05053264
97	0xbc911442	-0.017709855
98	0x3e4a8446	0.19777021
99	0x3db2ec19	0.08736438
100	0xbbc6cac6	-0.006066653
101	0x3e588f8c	0.21148509
102	0x3dbfaa46	0.09358649
103	0x3c1e0c19	0.009646439
104	0x3ea8724c	0.32899702
105	0x3db39e6f	0.08770453
106	0xbd796f0d	-0.060896922
107	0x3d9ad26d	0.07559667
108	0x3d7bc965	0.06147136
109	0x3dfcb955	0.12340037
110	0x3d644c54	0.055736855
111	0x3e54055f	0.20705174
112	0xbd4dd46b	-0.050251406
113	0x3d35a145	0.04434325
114	0xbe1eb3bb	-0.15498249
115	0xbe1b69d3	-0.15177087
116	0x3d30fc12	0.043209143
117	0x3df1b57f	0.11802196
118	0xbdabe983	-0.08394148
119	0xbd79805c	-0.06091343
120	0x3d5ba058	0.053619713
121	0xbc114e00	-0.008868694
122	0x3efc6601	0.49296573
123	0x3ce1e045	0.02757276
124	0xbc56d2cb	-0.01311178
125	0x3d443cf5	0.047909696
126	0x3d18c24c	0.03729467
127	0x3dc1ed82	0.09469129
128	0xbd9cdaac	-0.07658896
129	0x3e351d28	0.17686903
130	0x3de55612	0.11198057
131	0xbd04d600	-0.03243065
132	0x3ce0e031	0.027450653
133	0x3dea7846	0.114487216
134	0xbdb53f3f	-0.08849954
135	0x3df9e67b	0.12202164
136	0xbdfe4d26	-0.12417059
137	0x3e399b8f	0.18125747
138	0x3e80f771	0.25188783
139	0xbe844e9b	-0.2584122
140	0x3d35a4a6	0.044346474
141	0xbb617678	-0.0034402888
142	0x3be27581	0.00691098
143	0x3db1b0ae	0.08676277
144	0x3db592a9	0.08865864
145	0x3eba8992	0.36433083
146	0xbce3a1ba	-0.027787078
147	0xbd33a412	-0.04385764
148	0x3c006ef8	0.007838957
149	0x3e10ab5e	0.14127871
150	0xbe2f2f9f	-0.1710801
151	0x3e318537	0.17335974
152	0x3d65de40	0.056120157
153	0xbb066b43	-0.002051071
154	0xbe7b0853	-0.24514894
155	0xbc660848	-0.01404006
156	0xbe11cd66	-0.1423851
157	0x3da1d79b	0.079024516
158	0x3e04cb1d	0.12968107
159	0x3c1dc652	0.009629803
160	0x3ea00c4a	0.31259376
161	0xbd8a05d5	-0.067393936
162	0xbdb93d79	-0.09044928
163	0x3d92ad4c	0.0716196
164	0x3d001e7e	0.03127908
165	0x3d291ca1	0.04128707
166	0x3c173ae0	0.0092303455
167	0x3d9d13cd	0.07669792
168	0x3bc17293	0.005903551
169	0xbe00c1e5	-0.12573965
170	0x3d193b44	0.037410036
171	0x3d8782e8	0.06616765
172	0xbc96c9c6	-0.01840676
173	0x3dcf6246	0.10126166
174	0x3e216360	0.15760565
175	0xbd8de61e	-0.06928657
176	0xbd5ab32b	-0.053393524
177	0xb985f2a6	-0.00025548524
178	0xbe120db4	-0.1426304
179	0x3dae5805	0.08512882
180	0xbd60b4eb	-0.054860037
181	0xbd3b625d	-0.045748103
182	0xbce35924	-0.027752466
183	0x3e130cd7	0.14360367
184	0xbc23fd91	-0.010009185
185	0xbb9d8fdd	-0.0048084096
186	0x3d488a43	0.04895998
187	0xbcdd3a36	-0.027005296
188	0x3e5a5c96	0.21324381
189	0xbe1d498a	-0.15360084
190	0xbd41eee0	-0.04734695
191	0xbccc600b	-0.02494814
192	0x3d056269	0.032564554
193	0xbceeea00	-0.029164314
194	0xbe1dffa2	-0.15429547
195	0xbe28e6e7	-0.16494332
196	0x3d67f955	0.056634266
197	0x3c7e2986	0.01551283
198	0x3dd88600	0.105724335
199	0xbaabf5c7	-0.0013119512
200	0xbd82c32f	-0.063848846
201	0xbd567c04	-0.052364364
202	0x3da96853	0.082718514
203	0xbc31bd7a	-0.010848397
204	0xbd166d34	-0.036725238
205	0xbd938f4d	-0.07205067
206	0xbd95f287	-0.07321649
207	0xbdb3ce15	-0.087795414
208	0xbd84e112	-0.06488241
209	0xbd79c1c7	-0.060975816
210	0xbe469325	-0.19392069
211	0xbbd67c20	-0.0065455586
212	0x3b5be215	0.0033551503
213	0xbdecb5ba	-0.11558099
214	0xbd357e8b	-0.044310134
215	0x3dde6443	0.10858967
216	0x3d09449e	0.033512704
217	0xbe1b5c7d	-0.15172
218	0xbda99b40	-0.08281565
219	0xbc8f9a36	-0.017529588
220	0x3da8b863	0.08238294
221	0xbdc00ca1	-0.09377409
222	0x3cec1342	0.028817777
223	0x3e24b76a	0.16085592
224	0xbc628ebc	-0.013827976
225	0x3c2302f1	0.009949432
226	0xbdada345	-0.08478407
227	0x3d4cde91	0.050016943
228	0x3d85b27d	0.065281846
229	0x3d8adb4d	0.067801096
230	0x3dcfd31b	0.10147687
231	0xbe131c9b	-0.14366381
232	0xbc0bd4a2	-0.008534582
233	0xbc6ddce3	-0.0145179955
234	0xbbdc8f00	-0.006730914
235	0xbd489e7f	-0.04897928
236	0x3daa3b98	0.08312148
237	0x3da16a51	0.07881606
238	0xbda786bc	-0.081799954
239	0xbd732284	-0.05935909
240	0xbdaa653a	-0.08320089
241	0x3ccff337	0.025384529
242	0xbe1efa9f	-0.15525292
243	0xbde792df	-0.1130731
244	0xbdb73796	-0.08946149
245	0x3c3a9d06	0.011389976
246	0x3c49f534	0.012326527
247	0xbd48f185	-0.049058456
248	0xbdac6a2b	-0.084186874
249	0x3d5ae461	0.053440455
250	0x3e33161e	0.17488906
251	0x3e0b7519	0.13618888
252	0x3d584808	0.05280307
253	0x3c72b0d3	0.014812666
254	0xbd445d89	-0.047940765
255	0x3cb4be0d	0.02206328

fc2.bias f4 [64]
0	0xbf3b7f19	-0.7324081
1	0xbe828272	-0.25490147
2	0xbddaa96a	-0.106768444
3	0xbdbf0115	-0.09326378
4	0xbeaebc73	-0.3412815
5	0xbeaf44b1	-0.34232095
6	0xbe8c98b1	-0.27460244
7	0x3f1b35ef	0.6062917
8	0xbdd89a3d	-0.105762936
9	0x3f7e8743	0.99425143
10	0xbe7a84f6	-0.24464783
11	0x3ddd1c4c	0.10796413
12	0x3f83d278	1.0298605
13	0xbe361261	-0.17780448
14	0xbe4dad49	-0.20085634
15	0x3e04b6af	0.12960313
16	0x3f8a323b	1.0796579
17	0xbf98a2e6	-1.1924713
18	0xbe4f473b	-0.20242016
19	0xbe522d9c	-0.20525211
20	0xbd1dac38	-0.03849432
21	0xbccc9b99	-0.024976538
22	0xbe83e417	-0.25759956
23	0x392f193d	0.00016698703
24	0x3e6a4ab4	0.2288006
25	0xbc81602c	-0.015792929
26	0xbe001bef	-0.12510656
27	0x3dee972b	0.11649927
28	0xbdf88ab3	-0.1213583
29	0xbe660593	-0.22463064
30	0x3ed3f5ed	0.41398564
31	0x3f1ac1c0	0.6045189
32	0xbe0ab1dc	-0.1354441
33	0xbde23481	-0.110451706
34	0x3e4dade6	0.20085868
35	0x3e1a4f90	0.15069413
36	0xbead3e24	-0.33836472
37	0x3d64e782	0.055884846
38	0xbe28e805	-0.16494758
39	0xbe9605d2	-0.29301316
40	0x3dbcb2ac	0.092137665
41	0x3f80d070	1.006361
42	0x3fa0ee70	1.2572765
43	0x3e687be7	0.22703515
44	0xbeae8054	-0.34082282
45	0xbe7f5478	-0.24934566
46	0xbe2a8d84	-0.16655546
47	0x3e3628b8	0.1778897
48	0x3e260962	0.16214517
49	0xbd68d498	-0.05684337
50	0xbe496463	-0.196672
51	0x3f51e765	0.81993705
52	0x3ed43dd9	0.41453436
53	0xbddd71fa	-0.10812755
54	0xbe3df174	-0.18549138
55	0x3ce7527f	0.02823758
56	0xbe5b3e9a	-0.214106
57	0x3e4f0032	0.20214918
58	0xbe2370b1	-0.15960957
59	0x3d5e932e	0.05433958
60	0xbe0bff94	-0.13671714
61	0xbe046b66	-0.12931594
62	0x3ebe2f14	0.37145293
63	0x3f5f8ea3	0.8732702

fc3.weight f4 [16, 64]
0	0xbea0debf	-0.31419942
1	0xbef3d297	-0.47621605
2	0xbf4af9a7	-0.7928719
3	0xbeb1eb44	-0.34749806
4	0xbe64d881	-0.22348215
5	0xbd1a429b	-0.037661176
6	0xbd344601	-0.044012073
7	0xbdcb2b39	-0.099203534
8	0xbe38116f	-0.179754
9	0xbe7d327b	-0.24726288
10	0x3e1deee8	0.15423167
11	0xbb04c7d0	-0.00202607
12	0xbeabc610	-0.33549547
13	0xbeb041e0	-0.3442526
14	0xbebc8257	-0.3681819
15	0xbeb468be	-0.35236162
16	0xbdb47353	-0.08811059
17	0xbf2b5bfa	-0.6693722
18	0xbe440ddd	-0.19145913
19	0xbeae8d5b	-0.3409222
20	0xbe80d619	-0.25163344
21	0xbf01d709	-0.5071874
22	0xbedacadd	-0.42732897
23	0x3d75949e	0.059956186
24	0xbf47447b	-0.7783887
25	0x3e13c667	0.14431153
26	0xbe3ed48c	-0.18635768
27	0xbe908618	-0.28227305
28	0xbd4f9651	-0.050680462
29	0xbe0e512b	-0.1389815
30	0xbea5d683	-0.32390222
31	0xbe9add60	-0.3024702
32	0xbcf9a76f	-0.030475346
33	0xbe7f588c	-0.24936122
34	0xbeb59755	-0.3546702
35	0xbe835d72	-0.2565723
36	0xbe43996f	-0.19101499
37	0xbef765bb	-0.48319802
38	0x3e0f2bc3	0.13981538
39	0xbe753ed8	-0.23949754
40	0xbec8c836	-0.3921525
41	0xbe8878ec	-0.26654756
42	0xbea16df5	-0.31529203
43	0xbe434f5e	-0.19073245
44	0xbee5e032	-0.4489761
45	0xba454580	-0.000752531
46	0x3ca5fdda	0.020262647
47	0xbf40d6c5	-0.7532771
48	0xbf542fef	-0.8288564
49	0xbf9d4443	-1.2286457
50	0xbe052ba0	-0.13004923
51	0xbeb5fb1d	-0.35543147
52	0xbe7eb958	-0.2487539
53	0xbe4aa2c2	-0.1978865
54	0x3c820010	0.01586917
55	0x3c3fa3ea	0.011696795
56	0xbf1fcc1e	-0.62420833
57	0xbe507e61	-0.2036071
58	0xbe17c14c	-0.1481983
59	0xbf0eadfd	-0.55734235
60	0xbd6794ea	-0.0565385
61	0xbea16c47	-0.31527922
62	0xbf015e79	-0.5053478
63	0xbe95eb87	-0.29281256
64	0xbf1bb10d	-0.60817033
65	0xbf8c8569	-1.0978214
66	0xbf67d4c1	-0.9055901
67	0xbef30501	-0.47464755
68	0xbf889a9d	-1.0672184
69	0xbee74c34	-0.45175326
70	0xbf0da0eb	-0.55323666
71	0xbf15f5ba	-0.58578074
72	0xbd8606ba	-0.06544252
73	0xbf214551	-0.62996393
74	0xbf148cb7	-0.58027214
75	0xbf1a5844	-0.6029093
76	0xbefd4b85	-0.4947168
77	0xbff4721d	-1.9097325
78	0xbfd4d6a9	-1.6628009
79	0xbfbd7111	-1.480013
80	0xbeca0c46	-0.3946249
81	0xbf3fd7e9	-0.7493883
82	0xbe32a3d7	-0.17445312
83	0xbe4849e7	-0.19559442
84	0xbe454ea0	-0.19268274
85	0xbf9cb84d	-1.2243744
86	0xbfbca575	-1.4737993
87	0xbfa9fa00	-1.3279419
88	0xbf702efd	-0.938217
89	0xbfa24f31	-1.2680417
90	0xbebd29ba	-0.36945897
91	0xbedd14f9	-0.43180063
92	0xbe8795e4	-0.26481545
93	0xbd15ce2b	-0.03657357
94	0xbf71310b	-0.9421546
95	0xbeea35c2	-0.4574414
96	0xbe2721a8	-0.16321433
97	0xbf66e93e	-0.9019965
98	0xbf3efdb9	-0.746059
99	0xbef328f2	-0.47492176
100	0xbf11d70c	-0.5696876
101	0xbf5e9e68	-0.8696046
102	0xbf4025a1	-0.7505742
103	0xbec7b463	-0.39004812
104	0xbf1d0409	-0.6133428
105	0xbeca2928	-0.39484525
106	0xbea5850e	-0.32328075
107	0xbf38466d	-0.7198246
108	0xbf23cf24	-0.63987947
109	0xbf7e0f79	-0.9924236
110	0xbe6ff414	-0.23432952
111	0xc01213b1	-2.2824519
112	0xbf5c7eb4	-0.86130834
113	0xc00c3d5a	-2.1912446
114	0xbcf7413d	-0.030182475
115	0xbee4a99f	-0.4466066
116	0xbfa88e4a	-1.3168423
117	0xbfb98288	-1.449296
118	0xbf882861	-1.0637323
119	0xbf8671c3	-1.0503467
120	0xc0010b59	-2.0163176
121	0xbf669b98	-0.9008117
122	0xbe28b732	-0.16476133
123	0xc0094ba9	-2.145243
124	0xbe683080	-0.22674751
125	0xbec0b090	-0.37634706
126	0xbf78dedb	-0.9721505
127	0xbeadeff8	-0.33972144
128	0xbf48a46d	-0.78375894
129	0xbf00d0fa	-0.5031887
130	0xbf37a98a	-0.7174307
131	0xbf2574d6	-0.646314
132	0xbf3d68d7	-0.739881
133	0xbed2f743	-0.4120427
134	0xbe8ce709	-0.27520016
135	0xbe161e7f	-0.14660071
136	0xbd5e5cf7	-0.054287877
137	0xbe4a0811	-0.1972964
138	0xbf36daa3	-0.71427363
139	0xbf00e8bf	-0.5035514
140	0xbeb93e1f	-0.36180207
141	0xbf724c86	-0.94648015
142	0xbfb76307	-1.4327096
143	0xbf3d7fe6	-0.7402328
144	0xbebb750a	-0.3661273
145	0xbf9606d1	-1.172083
146	0xbe1ccec7	-0.15313254
147	0xbe1dd48b	-0.1541311
148	0xbcf40e7f	-0.029792069
149	0xbf5cf4d1	-0.8631106
150	0xbf95786c	-1.1677375
151	0xbf0415f9	-0.5159603
152	0xbec1867a	-0.3779791
153	0xbf77addf	-0.9674968
154	0xbdd8a306	-0.10577969
155	0xbe5bc963	-0.21463542
156	0xbdec3095	-0.11532704
157	0xbe0ccba3	-0.13749556
158	0xbef7fa51	-0.48433164
159	0xbeed9db6	-0.46409386
160	0xbe54664b	-0.20742147
161	0xbf091449	-0.5354658
162	0xbf231346	-0.63701284
163	0xbef10125	-0.47071186
164	0xbee1f01f	-0.4412851
165	0xbf0e889a	-0.5567719
166	0xbf26fab1	-0.65226275
167	0xbe9c95b7	-0.30582973
168	0xbf35f384	-0.710747
169	0xbeb5eb66	-0.35531157
170	0x3d87601a	0.06610127
171	0xbf405248	-0.7512555
172	0xbdd21beb	-0.10259231
173	0xbf8a5cf0	-1.0809612
174	0xbdbb3f6d	-0.09142957
175	0xbf2f2414	-0.68414426
176	0xbed3f1b5	-0.41395345
177	0xbf79cea3	-0.9758093
178	0xbe276b79	-0.16349591
179	0xbed3d0be	-0.41370195
180	0xbf5be53d	-0.85896665
181	0xbf3b167e	-0.73081195
182	0xbf4498c0	-0.7679558
183	0xbf62a62a	-0.88534796
184	0xbf654883	-0.8956377
185	0xbe9a53de	-0.3014211
186	0xbe96cf1e	-0.29454893
187	0xbf351f8f	-0.7075128
188	0xbe4754d2	-0.1946595
189	0xbea8cd50	-0.3296914
190	0xbeb37c62	-0.35055834
191	0xbe911f78	-0.2834432
192	0xbf7ccf04	-0.9875338
193	0xbf8b99e9	-1.0906345
194	0xbd9b867e	-0.07594012
195	0xbdc4c8bf	-0.09608602
196	0xbfa9b6d3	-1.3258919
197	0xbee95e23	-0.45579633
198	0xbeaea062	-0.34106737
199	0xbe483b8d	-0.19553967
200	0xbdf62e0c	-0.120205015
201	0xbed05c6a	-0.40695506
202	0xbf16377c	-0.5867841
203	0xbe764180	-0.24048424
204	0xbed53cf7	-0.41648075
205	0xbf5df0b8	-0.8669543
206	0xbf8af13c	-1.0854869
207	0xbec1984d	-0.3781151
208	0xbda07565	-0.07834891
209	0xbfa3a6c6	-1.278527
210	0xbe664c35	-0.22490008
211	0x3de13989	0.10997302
212	0xbe1d0717	-0.15334736
213	0xbe2651a5	-0.16242082
214	0xbf30fdbf	-0.69137186
215	0xbf07d857	-0.53064483
216	0xbf37ff5d	-0.7187403
217	0xbf932d00	-1.1498108
218	0xbe9f00f7	-0.31055424
219	0xbde8f98e	-0.11375724
220	0xbea2be81	-0.31785968
221	0xbdd69072	-0.104767695
222	0xbea7651a	-0.32694322
223	0xbe2a0505	-0.16603477
224	0xbe6e1982	-0.23251918
225	0xbef6d108	-0.48206353
226	0xbee335e0	-0.4437704
227	0x3e246adc	0.16056389
228	0xbed8b2be	-0.4232387
229	0xbe061392	-0.13093403
230	0xbeb0e883	-0.34552392
231	0xbe92db4a	-0.2868293
232	0x3e924683	0.2856942
233	0xbe4bb310	-0.19892526
234	0x3d91269c	0.07087442
235	0xbe4952c7	-0.19660483
236	0xbf22331d	-0.6335924
237	0xbeaa6e8b	-0.33287463
238	0xbe8db757	-0.2767894
239	0xbef230f3	-0.4730297
240	0xbf193f02	-0.5986177
241	0xbf121d97	-0.570764
242	0xbd16108b	-0.03663687
243	0xbeba49dd	-0.36384478
244	0xbed1853c	-0.40921962
245	0xbe93faeb	-0.28902373
246	0xbf115c51	-0.5678149
247	0xbf0ca588	-0.5494008
248	0xbee767b7	-0.45196316
249	0xbf01f61e	-0.5076617
250	0xbeadfc0e	-0.33981365
251	0xbf010fd0	-0.5041475
252	0xbe28292a	-0.16421953
253	0xbe28eae2	-0.1649585
254	0x3d1042a0	0.03521979
255	0xbe731051	-0.23736693

fc3.bias f4 [16]
0	0x3f2dcee1	0.678938
1	0x3ddf794a	0.10911806
2	0x3f27ec7d	0.6559523
3	0x3ec7d74c	0.39031446
4	0xbf86afa1	-1.0522348
5	0xbf8df3d7	-1.1090039
6	0x3f869900	1.0515442
7	0x3d11bdc3	0.03558136
8	0xbf492032	-0.7856475
9	0xbf097ec1	-0.53709036
10	0xbf9ebb9c	-1.2401004
11	0xbf8de804	-1.108643
12	0xbfd64f98	-1.674304
13	0xc009b959	-2.1519377
14	0xc016e446	-2.3576827
15	0xc012c5d7	-2.2933252
