MBTI/ANN/Model/lr=0.001/best_model.pth (torch, 39665 bytes, 4 tensors)

fc1.weight f4 [128, 57]
00000000: e55c f9bc 2881 41be ad89 243d 0cdf 49be
00000010: 4fdb febd e76e 08bd a731 22be 1290 973d
00000020: ccf4 2c3d 9789 13be e5bd a23c 0463 c43d
00000030: 7dd9 29be 1c3d 1f3d 6dbd 92bc b360 4839
00000040: c33a 1cbd d6f0 63bd 04d5 10be fb62 a9bd
00000050: 8de6 15be e982 3c3d 4ebc 1fbc 612e bdbd
00000060: 85bf 3ebd 1cb9 89bb a282 133d 4c92 16bd
00000070: 210c 5bbd 64ee 6ebc 51c8 0dbd 74a1 4dbe
00000080: 46e1 fc3c c362 acbd 2da5 923d d73f 0fbe
00000090: bd97 e63d 79a1 943d 5d1b ed3d 8113 0abe
000000a0: 7f79 243d b68e 14be fecf abbd 149f a23d
000000b0: 8562 e9bd 088e ee3b 7f78 c2bc ca47 2a3c
000000c0: d9d5 a03d 1d38 0fbe e096 803c 7065 6a3d
000000d0: b8d1 a33c 54b8 793d 08ed d13c 9461 fc3d
000000e0: ac4f 583d b461 ebbd c6e8 06be c4f7 26be
000000f0: 7b46 93be 45fb ec3d 3ffd 4ebe a8e5 11be
00000100: 8436 943c 8aef 23be 7271 a1be 853c 88be
00000110: b1dd 283e fc0c 66bd db63 043e 8f14 6f3c
00000120: cff0 c2bb 9d9d b9bd d45d f33c f97c 0cbd
00000130: 9892 1dbe 80e7 8cbe 9878 833e dd8d 893d
00000140: 53a3 52be 9966 a4be 2f6e 48bd 8eb1 7d3e
00000150: 0c7c e5be bbe4 15be a2cb 77be e382 d83c
00000160: cabb 6dbc 6909 10bd ef41 123e 6c42 8abd
00000170: 1ead 3fbe 1ae0 94be a5b6 acbd 6e22 ac3d
00000180: bca9 033e 5e20 c2bd 99db 893b 4515 cbbc
00000190: 5b66 0fbb 2933 a8bd e231 37be 8a99 edbc
000001a0: fe73 ecbe 69fa 0cbe 3c0a 9e3d d4e9 bd3d
000001b0: cb49 20be ba63 c3bd 7ab2 393c 12e9 66bd
000001c0: 8ba6 473d 7e32 d4bc 09d8 26be 13d4 dc3c
000001d0: 2208 7f3c 1c59 30bc 4702 49be bfd3 9abd
000001e0: d18b 90bd 1c95 21be d58c d13d be02 303d
000001f0: 0e5b 62bd 80b5 92bd 9b56 053e c869 423d
00000200: db6c 4bbe a0bc 84bd 9360 36be d260 2cbe
00000210: 758d 23bd 13d0 32be c00d 3dbe 129d f2bd
00000220: f39c 8bbb 466d 87bd 9a4e 1fbe ec5c f8bd
00000230: bab8 29be 37cf 6a3d baed 3b3d 8de2 223c
00000240: c4f9 21bb a663 10be da58 e6bd 23d9 a3bd
00000250: 8ee2 20be 6357 b13c cf08 853d 1f70 b33d
00000260: 4184 2e3d 065a 4dbe 2741 7dbe 6438 c1bd
00000270: 472b c3bd 1c84 e7ba 7d44 cdbd d134 8fbd
00000280: 5fcf dc3c d652 d4bd 08e7 9cbd d23f 23be
00000290: 1f40 b7bd a046 19bd 80bd df3d f022 443c
000002a0: be8e c3bd 40a8 d13c 885e 933c d857 373e
000002b0: 0cec 93be aecd 903a 9a5e 133e ac15 a93d
000002c0: c81e 2cbe 2ef6 4fbe 6a60 4e3e f985 123d
000002d0: 3e45 48be fe55 35be d466 d8bd f763 15be
000002e0: 9e3f 4dbd 1767 25bd 12ae 76be e772 ccbd
000002f0: 0f99 773c 8ab8 06be 1897 11be d5e5 14be
00000300: 1ad2 5f3d e9b9 3ebe 2b79 b4bd 4ab8 39bd
00000310: 3a4c 8ebc ca93 f6bd 7769 18be 45c5 66bd
00000320: d7da a5bd df85 bc3c fa0e 443d 7d6a f7bd
00000330: ca09 dcbd 6103 a63d e642 62bc 0093 823d
00000340: ad93 02be 7356 4bbe d3b2 d7bd c4e3 afbd
00000350: eaac 073d 6800 a2bc f7fb d13d c10f 6cbd
00000360: def0 e93c 0777 92bd bac0 bbbc 49fa 89bd
00000370: 85df 74bd 19f0 883d 946d bfbd e4f7 8abd
00000380: 2241 11be 9989 92bd e858 5cbd 5323 67bd
00000390: a06b bdba 954e 1fbe 6bc7 21be eb3a 12be
000003a0: 0170 74bd 1f51 7bbd 78fb 90bb f301 2abe
000003b0: e678 ae3c b111 e43c c867 9b3d 2af4 0fbd
000003c0: 6d89 41bc d2ee b5bd a65c 23bd 1e75 d2bd
000003d0: 28a1 e9bb 1f45 fabd ae94 94bd 20b5 cbbd
000003e0: e342 d1bc 3cdc 3ebd 5dd2 89bd 044d a53d
000003f0: 127e 9d3c 8f6f 443c bf2f adbd 3b81 c1bd
-0.030439803 -0.18896925 0.04017036 -0.19713992 -0.124441735 -0.03330889 -0.15839253 0.07400526
0.042225644 -0.14407955 0.01986594 0.09589198 -0.16586871 0.038876638 -0.01791259 0.0001910951
-0.038141977 -0.0556496 -0.14143759 -0.08270832 -0.1463873 0.046023283 -0.009749485 -0.09237362
-0.046569366 -0.004202975 0.036013253 -0.036760613 -0.053478364 -0.014583204 -0.034614865 -0.2008112
0.030869137 -0.08417275 0.07160411 -0.13989197 0.112594105 0.07257361 0.11577485 -0.13484003
0.04015493 -0.14507565 -0.08389281 0.07940498 -0.11395744 0.007280115 -0.023739098 0.010393092
0.07853288 -0.1398625 0.015696943 0.057225645 0.019997463 0.060966805 0.02562572 0.12323299
0.052810356 -0.11493245 -0.13174734 -0.16305453 -0.2876471 0.11571363 -0.20213793 -0.14247763
0.018092401 -0.16009346 -0.31531864 -0.26608673 0.16490819 -0.056164727 0.12928717 0.014592304
-0.005949117 -0.090632655 0.029707827 -0.03429887 -0.15387952 -0.2752037 0.25677943 0.067165114
-0.20570116 -0.32109526 -0.048933204 0.24774763 -0.44821203 -0.14638035 -0.24198774 0.0264296
-0.014510104 -0.035165224 0.14282964 -0.0675095 -0.18718383 -0.29077226 -0.08433274 0.084050044
0.12857717 -0.0947883 0.0042070863 -0.024790416 -0.0021881077 -0.08212883 -0.17890123 -0.029003877
-0.46182245 -0.13767399 0.07716796 0.09273115 -0.1565315 -0.09540506 0.011334056 -0.056374617
0.048742812 -0.025902983 -0.16293348 0.026956594 0.015565904 -0.010763433 -0.19629775 -0.075599186
-0.07057918 -0.15779537 0.1023194 0.042971365 -0.055262618 -0.07163525 0.13021319 0.047464162
-0.19865744 -0.0648129 -0.17810278 -0.16833809 -0.039929826 -0.17462187 -0.18462276 -0.11846365
-0.004260653 -0.06612639 -0.15557328 -0.121270984 -0.16574374 0.05732652 0.04588101 0.009941709
-0.0024715522 -0.14100513 -0.11247416 -0.080004 -0.15711424 0.021648115 0.06495821 0.0876162
0.042606596 -0.20053872 -0.24731885 -0.09434584 -0.09529739 -0.0017663273 -0.10022829 -0.06992496
0.026954351 -0.10367362 -0.07661253 -0.15942314 -0.08947777 -0.03742087 0.10924816 0.01197122
-0.0954871 0.025592923 0.017989412 0.17904603 -0.28891027 0.0011047625 0.14391556 0.08256087
-0.16808617 -0.20308754 0.20153967 0.035772298 -0.19557664 -0.17708585 -0.10566488 -0.14588915
-0.0501095 -0.040381517 -0.2408984 -0.099828534 0.015112176 -0.13156334 -0.14217794 -0.14540799
0.054643728 -0.18625607 -0.088121735 -0.045341767 -0.017370332 -0.12039907 -0.14883982 -0.056340475
-0.08098381 0.023013053 0.047865845 -0.12080858 -0.107440546 0.08106113 -0.013809895 0.06375694
-0.12751646 -0.19857197 -0.10532155 -0.08588365 0.033123888 -0.019775584 0.102531366 -0.05763221
0.028557237 -0.07151609 -0.022919048 -0.06737191 -0.059783477 0.0668642 -0.09347072 -0.06785563
-0.14185002 -0.07155151 -0.053795725 -0.056430172 -0.001445163 -0.1555732 -0.15798728 -0.14280288
-0.059677128 -0.06135666 -0.0044245087 -0.16602306 0.021297883 0.027840467 0.07588154 -0.035144962
-0.01181255 -0.08883442 -0.03988328 -0.102762446 -0.007129807 -0.12220215 -0.07254921 -0.09946656
-0.02554459 -0.04659675 -0.06729577 0.0807133 0.019225154 0.011989488 -0.084563725 -0.09448477

fc1.bias f4 [128]
00000000: bcdf 1fbd 9e65 b63c 8963 2bbe 9655 6b3d
00000010: e797 7dbd 8610 7fbe 44dc 16be c0bd 8cba
00000020: dc5d de3d 798f 6e3d 7405 b93d 18b6 09be
00000030: 7f4e 5c3d 0061 de3d 45bd 84bd 8793 8fbd
00000040: 1035 b6bc ba5a 4b3d 16c8 1ebd 7274 283d
00000050: df69 16be eefe 44be 8fae c1bc dc3f b73c
00000060: 6e1b 12be 6e3c 3a3d 9f0f b73d 8080 543d
00000070: 0f0b 0abe f00d a03c 216d 363d 4523 29be
00000080: 2f09 f5bd 7a64 fdbc bc67 3ebe d8cd 00be
00000090: 4b52 acbc 3aa0 31be d685 9ebe 7c05 6dbe
000000a0: c3f5 aabd 76a6 153e 0ec6 2d3d 94ff ffbd
000000b0: 1181 c33a 2604 153c 5ad2 f7bd 7eef c43d
000000c0: 1faf 1dbe b602 77bd c701 46be eee6 abbd
000000d0: 1eec 3f3e bcc9 b53d 742c 1d3d eca2 ba3c
000000e0: 1607 c83c a04f 37bd 3a54 bfbb 0f09 47be
000000f0: e1e1 e3bd 34f7 acbd 6c2e 683d 916b 13be
00000100: c53c 3bbe b1ea 0f3e cc9c 9f3d 0b7c 05bc
00000110: ba10 94bd eb65 97bd 72f0 82be 7867 643e
00000120: 98e5 24be 7244 04bd defe b83d bce3 25be
00000130: c028 1bbe ca16 b1bd a952 af3d fcae 2d3c
00000140: b71d c4bd e186 88bd e64e 9bbc 2c0c 18be
00000150: c84e dcbd 3ecd b4bd 1588 04bd 7c62 dcbd
00000160: 700b 303e 2d52 b0bd 3cdc 34be d570 7b3d
00000170: c3a3 fe3c 44f1 28be f78e 42be 70e2 f7bd
00000180: 436f 0dbe 6c8b babc de15 aebb 1586 de3d
00000190: bdd4 503d 6868 913d a916 63be 061d ebbd
000001a0: aadf b5bc d0c1 9dbc bbaa 86bd c031 033c
000001b0: 591c 86bd 692e f93d 0790 2c3d 612f 12be
000001c0: 7578 193e b3fd 82bd 1b4a eabb df6a 9dbd
000001d0: 1736 f4bc 3fa6 333d 1af4 00bd eb24 74bc
000001e0: a9df c8bd 17bd 34be 45de 14be 5a9d 14bd
000001f0: fbaf 013e e349 213e f5d5 3b3d 852a 053e
-0.03903173 0.022265252 -0.16737188 0.057454668 -0.061912443 -0.24908647 -0.14732462 -0.0010737702
0.10857746 0.058242295 0.09034243 -0.1344837 0.053785797 0.10858345 -0.06481413 -0.070105605
-0.022242099 0.04964707 -0.038765036 0.041126676 -0.14688824 -0.19237873 -0.023642806 0.022369318
-0.14268276 0.045467786 0.08938526 0.05188036 -0.13480781 0.019537896 0.044537667 -0.1651736
-0.11964642 -0.0309317 -0.18594259 -0.12578523 -0.021035334 -0.17346278 -0.30961484 -0.23146623
-0.083476566 0.14614281 0.042425208 -0.124999195 0.0014915784 0.009095227 -0.12100668 0.09615992
-0.15398835 -0.06030532 -0.19336616 -0.08393656 0.18742415 0.088763684 0.038372472 0.022782765
0.024417441 -0.04475367 -0.005838898 -0.1943705 -0.11127067 -0.08445588 0.056684896 -0.14396502
-0.182849 0.14054371 0.077935785 -0.00814725 -0.07229753 -0.07392486 -0.2557407 0.22305095
-0.16103208 -0.032291837 0.09032987 -0.16200155 -0.15152264 -0.08646925 0.08560688 0.010600802
-0.0957598 -0.06666351 -0.01895852 -0.14848393 -0.10757214 -0.08828209 -0.03235634 -0.10760972
0.17191863 -0.08609424 -0.17662138 0.061386902 0.031083947 -0.16498286 -0.1899985 -0.121037364
-0.13811974 -0.02277156 -0.0053126654 0.10865418 0.050984133 0.07099992 -0.22176613 -0.11480145
-0.022201378 -0.019257456 -0.06575533 0.008007467 -0.06548376 0.12167055 0.042129543 -0.14275886
0.14987357 -0.063960455 -0.0071499473 -0.076864 -0.029810948 0.043859717 -0.031482793 -0.01490138
-0.09808285 -0.17650257 -0.14537914 -0.036282875 0.12664787 0.15750842 0.045858342 0.13004501

fc2.weight f4 [16, 128]
00000000: d439 3bbc b628 dfbe a9c6 bcbe 774a 80bd
00000010: 09c0 c1bc 0299 07be 88ce f4bc a8ff e4be
00000020: 3911 3fbe e3cc 11be adf7 cebe 5fe7 bebe
00000030: 05f8 24bf 0384 89bf 28df 57be 9fa1 0abd
00000040: e2a0 4abf 8795 88be 70ca 05c0 7a0f 36bd
00000050: 3f6d 30bf d596 103d 81a7 08be c2e1 e4be
00000060: b7b8 a6bd 5d6d 0dbf 89ad 76bf 97e0 9cbe
00000070: 4ba9 1fbf a88f 09bd 1e81 8ebe aff9 0cbe
00000080: 0f22 48be 8be1 94bd aff9 8dbf 406c 80bc
00000090: 61c6 94bf 6aa9 e0bc 5bf9 12bf d537 123e
000000a0: 0d95 67bd 65c9 47bf 638e 05be 56b0 febc
000000b0: 53ee b4bf 03e1 7cbd c384 2cbd 0a85 36bf
000000c0: 9c82 34be da44 72bf 6fc1 65bd 6282 583e
000000d0: 12ac 17be e633 f9be ae15 edbc aee0 2e3d
000000e0: 2a19 79be 7836 a3bd e54a 78bd 4dd2 4abf
000000f0: ecc3 2dbd ff02 b4bb 6164 79bf a694 6fbd
00000100: 147b d0bd 2b98 88bf d8bd 52be ea16 1ebe
00000110: 8e23 66be 3602 d6be cd1b 02be 95ce 9e3e
00000120: 3e66 d1bd 5859 17bf c478 b4bf bb21 1fbd
00000130: f5eb 313d b315 82bd f8a9 42be 0623 22bf
00000140: e8ac 9fbd 4fba c1bc f824 9bbe 8491 89bf
00000150: d2b1 2fbf 037e 36bf c54a 0fbd ee5e 97bf
00000160: 2a6b 80bf 5c76 c8bc 7f59 f0be 2f8e 01bf
00000170: c7e8 d8bd 1663 dfbc 1815 b53c de6d 253d
00000180: 8e5c 3bbc 7c06 1ebd 6118 8fbd eb87 2cbf
00000190: 2cee bb3c 0728 6ebe 0616 d1be 2051 d6bd
000001a0: d42b 51bd 9b69 40bf f83c acbe d012 7abf
000001b0: 6c0a f7bc 30c0 53bf 22e0 53be 97cf d3bd
000001c0: a780 29be 8af7 bebf d69e d4be bb76 c7be
000001d0: b651 91be bb2c 0abd 3b48 74bf 9be6 88bf
000001e0: 8ff9 3bbe 2b76 c5bc fbd8 cbbc 137e 8bbd
000001f0: e087 13bf 8650 d3bd bcfb 43bf a3c2 87bf
00000200: cd91 01bc 4974 38bf 3904 efbe 2e26 08bf
00000210: b082 bcbd e6bf 26be 7624 3abe 29eb 9dbf
00000220: 0390 a0bf fef6 aabf a006 efbe 9cec 4ebe
00000230: 1cc4 9fbf ae5a b1bf 8746 93bf 913d 64be
00000240: f1be b4bf ae08 81be 190c 22c0 2cdb 83bd
00000250: a509 72bf 15f6 5c3d d9e8 d9bd 9c77 f1bf
00000260: bda7 2a3c 974a 6cbf 0664 69bf 3083 18bf
00000270: 912a 89bf a3f5 77bd 7ca0 87bf 59ee 8dbf
00000280: ee42 7abf 2c3b 92bd 2e1c 17c0 b44b 953c
00000290: 8975 ebbf c7af 3dbe 7ea2 bdbf 1da8 82bf
000002a0: f94d 42be 3d2a 81bf f728 d3bc c626 743c
000002b0: bd30 e8bf 9b52 03be afa7 3cbc 0232 d0bf
000002c0: 371e 59bd a360 0ec0 e951 97bd d71c 4abf
000002d0: bf11 50be ce2a 35bf 6318 f5be efb5 73bc
000002e0: 8f67 44bf f310 59be d1b3 93bf 3d9c e0bf
000002f0: ec1d 01bd bb1b b63c fdb0 92bf 7d80 31bf
00000300: e1ab dabd f62a 9abf 6d07 d2bf 8e21 11be
00000310: 6487 2cbe dab5 66bf 4065 afbd 5cf6 1fbf
00000320: f0fd 6dbe f7cb 2ebf d7a6 e0bd f41e ccbd
00000330: 07d5 04be 26b8 f5bd b8aa 59bf b4a0 34bf
00000340: 1587 9bbd e8a5 bcbf 7492 81bf 8613 adbf
00000350: 289f d4bf effc 58bf 5608 7abd 5de1 d8bf
00000360: 751a 5fbf c115 fabd 316b aabf aa80 28bf
00000370: a3f7 17bc a734 b0bd 63de 3cbd 6bf2 cdbd
00000380: e0b6 81bd f6d8 1abd f327 81be 883b 33bf
00000390: 9d2d b9bc d0f2 78be caaa 91be e374 90bd
000003a0: 5b37 6cbe 28d7 b0bf 0118 55bf fed1 00c0
000003b0: 9dd3 7abd 3763 cdbf 7239 94bf 1a66 12be
000003c0: 5ec8 49bf 21ef 13c0 68c7 b0bf 8ae8 52bf
000003d0: ca47 d9be b63e c9bc 80e9 32c0 7817 f4bf
000003e0: 7299 acbe ad15 583d 15ca 94be 46e6 1ebe
000003f0: 4907 10bf 7cdd 76be 0984 abbf e6b7 19bf
-0.0114273615 -0.43585747 -0.36870316 -0.06264203 -0.02365114 -0.13241962 -0.029883638 -0.447263
-0.18658914 -0.14238314 -0.40423337 -0.37285897 -0.6444095 -1.0743412 -0.21081221 -0.03384554
-0.7915174 -0.2667658 -2.0904808 -0.044448353 -0.68916696 0.035300095 -0.13345148 -0.4470349
-0.081407 -0.55245 -0.96358544 -0.30640098 -0.62367696 -0.033584267 -0.27832884 -0.13767122
-0.19544242 -0.072695814 -1.1091822 -0.015676618 -1.162304 -0.027424533 -0.57411736 0.1427911
-0.05653863 -0.7804168 -0.13042597 -0.031089943 -1.4135231 -0.061738025 -0.0421188 -0.7129675
-0.17627949 -0.9463631 -0.056092676 0.21143487 -0.14811733 -0.48672408 -0.028941002 0.04269474
-0.24326006 -0.079693735 -0.0606183 -0.79227144 -0.042423174 -0.005493521 -0.9741879 -0.05849137
-0.10179725 -1.0671438 -0.20580232 -0.15438429 -0.224745 -0.41798562 -0.12705918 0.31016985
-0.10224579 -0.591207 -1.4099355 -0.038850527 0.043437917 -0.06351795 -0.1901015 -0.6333469
-0.07796651 -0.02364841 -0.30301642 -1.0747533 -0.6863071 -0.7128603 -0.034983415 -1.1825845
-1.0032704 -0.0244705 -0.4694328 -0.5060758 -0.10591274 -0.027268928 0.022104785 0.04038798
-0.011435641 -0.038580403 -0.06987072 -0.67394894 0.022940718 -0.23257457 -0.40837115 -0.10464692
-0.05106719 -0.7516114 -0.33640265 -0.97684956 -0.030156337 -0.8271513 -0.20690969 -0.10342329
-0.16552983 -1.4919293 -0.41527432 -0.38957772 -0.28382653 -0.033734065 -0.95422715 -1.0695375
-0.18356918 -0.024104198 -0.024883738 -0.06811156 -0.57629204 -0.10318093 -0.7655599 -1.0606273
-0.007908297 -0.7205244 -0.4668291 -0.5318326 -0.09204614 -0.16284141 -0.18177971 -1.233739
-1.2543949 -1.3356626 -0.46684742 -0.20207447 -1.2481723 -1.3855798 -1.1505898 -0.2228911
-1.4120771 -0.25201935 -2.5319884 -0.06438288 -0.94545966 0.05394562 -0.10640115 -1.8864627
0.0104159685 -0.92301315 -0.9116825 -0.59575176 -1.0716115 -0.06053699 -1.0595851 -1.1088363
-0.97758377 -0.071401924 -2.361095 0.018224575 -1.8395244 -0.18524085 -1.4815214 -1.0207554
-0.18975057 -1.0091015 -0.02577637 0.014901822 -1.8139874 -0.1282448 -0.011514588 -1.6265261
-0.05300733 -2.2246482 -0.0738867 -0.78950256 -0.2031927 -0.7076844 -0.47870168 -0.014874919
-0.7672052 -0.21197872 -1.1539251 -1.754768 -0.031522676 0.02223002 -1.1460263 -0.6933668
-0.106773145 -1.2044361 -1.6408516 -0.14172956 -0.16848522 -0.90121233 -0.08564234 -0.6248529
-0.232414 -0.68279976 -0.10969322 -0.09966841 -0.12971888 -0.11998014 -0.8502612 -0.70557714
-0.07594124 -1.473813 -1.0122819 -1.3521583 -1.6611071 -0.84760946 -0.061043106 -1.6943775
-0.87149745 -0.122111805 -1.3313962 -0.65821326 -0.00927535 -0.08603793 -0.046110522 -0.10056003
-0.06333709 -0.037804566 -0.2522579 -0.7001271 -0.022604758 -0.24311376 -0.28450614 -0.07053544
-0.23067991 -1.381566 -0.8323975 -2.012817 -0.061236966 -1.6045903 -1.1580031 -0.14296761
-0.7882136 -2.3114703 -1.3810854 -0.82386076 -0.42437583 -0.024566036 -2.7955017 -1.9069662
-0.3371082 0.052755047 -0.29060426 -0.1551753 -0.56261116 -0.24107927 -1.3399669 -0.6004623

fc2.bias f4 [16]
00000000: 531c 3a3f d518 a03d 0b00 253f 7062 d53e
00000010: c997 85bf 8690 9dbf 27df 7a3f 20c6 8b3c
00000020: 24ca 57bf 4643 20bf d972 b4bf 74e9 95bf
00000030: 886f f8bf 63dd 25c0 5431 38c0 7fa8 2fc0
0.7269947 0.07817236 0.6445319 0.41676664 -1.0436946 -1.230973 0.97996753 0.017062247
-0.8429282 -0.6260265 -1.4097549 -1.1711869 -1.9409037 -2.5916374 -2.8780107 -2.7446592
