MBTI/ANN/Model/lr=0.001 3HL hd_size = 64 l2=0.1/best_model.pth (torch, 37871 bytes, 6 tensors)

fc1.weight f4 [64, 57]
0	0xb5dab2ee	-1.6294341e-06
1	0xb6177745	-2.2570177e-06
2	0xb4807b9e	-2.39318e-07
3	0xb6074697	-2.0157656e-06
4	0xb5df2022	-1.6624147e-06
5	0x3691c15a	4.343846e-06
6	0xb60ce762	-2.0996308e-06
7	0xb67a01a0	-3.7253849e-06
8	0xb6944b0f	-4.4194817e-06
9	0x34ea7c07	4.3676138e-07
10	0xb593cbe8	-1.1011698e-06
11	0xb46d83ce	-2.2120295e-07
12	0xb6864cbc	-4.0024443e-06
13	0xb66e57db	-3.5515902e-06
14	0xb5865cb2	-1.0010756e-06
15	0xb59d5a26	-1.1723648e-06
16	0xb5a6565c	-1.2393098e-06
17	0xb660622a	-3.343574e-06
18	0xb6433b7d	-2.909189e-06
19	0x356b180a	8.7579303e-07
20	0xb51b43e8	-5.7840816e-07
21	0xb51e8a00	-5.9060403e-07
22	0xb6132b98	-2.1930082e-06
23	0x349b71fc	2.8953934e-07
24	0xb580c56c	-9.5942e-07
25	0xb607c2e1	-2.0230002e-06
26	0xb53fb546	-7.141683e-07
27	0xb5efce93	-1.7867009e-06
28	0x35400b70	7.154222e-07
29	0xb64bc41b	-3.0363506e-06
30	0xb66357f6	-3.3876836e-06
31	0xb4d390bf	-3.940713e-07
32	0x35a72aa9	1.2454885e-06
33	0x35dc2b50	1.6403883e-06
34	0xb5f6b712	-1.8381709e-06
35	0xb5d60edf	-1.594857e-06
36	0xb65d8596	-3.3009323e-06
37	0xb63ff88a	-2.8605887e-06
38	0xb62a45c2	-2.5372578e-06
39	0xb44697d2	-1.8495419e-07
40	0x36050725	1.9822703e-06
41	0xb618f984	-2.2795002e-06
42	0x35111d4e	5.4059353e-07
43	0xb582302c	-9.699775e-07
44	0xb6ebd0e2	-7.027863e-06
45	0x360300c9	1.9520978e-06
46	0xb3e4b80a	-1.0650554e-07
47	0xb6455c71	-2.9409096e-06
48	0xb60d9626	-2.1098035e-06
49	0xb2d27785	-2.4501569e-08
50	0x24845f40	5.7407234e-17
51	0x00014cf4	1.19441e-40
52	0x382a65ce	4.062597e-05
53	0xb8e07481	-0.00010702853
54	0x376fcb02	1.42927765e-05
55	0x000011f6	6.443e-42
56	0xaf62e6f8	-2.0636637e-10
57	0xab64bce3	-8.1264005e-13
58	0x2e37a029	4.1751633e-11
59	0xaddc3f8a	-2.5039321e-11
60	0xad37df0a	-1.045187e-11
61	0xad8f957e	-1.6323606e-11
62	0xaecf1e1e	-9.41862e-11
63	0x2d0754c1	7.692681e-12
64	0xab2ea635	-6.2047877e-13
65	0xae19cd48	-3.49705e-11
66	0xaf5be979	-2.000088e-10
67	0xaf3f0763	-1.7373973e-10
68	0xad2d7920	-9.860807e-12
69	0xaed4b5c3	-9.672931e-11
70	0xaf595535	-1.9766307e-10
71	0xae8b50ad	-6.335319e-11
72	0xaee1dbcd	-1.027086e-10
73	0xad0488b9	-7.53369e-12
74	0xaea35c78	-7.4288076e-11
75	0xacfa4a99	-7.1137094e-12
76	0xacd2ec31	-5.9947815e-12
77	0xab8f7ec0	-1.0195941e-12
78	0xab8d9f7e	-1.0062921e-12
79	0xaa0cab46	-1.249392e-13
80	0xaf1c0154	-1.4188589e-10
81	0xab0e8672	-5.0635115e-13
82	0x2ca90bcc	4.8045786e-12
83	0xac607471	-3.1896953e-12
84	0xab1f1ec0	-5.653082e-13
85	0xacdc2369	-6.2567074e-12
86	0xa6498426	-6.991498e-16
87	0xae31d878	-4.0437403e-11
88	0x2a407569	1.709376e-13
89	0xaeeb557a	-1.07017464e-10
90	0xae4cc749	-4.656123e-11
91	0xa9bbe538	-8.3442313e-14
92	0xac6af090	-3.338694e-12
93	0xa957ffeb	-4.7961564e-14
94	0xaabdde4f	-3.3727402e-13
95	0xab86afda	-9.570081e-13
96	0xaa8daf0d	-2.5168097e-13
97	0xaa2b67ba	-1.5223838e-13
98	0xacbec554	-5.4220326e-12
99	0xa8e03feb	-2.4896716e-14
100	0xa918737d	-3.385095e-14
101	0xac782c05	-3.5267355e-12
102	0xacce1a7a	-5.8578116e-12
103	0xa250ecc2	-2.8314595e-18
104	0xa9f183e8	-1.0725432e-13
105	0x9c2b01ad	-5.658132e-22
106	0x9821ce47	-2.0912906e-24
107	0x8000121f	-6.5e-42
108	0x80000b5f	-4.079e-42
109	0x11a197b1	2.5494808e-28
110	0xad8a8296	-1.5746775e-11
111	0x3937a2d6	0.00017512901
112	0xb742fc02	-1.1621976e-05
113	0x2c1831c8	2.1628133e-12
114	0xb564cfa8	-8.52388e-07
115	0xb429b25f	-1.5804243e-07
116	0xb41fe7d7	-1.4892372e-07
117	0x2f56a4b0	1.9521695e-10
118	0xb3e001c5	-1.0431135e-07
119	0xb541ca85	-7.219281e-07
120	0xb4ab8128	-3.1945206e-07
121	0xb4955f2e	-2.7822665e-07
122	0xb53cbb1e	-7.030775e-07
123	0xb4c93f6f	-3.7485322e-07
124	0xb4abb8d3	-3.198571e-07
125	0x34064339	1.2504178e-07
126	0x33470003	4.633331e-08
127	0xb53bfa90	-7.0027545e-07
128	0xb367b442	-5.3947822e-08
129	0xb4a7f5ca	-3.128501e-07
130	0xb55cd6a9	-8.226876e-07
131	0xb515ee4c	-5.5853593e-07
132	0x336cccf7	5.5134446e-08
133	0xb431c242	-1.655508e-07
134	0x32801444	1.4910377e-08
135	0xb4aead5e	-3.2536167e-07
136	0xb48747ad	-2.519786e-07
137	0xb55062fe	-7.763009e-07
138	0xb51e5218	-5.897905e-07
139	0xb573f7ef	-9.0885345e-07
140	0xb495566d	-2.7816296e-07
141	0xb56a79a7	-8.734882e-07
142	0xb5802047	-9.546137e-07
143	0xb35177e4	-4.8770644e-08
144	0xb54fb589	-7.737768e-07
145	0xb487679d	-2.5221098e-07
146	0x3330568e	4.1056914e-08
147	0xb57b7368	-9.3672725e-07
148	0xb419cc46	-1.432355e-07
149	0xb51e757f	-5.9030566e-07
150	0x333f94c2	4.4605947e-08
151	0xb5276bc5	-6.2369173e-07
152	0x32d984bb	2.5322484e-08
153	0xb3eeeeca	-1.1126174e-07
154	0xb5763a3c	-9.1726884e-07
155	0x33232d94	3.7992848e-08
156	0xb59d881f	-1.1737028e-06
157	0xb4625d83	-2.108191e-07
158	0xb5a3d284	-1.2205714e-06
159	0xb47bae89	-2.3439692e-07
160	0xb5609bd9	-8.367329e-07
161	0xb57d87a9	-9.4447256e-07
162	0xb4cce968	-3.8167786e-07
163	0xb582b7de	-9.739267e-07
164	0xb8b6f160	-8.723396e-05
165	0xb513c1ad	-5.50436e-07
166	0x36f8149c	7.393375e-06
167	0x2f5b107c	1.992379e-10
168	0x383aa6ea	4.4501307e-05
169	0xb2306106	-1.0266609e-08
170	0xaba08a4f	-1.1407072e-12
171	0x91ab4c91	-2.702623e-28
172	0x91c475fc	-3.099606e-28
173	0x91dac7fd	-3.4517588e-28
174	0x8eff8388	-6.2989013e-30
175	0x91cfd22f	-3.2788377e-28
176	0x91ec3a7a	-3.7270274e-28
177	0x91a7e826	-2.6491027e-28
178	0x91f1811a	-3.810266e-28
179	0x91a83971	-2.6541127e-28
180	0x91479195	-1.5743193e-28
181	0x91b81f60	-2.9049418e-28
182	0x9199841a	-2.4220558e-28
183	0x909c5ed5	-6.167726e-29
184	0x906f2d09	-4.7169133e-29
185	0x9114815e	-1.1715006e-28
186	0x10757f6c	4.8415893e-29
187	0x918e18d6	-2.2418956e-28
188	0x9194d5c2	-2.3482021e-28
189	0x9204caf1	-4.1902e-28
190	0x91cf6646	-3.2721872e-28
191	0x919c692a	-2.4677273e-28
192	0x91ce7d8e	-3.2578448e-28
193	0x90d00d0a	-8.2061624e-29
194	0x1015b3d4	2.9523603e-29
195	0x8ff4e998	-2.4150235e-29
196	0x919514c7	-2.352086e-28
197	0x8f0d37de	-6.962596e-30
198	0x91065383	-1.059647e-28
199	0x91b9e26c	-2.9327397e-28
200	0x9018270c	-3.0006795e-29
201	0x90a8e7a5	-6.662122e-29
202	0x91c4a700	-3.102627e-28
203	0x90d5e069	-8.4359445e-29
204	0x91b9ad99	-2.9294841e-28
205	0x9120f88c	-1.2698364e-28
206	0x91a1fab5	-2.5555831e-28
207	0x919532c8	-2.3539351e-28
208	0x9018d0b6	-3.01375e-29
209	0x9188a675	-2.1559604e-28
210	0x91410478	-1.5226393e-28
211	0x913fac2c	-1.5120298e-28
212	0x0fe40dac	2.2487802e-29
213	0x90a36971	-6.445462e-29
214	0x8f934240	-1.4520838e-29
215	0x91340e09	-1.4203821e-28
216	0x8f62ac30	-1.11758224e-29
217	0x118134e4	2.0385208e-28
218	0x10778b80	4.8819628e-29
219	0x129b4a53	9.800198e-28
220	0x111c0d4b	1.2310326e-28
221	0x00000c39	4.385e-42
222	0x000008a0	3.094e-42
223	0x0000023d	8.03e-43
224	0x80000469	-1.582e-42
225	0x800000cb	-2.84e-43
226	0x80000397	-1.288e-42
227	0x352eaefe	6.50747e-07
228	0x80000689	-2.344e-42
229	0x00000187	5.48e-43
230	0x80000de0	-4.977e-42
231	0x80000ef3	-5.363e-42
232	0x800008e0	-3.184e-42
233	0x80000acc	-3.873e-42
234	0x80000950	-3.34e-42
235	0x8000071a	-2.548e-42
236	0x8000137f	-6.994e-42
237	0x80001160	-6.233e-42
238	0x800010d9	-6.044e-42
239	0x8000049f	-1.658e-42
240	0x80000488	-1.626e-42
241	0x800005e8	-2.119e-42
242	0x800004e9	-1.761e-42
243	0x00000302	1.079e-42
244	0x80000849	-2.972e-42
245	0x8000061a	-2.189e-42
246	0x80001230	-6.524e-42
247	0x80000c4a	-4.408e-42
248	0x800008a9	-3.107e-42
249	0x80000797	-2.723e-42
250	0x80000116	-3.9e-43
251	0x8000085b	-2.997e-42
252	0x8000086f	-3.025e-42
253	0x0000083e	2.957e-42
254	0x80000baf	-4.191e-42
255	0x80000c6c	-4.456e-42

fc1.bias f4 [64]
0	0xb58810c5	-1.013767e-06
1	0x80000e6a	-5.171e-42
2	0xb313fbc4	-3.4455084e-08
3	0x9183a837	-2.0771826e-28
4	0x800000f6	-3.45e-43
5	0xb299bddd	-1.7897884e-08
6	0x3d0d7668	0.03453675
7	0x1de940de	6.1741658e-21
8	0x03ba95eb	1.0966517e-36
9	0x20d2c256	3.5703985e-19
10	0x31823b6c	3.7902534e-09
11	0xafc31161	-3.5482642e-10
12	0xb146c60e	-2.8925373e-09
13	0x00000dea	4.991e-42
14	0xb82a64bf	-4.0624986e-05
15	0x3b5280be	0.0032120193
16	0xb2450bbe	-1.1469579e-08
17	0x36775b52	3.6859024e-06
18	0x2ff96414	4.5363946e-10
19	0xb8a769f4	-7.982916e-05
20	0xa9fe48e2	-1.1292509e-13
21	0x1e1dd315	8.3551615e-21
22	0xbaf3711e	-0.001857314
23	0x399a11e5	0.000293865
24	0xbd12d391	-0.035846297
25	0x80000ae6	-3.91e-42
26	0xaca16264	-4.5868188e-12
27	0x8000090c	-3.245e-42
28	0xb81ebcae	-3.7845857e-05
29	0x00001902	8.971e-42
30	0xb80cf300	-3.3604912e-05
31	0x85700512	-1.1285677e-35
32	0x164ffff2	1.6802089e-25
33	0x36a19d1d	4.8164643e-06
34	0x027bcc1a	1.8499142e-37
35	0x36130600	2.19082e-06
36	0x1724febc	5.331278e-25
37	0x31eb224e	6.8433e-09
38	0xb5f122de	-1.7966047e-06
39	0x33c4bd14	9.161354e-08
40	0xb7c9483a	-2.39947e-05
41	0x2e7d1aa0	5.7549188e-11
42	0xb168f5bc	-3.3900127e-09
43	0xb646b15a	-2.9607531e-06
44	0x346936f8	2.1719814e-07
45	0x87db9d3a	-3.3043867e-34
46	0x203457dc	1.5275663e-19
47	0xac7a840d	-3.560044e-12
48	0x00462aed	6.443884e-39
49	0x2d926e18	1.664717e-11
50	0x9cd93e10	-1.4375898e-21
51	0xb9786910	-0.00023690262
52	0x00000985	3.415e-42
53	0x06a54727	6.217065e-35
54	0x30cf51d4	1.5084489e-09
55	0x3018dfda	5.561539e-10
56	0x3911a954	0.00013891357
57	0x31a50f83	4.8038955e-09
58	0x800bf436	-1.097797e-39
59	0x291102a3	3.2198755e-14
60	0xafe756ff	-4.208047e-10
61	0xa2bfa2b2	-5.1942914e-18
62	0xbc974025	-0.018463204
63	0x302bd048	6.2505423e-10

fc2.weight f4 [64, 64]
0	0xb5dfd8d8	-1.6677905e-06
1	0x347af98e	2.3373852e-07
2	0xb598c612	-1.1382529e-06
3	0x90621034	-4.4583124e-29
4	0x00000b08	3.957e-42
5	0xb4033ac7	-1.2221709e-07
6	0x3d23c53d	0.039983023
7	0xafaabf95	-3.1058947e-10
8	0xb18896df	-3.975273e-09
9	0xba498331	-0.00076870905
10	0xb4277b45	-1.5597932e-07
11	0x2faf235a	3.1857433e-10
12	0xb11f44ba	-2.3176612e-09
13	0x316df772	3.4628695e-09
14	0xb54aed95	-7.559659e-07
15	0xbc9507ff	-0.01819229
16	0xb2c79e72	-2.3238702e-08
17	0xb61f2615	-2.3715013e-06
18	0x31932a3d	4.283065e-09
19	0xb85aee02	-5.2196912e-05
20	0xbbd45d15	-0.006480823
21	0x322f9968	1.0221221e-08
22	0x3c917865	0.017757604
23	0xb8aa9197	-8.13335e-05
24	0x3d1eb16c	0.03874342
25	0x2b09c0ea	4.89399e-13
26	0xba36e873	-0.00069773867
27	0x000003ce	1.365e-42
28	0xba827b22	-0.0009954909
29	0x35fabb16	1.8680901e-06
30	0xb9099dbd	-0.000131241
31	0xb6398db4	-2.764963e-06
32	0xb639b45f	-2.7672138e-06
33	0xb689ce94	-4.106967e-06
34	0xae80ee35	-5.86308e-11
35	0x339fa53d	7.434071e-08
36	0x3a40182c	0.00073278206
37	0xb998fb75	-0.0002917905
38	0xb623c640	-2.440429e-06
39	0xb58316d6	-9.766907e-07
40	0x373c19db	1.1211693e-05
41	0xbb2e5305	-0.0026599776
42	0xb33f08fa	-4.4478817e-08
43	0xb5d29932	-1.5690805e-06
44	0xb58ef577	-1.0651264e-06
45	0x2e63ca77	5.179365e-11
46	0x37fb0ad0	2.9926567e-05
47	0xbbe5823e	-0.0070040515
48	0xb8c3fda2	-9.3455674e-05
49	0xb7647f7d	-1.3619542e-05
50	0xb7330d76	-1.06723655e-05
51	0x3c0299bc	0.007971223
52	0xb6e35be7	-6.775826e-06
53	0x30f705fe	1.7973318e-09
54	0x30475e71	7.252999e-10
55	0xb1fd5ac8	-7.3735897e-09
56	0xb8bc9f62	-8.994226e-05
57	0xadc5777c	-2.2449369e-11
58	0x39b9c34b	0.00035431454
59	0xbc19e708	-0.009393461
60	0xb05fae2c	-8.137444e-10
61	0x2fa6659e	3.0267427e-10
62	0x3d18c299	0.037294958
63	0xb352fa39	-4.912201e-08
64	0x1faaacec	7.2283876e-20
65	0x800004a7	-1.669e-42
66	0x976ca7b0	-7.6467364e-25
67	0x8000022e	-7.82e-43
68	0x80000069	-1.47e-43
69	0x000493de	4.20387e-40
70	0xb6236c59	-2.435196e-06
71	0x800002f4	-1.06e-42
72	0x800010e7	-6.063e-42
73	0x00069721	6.05228e-40
74	0x9c885aba	-9.023177e-22
75	0x800005dd	-2.103e-42
76	0x00005310	2.9797e-41
77	0x00001072	5.9e-42
78	0x389a4c30	7.357483e-05
79	0x2340d60d	1.0453668e-17
80	0x234025f1	1.0416375e-17
81	0x80000e30	-5.09e-42
82	0x800008b7	-3.126e-42
83	0x304d1cf6	7.461972e-10
84	0xb19dc94a	-4.5921853e-09
85	0x00000781	2.692e-42
86	0xb2e4353c	-2.6566902e-08
87	0x800016b7	-8.149e-42
88	0x2f39f1db	1.6911576e-10
89	0x80000394	-1.284e-42
90	0xb185a2d6	-3.8893218e-09
91	0x00000179	5.28e-43
92	0x33ac4596	8.022032e-08
93	0x0000314e	1.7687e-41
94	0x1f27ca4e	3.5530968e-20
95	0x2dd215bc	2.3883888e-11
96	0x3211a0e5	8.476694e-09
97	0xa134acc4	-6.1215026e-19
98	0x0000076e	2.665e-42
99	0x360d21e3	2.1030362e-06
100	0x00000cab	4.544e-42
101	0x100040e7	2.5293548e-29
102	0x389797ec	7.228539e-05
103	0x1e0de800	7.512454e-21
104	0x985749ae	-2.7825297e-24
105	0x316c488f	3.4383765e-09
106	0x8002d497	-2.59934e-40
107	0x394b75d1	0.00019403479
108	0x800192d1	-1.44503e-40
109	0x80000e7c	-5.196e-42
110	0x37e1e57a	2.6928949e-05
111	0x800009ee	-3.562e-42
112	0x80001322	-6.864e-42
113	0x1e4fc940	1.1000106e-20
114	0xb0ead44c	-1.7086079e-09
115	0x80001176	-6.264e-42
116	0xb6112851	-2.163015e-06
117	0x2b5fa220	7.945051e-13
118	0x3082348c	9.47368e-10
119	0x80000aea	-3.915e-42
120	0x8ef7cf38	-6.1089746e-30
121	0x9cdc43e0	-1.4575924e-21
122	0x00000193	5.65e-43
123	0x200a85e0	1.173335e-19
124	0x3110d7f0	2.1077504e-09
125	0x1ffe03e6	1.07579634e-19
126	0xb02887fb	-6.1311284e-10
127	0xae08c912	-3.1101406e-11
128	0xb53d022f	-7.0411164e-07
129	0x32970fb9	1.7585863e-08
130	0xb35944db	-5.0586873e-08
131	0x11cbee32	3.2174552e-28
132	0x80000214	-7.45e-43
133	0x31ec6ec1	6.8810952e-09
134	0x3d0d4b84	0.034495845
135	0x2476cfd8	5.3518797e-17
136	0x24ecbcaf	1.0266833e-16
137	0xb9753019	-0.00023382939
138	0xafd71ca6	-3.9128628e-10
139	0x2779118a	3.45652e-15
140	0xb066471d	-8.377457e-10
141	0xa36f40d0	-1.29699405e-17
142	0x36a96517	5.048361e-06
143	0x3aa4b1e4	0.0012565223
144	0xb3bed978	-8.887122e-08
145	0xb8290007	-4.0292765e-05
146	0xb2010986	-7.510954e-09
147	0x39c1f978	0.00036997697
148	0xb9d8c6b3	-0.00041346773
149	0x0e22a079	2.0045306e-30
150	0x3c8f4e7d	0.01749348
151	0xb99304db	-0.00028041643
152	0x3ddb0fa5	0.10696343
153	0x800010e9	-6.066e-42
154	0xb96af927	-0.00022408795
155	0x000012d5	6.756e-42
156	0xba532aa5	-0.0008055366
157	0x329f39f7	1.8536396e-08
158	0x396c91e0	0.00022561057
159	0xb211de98	-8.490723e-09
160	0xb3bba0f1	-8.737141e-08
161	0xb70d7cf0	-8.433344e-06
162	0x2a2fcf3d	1.5615023e-13
163	0xb54c3ef6	-7.608754e-07
164	0x3631d728	2.6500293e-06
165	0x375c3c56	1.312707e-05
166	0xb69c08a3	-4.6501677e-06
167	0x33751d63	5.7070235e-08
168	0xb5fc61e8	-1.8803958e-06
169	0xb933c4e7	-0.00017144122
170	0xb0a2c1ed	-1.1842168e-09
171	0xb71cc882	-9.345009e-06
172	0x33217e04	3.7600344e-08
173	0x243c9600	4.0893057e-17
174	0x36329ead	2.6616428e-06
175	0x3a43a4e5	0.0007463231
176	0xb47d4f10	-2.3591224e-07
177	0x374bef2f	1.2155432e-05
178	0x3208d93f	7.965638e-09
179	0x3ca86761	0.020557107
180	0xb09fb086	-1.1618944e-09
181	0x92d5e7eb	-1.3499362e-27
182	0xaec27c38	-8.844164e-11
183	0xb18b892a	-4.061026e-09
184	0x3a260f34	0.0006334663
185	0xad8e9b42	-1.621248e-11
186	0x389428e8	7.064809e-05
187	0xbb2304ba	-0.0024874643
188	0x30d44bc2	1.5446562e-09
189	0x2e310610	4.0250525e-11
190	0x3e00af31	0.1256683
191	0xb2df1018	-2.5967935e-08
192	0x360ae795	2.06984e-06
193	0x357fda20	9.5312316e-07
194	0xb60fb683	-2.1414896e-06
195	0x0fcc1403	2.0123661e-29
196	0x000007ef	2.846e-42
197	0xb20622f5	-7.807775e-09
198	0x3dc1ff76	0.094725534
199	0x2c1aa5e7	2.197681e-12
200	0x2e2184b5	3.672503e-11
201	0x3b6f6065	0.0036525961
202	0xb348d289	-4.675761e-08
203	0x2fc6c930	3.6158943e-10
204	0x3113e0e4	2.151915e-09
205	0x3157c467	3.139826e-09
206	0xb818affd	-3.6403526e-05
207	0x3d096846	0.03354671
208	0x3345593d	4.59488e-08
209	0x372a852f	1.0163799e-05
210	0x3117f209	2.2110973e-09
211	0x38e8a48f	0.000110932735
212	0x3c33c565	0.0109723555
213	0x32bbcf76	2.1864007e-08
214	0x3ce0ae6d	0.027426923
215	0x39f92972	0.0004752386
216	0x3bfff597	0.007811259
217	0x0000068b	2.347e-42
218	0x3aff7548	0.0019489909
219	0x800002ac	-9.58e-43
220	0xb9b15f05	-0.00033830866
221	0xb6cccab7	-6.103273e-06
222	0xb9cb24f2	-0.00038746704
223	0x34f4d70b	4.5605006e-07
224	0xb706d1d6	-8.035879e-06
225	0x36a6b896	4.968674e-06
226	0x31ea3278	6.816034e-09
227	0x35868e92	1.0025271e-06
228	0xbab74fc8	-0.0013985569
229	0x3a87514e	0.0010323913
230	0x35799e54	9.2990126e-07
231	0xb20e2085	-8.272882e-09
232	0x37a88a62	2.00916e-05
233	0xba672502	-0.0008817465
234	0x33a7084d	7.7780534e-08
235	0x35be21ae	1.4165905e-06
236	0x362c8989	2.5710053e-06
237	0x2a82233b	2.3117085e-13
238	0xba0c4d14	-0.00053520617
239	0xba9b5986	-0.0011852242
240	0x379608c0	1.7885468e-05
241	0x389860db	7.2659655e-05
242	0x341d2570	1.4635384e-07
243	0x3cad8bc1	0.021184804
244	0xb8a48a77	-7.8459205e-05
245	0x3379808a	5.8091736e-08
246	0xb0e9100f	-1.6957545e-09
247	0x2ecd641f	9.340106e-11
248	0x39a03c70	0.00030562608
249	0xadcc471b	-2.3223692e-11
250	0x39248dd8	0.000156931
251	0xbb4177f8	-0.002952097
252	0x2ddf9450	2.5418029e-11
253	0x3349a7ac	4.6951456e-08
254	0x3cb0bf74	0.021575667
255	0x32ff9db4	2.9757622e-08

fc2.bias f4 [64]
0	0x3b992d03	0.0046745553
1	0xa266b8be	-3.1268614e-18
2	0x3c79fcfe	0.015258072
3	0x3c597977	0.013273588
4	0x3d0e4f5b	0.034743648
5	0xb91a8870	-0.00014737411
6	0x3c2bef63	0.010494086
7	0x2e0daea7	3.221481e-11
8	0xac809bb7	-3.6552666e-12
9	0xbc4452ec	-0.011982661
10	0xb7e9d5e4	-2.7875365e-05
11	0xbcba4745	-0.022739062
12	0xbbbba2eb	-0.0057262084
13	0x3d08f891	0.033440176
14	0xb2c03eff	-2.2380389e-08
15	0x3c7e94f5	0.015538444
16	0x80001d17	-1.0435e-41
17	0x08002824	3.8565784e-34
18	0xbba9ffb2	-0.005187952
19	0x3021192c	5.860723e-10
20	0x3ccd3beb	0.025052985
21	0xa7a02fa1	-4.446056e-15
22	0x3ca609c6	0.020268332
23	0x8f5d89b0	-1.0922659e-29
24	0x3b85e0d7	0.004085641
25	0xae6256e5	-5.146363e-11
26	0xbcaf8204	-0.021424301
27	0x1c89ea30	9.126436e-22
28	0x141ec3b6	8.015559e-27
29	0x000012bb	6.719e-42
30	0x3cc834b8	0.0244392
31	0x35d023e0	1.5507649e-06
32	0x3c790d14	0.015200872
33	0xba228ca2	-0.00062007655
34	0x3d15783d	0.03649162
35	0x8fbb4f73	-1.8470226e-29
36	0x3c3c112d	0.011478704
37	0xb7d41874	-2.5283756e-05
38	0x100e38d2	2.8048335e-29
39	0xae31cd18	-4.04273e-11
40	0xb69c5f64	-4.660267e-06
41	0xb19c3760	-4.546493e-09
42	0x3cb94b86	0.02261902
43	0x3cffd93a	0.031231511
44	0x3b36a971	0.002787199
45	0x0a56bd3e	1.0339318e-32
46	0x3d085b02	0.033289917
47	0xa97f694d	-5.6712708e-14
48	0xb1e7840a	-6.737996e-09
49	0x3c7602e8	0.015015341
50	0x3a80bfbe	0.0009822769
51	0x00003b1c	2.1204e-41
52	0x38e9699b	0.00011129976
53	0x3c260ea8	0.01013533
54	0xbbdc6f2c	-0.00672712
55	0x9bf8e886	-4.1178423e-22
56	0xb4b351e6	-3.3400937e-07
57	0x3c864597	0.016390605
58	0xa341f1dd	-1.05137675e-17
59	0xba28cc02	-0.0006439091
60	0x3d3a22b6	0.04544326
61	0x3bab3854	0.0052252207
62	0xbc30aa06	-0.010782724
63	0xbb726fe7	-0.0036992969

fc3.weight f4 [16, 64]
0	0x3d3c2cfc	0.045941338
1	0xa31becaa	-8.452682e-18
2	0xbc26832c	-0.01016311
3	0x3d0608aa	0.032723106
4	0x3d9d3c40	0.076775074
5	0xbbcb443b	-0.006203202
6	0x3c2f0119	0.010681414
7	0xb4cfe0f1	-3.872042e-07
8	0xb2ea1549	-2.7250865e-08
9	0xbd0971c8	-0.033555776
10	0x3763cce0	1.35779555e-05
11	0xbd447541	-0.047963385
12	0x3b5fca88	0.0034147818
13	0x3d2e4275	0.042543847
14	0xb62c167e	-2.564309e-06
15	0x3d61c21d	0.05511676
16	0xaf4ab49f	-1.8435962e-10
17	0xb080dbbf	-9.375681e-10
18	0xbcfd882c	-0.03094872
19	0xb4032aad	-1.2215851e-07
20	0x3daaf32e	0.08347164
21	0xb6170540	-2.250381e-06
22	0x3cd4a25c	0.025956325
23	0x30216914	5.8720784e-10
24	0x3d28bc1a	0.041195013
25	0xb190e5fc	-4.217098e-09
26	0xbd14db1d	-0.036341775
27	0xad6f0041	-1.35856335e-11
28	0x353475e3	6.7226773e-07
29	0x975e2032	-7.1772705e-25
30	0x3d98722e	0.07443653
31	0x3815b7cb	3.569554e-05
32	0x3ca29dec	0.019850694
33	0x3bd2b491	0.0064302166
34	0x3d99085a	0.07472296
35	0x8fa7b1f4	-1.6536016e-29
36	0x3d0fd8ce	0.03511887
37	0x38758679	5.853779e-05
38	0xb45ce04a	-2.0570693e-07
39	0xb923f87b	-0.00015637458
40	0xb69c1aea	-4.6522955e-06
41	0x32178af3	8.82095e-09
42	0xbd0ea055	-0.034820873
43	0x3d391263	0.04518355
44	0x3c3d4015	0.011550923
45	0x3111f5a2	2.1239903e-09
46	0x3d3ea051	0.04653961
47	0xaa801425	-2.2751346e-13
48	0x3779bd57	1.4885641e-05
49	0x3d904abd	0.07045505
50	0xbc97b01e	-0.018516596
51	0xb325a92e	-3.8570924e-08
52	0xb9d1a95c	-0.0003998977
53	0x3ce0f183	0.027458912
54	0xbbdeb49e	-0.0067964336
55	0xb54069dd	-7.1679625e-07
56	0xba1a436c	-0.00058846804
57	0x3c8f46b4	0.017489769
58	0xb5b4996c	-1.3455697e-06
59	0x3ca34a23	0.019932812
60	0xbb13863b	-0.0022510428
61	0x3d706019	0.058685396
62	0xbc84b63b	-0.016200176
63	0xbd5dde60	-0.05416715
64	0x3cf79f1a	0.030227233
65	0x21ccbd67	1.3873712e-18
66	0x3c372148	0.011177368
67	0x3d503832	0.050834842
68	0xbc235be7	-0.009970642
69	0x38913bd1	6.9252805e-05
70	0xbbf0c0a1	-0.007347182
71	0xb4c317a2	-3.6338776e-07
72	0xb0295a65	-6.16103e-10
73	0xbc7395e5	-0.014867281
74	0xb8056678	-3.1805102e-05
75	0xbd4a3823	-0.049369942
76	0xbce4685c	-0.027881794
77	0x3c4fe5af	0.012689038
78	0xb6167975	-2.242244e-06
79	0x3ca04033	0.019561863
80	0x00000b62	4.083e-42
81	0xaa75a622	-2.181801e-13
82	0x3c105d49	0.008811303
83	0xb08718c8	-9.829586e-10
84	0x3d338c26	0.043834828
85	0x0558a8da	1.0187284e-35
86	0x3cb0a63a	0.021563638
87	0x2c865442	3.8178636e-12
88	0x3c59dfad	0.013297957
89	0x30574a45	7.832209e-10
90	0x3c2ac799	0.010423564
91	0xb05b8101	-7.985506e-10
92	0xb4a34dc7	-3.0417706e-07
93	0x00000431	1.504e-42
94	0x3c81989b	0.015819838
95	0xb6496b5b	-3.0013823e-06
96	0x3cdad3bf	0.026712297
97	0xb9947435	-0.0002831534
98	0x3d8cef3b	0.06881567
99	0x8e188baa	-1.8802692e-30
100	0x3cfbb946	0.030727994
101	0x3892549e	6.977584e-05
102	0x000000cc	2.86e-43
103	0xb7ab9362	-2.0453419e-05
104	0x374af6e1	1.2097619e-05
105	0xb360e166	-5.2359063e-08
106	0x3c54b122	0.012981685
107	0xbbd12aab	-0.0063832602
108	0xba3f816a	-0.0007305356
109	0xb282320f	-1.5156756e-08
110	0x3cf406b8	0.02978836
111	0x2a0ac91a	1.2326633e-13
112	0xb641be17	-2.8869888e-06
113	0x3cae95ad	0.021311605
114	0xbc04e674	-0.008111585
115	0x8000e353	-8.1549e-41
116	0xb9958d52	-0.00028524786
117	0x3c381a83	0.01123679
118	0xbc96bc74	-0.018400408
119	0x34768028	2.2957158e-07
120	0xb97fed43	-0.00024407082
121	0x3b36052e	0.0027774083
122	0xa9fc7f66	-1.1213148e-13
123	0x3b4d534d	0.0031330169
124	0x3d341e69	0.043974314
125	0x3d14d942	0.036340006
126	0x3c358496	0.011078974
127	0x3c6f7d2e	0.0146172475
128	0x3ceb7536	0.028742414
129	0x25844b40	2.294934e-16
130	0x3d71e74c	0.059058473
131	0x3c871cea	0.01649328
132	0x3cd1a55b	0.025591543
133	0x3b08c664	0.0020870203
134	0x3d2a46b2	0.041571327
135	0xb512004c	-5.438967e-07
136	0xb0b4a4a3	-1.3143516e-09
137	0xbd0c9a84	-0.034327045
138	0xb83f4375	-4.5600773e-05
139	0xbcc6ce02	-0.024268154
140	0xbd0e4f91	-0.03474385
141	0x3cf31bd7	0.029676361
142	0xb556f7f1	-8.0082015e-07
143	0x3cc7296d	0.024311746
144	0xa91728aa	-3.3564006e-14
145	0xb4e8aebd	-4.3340506e-07
146	0xbba896d2	-0.0051449323
147	0xb067d2fd	-8.4337143e-10
148	0x3d29ae77	0.04142615
149	0xb46593ee	-2.1381103e-07
150	0x3d85f2d3	0.06540456
151	0xaee4efe4	-1.0410853e-10
152	0x3c8c3285	0.017113933
153	0xaf6e3be0	-2.1667246e-10
154	0xba5c28af	-0.00083983963
155	0xb0f3ca94	-1.7738153e-09
156	0x1a748df5	5.057269e-23
157	0x9d63a993	-3.0130868e-21
158	0x3d04e7c8	0.032447606
159	0xb735a2cc	-1.0826345e-05
160	0x3d284a8a	0.04108671
161	0xbad79492	-0.0016447476
162	0x3d06807d	0.03283738
163	0x94caa473	-2.0461651e-26
164	0x3d24e176	0.04025408
165	0xb9391fca	-0.00017654817
166	0xb2a4cf22	-1.9186306e-08
167	0x37f53d68	2.923487e-05
168	0xb79482ed	-1.7703942e-05
169	0x31f641e1	7.167032e-09
170	0x3d5fa1a4	0.054597512
171	0xbc272bfb	-0.010203357
172	0x3c70a8b2	0.014688658
173	0x819c3235	-5.7377393e-38
174	0x3d1d66b3	0.03842802
175	0xa90280f4	-2.8977648e-14
176	0xb6d232a5	-6.2643835e-06
177	0x3d71a22d	0.058992554
178	0xbbd05bb6	-0.006358589
179	0xb17251d1	-3.5262142e-09
180	0xb9917003	-0.0002774001
181	0x3c60c2fe	0.013718365
182	0x3c95f1bb	0.018303743
183	0x3451e2a5	1.9547095e-07
184	0x3a185379	0.0005810778
185	0x3d396032	0.045257755
186	0xb66f3c5a	-3.5648904e-06
187	0xbc540849	-0.012941428
188	0x3dadd08b	0.08487042
189	0x3c951d93	0.018202579
190	0xbd12b8b5	-0.03582068
191	0xbcf43f39	-0.029815303
192	0x3cf28879	0.02960609
193	0x2160f6c4	7.6220744e-19
194	0x3d126956	0.035744987
195	0x3d53d567	0.05171719
196	0x3d4f535c	0.050616607
197	0x3c07c633	0.0082870005
198	0x3cf8b28d	0.030358577
199	0x36801e3d	3.8182175e-06
200	0xabedde1b	-1.690151e-12
201	0xbb8132fd	-0.003942846
202	0xb5a1eb47	-1.206391e-06
203	0x3c5d3a37	0.013502649
204	0xbbd15875	-0.0063887187
205	0x3d92a56c	0.07160458
206	0xb7a685f2	-1.9851115e-05
207	0x3a96deb3	0.0011510461
208	0xaad00d06	-3.695726e-13
209	0xaeb2f802	-8.138558e-11
210	0x3c66c644	0.014085356
211	0x35e7dd2d	1.7275212e-06
212	0xbc55add4	-0.013041932
213	0xb48eedb9	-2.6622527e-07
214	0x3c9e01f6	0.019288044
215	0x2ec5f553	9.002101e-11
216	0xba06b170	-0.00051381346
217	0x2f87c475	2.4695948e-10
218	0x39869fbf	0.00025677492
219	0x1bfb49af	4.1572084e-22
220	0xb59a2e96	-1.1487452e-06
221	0x1ae8bd68	9.6258953e-23
222	0x3d20001e	0.03906261
223	0xb6914649	-4.329519e-06
224	0x3d8dc5fe	0.0692253
225	0x3b7565e9	0.0037444776
226	0x3da07466	0.07834701
227	0x1048e666	3.9620538e-29
228	0x3d1025dc	0.035192356
229	0xb931a02f	-0.00016939708
230	0x365c62a2	3.2839966e-06
231	0x38a7d1dd	8.0022706e-05
232	0xb72eacc0	-1.041143e-05
233	0xb19085c7	-4.2061603e-09
234	0x3cf40d9b	0.029791644
235	0x3d00c33c	0.03143619
236	0xbd083366	-0.033252142
237	0xb51af36d	-5.77237e-07
238	0x3d5f3eb5	0.05450316
239	0x2a0cf5e9	1.2519815e-13
240	0xb5d0708c	-1.5529963e-06
241	0xbb97abeb	-0.0046286485
242	0xbc0156fb	-0.007894273
243	0x345515fc	1.9845169e-07
244	0x3b41ec04	0.002959014
245	0x3d6edfec	0.058319017
246	0xbd1a7cfd	-0.037716854
247	0xb3830333	-6.100745e-08
248	0xb9d8ce1a	-0.00041352288
249	0x3d202cad	0.039105106
250	0xb732e85b	-1.0663726e-05
251	0xbc596f0b	-0.013271104
252	0xbd538d35	-0.051648337
253	0x3cc82934	0.02443371
254	0x3ca9f308	0.02074577
255	0x3d00d6a4	0.031454697

fc3.bias f4 [16]
0	0x3e258f0e	0.16167852
1	0x3ce88bf6	0.028387051
2	0x3e50d884	0.20395094
3	0x3e3722c2	0.17884353
4	0xbd95a601	-0.07307053
5	0xbd93893b	-0.07203909
6	0x3ddca09d	0.10772822
7	0xbd36751f	-0.04454529
8	0xbd45a696	-0.04825457
9	0xbd83f41b	-0.06443044
10	0xbd8d118b	-0.06888112
11	0xbd4631df	-0.048387405
12	0xbd5ffbab	-0.05468337
13	0xbd823123	-0.06357028
14	0xbd92b960	-0.07164264
15	0xbdb58c6a	-0.088646725
