MBTI/ANN/Model/lr=0.001 3HL hd_size = 64 l2=0.01/best_model.pth (torch, 37871 bytes, 6 tensors)

fc1.weight f4 [64, 57]
000000 30 ac f0 b4 f3 ee 66 b3 da 96 8a ad b2 16 bd b6
       -4.4828766e-07 -5.376837e-08 -1.5755775e-11 -5.635281e-06
000010 46 ad 62 b6 10 38 ff b2 fc 56 1a ae 6b a5 5d b5
       -3.3777483e-06 -2.9711401e-08 -3.5092804e-11 -8.256963e-07
000020 55 96 02 b7 31 c2 10 b7 53 cf 3c b1 c4 b3 bf b3
       -7.783606e-06 -8.628283e-06 -2.747545e-09 -8.92683e-08
000030 9e 0b 7e b0 8d 01 c4 b6 b2 25 3d 33 66 ba 3a b5
       -9.242117e-10 -5.8414357e-06 4.4039275e-08 -6.9561645e-07
000040 f3 92 1c b1 46 98 16 b6 90 47 ac a0 77 79 dc b1
       -2.2784519e-09 -2.2440377e-06 -2.918529e-19 -6.4166517e-09
000050 d8 f3 ec b6 fd fb a8 b5 e2 c6 73 b6 d3 d3 1f b6
       -7.0617352e-06 -1.2590314e-06 -3.6325587e-06 -2.3816144e-06
000060 1b 3a 80 b6 86 9f 87 b0 f5 d1 67 b6 1e 83 26 b7
       -3.8214616e-06 -9.867882e-10 -3.4543893e-06 -9.924899e-06
000070 00 7f 0e 24 72 6c 02 b5 f3 21 a5 b5 d0 8c 25 b7
       3.0898915e-17 -4.858658e-07 -1.2303339e-06 -9.867552e-06
000080 20 15 49 af 1c cd 62 b6 ad 97 2b b7 6f d4 9e af
       -1.8288349e-10 -3.3796014e-06 -1.0227709e-05 -2.8890976e-10
000090 40 96 e3 b3 0a 64 2f b7 10 8b b4 b0 0d 0d 13 b7
       -1.05978415e-07 -1.0454105e-05 -1.3136248e-09 -8.764921e-06
0000a0 7b 87 d2 b7 31 6f c2 b6 89 40 34 b6 ed c9 ab b5
       -2.5097039e-05 -5.794595e-06 -2.6859655e-06 -1.2799261e-06
0000b0 4e 74 38 ae 95 35 14 34 0b f9 d9 b5 3b af b7 ad
       -4.1940056e-11 1.3803067e-07 -1.6240241e-06 -2.088251e-11
0000c0 d1 72 f0 33 03 e3 26 8f 79 9a 00 80 61 22 00 00
       1.1196756e-07 -8.228153e-30 -5.5414e-41 1.2333e-41
0000d0 11 9a 00 00 e9 67 00 00 9e 90 00 80 06 a0 00 00
       5.5269e-41 3.7276e-41 -5.1879e-41 5.7406e-41
0000e0 bb ca 16 38 df 1d 82 bc 14 42 b8 3a 28 ec b2 bc
       3.5951594e-05 -0.015883384 0.0014057779 -0.021841124
0000f0 70 b1 0f bd 14 42 33 bd f4 e4 c1 3b d8 03 4c bd
       -0.035081327 -0.04376419 0.005917186 -0.049808353
000100 dd 3e 0f bd 58 60 d3 bc 1d 97 2f bd df 24 c3 bc
       -0.03497206 -0.025802776 -0.042868722 -0.023821292
000110 16 18 97 ba f5 52 20 3b 16 f2 3c bb ee ec 97 bb
       -0.0011527564 0.0024463509 -0.0028830818 -0.0046363985
000120 3c 40 ef 3c 1c 6b 0f bc a3 90 1e bc d8 a0 a4 3b
       0.029205434 -0.008753564 -0.009678039 0.005024057
000130 4f fb 83 bc bb ae 23 3d 65 ec 30 39 6d 35 ee b9
       -0.016111044 0.039961558 0.00016872732 -0.00045434703
000140 bf 0a c3 bc 12 5b c6 3c 46 65 6e 3c 5d 3d 1b bc
       -0.023808835 0.024213348 0.014550513 -0.009475079
000150 09 3b 43 bd a6 40 f1 bb 97 09 98 bb a9 79 0b bd
       -0.047663722 -0.007362443 -0.004639815 -0.03405157
000160 54 95 ad 3b 92 19 bd bc 50 bb 0d 3b 02 d4 ea 3b
       0.0052973423 -0.023083482 0.002162654 0.0071663866
000170 b0 f8 f3 bc c8 df aa 3c 48 8c 27 bd 93 b5 19 bd
       -0.02978167 0.02085866 -0.040905267 -0.03752668
000180 11 cd 1d 3b a1 74 1b bc 72 d5 39 3b b3 aa 0d bd
       0.0024078528 -0.009488256 0.0028355983 -0.03458662
000190 41 ea 61 bc 68 3a 64 bd 1d 7c b1 3a 2e 16 b8 3b
       -0.013788761 -0.055719763 0.0013541017 0.0056178784
0001a0 42 0e d1 bb d3 58 9d 3c 4a 36 fd 3b 4b 04 19 00
       -0.0063798735 0.019207394 0.007727419 2.297427e-39
0001b0 cb 1f 2c 00 62 d1 39 80 20 39 6f 30 67 25 6a 2b
       4.052167e-39 -5.309736e-39 8.7028873e-10 8.3185406e-13
0001c0 1d 20 08 2e 78 2f 61 31 98 da b8 bc 8b 52 e5 38
       3.0951342e-11 3.2768792e-09 -0.022565171 0.00010934946
0001d0 1c 7f 07 3b 6c 8f 8d 3c 98 4e 80 bc 5c 1f 00 bd
       0.0020675128 0.017280303 -0.015662476 -0.031279907
0001e0 24 8b 61 3b d3 1d dd bc 9a 83 f4 bb c2 cd 09 bd
       0.003441521 -0.02699176 -0.007461977 -0.03364349
0001f0 d2 30 07 bc e7 f5 b1 bc d9 b9 d6 bc 5b 95 96 3b
       -0.008251386 -0.0217237 -0.026211666 0.0045954413
000200 2b f2 35 bc a3 3e 91 bc db f1 7f bc 02 8c 1f bc
       -0.011105101 -0.017730063 -0.015621628 -0.00973797
000210 98 9f dc bc b8 4f 9a bc c6 c2 fe 39 a8 00 43 bc
       -0.026931569 -0.018836841 0.00048591773 -0.011902012
000220 05 a2 31 3c 6e f9 75 bc 7a 3c 1d bb c3 0a ad bb
       0.010841851 -0.015013082 -0.0023992346 -0.005280824
000230 c9 0a f1 bc d2 6d e5 bc 9d 86 e9 3b 13 1e 02 bd
       -0.029424088 -0.028006468 0.007126643 -0.031766962
000240 27 12 6e 3c b7 b0 3f bd 24 a5 f6 bc c5 43 96 bc
       0.014530695 -0.046799388 -0.030108042 -0.018342862
000250 30 df 98 bc 64 59 01 3c dd 04 1d bc 41 82 b6 bc
       -0.018661112 0.007894848 -0.009583679 -0.022278907
000260 c4 ac dd bc 5f dd 62 3b a8 cc 14 b9 78 36 ba 3b
       -0.02705992 0.003461681 -0.0001419062 0.0056827627
000270 03 b1 45 3c 52 80 d2 3c c2 57 09 bc 92 04 e9 3a
       0.012066129 0.025695954 -0.0083827395 0.0017777851
000280 dd ee 11 bb 64 45 85 bc 4e 79 9d bb 8b 77 2f 3b
       -0.0022267618 -0.01626844 -0.0048057204 0.0026774134
000290 7a 5e 0c 00 ca 81 46 00 b8 13 00 00 ae 08 00 00
       1.135918e-39 6.475044e-39 7.074e-42 3.114e-42
0002a0 0a b6 00 00 0a b6 00 00 d3 93 00 00 59 64 41 b7
       6.5303e-41 6.5303e-41 5.303e-41 -1.152706e-05
0002b0 c0 ed b6 b6 10 40 4e 35 60 f0 1a 37 a7 3f 09 b7
       -5.4517004e-06 7.6834203e-07 9.235082e-06 -8.180657e-06
0002c0 34 ee 2c b5 91 85 64 b5 c4 e3 54 b6 ce 0c 47 b7
       -6.4421624e-07 -8.5130984e-07 -3.1723039e-06 -1.1864306e-05
0002d0 9e 31 49 b7 63 4d c6 b7 ac 3f 83 b5 9f 0d e6 b6
       -1.1992086e-05 -2.3639475e-05 -9.778792e-07 -6.85612e-06
0002e0 65 85 94 b6 0d 7f e4 b6 f5 c9 86 b6 1d 2e c3 b6
       -4.426273e-06 -6.80972e-06 -4.017022e-06 -5.816821e-06
0002f0 30 33 8a 35 e1 f5 10 b7 67 1c 43 b6 47 3a 02 b5
       1.0296699e-06 -8.640317e-06 -2.9073797e-06 -4.851358e-07
000300 01 f3 43 36 55 1b 14 b4 a7 f9 29 b7 42 09 1f b4
       2.9198711e-06 -1.3793517e-07 -1.0131312e-05 -1.4811397e-07
000310 41 b1 b1 b4 3d 66 96 b6 fd 53 b9 b6 85 19 42 b7
       -3.3097788e-07 -4.4822505e-06 -5.523207e-06 -1.1569243e-05
000320 40 bb 38 b7 b5 5a ca b6 65 e1 57 35 c7 b1 5a b7
       -1.1010852e-05 -6.030629e-06 8.0421734e-07 -1.3035205e-05
000330 5d f7 41 b7 20 22 1d b4 16 bf b6 b5 76 17 08 b7
       -1.156129e-05 -1.4634179e-07 -1.361567e-06 -8.111694e-06
000340 1e 15 c4 b4 60 9f 77 b7 89 b2 cd b6 94 b2 c0 b6
       -3.652321e-07 -1.4759455e-05 -6.1302603e-06 -5.742835e-06
000350 24 88 5e b6 5c fd 8f b6 b1 e2 9a b6 f7 53 e4 b4
       -3.3159822e-06 -4.291227e-06 -4.615948e-06 -4.2529402e-07
000360 e0 06 67 b5 0c 9e 09 b4 bc 86 da b4 f2 c5 6a b5
       -8.606421e-07 -1.2816616e-07 -4.0703696e-07 -8.745984e-07
000370 a9 db 35 b0 fd 75 00 00 c9 af 00 00 55 62 ec 2e
       -6.615957e-10 4.2326e-41 6.306e-41 1.0749505e-10
000380 52 6c 04 2e ed f4 78 2c ec 91 91 30 62 98 fa b0
       3.0109533e-11 3.537888e-12 1.0591612e-09 -1.8233204e-09
000390 65 cb d0 b3 20 1d 30 b5 7f 3f 4a b3 88 a8 35 31
       -9.722752e-08 -6.560749e-07 -4.708954e-08 2.6434765e-09
0003a0 93 d3 8d 31 d0 ad 0a 30 a7 27 78 b4 85 cb 50 34
       4.1276933e-09 5.045111e-10 -2.3111225e-07 1.944555e-07
0003b0 ec 58 7f b2 1d ae 93 b4 25 06 c0 b2 9c c9 56 b3
       -1.4863172e-08 -2.7507568e-07 -2.2354536e-08 -5.000912e-08
0003c0 aa 62 a3 b2 1d 00 6b b4 25 1d 1b b4 2d 55 1f b3
       -1.9020565e-08 -2.1886122e-07 -1.4446103e-07 -3.709754e-08
0003d0 88 bc f4 b1 3f 58 11 af 0c 9f 8d b1 57 ea 2d b3
       -7.122768e-09 -1.3219024e-10 -4.1217216e-09 -4.0492832e-08
0003e0 24 8a 23 b4 90 8a af b2 95 09 6d b1 5e 82 88 b1
       -1.5230813e-07 -2.0435692e-08 -3.4493486e-09 -3.972942e-09
0003f0 54 80 f1 b3 91 50 01 b2 18 65 dc ae ed b0 54 b2
       -1.124578e-07 -7.527107e-09 -1.00223996e-10 -1.2380252e-08

fc1.bias f4 [64]
000000 ae b3 c1 b2 51 e2 5b bb 20 52 6d ba b4 e9 a4 99
       -2.2549866e-08 -0.0033551643 -0.000905307 -1.7051594e-23
000010 54 9d 1b 8c 18 7e ae ab 52 25 39 b0 f3 be ba b6
       -1.198811e-31 -1.2398442e-12 -6.7355643e-10 -5.5654614e-06
000020 3b 41 5c 92 21 bc 87 3b 3f e6 da ba 20 b2 1c b3
       -6.9500162e-28 0.0041422998 -0.0016700699 -3.6483584e-08
000030 9d 2d 25 01 e4 75 a7 af 65 18 ab b9 8d 97 9a 27
       3.033844e-38 -3.046089e-10 -0.00032633837 4.29079e-15
000040 ba 69 3f b1 5b d8 2c ab 13 76 05 3a 15 15 7c b4
       -2.7854257e-09 -6.140693e-13 0.0005091142 -2.3476998e-07
000050 ae d8 e6 ba c2 27 fd 02 17 34 14 b2 5a 46 0d b1
       -0.0017612183 3.7197829e-37 -8.626578e-09 -2.055819e-09
000060 35 d6 d6 b7 1b 80 bd b3 9a f5 88 bc b7 4b 00 80
       -2.5610536e-05 -8.8243006e-08 -0.016718674 -2.7161e-41
000070 e3 7c 00 80 ef 80 96 b3 16 35 26 b2 e4 4a 3d a6
       -4.4801e-41 -7.008372e-08 -9.674542e-09 -6.5674043e-16
000080 35 32 00 00 5b 72 00 00 2d 94 26 bb 95 60 8e 33
       1.8011e-41 4.1023e-41 -0.002541791 6.6299584e-08
000090 d0 f2 73 26 f1 47 9a ba e1 a5 33 9c b6 8e c3 ba
       8.4636633e-16 -0.0011770708 -5.9440525e-22 -0.001491985
0000a0 b7 65 fd 32 fd 3d 00 80 9c 8b bd be da d8 3f 90
       2.9499331e-08 -2.2237e-41 -0.37020576 -3.7835165e-29
0000b0 4d a1 8b bb c2 e5 31 ba 12 76 00 00 e1 ea 9e 0b
       -0.004261172 -0.0006786251 4.2356e-41 6.121279e-32
0000c0 bc 73 31 31 c2 43 4a ae 43 86 e9 85 fa ce d9 0d
       2.5822677e-09 -4.5989663e-11 -2.1960535e-35 1.3423485e-30
0000d0 61 13 85 ba 61 53 95 2b 1c d4 14 a2 8d 02 18 a4
       -0.001015287 1.0610229e-12 -2.017003e-18 -3.2961907e-17
0000e0 86 33 b9 b2 fd 5c 51 24 50 4f 6d 89 45 35 43 bb
       -2.1560265e-08 4.5398415e-17 -2.856513e-33 -0.002978639
0000f0 60 42 12 b8 04 13 91 11 39 5e 00 00 9f 22 1f aa
       -3.487093e-05 2.2888686e-28 3.3801e-41 -1.4134048e-13

fc2.weight f4 [64, 64]
000000 af c5 9f b3 d4 3c ce b9 d5 35 50 bc 2b dd 1d 39
       -7.439973e-08 -0.00039336702 -0.012708147 0.00015055078
000010 9d 39 66 31 58 ff 6a 3b 09 ea b1 3b 49 72 1b bc
       3.3502154e-09 0.0035857763 0.0054295105 -0.009487697
000020 21 23 d2 b8 80 8b de b4 9e 06 04 3d a4 92 11 3a
       -0.000100201236 -4.1452222e-07 0.032232873 0.0005553162
000030 ed 39 8c b7 3d 39 33 3b 99 3c ce bc 27 58 08 39
       -1.6716274e-05 0.002734735 -0.02517538 0.0001300281
000040 1f eb d7 b8 cb ea 93 34 ba bd 28 08 8c 11 2a 9b
       -0.000102957936 2.7551718e-07 5.0778684e-34 -1.406774e-22
000050 30 98 8a 3c b5 b6 2f 09 de 08 f5 b9 31 42 bd bb
       0.016918272 2.1150767e-33 -0.00046736648 -0.005775713
000060 77 fd ee a1 48 f6 e8 3a 33 03 a4 bc e1 46 50 2b
       -1.6194599e-18 0.0017773593 -0.020021057 7.399481e-13
000070 39 94 fb 2f 3c 12 ad b7 fc 4f 3f b5 07 87 7a 3b
       4.5761953e-10 -2.0631698e-05 -7.126944e-07 0.0038227455
000080 86 a6 43 34 8e 26 00 80 d2 4a 14 3d 32 e4 80 3a
       1.8221371e-07 -1.3831e-41 0.036204167 0.0009833633
000090 ec 31 8b bb b5 05 85 02 f9 13 35 39 85 33 fa 3b
       -0.0042478945 1.954587e-37 0.00017268946 0.007635536
0000a0 dc 67 9d bc e8 c3 19 2b 70 20 5b bc c4 93 c6 90
       -0.019214563 5.4628394e-13 -0.013374433 -7.83249e-29
0000b0 23 60 8d 3c 9e 4a 25 bc c7 6e a0 33 0f 58 3a 31
       0.017257756 -0.010088591 7.470731e-08 2.7116618e-09
0000c0 73 ae 82 b9 93 14 f8 bb 46 a5 00 00 0f e2 32 b3
       -0.00024925507 -0.007570812 5.9289e-41 -4.1649454e-08
0000d0 db 12 80 bc 3e 9d 08 38 ba 32 b1 36 62 f9 e8 b7
       -0.015633991 3.257137e-05 5.2809164e-06 -2.7772683e-05
0000e0 92 b2 c9 3b 78 31 93 38 09 37 86 35 66 ed 05 3d
       0.0061553204 7.0187205e-05 9.999795e-07 0.032697104
0000f0 fb 16 c9 bc e8 ff b7 36 c5 f8 c8 ae 11 56 31 37
       -0.02454709 5.4836164e-06 -9.1391374e-11 1.0570061e-05
000100 f9 64 00 00 f0 90 e3 1e ab 6c 00 80 d6 84 00 00
       3.6222e-41 2.4094505e-20 -3.8983e-41 4.7653e-41
000110 57 94 1e 2a 22 42 00 80 fd c4 00 00 18 c9 a3 a6
       1.4084685e-13 -2.3724e-41 7.0666e-41 -1.1364904e-15
000120 82 10 00 00 32 63 00 80 aa f0 28 2c d0 c1 cf b1
       5.922e-42 -3.5585e-41 2.4007831e-12 -6.046527e-09
000130 1b 77 a9 af 5d 81 fe b0 d8 0e 00 80 49 2a 00 00
       -3.082555e-10 -1.85177e-09 -5.325e-42 1.5169e-41
000140 88 2d 45 b5 aa 31 07 2f 68 9d 86 ab dc 17 d2 b1
       -7.3454476e-07 1.2295823e-10 -9.564962e-13 -6.114517e-09
000150 83 91 03 b3 c8 bf ea ac 24 bb df b1 73 a8 00 80
       -3.0633156e-08 -6.671972e-12 -6.5114296e-09 -6.0428e-41
000160 2b 1a 00 80 7a 1c 63 ae d6 8b df a0 e4 16 00 00
       -9.387e-42 -5.1639117e-11 -3.7870205e-19 8.212e-42
000170 24 65 f2 32 6e 9f 05 2e b5 5c 00 00 2f ad 00 00
       2.8218501e-08 3.03823e-11 3.3257e-41 6.2127e-41
000180 93 4d 00 00 13 b4 d1 b7 01 3d 00 00 0c ff 8c 37
       2.7828e-41 -2.4998595e-05 2.1884e-41 1.6808066e-05
000190 d2 86 16 38 b6 39 00 00 10 ab 00 00 04 72 5a 89
       3.5888348e-05 2.0703e-41 6.1366e-41 -2.6294405e-33
0001a0 bc 91 00 80 e0 c9 20 2e 93 48 95 b6 14 7e cf b1
       -5.228e-41 3.655909e-11 -4.448995e-06 -6.0388263e-09
0001b0 ee 22 e1 8a d8 74 95 21 0e 40 9f b1 be 1f 0a ad
       -2.1679851e-32 1.0127561e-18 -4.634791e-09 -7.85144e-12
0001c0 48 05 5a 30 13 02 00 80 68 11 e8 36 7d 14 00 00
       7.9315443e-10 -7.44e-43 6.916165e-06 7.35e-42
0001d0 a8 7e e1 36 6b 07 24 36 01 a4 b9 af 2a bc 00 80
       6.7202673e-06 2.4442222e-06 -3.3767836e-10 -6.75e-41
0001e0 8f 14 5f b3 a2 26 71 b2 a0 ef 86 30 fe 03 00 00
       -5.193993e-08 -1.403683e-08 9.817889e-10 1.432e-42
0001f0 6e 60 00 00 96 1f 00 00 69 25 95 ad bd a4 00 80
       3.4592e-41 1.1331e-41 -1.6955952e-11 -5.9097e-41
000200 20 5a 08 b3 95 ae db b7 29 15 00 80 8b 4e 00 80
       -3.1746936e-08 -2.618813e-05 -7.591e-42 -2.8176e-41
000210 41 2a 00 00 56 00 00 00 98 4f 00 00 f8 dc c5 38
       1.5158e-41 1.2e-43 2.8553e-41 9.434851e-05
000220 0a 80 00 00 e5 93 90 ab 16 ba db 2c 2c 9e 00 00
       4.5932e-41 -1.0272864e-12 6.245014e-12 5.6741e-41
000230 ab 23 00 00 49 40 00 80 7f 4a 00 80 e2 2d 05 b3
       1.2795e-41 -2.3061e-41 -2.6724e-41 -3.1008206e-08
000240 60 bc dc b6 c5 50 00 00 ca 6a 31 b2 b2 c7 df b3
       -6.5784407e-06 2.8975e-41 -1.0327037e-08 -1.0420571e-07
000250 dd 21 00 80 01 21 00 80 70 54 00 00 c0 8b 00 00
       -1.2148e-41 -1.184e-41 3.029e-41 5.0133e-41
000260 15 ff 5f b7 a4 f1 83 2f c0 a0 09 b7 83 42 00 80
       -1.3351227e-05 2.4000457e-10 -8.203264e-06 -2.386e-41
000270 80 a6 5c 35 9c a8 de b6 01 32 00 80 ae 92 3c 2c
       8.2198676e-07 -6.6357443e-06 -1.7938e-41 2.679783e-12
000280 de 1a 00 80 80 c2 00 00 50 e4 ee 2f 6f 2b 00 00
       -9.638e-42 6.9773e-41 4.3454174e-10 1.5581e-41
000290 dc 59 b0 b3 41 1a 00 00 d7 a2 33 32 6d b8 00 00
       -8.211984e-08 9.418e-42 1.0456197e-08 6.616e-41
0002a0 74 92 b7 af 26 8d 00 80 47 3c df bb d6 84 08 b3
       -3.3391567e-10 -5.0635e-41 -0.0068126055 -3.178578e-08
0002b0 0d 44 00 00 f0 99 b9 b3 a3 1c 00 00 ec 4d 17 b3
       2.4412e-41 -8.642735e-08 1.0273e-41 -3.5228297e-08
0002c0 f3 35 00 00 e0 10 00 80 61 24 0d 80 ec 17 00 31
       1.9353e-41 -6.054e-42 -1.206912e-39 1.864005e-09
0002d0 16 2c a8 31 a1 66 00 00 79 02 41 2d 81 13 00 00
       4.8944555e-09 3.6816e-41 1.0971329e-11 6.997e-42
0002e0 54 62 00 00 10 8d ce 33 d7 1c 00 80 ed 79 bb b3
       3.5273e-41 9.6182816e-08 -1.0346e-41 -8.730044e-08
0002f0 36 09 00 00 60 00 81 b8 d3 56 00 00 e6 32 00 80
       3.304e-42 -6.151269e-05 3.1147e-41 -1.8259e-41
000300 32 38 5b 2f 0d 6e a2 3c e3 fc a4 3a f2 46 11 b6
       1.9937899e-10 0.019827867 0.0012587573 -2.164798e-06
000310 27 a8 04 b2 8b 7a 67 39 3b d5 7a bb a5 99 32 3c
       -7.721645e-09 0.00022075528 -0.0038274068 0.0109008895
000320 5d 18 03 39 45 55 a8 bd 81 9a fd 3c 92 5b 24 3c
       0.0001250221 -0.08219389 0.030957462 0.010031598
000330 54 2f b2 b5 6d ee 71 3a f9 72 2e bc 80 7b 28 bc
       -1.3275808e-06 0.00092289486 -0.010647529 -0.010283351
000340 f3 8a 82 39 0b 62 09 bb ee dc 89 bb e1 12 30 ad
       0.00024899057 -0.002096298 -0.004207245 -1.0008634e-11
000350 02 38 18 3d 33 89 8b 07 b4 4c 4f 3b 06 a1 c0 3c
       0.03716279 2.0995034e-34 0.0031631412 0.023514282
000360 4a 4c 9b b1 6e 85 e5 ba 4e ce 48 3d 86 8f ff 2a
       -4.519767e-09 -0.0017511079 0.049024872 4.539669e-13
000370 c2 2d 00 00 c1 a5 a5 bc b5 03 41 30 7a 8a 0f bb
       1.6415e-41 -0.02022064 7.021826e-10 -0.0021902607
000380 b0 ac 4a b7 b4 d4 34 9b 6e 1e 8d 3d 95 55 e7 ba
       -1.2080345e-05 -1.4957979e-22 0.068905696 -0.0017649407
000390 52 bc d3 36 c7 5b e9 37 d7 a2 07 3b 77 1d a3 bc
       6.3102134e-06 2.7818502e-05 0.0020696425 -0.01991151
0003a0 6d f2 26 ba bc 16 54 2b 82 43 cb 3d 46 80 68 90
       -0.0006368522 7.534908e-13 0.099249855 -4.585275e-29
0003b0 99 2e 0f 3c 9a 37 ea 3d d1 f3 b6 a9 f8 b8 02 2e
       0.008739137 0.114363864 -8.124719e-14 2.9722863e-11
0003c0 df 50 8b bc b5 4a 4c 3a e6 ab 00 80 97 50 9d b7
       -0.017006336 0.00077931146 -6.1666e-41 -1.8753386e-05
0003d0 79 c3 b1 3b 4c 3c 84 bb a1 51 20 b7 81 c3 3b b7
       0.0054249135 -0.0040355083 -9.555749e-06 -1.1191588e-05
0003e0 57 fd 38 bb 13 c1 05 b9 c6 fd 85 af 33 97 8e 3c
       -0.0028227174 -0.00012755794 -2.4372876e-10 0.017406082
0003f0 72 71 0e 39 2a 9a c0 b8 12 ba 16 36 88 d3 a8 39
       0.00013584437 -9.183989e-05 2.246005e-06 0.0003220106

fc2.bias f4 [64]
000000 6d 22 03 3d 52 32 db 22 78 de 95 b8 a9 87 78 3d
       0.032015253 5.9413348e-18 -7.146312e-05 0.06067625
000010 1f 13 91 bd 25 04 ce 3d 5b eb 31 3e fd 85 8e b5
       -0.07083725 0.10059384 0.17374937 -1.061882e-06
000020 4a d9 11 25 fc 79 4a b8 f3 74 da bd f6 a4 00 00
       1.2650366e-16 -4.827416e-05 -0.106668375 5.9177e-41
000030 58 1e 0f 3f 13 c9 fe 3e 5c 32 6d 90 fd 56 08 3f
       0.55905676 0.49762782 -4.6778804e-29 0.53257734
000040 93 66 15 3c 54 5b d8 b7 d5 57 87 3d 83 82 11 3e
       0.009118694 -2.5791735e-05 0.066085495 0.14209943
000050 be 5c 0c 3f 73 7a e6 ad 9c 18 81 3b ea 51 00 80
       0.54829013 -2.6202351e-11 0.0039397012 -2.9385e-41
000060 65 db cf 2c c7 87 0f 00 f3 b7 0c 3f 9e 6e 74 b8
       5.9076515e-12 1.42624e-39 0.54968184 -5.8277154e-05
000070 43 4b 33 be 14 19 80 bc 6e 93 83 3d 4c 1b 06 3d
       -0.17509179 -0.015636958 0.06424604 0.032740876
000080 46 d1 74 8a 15 c4 2d 8d 87 53 00 00 43 8d 90 bd
       -1.17875326e-32 -5.3545766e-31 2.9964e-41 -0.070581935
000090 e4 7f 00 80 07 bf 8a 39 9b e5 60 24 02 a5 8d ba
       -4.5879e-41 0.00026463738 4.876674e-17 -0.0010806622
0000a0 6f 01 06 3f 58 60 83 39 6c 78 4e 3c 36 de 7f a4
       0.5234594 0.0002505805 0.012601953 -5.548253e-17
0000b0 ab e7 a4 bb 3b 14 99 3d 5f 78 ea b3 61 7a b9 3c
       -0.0050325 0.07474562 -1.09183695e-07 0.022641363
0000c0 b4 20 a5 27 0e 18 c3 3a e4 38 8b bd 11 1e dc a9
       4.5832157e-15 0.0014884488 -0.067979604 -9.775178e-14
0000d0 84 ea f9 3e bf 70 00 bc 0c be fb b5 8d 31 b7 3e
       0.48811734 -0.007839381 -1.8756268e-06 0.35779992
0000e0 0e 17 b5 3d bb 21 9f b8 f8 27 33 3d a4 2e 7e 3c
       0.08842288 -7.5879936e-05 0.04373929 0.01551405
0000f0 ee ba 9c b2 d4 06 22 bb 25 12 0c a1 0c cb 96 3d
       -1.8245796e-08 -0.0024723308 -4.745786e-19 0.07362947

fc3.weight f4 [16, 64]
000000 ee cf 8b 3d 50 38 22 b5 2c db dc b9 70 d9 b1 3d
       0.06826769 -6.043165e-07 -0.00042124966 0.08684051
000010 49 72 c2 bc 7d 6d 51 3c 2b 00 cd bb 06 39 65 3b
       -0.023736136 0.012782452 -0.0062561235 0.0034976616
000020 99 ff 07 b4 18 99 13 bc 1e db 4b bd 69 fc 48 ad
       -1.266584e-07 -0.009008668 -0.049769513 -1.142473e-11
000030 04 8b 26 3e 8f ba 2b 3e 5e 9b 18 98 23 37 5c 3e
       0.16263968 0.16770385 -1.972398e-24 0.21505408
000040 ca 37 4f bc 0d 4c e5 ba d9 dc 4f 3c 05 d2 90 3c
       -0.0126475785 -0.0017493978 0.0126869315 0.01767827
000050 81 83 4d 3e 55 4d de 36 3b b3 aa bd e9 e2 c2 a1
       0.20069696 6.625118e-06 -0.08334967 -1.3206014e-18
000060 eb 3d 3a ac e8 74 35 a2 a9 a7 23 3e ff ce 09 bb
       -2.6466561e-12 -2.4591964e-18 0.15981926 -0.002102792
000070 7b 65 22 bd 85 4c c7 3c 4a c7 73 3c 23 90 b9 3c
       -0.03964756 0.02432848 0.014879057 0.022651738
000080 c3 a9 84 ab 3b 59 38 ae 71 39 93 1b c7 92 c3 bc
       -9.426282e-13 -4.191601e-11 2.435623e-22 -0.0238737
000090 d0 08 00 80 e5 82 52 3a a4 11 d9 23 49 71 b8 37
       -3.161e-42 0.0008030369 2.3534658e-17 2.1987262e-05
0000a0 5c e4 3b 3e 2f 3e 0c b8 6f 0d 05 bd 1c 0c fa a6
       0.18348831 -3.3436514e-05 -0.032483514 -1.7350517e-15
0000b0 91 1b 5d 3c 49 d8 7c 3c 9f dd 10 38 74 c8 43 bd
       0.013495342 0.015432426 3.4538676e-05 -0.04779859
0000c0 a9 e6 eb af 38 f5 db 3b 44 95 09 bb 3e c2 2b 29
       -4.2910145e-10 0.006712582 -0.002099351 3.8138106e-14
0000d0 43 89 22 3e 79 53 81 bc 2d 2b b4 37 96 3f c1 3d
       0.15872674 -0.015786873 2.1477777e-05 0.09435956
0000e0 03 1e c9 bc 46 78 ab 35 66 f7 1e bc 1c 04 42 bd
       -0.024550444 1.2775497e-06 -0.009702539 -0.0473672
0000f0 e5 d3 aa b8 c9 71 52 3c ac a2 f0 1f 75 a9 f3 3c
       -8.1457e-05 0.012844511 1.0191307e-19 0.02974389
000100 55 00 64 3b 72 20 92 a2 61 12 af b6 0a dc a3 3c
       0.0034790237 -3.9607732e-18 -5.217546e-06 0.020002384
000110 0e 9d 94 3c e8 78 4f bc da d4 20 3d 72 df ca a5
       0.018141296 -0.012663104 0.03926549 -3.5192827e-16
000120 48 5e 23 b4 ed 5e 34 bc 05 18 1c bc 7b 16 b2 0c
       -1.5214857e-07 -0.01100896 -0.009527211 2.7438772e-31
000130 f8 dd 86 3d db f4 1c 3e 26 07 13 0c 8b 52 16 3d
       0.06585306 0.1532778 1.1326619e-31 0.036699813
000140 0c 27 8a bd 81 00 46 39 bd d1 23 3d a2 08 0f 3d
       -0.06745729 0.00018882939 0.039994944 0.034920342
000150 93 85 22 3d 58 c5 8a 14 c3 4b 15 be 54 4c 82 ab
       0.039678168 1.4012277e-26 -0.14579682 -9.258241e-13
000160 cf 4e c5 ac 49 8f 9e 02 52 03 f0 3d 49 55 47 bb
       -5.6078263e-12 2.3298255e-37 0.11719383 -0.0030415824
000170 fb de 68 bd 1c 7b ec bc 24 f7 69 3d 0a 14 84 3d
       -0.056853276 -0.028867297 0.057120457 0.06449135
000180 6e ed 41 93 60 41 77 8e 27 3c 3b 9d 9f 5a c3 bd
       -2.4477087e-27 -3.0476577e-30 -2.4780342e-21 -0.09538769
000190 b2 43 00 00 5b cb 9a 39 fd ef 0e a3 a5 c8 b5 b3
       2.4285e-41 0.0002952468 -7.748655e-18 -8.464966e-08
0001a0 ba 70 c0 3d d6 c5 92 b9 e9 3c ae bd 2a 0e bb a2
       0.09396501 -0.0002799469 -0.085077114 -5.070145e-18
0001b0 8f fe c3 bb ea 63 ea 3b 21 0c 1d b6 80 36 b6 bb
       -0.0059812735 0.007153024 -2.3401883e-06 -0.005560696
0001c0 7a 0a 99 21 a8 b8 ea 3b 29 a8 2b 3d 54 ac f1 8c
       1.0370456e-18 0.007163126 0.041908417 -3.7235646e-31
0001d0 32 93 31 3d 18 d3 e5 bb 91 d2 43 b7 42 ee f1 3d
       0.043353267 -0.0070136897 -1.1671932e-05 0.11813022
0001e0 38 2a c2 3c 46 81 66 af 39 4d 98 bd 86 1d cb bb
       0.023701772 -2.0964305e-10 -0.07436604 -0.006198588
0001f0 f8 e6 ff b6 74 d4 3e bc 17 f4 65 a0 5b ed 91 3d
       -7.6264805e-06 -0.011647332 -1.9477817e-19 0.0712535
000200 17 0e 03 ba 2e b4 71 a3 c9 50 de b8 70 91 26 bd
       -0.0004999353 -1.3102791e-17 -0.00010600832 -0.040666044
000210 3e c3 29 bd 27 cc 95 3d dc 1c 61 3d 50 d6 b6 a1
       -0.041445963 0.073143296 0.054959163 -1.2389528e-18
000220 68 78 af b1 0c ca a2 b9 f9 23 8f bd ba 80 72 a1
       -5.106859e-09 -0.00031049585 -0.06989283 -8.216316e-19
000230 7f d2 7b 3e 7d 6e 4b 3e e5 71 1a 93 89 75 4b 3e
       0.24592017 0.19866367 -1.9493687e-27 0.19869055
000240 e3 41 9b bc 99 a6 87 b9 c1 6f 16 3d ea 68 14 3d
       -0.018952316 -0.00025873331 0.03672767 0.036232866
000250 ff 70 63 3e 1f 09 c7 11 f2 27 11 3d 47 4a 06 9d
       0.22211073 3.1402285e-28 0.035438485 -1.7773153e-21
000260 55 98 60 2b 4b 2f 2e 13 07 e1 6b 3e 10 a9 cd bb
       7.979219e-13 2.1985205e-27 0.2303506 -0.0062762573
000270 23 2b e9 bd 16 44 69 bb 0a 7a e4 3a 13 62 57 3c
       -0.11385181 -0.003559356 0.001743139 0.013145941
000280 2d 6b 2d 00 19 a5 f9 a2 37 69 6f 95 30 47 59 be
       4.171045e-39 -6.766639e-18 -4.8348666e-26 -0.21218562
000290 ac fa 00 00 8b 89 82 3a dc ea 9c a3 3b 03 4a b8
       8.9924e-41 0.0009959204 -1.701302e-17 -4.816356e-05
0002a0 bd 69 62 3e 74 e0 49 38 b2 31 21 bc c9 5e b5 24
       0.22110648 4.8131173e-05 -0.009838508 7.865681e-17
0002b0 cb 44 20 bd 89 a3 08 bd fb 4f 99 b7 1f 2d 18 bd
       -0.039128106 -0.033359084 -1.8276265e-05 -0.037152406
0002c0 92 91 b3 22 09 6e c0 3c a3 77 2b 3a 89 4b c1 8d
       4.8672176e-18 0.023489969 0.00065409596 -1.1912728e-30
0002d0 81 83 23 3e 17 6c 42 bc 21 26 5c b6 d4 ca b7 3d
       0.15968134 -0.011866591 -3.2804749e-06 0.08974233
0002e0 90 8b 86 3c 8f b2 a3 b7 27 1e e1 bc e8 12 fc 3c
       0.01642397 -1.9514262e-05 -0.027480198 0.030770734
0002f0 bb 57 bc b7 2d c7 00 bd 22 05 4f 30 9d 69 af bd
       -2.24522e-05 -0.03143995 7.5313455e-10 -0.08565066
000300 53 f8 88 bc 9d f6 88 a9 47 ff 48 39 48 6d cd 3b
       -0.016719973 -6.082394e-14 0.00019168585 0.006269131
000310 84 c2 44 bc 84 ed 6c bd ed 53 1c 3d 3b fb 34 26
       -0.012009267 -0.0578437 0.038165975 6.2790526e-16
000320 0c 62 ec 34 f2 08 8c 38 be 3f 87 bd c9 81 28 36
       4.4029764e-07 6.6773864e-05 -0.06603955 2.5109496e-06
000330 79 1a 8f 3e 0a c6 0a 3e 28 ee 51 0a aa 2c 59 3e
       0.27949885 0.13552108 1.0107776e-32 0.21208444
000340 a9 e7 18 3d ea 65 ac b7 54 68 95 bc 65 94 ad bb
       0.037330303 -2.0551455e-05 -0.018238224 -0.005297231
000350 cc e6 71 3e 5e 2f 10 36 8e f2 15 bd 27 df 18 2d
       0.23623198 2.1485243e-06 -0.03660827 8.6897494e-12
000360 50 50 27 ac bc 18 63 37 1f 3a 46 3e 3b e9 23 3b
       -2.377671e-12 1.3536013e-05 0.19358109 0.0025010842
000370 2e c3 0f be 10 60 0e bd 4b c1 66 3c 8c 68 89 bd
       -0.14039299 -0.03475958 0.014084171 -0.06709394
000380 26 e6 8d a8 dc 4e 14 1e 2b 57 19 8b cb 7a a0 bd
       -1.5753956e-14 7.8513625e-21 -2.9532306e-32 -0.07835921
000390 ff 58 00 80 e1 26 ef b9 ea 5f ea 24 32 53 9c b8
       -3.1926e-41 -0.000456146 1.0164381e-16 -7.454156e-05
0003a0 86 20 13 3e 01 b4 9d b7 bc d7 10 bd c9 79 89 24
       0.14367875 -1.879968e-05 -0.03536199 5.962059e-17
0003b0 ff 29 80 bc 47 73 19 3d 23 9f 00 36 45 40 dc 3c
       -0.015645025 0.037463453 1.9166116e-06 0.026886115
0003c0 ae c8 8c 22 69 a1 41 3c e7 c5 80 bd e8 3e 8f 0a
       3.8159554e-18 0.011818268 -0.06287747 1.3794062e-32
0003d0 44 e9 5a 3e 8d 71 b0 bd 60 0e e0 b4 11 02 d7 3d
       0.21378046 -0.08615408 -4.173371e-07 0.10498441
0003e0 9f bf 1c bd ca 35 50 b4 5e 00 4e bd 87 50 1b 3b
       -0.03826868 -1.9391078e-07 -0.05029332 0.002369912
0003f0 2e 3f 12 36 17 f5 e4 3b 52 93 ec 20 7e e2 3f 3d
       2.179247e-06 0.006987225 4.0077444e-19 0.04684686

fc3.bias f4 [16]
000000 54 07 30 3f 03 86 63 3e a5 ac 29 3f f9 0a 1c 3f
       0.6876118 0.2221909 0.6627906 0.6095424
000010 cb 2e 30 be 65 4a 93 be 35 83 2f 3f d4 5c 2b bd
       -0.1720535 -0.28767696 0.6855958 -0.041836575
000020 97 38 5a be f3 2a 0b be ee 37 a7 be 96 20 7f be
       -0.2131065 -0.13590603 -0.32659858 -0.24914774
000030 a6 3d b2 be 5e a9 d0 be a9 cb e7 be 14 b7 df be
       -0.3481266 -0.40754217 -0.45272568 -0.43694365
